homework1/lightning_logs/version_5/checkpoints/epoch=99-step=900.ckpt (torch, 22040 bytes, 18 tensors)

network.0.weight f4 [32, 13]
000000 d1 74 85 be 7d 89 e9 be ae 74 a4 be 34 0c 9c 3d
       -0.26065686 -0.45612708 -0.3212027 0.07619515
000010 44 8f 94 3e 85 2d 58 3e 68 5f 0f 3e f6 98 ec bd
       0.29015553 0.21111114 0.14001238 -0.115526125
000020 2d af 60 be dd 2c e4 be 87 b0 d0 3e 47 43 82 3e
       -0.21941824 -0.44565478 0.4075968 0.25441954
000030 d9 75 a2 3d 76 44 d4 be 77 c9 7b be bf 87 25 be
       0.07932634 -0.41458482 -0.24588571 -0.16165064
000040 71 2b 04 3d 03 bf c6 be 87 37 6f be cf be 16 bd
       0.03226799 -0.38817605 -0.23361026 -0.036803063
000050 f8 db d9 3e 83 93 bf 3d 56 a9 ca be 86 5f 00 bc
       0.42550635 0.093543075 -0.39582318 -0.007835275
000060 4c 26 80 3d 2a 77 21 be 93 67 9d 3e 64 30 12 3e
       0.062573045 -0.15768114 0.30743083 0.14276272
000070 65 49 ab 3e ff 4a ec be 94 bc 11 3e f0 c7 95 3e
       0.33454433 -0.46150967 0.14232093 0.29254103
000080 2f db 3e 3e ff 7f 29 be ff b5 20 3e 75 4e 66 3e
       0.186383 -0.16552733 0.15694426 0.22490866
000090 78 47 f3 bc 1e aa 12 bd 43 75 ce 3d f3 be c3 3d
       -0.029697165 -0.035806768 0.1008096 0.09557905
0000a0 3d 81 0f bd 0d 0b a6 3e 55 cb 53 bc 39 76 53 3e
       -0.03503536 0.32430306 -0.012926896 0.20650567
0000b0 01 29 90 bc 8b 88 c9 3e 29 4d 8a be dd 81 09 be
       -0.017597677 0.39361987 -0.27011994 -0.13428445
0000c0 3e ca 49 3d 58 36 20 3d 28 cb 51 3e 76 ca 9e 3e
       0.04926514 0.039114326 0.20487654 0.3101384
0000d0 68 96 c6 be c5 67 ff bd 9e e3 7d be 09 e4 f3 bc
       -0.38786626 -0.12470964 -0.2479386 -0.029771822
0000e0 96 d6 89 3c 86 e5 3a 3c 9f ee 4d be 59 1e 68 be
       0.016825955 0.011407262 -0.20110558 -0.22667827
0000f0 b6 ae 2a 3d 1d 88 76 be a1 63 0b bd ed 59 ad bd
       0.041670524 -0.2407536 -0.03403056 -0.084644176
000100 7c 3b 79 be a3 f2 6a be 78 74 30 3e 56 47 9b be
       -0.24339098 -0.22944121 0.1723193 -0.30327863
000110 77 35 c7 3e 3f de 92 3c 3c c0 ac be a5 5c e2 3d
       0.38907978 0.01792824 -0.33740413 0.11052827
000120 ec 12 7e 3c a4 6d bc 3e 4b f5 31 be ee 83 6b 3e
       0.015507441 0.368024 -0.17378728 0.22999546
000130 da 2c 70 3e e3 74 0c bf 4c 7d d1 be 6c df ea be
       0.2345461 -0.54865855 -0.40915906 -0.45873582
000140 74 7a 8c be 98 0b a0 3b 5b e6 9e 3e 82 c7 61 bd
       -0.27437174 0.0048841946 0.31035122 -0.055121906
000150 c7 2b d8 bd 9a 32 04 be 23 f6 b3 be 8a 3b 2c be
       -0.10555225 -0.12909928 -0.35148725 -0.16819587
000160 f2 1d f0 3e 6d e1 4a 3e 2c 4f 7c be d6 9c 88 3c
       0.46897846 0.19812556 -0.24639577 0.016676348
000170 4c 23 fd bc 5b 5b 7a 3e 05 44 a6 3c d6 b4 3a 3e
       -0.03090062 0.24448912 0.020296106 0.18233046
000180 c8 86 e6 bd 61 03 a0 be 2f 47 96 3e e3 7a c1 be
       -0.11256176 -0.31252578 0.29351184 -0.37789068
000190 3e 6a f2 3e d6 c6 dd be 50 1c 33 bd 7f 10 c2 bc
       0.4734668 -0.43315762 -0.043728173 -0.023689507
0001a0 ba 6b 23 3e 3e f0 2f 3e d3 00 c4 3e da aa 87 bd
       0.15959063 0.17181489 0.3828188 -0.06624384
0001b0 71 50 87 3d e4 a1 b3 be 39 e7 91 be ac e6 93 bd
       0.0660714 -0.3508445 -0.2849672 -0.072217315
0001c0 a0 0e 94 be 8e 8f 79 3e f5 7e 3d be 80 93 7c be
       -0.28917408 0.24371168 -0.18505462 -0.24665642
0001d0 80 2d 61 be a3 ee 21 3e f2 e5 74 3e 84 7a 2a 3e
       -0.21990013 0.15813689 0.23915842 0.16648299
0001e0 78 97 38 3e b0 83 a2 3e 2a 00 00 be 4f 68 e6 be
       0.1802653 0.31741095 -0.12500063 -0.45001456
0001f0 cb cc 06 be a3 7c 6e be 0b 55 37 3e df 67 30 3c
       -0.1316406 -0.23289733 0.17903535 0.010766952
000200 10 12 89 bd 96 b1 16 3e 13 0f ec 3d 56 42 c7 be
       -0.06692898 0.14716181 0.11526313 -0.38917798
000210 ef 26 9a be b8 6a 77 3c 43 f0 ae be 8c 9b 58 bd
       -0.3010783 0.015101127 -0.3416768 -0.052882716
000220 b2 dd dc 3d b6 1c 91 be c0 09 77 3e ec 6d fa bc
       0.107844725 -0.28342217 0.24124813 -0.030569993
000230 cf ae c4 bd 19 f4 3b 3d d9 bf cb 3e 5e 37 c8 bc
       -0.096036546 0.045887087 0.39794806 -0.024440464
000240 98 e3 32 3e ed 68 a3 3d 9c 9b 62 bc be e6 d2 bd
       0.17469633 0.079789974 -0.0138310455 -0.10297917
000250 a7 51 70 be 11 12 a9 be a1 16 f1 3d c7 8c f2 bd
       -0.23468648 -0.33021596 0.11771894 -0.118432574
000260 26 ba 83 3e 5b 9f 92 be d6 8f cd be 94 6a 42 3e
       0.25727957 -0.28637204 -0.401488 0.18985969
000270 c6 bd e4 bd 9d 3b 71 3e 98 ae c9 3e c8 bb dd be
       -0.11169009 0.23557897 0.39391017 -0.43307328
000280 b4 1b 32 3e e0 f1 88 bd 69 cf 22 3e 71 01 21 3e
       0.1739338 -0.06686759 0.15899433 0.15723206
000290 4b ad 8a 3e 47 fb 3a bd 67 2a eb 3d 99 66 c0 3e
       0.27085337 -0.045649793 0.11482697 0.37578276
0002a0 50 61 2a 3e 0f 5e 9f 3e 0c 89 73 be a2 47 65 3e
       0.16638684 0.3112645 -0.23782748 0.22390607
0002b0 a4 6f 06 be 1f 98 c2 3c 7a b3 58 3e 2f ab 8d 3d
       -0.13128525 0.023754178 0.21162215 0.06917416
0002c0 1e b3 70 be 5b c9 1f 3e 59 83 fb 3d a7 04 37 3e
       -0.23505828 0.15604155 0.12280912 0.17872868
0002d0 bb f5 7c 3d c0 8c a2 3d 96 ad 88 3e 95 73 e8 bc
       0.061757784 0.07937002 0.26694936 -0.028375426
0002e0 03 a8 be 3e 1f e2 cd be d8 0d e4 3c 1b 02 62 bc
       0.37237558 -0.4021158 0.027838632 -0.013794447
0002f0 38 ff 78 3e 6f 98 05 be b2 d6 d3 bd c1 89 c0 be
       0.24316108 -0.1304643 -0.10343684 -0.37605098
000300 a5 ee 9c 3d fc c0 0c 3e 07 bd 42 3e 8d a7 da be
       0.07662705 0.13745493 0.1901742 -0.42705956
000310 62 30 fe bd 7d 11 7c bd ed 7b a8 3e 7c d2 ef be
       -0.12411572 -0.061540116 0.32907048 -0.46840274
000320 17 48 31 3e 45 ef bc 3e 03 27 05 3e d7 3e 68 be
       0.17312656 0.36901298 0.13003163 -0.22680221
000330 87 cf 37 be d8 86 b4 bd f8 33 30 be 4d a0 d1 be
       -0.17950259 -0.08814782 -0.17207325 -0.40942612
000340 a3 84 90 3e 74 be a0 bd 5b 7d 91 3e 43 c5 1b be
       0.28226194 -0.07848826 0.2841595 -0.15211968
000350 29 d9 6a 3e a2 e2 38 be 9f c6 f4 3d 29 a2 89 be
       0.22934403 -0.18055204 0.119519465 -0.2688153
000360 5f 97 eb bd ba b3 d1 3d 34 71 c0 be 05 de cf be
       -0.11503481 0.10239358 -0.37586367 -0.40599075
000370 e9 a5 21 3e 32 7a 00 3f 84 45 2c be c9 c7 31 3e
       0.15785946 0.50186455 -0.16823393 0.17361368
000380 fe c7 6f be dc 3f 0a 3e b5 47 17 3c ae 8c 64 3e
       -0.23416135 0.13500923 0.009233405 0.2231929
000390 6a e2 05 be 3a 03 5a bd b6 df 72 3e 60 67 8e bd
       -0.13074651 -0.053225733 0.23718151 -0.06953311
0003a0 37 a8 9f 3e 69 a1 fb 3e 1b 1f c0 3e 14 bb d8 3d
       0.31183025 0.49146584 0.37523732 0.10582557
0003b0 cb fe 90 3e 99 66 46 be 9f 30 9a bd d0 b2 76 bd
       0.28319392 -0.19375075 -0.07528805 -0.060229123
0003c0 64 4f 32 3e 61 aa 28 be 95 ba af 3d e4 2b 28 be
       0.17413098 -0.16471244 0.085805096 -0.16422993
0003d0 ef 43 42 3e c3 3f 6b 3e 3a 6b 9f 3e 54 ee a9 bd
       0.18971227 0.22973542 0.31136495 -0.082974106
0003e0 51 70 1a 3e c0 86 61 3e 34 5c ba 3d 5b 20 92 3e
       0.15081908 0.2202406 0.090996176 0.2854031
0003f0 c4 ab 53 ba 53 19 a0 bd 01 6b 42 be d0 94 46 3e
       -0.00080746063 -0.0781733 -0.18986131 0.19392705

network.0.bias f4 [32]
000000 4d e3 bf 3e 89 31 10 3e 98 81 b2 3e 68 67 c3 3e
       0.37478104 0.14081396 0.34864497 0.3816483
000010 ed 09 16 3e ed b0 9e 3e 2b e8 4b 3d 79 9e 61 bd
       0.14652224 0.3099436 0.04978196 -0.055082772
000020 03 c1 90 3c fd 64 d6 bd 93 35 ca 3d 4d 6d 3f 3e
       0.01767016 -0.10468481 0.098735 0.18694039
000030 54 63 98 3e 8d 41 1f 3d 3a cd 13 be 39 27 a3 3e
       0.2976328 0.038880873 -0.14433756 0.31865862
000040 8f cd f7 3e 47 e5 5f 3c 19 58 72 3d 41 a3 82 be
       0.48399016 0.013665504 0.059166048 -0.25515178
000050 fe ae 3c 3e 60 8c d3 3d 5c d0 13 bd 65 36 93 3e
       0.18426129 0.10329509 -0.03608738 0.28752437
000060 f8 64 f4 3c 49 c9 1b 3e a3 1f 57 3d 4d 1d 97 3e
       0.029833302 0.15213503 0.052520406 0.29514542
000070 ef 18 e8 3e 78 d7 6a 3c e6 eb 74 be 35 d2 e8 ba
       0.45331523 0.014333598 -0.23918113 -0.0017762842

network.2.weight f4 [16, 32]
000000 3a 66 10 be bc da 18 bc 2d 65 d8 bd 45 de a2 3d
       -0.14101496 -0.009329494 -0.10566173 0.07952551
000010 3d c0 13 3e 07 48 9e be b2 3c d6 bc 00 68 b6 3e
       0.14428802 -0.30914328 -0.026151989 0.3562622
000020 63 b1 9b 3e ff 28 8e 3e 11 8b 1c be a2 0e ca 3d
       0.30408773 0.27765653 -0.15287425 0.09866072
000030 86 73 81 be 4c e9 04 3e e7 6b b3 3d 26 af 28 bd
       -0.2528345 0.1297962 0.08760815 -0.04118266
000040 bc ee 62 3e 25 27 ae 3c aa 6e 98 3d 40 2d cc 3d
       0.22161382 0.0212589 0.074429825 0.09969568
000050 d2 35 bd bd c8 5b 7d be b1 87 01 be 6e bb 66 3e
       -0.09238781 -0.24742043 -0.12649418 0.22532436
000060 fa 4c e4 3c 9f 01 cd bd ec cf a4 be 7d cd 98 3d
       0.027868737 -0.10010075 -0.32189882 0.07461069
000070 2d ef 3a 3e 07 d7 10 be 6d 89 05 3e 96 fd c5 3d
       0.18255301 -0.14144526 0.13040705 0.09667508
000080 3d fa 36 3d 24 30 fe bd 5d a4 2d be 40 bf d5 bd
       0.04467224 -0.12411526 -0.16957231 -0.10436869
000090 89 26 0c be 8d d9 9a bd cd 34 49 be cf 34 a0 bd
       -0.13686575 -0.07561026 -0.19649048 -0.078225724
0000a0 9d 5a e7 3d 17 57 a4 bd 5c 6f 78 bd 7a 50 5e bd
       0.1129658 -0.080244236 -0.060653076 -0.054275967
0000b0 73 ca 1a 3d 62 f4 ef bd 07 57 6a 3c 2b e0 03 3e
       0.037790727 -0.11716534 0.0143029755 0.12878482
0000c0 50 90 44 3d 0c 02 bc 3d 89 a0 55 bc 8b 60 5c 3d
       0.04798919 0.09180078 -0.013038763 0.053803008
0000d0 c2 54 1a be 9b b6 d6 bd 5c 43 da bd aa 79 6f bd
       -0.15071395 -0.10484048 -0.10657379 -0.058465637
0000e0 f6 c5 8d 3d 43 56 34 bd b3 28 bf 3c 24 7e 57 3c
       0.06922524 -0.044027578 0.023334837 0.013152633
0000f0 35 90 00 3d d9 d0 c8 bd 23 33 2c 3d 64 ea e5 3d
       0.031387527 -0.098054595 0.042040955 0.11226347
000100 da ef 5b be 15 75 27 be 1a 4f 9c 3d d6 a0 61 3d
       -0.21478215 -0.16353257 0.07632275 0.055085026
000110 c5 d2 86 3e 92 4a 6d bd f0 99 a0 be 02 f5 d0 3e
       0.2633268 -0.057932444 -0.31367445 0.40811926
000120 42 fb cb 3e 1e c2 aa 3e c8 fc aa 3d 79 cd 03 3e
       0.39840132 0.33351225 0.083489954 0.1287135
000130 39 6c 39 be 56 6a 2f bd 4d 61 2e be 62 14 40 bd
       -0.1810769 -0.04282602 -0.17029305 -0.04689444
000140 f5 63 8b 3e d0 48 15 3e ef 29 09 be ef 26 8f 3c
       0.272247 0.14578557 -0.13394903 0.01747462
000150 5b 70 62 3d f0 24 b5 bd ff d7 88 be 73 cd 96 3e
       0.05528293 -0.08844936 -0.26727292 0.2945362
000160 a2 a1 65 be 2c 85 1d be 62 83 87 bd 21 d8 f6 bd
       -0.2242494 -0.15382832 -0.06616856 -0.12052942
000170 8f b4 90 3e a5 dd c7 be b7 68 ab 3d b1 74 88 3d
       0.28262755 -0.3903629 0.08369582 0.06662882
000180 92 7a 36 3e 5c 82 9c bd e3 c3 a6 3e 2c b5 61 3e
       0.17820194 -0.076420516 0.32571325 0.22041768
000190 32 c6 55 be c8 eb 83 be 4a 7a 4c bd b4 fe 58 3c
       -0.20876387 -0.25765824 -0.04992131 0.01324432
0001a0 af 85 02 bd a0 4e 42 3d fb 61 c6 3d 26 b0 02 bd
       -0.03186577 0.047438264 0.09686657 -0.03190627
0001b0 7e f3 6e 3e ef 63 8c 3e cb cf cb 3d ed d2 7e be
       0.23335072 0.27419993 0.09951743 -0.2488515
0001c0 49 cf dc 3d b4 82 72 3e d2 bc fd 3d cf 6d 43 3e
       0.10781724 0.23682672 0.1238953 0.19084857
0001d0 eb 82 01 be b2 02 a6 3d 23 73 33 be 7d 88 6d be
       -0.12647597 0.08105983 -0.1752439 -0.23196597
0001e0 2a a3 0e 3e d5 bd 84 3d 6a 6a 0d bd 2a 64 b2 3e
       0.1392943 0.0648152 -0.034525312 0.34842044
0001f0 fa b8 70 3e 8d 97 ff 3d 37 7c 7c be 20 ce 4b 3d
       0.23508063 0.12480078 -0.24656759 0.049757123
000200 01 73 c5 3d 2e c8 f7 bd 22 f6 a2 3e 5c ef 97 3e
       0.09641076 -0.12098728 0.3182841 0.29674804
000210 cf a2 d3 bd ce cd aa 3a c8 a5 c3 3d 55 5a 22 be
       -0.10333788 0.0013031305 0.09553105 -0.15854771
000220 9f 01 2d be 42 99 ae 3c 4b 70 7f 3e 6c 33 8b bd
       -0.1689515 0.021313313 0.2494518 -0.06796917
000230 1b f3 ad 3e b0 61 8d 3e 93 6d fd 3c 4e 74 19 be
       0.33974537 0.27613592 0.030936038 -0.14985773
000240 5e 60 21 3e ae f4 09 3e 0c 19 a6 3e 75 4b 3e 3b
       0.15759417 0.13472244 0.32440984 0.0029036675
000250 15 74 86 be ca d0 9a 3d c0 5a 7e be de 89 7c be
       -0.2626044 0.075593546 -0.24839306 -0.24661967
000260 cc ff 42 3e ef f0 8b 3e 72 07 c5 bd b6 b4 47 3e
       0.19042891 0.27332255 -0.09620561 0.1950253
000270 2a 4a a1 3e 5d a7 46 3d ce fe 45 be 56 95 b8 bd
       0.31501895 0.048499454 -0.19335482 -0.090128586
000280 63 5e 24 3e 11 7f 5b 3e 3c 9c 18 be 6a 9e 61 3d
       0.1605163 0.2143519 -0.14903349 0.055082716
000290 17 50 7b 3e c0 7f 88 3e 21 0e 87 3e bf 7d a1 3e
       0.2454227 0.26659966 0.26377967 0.3154125
0002a0 01 92 90 3e 5c 3e 98 3c 18 59 dd bd 6a f8 9f 3e
       0.28236392 0.018584423 -0.10808009 0.31244212
0002b0 70 9c c0 bd fa 29 dc 3d cb 13 24 be 93 0b a1 3e
       -0.09404838 0.10750194 -0.16023175 0.31454143
0002c0 aa ed fb 3d 94 57 0b be 40 7e fd bd 0f 7d f8 bc
       0.1230119 -0.13607627 -0.12377596 -0.03033307
0002d0 b4 c2 36 3e ad bc 62 be cd ac a4 3e 9c 45 8f bc
       0.17847711 -0.22142287 0.32163087 -0.017489247
0002e0 93 86 25 be 3d e8 1b be 57 cc 9d 3e 39 a3 1a 3c
       -0.16164617 -0.1522531 0.3081996 0.009438329
0002f0 d0 67 b2 3d 2e ae 13 3e aa 4d 03 bd 5b df 03 3e
       0.08711207 0.14421913 -0.032056488 0.12878172
000300 33 3f 6d 3e 30 3d b7 3e 63 a8 2e be cf b1 39 3e
       0.2316864 0.3578887 -0.17056422 0.18134235
000310 df b2 43 3e 3f f1 9f 3e 32 15 5c 3e a0 bd c8 bd
       0.19111203 0.31238744 0.2149246 -0.09801793
000320 b6 31 87 bd 84 71 10 be 79 55 7a bd 3a 12 85 bb
       -0.066012785 -0.14105803 -0.06111667 -0.0040610107
000330 55 21 cc bb 2b 4e 2f 3c 85 c5 45 be 56 16 90 3e
       -0.0062295594 0.010699789 -0.19313629 0.2814204
000340 59 d8 29 be 3d 5c 5f be d9 b6 7b be 51 42 98 3e
       -0.16586436 -0.2181253 -0.2458147 0.29738095
000350 22 dc fd 3d 70 c7 9f bd 36 2c 66 3e 43 ee 2e 3e
       0.123955026 -0.078017116 0.22477803 0.17083077
000360 16 70 b3 be 44 d7 dc 3d 4a 19 39 3e 72 4a 60 3e
       -0.35046452 0.10783246 0.18076053 0.21903399
000370 d2 a1 aa be c2 3e 8d 3e a2 3d 71 be 80 2d 05 3c
       -0.33326584 0.27586943 -0.23558667 0.008128524
000380 94 8c a0 3e a7 e7 33 3e 7a 70 09 bd 1a 7a 9e 3c
       0.31357253 0.17568837 -0.03355453 0.019345332
000390 48 cf a3 3e 98 46 9f 3e d9 5e 7b 3e d6 b0 04 be
       0.3199408 0.31108546 0.245479 -0.12958083
0003a0 b7 31 80 3c 99 4a 29 bd 1a f6 9e 3e 30 a5 73 be
       0.015648706 -0.041330907 0.31047136 -0.23793483
0003b0 20 82 a7 3e 36 b8 0a 3e 48 0b 72 3e 04 f9 8e 3e
       0.32716465 0.13546833 0.23637116 0.2792436
0003c0 67 4d 14 be 70 2a d9 bb 68 5d 24 bd b7 ac cf 3b
       -0.14482652 -0.0066273734 -0.04012814 0.006337728
0003d0 2a 35 83 3e 78 cd 41 3e 93 a3 80 3e 97 85 03 3d
       0.25626498 0.18926036 0.25124797 0.032109823
0003e0 16 6e c1 3d d6 28 59 3d 96 29 73 3e aa 6f a5 3d
       0.09444825 0.05301746 0.23746333 0.08077939
0003f0 9a 26 95 3c 38 69 b8 3e 72 d8 89 be a5 b2 5e 3e
       0.018206883 0.36017776 -0.26922947 0.21747835

network.2.bias f4 [16]
000000 97 1f 57 3d c7 60 db 3c 17 b6 d1 3c fb a3 85 3e
       0.05252036 0.026779545 0.025599523 0.2610167
000010 f1 e5 41 3d c0 f1 01 3e 4d bc 60 3e 08 eb 81 3e
       0.04733843 0.12689877 0.21946831 0.25374627
000020 79 e5 9f 3d 78 ae 31 3e 90 97 04 3e 04 31 1c be
       0.0780744 0.17351711 0.12948442 -0.15253073
000030 50 84 48 3e a2 2e af 3d ce 1c 19 3e 54 2a 09 3e
       0.19581723 0.085538164 0.14952394 0.13395053

network.4.weight f4 [3, 16]
000000 77 92 8a be 33 e5 a0 3c e0 dc d1 be 94 0e de 3e
       -0.2706487 0.01964054 -0.40988827 0.43370497
000010 e2 3e c0 3e c7 4c d2 be 0e 45 e3 bd eb d5 91 3b
       0.37547976 -0.410742 -0.110971555 0.00445055
000020 37 a2 99 be 7d 56 c7 3e 9a 16 ee bd 16 8e 6d 3e
       -0.30006573 0.38933173 -0.11625405 0.23198733
000030 63 ba dd be 11 c3 88 ba f8 41 0b be e5 14 9d 3e
       -0.43306264 -0.0010434111 -0.13599384 0.30680004
000040 96 c9 dd be 0e 74 2f 3e d7 61 9d be 43 1b 95 bd
       -0.4331786 0.17134115 -0.30738708 -0.072805904
000050 43 c8 9b be ff e1 be 3e 6b 12 09 3f 99 6f 85 3e
       -0.30426225 0.37281796 0.5354373 0.26061705
000060 f4 db c8 3e 9d a0 55 be 89 6d 8a be a3 a5 f3 bd
       0.3923031 -0.2086205 -0.27036694 -0.11896827
000070 54 38 01 3f 63 16 6c 3c 75 12 6b 3e b9 f3 d9 be
       0.50476575 0.014409634 0.2295626 -0.42568758
000080 8d e0 ce 3e 42 93 63 bd 93 93 8d 3e 81 96 75 bd
       0.40405694 -0.055560358 0.27651653 -0.059957985
000090 91 e4 5d be 6e 9f 77 3e 74 ff cc bd a9 24 01 bf
       -0.21669222 0.24181911 -0.10009661 -0.50446564
0000a0 37 69 9f be fc cd 0c be 33 92 e9 3e a7 aa 12 be
       -0.3113496 -0.13750452 0.45619354 -0.14322911
0000b0 20 0b 7c be 71 33 cf 3e 11 fc 94 3e 36 8e 80 be
       -0.24613619 0.40468934 0.2909856 -0.25108498

network.4.bias f4 [3]
000000 21 00 5a be d6 ac 0e be 93 5b 6d be
       -0.21289112 -0.13933119 -0.23179464

exp_avg f4 [32, 13]
000000 aa f6 4b 39 30 64 8b 39 bf c0 13 39 34 68 82 b8
       0.00019451478 0.00026586792 0.00014090816 -6.2182924e-05
000010 47 7b aa b8 a4 b8 96 38 63 14 28 39 18 8a ab b9
       -8.129194e-05 7.1869494e-05 0.00016029323 -0.0003271855
000020 f5 82 a7 39 1d 49 20 39 8e 11 d4 b8 07 13 60 39
       0.00031950293 0.00015286026 -0.000101122176 0.00021369393
000030 d8 d4 d4 38 25 6c 10 b8 da fb 2d b9 c4 b9 11 39
       0.00010148593 -3.4432993e-05 -0.00016592388 0.0001389748
000040 7a f8 a1 b9 c6 99 22 b9 ca 2d 3e 39 80 80 00 ba
       -0.00030893442 -0.00015506809 0.0001813687 -0.00049019605
000050 78 ec 2b b8 14 4e ac b8 02 13 7c 39 87 85 2d b9
       -4.0989806e-05 -8.216142e-05 0.00024039674 -0.00016548308
000060 c5 00 00 b9 02 db 86 39 a0 98 06 b9 de 40 df b8
       -0.00012207318 0.00025721645 -0.00012836093 -0.00010645551
000070 34 cd f0 b8 6c e4 9f 39 87 d7 53 37 55 53 09 39
       -0.00011482314 0.0003049703 1.2626761e-05 0.00013096382
000080 78 ce 98 b7 22 d4 2f b7 22 e6 50 38 1c f4 84 38
       -1.8215957e-05 -1.0480204e-05 4.9805392e-05 6.3397194e-05
000090 47 88 ac b6 ff 38 94 b7 11 4e 0a b9 ec 89 9e b8
       -5.141864e-06 -1.7669516e-05 -0.00013189788 -7.559717e-05
0000a0 41 0c 0d b9 42 a7 bb b8 de df 28 39 f7 7b 94 37
       -0.00013451373 -8.948009e-05 0.00016105126 1.77007e-05
0000b0 36 88 df 37 b3 ae b0 b8 a4 c4 0a 38 57 5d 62 b8
       2.66471e-05 -8.424874e-05 3.30849e-05 -5.396953e-05
0000c0 26 5a 11 38 00 78 80 b6 0d 5e ce b8 ee 88 b0 b8
       3.465465e-05 -3.828667e-06 -9.840364e-05 -8.417839e-05
0000d0 5f a8 2a 38 8c 35 1d b8 59 c9 9d b7 62 fd 1a b9
       4.0687966e-05 -3.7481586e-05 -1.8809618e-05 -0.00014780977
0000e0 66 2d 3a b9 e3 7f a0 b8 10 82 a6 b8 bb 7a a1 37
       -0.00017755255 -7.653215e-05 -7.939723e-05 1.9249846e-05
0000f0 66 ae 21 38 10 d2 f5 38 9d b2 10 b8 5a ac 15 b8
       3.8547812e-05 0.000117216376 -3.4498622e-05 -3.5684883e-05
000100 7a 27 24 39 e3 9f bf 39 fe a8 66 39 ed f0 3b 3a
       0.00015654965 0.00036549484 0.00021997464 0.00071693846
000110 19 bd f8 b9 f0 5c c8 39 ea 0b 0a 3a 85 3c a8 b9
       -0.00047443135 0.00038216216 0.00052660576 -0.00032088548
000120 30 cc 37 b9 4d b5 08 ba 08 d7 be 39 bc 57 00 b7
       -0.00017528306 -0.0005215004 0.00036399835 -7.649822e-06
000130 93 2f 5b 39 c1 1c 31 39 0c 95 b4 38 e5 51 81 38
       0.0002090319 0.00016890747 8.610831e-05 6.1664534e-05
000140 6d 66 11 b9 d0 be 08 ba 33 f8 23 ba 1b f6 46 b9
       -0.00013866434 -0.00052164216 -0.0006254941 -0.00018974433
000150 67 3e ac b9 6d 2e 06 39 af 45 12 39 6e d0 97 39
       -0.0003285289 0.00012796531 0.00013949604 0.00028956257
000160 da 4a f9 b9 90 89 9b b9 61 73 a5 38 aa 2e 08 39
       -0.0004754875 -0.00029666396 7.889304e-05 0.00012987354
000170 a1 f6 28 39 1b f5 5c b9 66 7b 4c 39 7c 71 11 39
       0.00016113605 -0.00021072144 0.00019500926 0.00013870554
000180 b3 4f 33 b9 65 62 37 3a ba 6d db b8 e2 ea ad 39
       -0.0001710046 0.0006995558 -0.00010463172 0.00033172133
000190 fa ba 8b b9 54 9e f3 39 d2 78 e2 39 03 d8 22 b6
       -0.00026651454 0.00046466535 0.00043196097 -2.4265617e-06
0001a0 58 ef b0 38 ab af da 38 ad e0 04 b9 c6 cf 1a 39
       8.436915e-05 0.00010427771 -0.00012672199 0.00014763986
0001b0 42 ec d7 38 ac b3 ac b8 c3 2d 0e 3a 5b 3f f4 b8
       0.00010296005 -8.2350656e-05 0.0005423689 -0.000116466275
0001c0 61 cc 99 39 d0 b3 42 b9 e2 dd b4 39 6b 07 be 39
       0.00029334708 -0.00018568267 0.0003449759 0.0003624515
0001d0 9e 46 85 37 67 6e 31 b8 6e 27 23 b9 50 3b 4c b9
       1.588772e-05 -4.230291e-05 -0.0001555958 -0.00019477052
0001e0 0f 65 8a b6 54 23 53 b9 b2 2d 41 b9 29 bb 29 39
       -4.1244853e-06 -0.00020135689 -0.00018422937 0.00016186819
0001f0 1b e5 94 39 64 73 6e 39 ad d2 40 b9 6d c7 b1 38
       0.00028399457 0.00022740435 -0.0001838903 8.477164e-05
000200 f8 06 f7 37 70 d4 1c 38 7d 3c 82 b6 fc 2f 5b 38
       2.944794e-05 3.7391146e-05 -3.8813437e-06 5.2258358e-05
000210 62 0f 63 38 ee a8 9c 38 4b 24 aa b5 44 27 b1 38
       5.4135344e-05 7.470125e-05 -1.267655e-06 8.4473315e-05
000220 d2 9b ec 36 98 c0 d3 37 1c 70 3f 38 08 21 7a 38
       7.051488e-06 2.5242844e-05 4.564236e-05 5.9635408e-05
000230 e0 c0 38 b8 18 50 8c 37 ca c9 d5 b8 d5 22 87 38
       -4.4048647e-05 1.6726597e-05 -0.000101942176 6.4437896e-05
000240 6f 4f 03 39 16 92 36 b9 bc bb fa 38 5b 40 4e 38
       0.00012522725 -0.00017411294 0.00011955897 4.9174163e-05
000250 bf ab df b8 7d ff fa 39 38 e7 04 b9 d9 03 90 39
       -0.00010665459 0.0004787407 -0.00012674637 0.00027468687
000260 01 75 12 b9 46 7c 95 39 80 9b a3 39 f5 5d 81 35
       -0.00013967232 0.00028512086 0.0003120564 9.638594e-07
000270 af ec 69 b8 d8 66 9d b8 e6 4b f1 b8 0c e8 42 39
       -5.5771958e-05 -7.5054995e-05 -0.00011505913 0.00018587726
000280 a1 9c 9d b7 9f b0 20 b8 cb 6d e1 b8 db f0 0e 38
       -1.8788794e-05 -3.8311464e-05 -0.000107492866 3.4079752e-05
000290 1b 70 2a 37 b6 67 ef 38 1d 96 17 b8 2f 9b c0 b8
       1.0158891e-05 0.00011415726 -3.614101e-05 -9.1841786e-05
0002a0 12 8d a6 b8 fa 6c 53 b8 ea 02 f3 36 aa 60 b0 b8
       -7.941773e-05 -5.0407813e-05 7.2423036e-06 -8.410339e-05
0002b0 1d ab d4 38 0e 72 03 b7 e5 6f 78 37 02 10 fa b7
       0.0001014082 -7.834764e-06 1.4808004e-05 -2.9809777e-05
0002c0 df 1a aa b7 87 1e 1c 37 7d a3 1a 38 04 64 3d b8
       -2.0278092e-05 9.305432e-06 3.686872e-05 -4.515426e-05
0002d0 c5 c9 15 b8 04 7e a2 b8 5f 8c 5a b8 9d c7 da b8
       -3.571228e-05 -7.748234e-05 -5.210598e-05 -0.00010432231
0002e0 28 d4 f3 b8 b2 23 2f 39 65 b4 2a 38 26 11 7d 38
       -0.0001162666 0.00016702598 4.0699164e-05 6.033587e-05
0002f0 33 cd bc b8 9b e1 4f 36 5a 7d 53 b8 b6 b8 ab 37
       -9.00276e-05 3.0976723e-06 -5.0423063e-05 2.0470801e-05
000300 a8 a8 95 b6 7c dd b6 b8 24 64 ba b8 c5 5d 3a 36
       -4.46018e-06 -8.719691e-05 -8.887824e-05 2.777074e-06
000310 8f e2 28 b7 d4 4c 00 39 74 c7 a0 b9 5c a6 bd b8
       -1.006633e-05 0.00012235652 -0.00030666182 -9.043209e-05
000320 7a 82 f7 38 6b 73 df b9 d3 df d1 b8 1b 6a e0 37
       0.00011802181 -0.00042619868 -0.00010007587 2.675229e-05
000330 55 5b 86 39 be d7 53 b9 15 da 85 b8 19 6c 8a 39
       0.0002562652 -0.00020202898 -6.382555e-05 0.0002640195
000340 bd 4a 90 38 07 c4 8d b5 0f 8c bf b9 2d 09 b2 38
       6.880376e-05 -1.056237e-06 -0.0003653471 8.4894105e-05
000350 c0 4b c0 38 77 a6 3e b9 78 c0 b7 39 81 70 cd b8
       9.169383e-05 -0.00018181825 0.0003504788 -9.796117e-05
000360 fa 58 0c 39 40 1d e9 b8 da b1 8e 39 15 0f 3b 39
       0.00013384587 -0.00011115754 0.0002721686 0.00017839328
000370 c7 66 bf b8 70 de a8 b8 c2 3c d4 b8 d0 49 19 b9
       -9.1267335e-05 -8.0522965e-05 -0.00010120265 -0.00014618714
000380 ed ed 82 39 52 b5 35 38 a7 3b 9d 38 f8 76 c6 b8
       0.000249728 4.332263e-05 7.4974545e-05 -9.4635354e-05
000390 ce b0 2e b8 2f 25 50 b5 04 35 54 38 76 fe 9c b7
       -4.1649495e-05 -7.754015e-07 5.0594113e-05 -1.8715142e-05
0003a0 5b 7a bd b8 34 ed fb b8 56 63 f9 b8 0e b2 77 b8
       -9.035013e-05 -0.00012012795 -0.00011891748 -5.9055215e-05
0003b0 38 29 2b b9 89 13 ae 39 dd 2c 65 37 59 1a 5d 38
       -0.00016323186 0.0003320242 1.3659909e-05 5.2715044e-05
0003c0 c8 51 c6 b8 6b ed ad b8 2d 63 88 38 64 96 a9 38
       -9.456609e-05 -8.2935054e-05 6.503458e-05 8.0865604e-05
0003d0 14 dc 20 b8 99 d5 9b b8 cb f0 25 b9 cb cf 9d 37
       -3.8351936e-05 -7.4307616e-05 -0.00015825329 1.881262e-05
0003e0 5a 15 29 36 6d 65 0c b7 e4 36 20 b8 3f 68 25 b8
       2.519539e-06 -8.368265e-06 -3.8198094e-05 -3.9436152e-05
0003f0 c7 e3 8c b7 87 3a 59 b7 76 a7 fe 37 26 a6 26 b7
       -1.6795368e-05 -1.2947835e-05 3.035714e-05 -9.9330555e-06

exp_avg_sq f4 [32, 13]
000000 14 62 64 37 6b 2a 2a 37 c2 66 1b 37 91 0c 22 37
       1.3612695e-05 1.0142666e-05 9.262645e-06 9.658878e-06
000010 c9 18 19 37 5a 08 40 37 90 45 0a 37 b6 8a 1d 37
       9.125281e-06 1.1446036e-05 8.241637e-06 9.390225e-06
000020 57 89 4f 37 19 7b 89 37 b2 1e 3c 37 13 42 76 37
       1.2370138e-05 1.6388994e-05 1.121282e-05 1.4678127e-05
000030 d6 73 f0 36 b0 c1 55 37 98 4b 08 38 6d 27 1f 37
       7.1660425e-06 1.2740886e-05 3.249533e-05 9.486318e-06
000040 d0 c2 a5 37 d0 1f c4 37 55 05 b2 37 65 72 a9 37
       1.976025e-05 2.3379835e-05 2.1221736e-05 2.0199639e-05
000050 74 94 95 38 b8 8e 6e 37 87 d4 5d 37 91 30 44 37
       7.132525e-05 1.4219135e-05 1.3222109e-05 1.1693818e-05
000060 7d 75 e2 37 1e 4c 98 37 21 cc a5 37 8c 01 46 37
       2.699601e-05 1.8155257e-05 1.9764588e-05 1.180208e-05
000070 9b e9 97 37 85 a2 39 38 59 b0 d4 37 7b 97 51 37
       1.8109384e-05 4.4258795e-05 2.5354488e-05 1.249264e-05
000080 4b 3c 8b 37 c2 7d 1f 37 ad 3e 4d 37 69 ef c9 36
       1.6598167e-05 9.506419e-06 1.2233545e-05 6.018138e-06
000090 e0 9f 73 37 b4 8c 90 37 08 e9 00 38 2f 52 ae 37
       1.45211525e-05 1.7231658e-05 3.0734605e-05 2.0780686e-05
0000a0 8f 3e 98 36 a7 96 4b 37 e8 6e db 37 2f 2a 85 37
       4.537236e-06 1.2134819e-05 2.615848e-05 1.5874479e-05
0000b0 da 29 00 37 c4 98 27 37 70 f2 c9 36 1e 52 f0 36
       7.639139e-06 9.989544e-06 6.0184902e-06 7.162117e-06
0000c0 44 8c aa 36 67 4c c8 36 d0 d5 f5 36 78 26 bf 37
       5.082724e-06 5.969359e-06 7.32646e-06 2.2786888e-05
0000d0 f1 d5 1c 38 02 45 85 37 20 59 bd 37 a1 44 5d 37
       3.7392547e-05 1.588697e-05 2.2572058e-05 1.3188605e-05
0000e0 60 0b 06 38 d0 58 79 37 cf cb 65 37 5e a4 95 37
       3.1958683e-05 1.4862235e-05 1.36969165e-05 1.7838724e-05
0000f0 d6 35 de 37 14 6a da 37 98 a1 5e 37 4d 3d 71 37
       2.6489532e-05 2.6037022e-05 1.3269855e-05 1.4378992e-05
000100 7e b6 14 38 5d 42 6d 38 73 87 92 38 84 10 5d 38
       3.545591e-05 5.656701e-05 6.987052e-05 5.2705887e-05
000110 37 91 df 38 ec c1 d2 38 61 aa 83 38 a3 bc f6 37
       0.00010660517 0.00010049701 6.278302e-05 2.9413326e-05
000120 36 58 06 39 63 36 c5 37 14 5c 56 38 39 30 10 38
       0.00012812097 2.3509556e-05 5.110733e-05 3.4377186e-05
000130 35 22 2f 38 c9 c3 4f 38 65 75 48 37 08 64 54 37
       4.175511e-05 4.9534985e-05 1.1948262e-05 1.2659475e-05
000140 5f 0c 19 37 11 b3 88 37 9f 3b 9a 37 92 1f 46 37
       9.122391e-06 1.6295848e-05 1.8385994e-05 1.180907e-05
000150 d2 08 59 37 2d b0 bd 37 62 ec 90 37 23 88 42 37
       1.2936262e-05 2.2612594e-05 1.7276212e-05 1.1594998e-05
000160 27 4d 58 37 a3 7e a3 37 fc 44 1e 37 62 26 44 37
       1.2892567e-05 1.9490084e-05 9.433596e-06 1.1691447e-05
000170 a7 76 6a 38 dd 0b 83 37 66 2e f4 37 e7 6c 07 38
       5.590045e-05 1.5621941e-05 2.9108673e-05 3.228793e-05
000180 c1 b6 2b 38 32 e9 82 38 ad 3d d4 38 a7 e2 f7 37
       4.093978e-05 6.242319e-05 0.00010120436 2.9550238e-05
000190 a2 db 3c 38 cc 88 54 38 a5 8e a4 38 d2 87 80 37
       4.5027242e-05 5.067214e-05 7.846699e-05 1.5322035e-05
0001a0 0a b1 0f 37 fd 2c 24 38 07 e3 05 37 00 31 8e 37
       8.564684e-06 3.9142546e-05 7.980277e-06 1.6950537e-05
0001b0 57 ad 9f 37 8f 96 fd 37 7c a7 46 38 e5 cb 7c 38
       1.9034995e-05 3.023006e-05 4.736286e-05 6.0271374e-05
0001c0 95 59 bd 37 00 55 14 38 34 e9 1b 38 64 ce 77 38
       2.257227e-05 3.5365112e-05 3.7172067e-05 5.9081605e-05
0001d0 bf 0c 16 37 86 f8 49 36 60 7e 4d 37 86 09 1f 36
       8.943664e-06 3.0095994e-06 1.2248376e-05 2.369839e-06
0001e0 c8 59 dd 36 6c 5a 0c 37 71 af 14 37 f9 0a db 36
       6.596765e-06 8.365703e-06 8.862336e-06 6.527986e-06
0001f0 04 b0 b3 37 1a fd b0 36 f0 c4 bc 36 91 df d4 36
       2.1420426e-05 5.2746736e-06 5.625763e-06 6.344119e-06
000200 d9 cf 1e 37 33 01 67 36 b8 75 6a 36 b9 68 3f 36
       9.465927e-06 3.442238e-06 3.4937239e-06 2.8522174e-06
000210 33 65 0f 36 56 b4 fb 36 3e c2 34 36 73 c0 c1 36
       2.1367566e-06 7.501377e-06 2.6935154e-06 5.7742523e-06
000220 13 0c 0f 37 fe d8 d8 36 27 da 51 36 cc 26 79 36
       8.526275e-06 6.462563e-06 3.1270408e-06 3.7126474e-06
000230 60 2b bc 36 8e 36 12 37 a3 6a 0c 37 e1 5d 41 37
       5.607886e-06 8.71498e-06 8.369479e-06 1.1525554e-05
000240 87 b0 2f 38 15 55 32 37 b8 ee ac 37 9b cb a5 37
       4.1887655e-05 1.06294365e-05 2.061516e-05 1.9764344e-05
000250 57 56 07 38 c1 64 62 38 ce f0 88 38 d3 57 e0 37
       3.226692e-05 5.3976433e-05 6.529839e-05 2.6743777e-05
000260 37 85 38 38 74 3c 40 38 77 3d 88 38 b1 e2 44 37
       4.3993085e-05 4.583267e-05 6.496434e-05 1.1735291e-05
000270 14 9b 38 37 2a 54 f0 36 04 dd 61 37 97 c7 9a 37
       1.1003362e-05 7.1623554e-06 1.3462504e-05 1.8451172e-05
000280 5d 0e 28 37 b5 71 65 37 84 3e 9f 37 9d 57 35 37
       1.00169245e-05 1.3675938e-05 1.8983388e-05 1.080884e-05
000290 6e f3 f3 36 98 b5 12 37 2c 15 49 37 43 2f a2 37
       7.2703033e-06 8.744559e-06 1.1985463e-05 1.9333913e-05
0002a0 a0 55 92 37 d8 b8 8f 36 c9 92 91 35 97 25 81 36
       1.7444429e-05 4.2832507e-06 1.0846062e-06 3.8488756e-06
0002b0 24 0e 13 37 e1 a1 ac 36 42 02 47 36 0a ca 89 36
       8.765175e-06 5.1448446e-06 2.9654625e-06 4.1064386e-06
0002c0 09 0e d8 35 f3 53 1a 36 5f 50 9e 35 ae 99 21 36
       1.6097339e-06 2.2996653e-06 1.1795308e-06 2.4080323e-06
0002d0 c1 61 6d 36 2b 68 dd 36 8f dd ea 35 b6 4b 95 35
       3.5372652e-06 6.59844e-06 1.7498841e-06 1.11234e-06
0002e0 bd cb 83 36 bc 0e a0 36 2d d2 87 36 83 ed 29 36
       3.9278225e-06 4.770087e-06 4.047781e-06 2.5321212e-06
0002f0 6c d1 2b 36 8e 23 00 36 2a 64 d7 35 6f a4 61 35
       2.5602885e-06 1.9094182e-06 1.60479e-06 8.4058314e-07
000300 ce b4 d0 35 5f 3f 40 36 fc 34 57 36 c9 88 cc 37
       1.5549829e-06 2.8647116e-06 3.2068338e-06 2.438239e-05
000310 a9 ad fe 37 ff 55 0c 38 b5 9b 00 38 ce ae 09 38
       3.0360026e-05 3.345869e-05 3.066259e-05 3.2826145e-05
000320 4b 89 af 37 0a 0c e6 37 33 22 68 38 a0 58 8e 37
       2.0925558e-05 2.7423743e-05 5.534496e-05 1.6968988e-05
000330 fd fb a4 37 a5 2c 67 37 05 f7 da 37 c1 99 02 38
       1.9667665e-05 1.3779068e-05 2.6102653e-05 3.113761e-05
000340 a3 da 44 37 15 27 ad 37 09 69 52 37 21 61 87 37
       1.1733416e-05 2.0641406e-05 1.2541431e-05 1.6138483e-05
000350 49 90 a6 37 86 7e 6b 37 30 ac 88 37 c4 b6 19 38
       1.985593e-05 1.403655e-05 1.6292644e-05 3.6648256e-05
000360 04 c9 61 37 9a e8 4c 37 2d da 6a 37 cc b2 b4 37
       1.3457848e-05 1.2213504e-05 1.3998285e-05 2.154093e-05
000370 6e 74 25 37 70 06 7d 36 6c 4b 29 36 ab 7f 20 37
       9.861875e-06 3.7703685e-06 2.5226864e-06 9.566468e-06
000380 c5 57 a1 37 7f 31 82 37 86 c0 9d 36 b8 d7 a7 36
       1.9233566e-05 1.5520256e-05 4.7013773e-06 5.002101e-06
000390 3d f8 89 36 9a fc 87 36 29 eb 24 36 5c 44 a7 36
       4.111817e-06 4.05272e-06 2.4574786e-06 4.984946e-06
0003a0 e7 4f ae 36 d9 a0 ff 36 3b c7 54 37 d9 94 03 37
       5.194906e-06 7.6183173e-06 1.2682572e-05 7.842865e-06
0003b0 92 ad 90 37 e2 76 34 38 01 d5 ed 37 ed db 11 37
       1.7246963e-05 4.3026062e-05 2.835179e-05 8.693879e-06
0003c0 9b 7a 12 37 e8 9d 06 37 5e 7f 2d 37 c1 a2 d3 36
       8.730824e-06 8.023788e-06 1.03412585e-05 6.307237e-06
0003d0 d9 ba 1b 37 81 95 0c 37 34 2d b2 37 ed a5 c6 35
       9.282224e-06 8.379459e-06 2.1240303e-05 1.480044e-06
0003e0 93 16 68 35 b0 fa 8e 35 e3 c5 e3 35 75 09 c8 35
       8.6459585e-07 1.0652784e-06 1.6970411e-06 1.4903914e-06
0003f0 84 84 ac 35 ef c8 be 35 7e 51 43 35 f7 54 5d 35
       1.2853566e-06 1.4214583e-06 7.276175e-07 8.2452556e-07

exp_avg f4 [32]
000000 9b 9b b4 b9 fa f0 e5 b8 65 81 47 b9 91 74 0b b9
       -0.0003444821 -0.00010964456 -0.00019026322 -0.00013299497
000010 bc b3 f9 36 e2 af 08 ba e5 e8 ec b8 46 dd c4 b8
       7.441702e-06 -0.0005214197 -0.00011296737 -9.387224e-05
000020 2a d5 e5 b8 07 a6 c5 38 7c dd c1 b8 b3 e8 f9 b8
       -0.00010959276 9.424617e-05 -9.244212e-05 -0.00011916589
000030 14 da 86 b9 5d 4b c4 b8 23 aa d4 b8 90 af 34 b9
       -0.00025720953 -9.360046e-05 -0.00010140638 -0.0001723154
000040 6a af bc b9 13 d9 32 b9 a8 4c 77 b9 e5 18 94 b7
       -0.00035988848 -0.0001705627 -0.00023584312 -1.7654567e-05
000050 5b 2c 1a b9 f3 f0 d6 b8 a5 c7 7e b9 fc 94 d8 b8
       -0.00014703108 -0.000102491955 -0.00024297701 -0.00010327433
000060 b3 3e f6 b8 cb 1e 1b b9 03 37 30 37 b2 1f 23 b9
       -0.00011741873 -0.00014793423 1.0503226e-05 -0.00015556699
000070 cd d5 1f ba 1a e8 f8 37 54 49 65 b8 79 67 aa b7
       -0.00060972275 2.9671985e-05 -5.4666147e-05 -2.0313762e-05

exp_avg_sq f4 [32]
000000 4a 02 0a 38 5f 96 02 38 9f 25 43 37 bd 20 1d 37
       3.2903896e-05 3.113446e-05 1.1631665e-05 9.365552e-06
000010 b0 e9 45 38 46 be bc 38 3e b3 96 37 59 d5 45 38
       4.71861e-05 8.99998e-05 1.796486e-05 4.7167156e-05
000020 19 f4 08 38 c5 f3 09 37 b5 30 c4 36 f2 9f 14 38
       3.265226e-05 8.222593e-06 5.8469254e-06 3.543491e-05
000030 cd c5 8f 37 fa 0d 63 36 a4 04 66 36 a7 d8 5e 38
       1.7139037e-05 3.3833771e-06 3.4275372e-06 5.3130698e-05
000040 7b 6e b9 37 09 5e 22 37 d7 e2 55 37 55 b7 00 36
       2.2105165e-05 9.677847e-06 1.2748605e-05 1.91802e-06
000050 10 08 70 37 33 25 26 36 92 a3 04 38 10 eb 1e 37
       1.4306992e-05 2.475758e-06 3.162359e-05 9.472264e-06
000060 57 ad 07 37 40 1c bb 36 a4 70 9a 37 7e 12 be 36
       8.086986e-06 5.576323e-06 1.8410683e-05 5.664594e-06
000070 2c 41 54 38 5b dc 08 38 91 df 63 37 02 8a 20 35
       5.0605435e-05 3.263015e-05 1.35823075e-05 5.980547e-07

exp_avg f4 [16, 32]
000000 c1 60 70 39 fb 93 4e b7 99 07 00 b7 3d 52 b8 b6
       0.00022924227 -1.2313011e-05 -7.6311635e-06 -5.493201e-06
000010 57 77 9c b8 d1 b1 a5 39 ec f5 8d 39 04 d6 07 ba
       -7.4608884e-05 0.00031603736 0.00027076842 -0.0005181732
000020 c8 06 d1 b9 0b 1a a0 b9 c9 67 2f 38 2d 9d f8 b9
       -0.0003986864 -0.00030536982 4.181991e-05 -0.0004741935
000030 bb ff 16 37 1b 01 c7 b5 15 6e 04 38 b7 e7 96 b7
       9.000239e-06 -1.4826977e-06 3.1573774e-05 -1.7989294e-05
000040 64 88 86 b9 91 07 14 b4 30 50 97 35 29 c9 62 37
       -0.0002566009 -1.3786327e-07 1.1273714e-06 1.3517486e-05
000050 a4 33 c6 37 44 c6 8d 38 f9 c5 c6 37 37 34 d8 b9
       2.3627486e-05 6.760334e-05 2.3695628e-05 -0.00041237634
000060 a6 dc db 35 34 92 06 39 13 c4 82 39 11 02 44 35
       1.6380989e-06 0.00012833701 0.0002494162 7.3018697e-07
000070 10 5c ba b9 fe 3a de 38 ce b2 df b9 67 59 2d 37
       -0.00035545276 0.00010596773 -0.00042667094 1.0332419e-05
000080 58 6e 00 80 f7 b3 01 80 e4 24 00 00 a8 33 00 80
       -3.9584e-41 -1.56395e-40 1.3234e-41 -1.8531e-41
000090 23 65 6b 14 2a 12 01 80 19 00 00 00 78 4d 57 1b
       1.1884414e-26 -9.8352e-41 3.5e-44 1.7809415e-22
0000a0 86 f1 4a 1b 2f 5d d0 1a bf 72 01 80 43 4e 78 1b
       1.6787089e-22 8.617733e-23 -1.32999e-40 2.0539367e-22
0000b0 04 00 00 00 04 00 00 00 04 00 00 00 87 f7 c3 19
       6e-45 6e-45 6e-45 2.0262503e-23
0000c0 83 a6 e3 1a 04 00 00 00 04 00 00 00 66 09 00 00
       9.4154014e-23 6e-45 6e-45 3.372e-42
0000d0 5f 3c 50 07 04 00 00 00 7e 2d 00 80 9c 22 16 1b
       1.5665922e-34 6e-45 -1.632e-41 1.2418892e-22
0000e0 04 00 00 00 4d 75 00 80 26 00 00 00 39 2c 01 80
       6e-45 -4.208e-41 5.3e-44 -1.077e-40
0000f0 84 d8 43 1b 44 9d 00 80 a8 da 28 1b 04 00 00 00
       1.6199982e-22 -5.6416e-41 1.3967286e-22 6e-45
000100 95 e4 16 39 d7 9d bc b7 00 f5 e7 b6 71 03 be b6
       0.00014390268 -2.2484846e-05 -6.912858e-06 -5.662842e-06
000110 95 b1 73 b8 6f 7d 62 39 a6 e5 35 39 d3 e8 c7 b9
       -5.81011e-05 0.00021599767 0.00017347056 -0.00038129705
000120 17 7c 9a b9 00 ec 67 b9 76 91 ea 37 83 12 b8 b9
       -0.00029465623 -0.00022117794 2.796271e-05 -0.00035109007
000130 66 7a b9 36 34 c1 0c b6 33 71 98 37 12 7d c7 b7
       5.5276787e-06 -2.0974085e-06 1.8172525e-05 -2.3780889e-05
000140 30 2e 4d b9 86 5d c5 b5 c9 55 66 0b 7f 37 17 37
       -0.0001956753 -1.4704863e-06 4.4360926e-32 9.013223e-06
000150 1c 87 19 b6 7b e2 25 38 f7 bd 87 37 c5 0b a1 b9
       -2.287742e-06 3.9549992e-05 1.6181713e-05 -0.00030717082
000160 ab 47 07 33 a5 e5 a4 38 c8 91 25 39 b3 14 f3 2e
       3.149732e-08 7.862904e-05 0.00015789934 1.10540375e-10
000170 4c e2 88 b9 97 0e 91 38 86 ed a0 b9 db e3 cc 36
       -0.00026108546 6.9168564e-05 -0.00030694547 6.1061996e-06
000180 9f 18 6f 36 d0 fa 82 37 92 b0 45 b9 0b 88 1a b9
       3.5628107e-06 1.5614001e-05 -0.00018853162 -0.00014737264
000190 16 87 28 37 6e 65 e3 37 3d c5 40 38 f9 87 ac 37
       1.00450325e-05 2.710774e-05 4.596006e-05 2.0567315e-05
0001a0 e5 00 77 37 3e 76 c0 36 53 4c 8d b8 48 3b 81 37
       1.47225555e-05 5.735811e-06 -6.7376204e-05 1.5405603e-05
0001b0 9b 86 55 b9 4b 73 6a b8 2d c9 16 b9 69 5c 95 38
       -0.00020363407 -5.5897322e-05 -0.00014380059 7.1220864e-05
0001c0 f9 6e ba b8 9d 67 0e b9 7e 44 25 b9 9b f5 98 b6
       -8.8898414e-05 -0.00013580774 -0.00015761142 -4.5585452e-06
0001d0 8c ef 01 38 bd af 08 b9 80 b4 a9 37 1c 1d a7 37
       3.0979092e-05 -0.00013035438 2.0230422e-05 1.9921506e-05
0001e0 d4 4b 5b b9 cd ba db b8 2b 7b 81 37 bb 08 49 b9
       -0.00020913716 -0.00010477528 1.5435353e-05 -0.00019172106
0001f0 cc 81 bd b8 10 99 0c b8 d6 20 a6 36 7c 46 29 37
       -9.036399e-05 -3.352115e-05 4.951008e-06 1.0089596e-05
000200 0e 5a 8d 37 fa b4 da 37 49 a8 7e b9 10 b4 45 b9
       1.6850445e-05 2.6071899e-05 -0.00024286019 -0.00018854463
000210 bd bb 68 37 cf 8b 53 38 93 44 8c 38 63 c5 f8 37
       1.3871989e-05 5.0436527e-05 6.688493e-05 2.965582e-05
000220 55 cd 8f 37 d9 ab c9 36 38 ce b8 b8 57 cd a3 37
       1.7142544e-05 6.0102725e-06 -8.812215e-05 1.9526733e-05
000230 f5 fc 88 b9 a4 12 95 b8 38 21 43 b9 f3 84 e0 38
       -0.0002612841 -7.108346e-05 -0.00018609024 0.00010705916
000240 52 eb f5 b8 c9 d9 39 b9 d6 1a 56 b9 2f ab 8a b6
       -0.00011726342 -0.00017724106 -0.00020418628 -4.132649e-06
000250 dd 8f 5e 38 9c 90 2c b9 d1 87 06 38 6a 5f c8 37
       5.3062908e-05 -0.0001645707 3.207458e-05 2.3886289e-05
000260 ed 43 8e b9 b3 04 08 b9 51 2f e4 37 af 64 77 b9
       -0.0002713496 -0.00012971721 2.7201751e-05 -0.00023593263
000270 36 4e f4 b8 cc dd 29 b8 49 92 b5 36 22 3e 91 37
       -0.000116493946 -4.0499304e-05 5.41125e-06 1.731428e-05
000280 73 dd 1e b9 d4 ca 92 b8 b9 fd 7d 38 34 fe 55 37
       -0.0001515055 -6.999602e-05 6.0556198e-05 1.2754976e-05
000290 90 85 eb b7 97 bb 48 b9 6c 0a 16 b9 de 3c 7e 37
       -2.8076378e-05 -0.00019143369 -0.00014308997 1.51537515e-05
0002a0 8b c9 20 b5 59 4b 7e 37 21 cc 24 38 a7 84 b0 b5
       -5.989793e-07 1.5157123e-05 3.9290757e-05 -1.3151629e-06
0002b0 1f 9f ae 38 27 1a 95 35 01 a5 d4 38 07 90 32 b9
       8.326605e-05 1.1108976e-06 0.00010139682 -0.00017029057
0002c0 f2 5f 5d 38 d3 98 a1 38 57 d9 b6 38 0e be 0d b8
       5.2779862e-05 7.705544e-05 8.718919e-05 -3.3794022e-05
0002d0 4a 63 f7 b8 b0 65 42 38 90 6a 79 b8 89 f4 24 b7
       -0.00011796372 4.634791e-05 -5.946547e-05 -9.832097e-06
0002e0 1a 12 c6 38 a8 72 b7 37 89 4d d2 b8 d6 00 0b 38
       9.4447474e-05 2.1868691e-05 -0.000100280224 3.314096e-05
0002f0 1e 63 5e 38 40 e4 5e b5 a0 04 0d 38 fe bf c7 b8
       5.3021235e-05 -8.303359e-07 3.3621327e-05 -9.524821e-05
000300 e2 8a 91 b9 20 3e d5 b8 0f 48 58 38 07 b1 03 b6
       -0.0002776003 -0.00010168203 5.1565523e-05 -1.9623565e-06
000310 b4 55 c6 35 5d 76 e2 b9 db 10 9b b9 a1 cb 64 39
       1.4777092e-06 -0.00043194267 -0.00029576462 0.00021819632
000320 e6 85 d9 38 36 d6 e7 38 e8 01 58 37 d5 b5 14 39
       0.00010372307 0.00011054838 1.2875047e-05 0.00014182118
000330 db f1 28 38 23 06 97 b5 33 ff 86 38 7a f1 60 b9
       4.0279567e-05 -1.1252163e-06 6.4371525e-05 -0.00021452262
000340 8a d0 10 39 e3 44 97 38 b9 f2 93 38 a0 33 53 b8
       0.00013810597 7.213072e-05 7.054717e-05 -5.03544e-05
000350 a2 36 80 b9 7f 61 88 b6 39 62 a5 b8 12 a0 12 39
       -0.00024454767 -4.064466e-06 -7.8861085e-05 0.00013983276
000360 69 da b0 38 7d c0 44 b8 6b cf 83 b9 85 5f b4 37
       8.433016e-05 -4.690931e-05 -0.00025140806 2.1502152e-05
000370 3c b1 49 39 74 a8 8d b8 27 b3 4c 39 bb 5b d6 b8
       0.00019234879 -6.754781e-05 0.00019521696 -0.00010221401
000380 86 e2 95 b9 5a 2a a9 b8 13 72 2e b7 1a 56 37 b8
       -0.00028588268 -8.0664366e-05 -1.0397768e-05 -4.371079e-05
000390 8f 5b e4 37 ed 6f df b9 5f 48 9c b9 91 4a b0 39
       2.7222353e-05 -0.00042617266 -0.0002980856 0.00033624892
0003a0 83 0c 6d 39 e3 af 4e 39 e7 20 08 b8 84 dc 8f 39
       0.00022606742 0.00019711214 -3.245557e-05 0.00027439382
0003b0 dc 62 2b b8 d1 2e 8f b7 58 6e 17 b7 fb 2c 14 b9
       -4.0861647e-05 -1.7068729e-05 -9.025993e-06 -0.00014131136
0003c0 73 45 33 39 83 a6 49 37 b7 77 be 36 27 9b 38 b8
       0.00017096642 1.2019303e-05 5.676378e-06 -4.4013515e-05
0003d0 e8 31 3b b9 da a9 8b b8 74 05 88 b8 05 2d 85 39
       -0.00017852301 -6.659674e-05 -6.486001e-05 0.0002540128
0003e0 f4 5b 86 36 c3 b0 e5 b8 92 0e 8c b9 86 3c 3e b8
       4.004216e-06 -0.00010952495 -0.00026713737 -4.5355897e-05
0003f0 f4 67 80 39 01 10 da b8 54 e1 98 39 60 8c 99 b8
       0.00024491514 -0.00010398031 0.00029159582 -7.3217554e-05

exp_avg_sq f4 [16, 32]
000000 c7 68 ae 37 af 72 28 38 44 2e 6e 37 dc 20 54 37
       2.0791207e-05 4.016113e-05 1.41966775e-05 1.2643835e-05
000010 87 a7 58 37 18 8b 5c 37 ff f3 14 37 e4 ca 95 38
       1.2913609e-05 1.3145407e-05 8.878297e-06 7.142665e-05
000020 c9 e7 63 38 3b e6 15 37 f8 4a 8c 35 53 cd 06 39
       5.4336884e-05 8.934697e-06 1.0452632e-06 0.00012855725
000030 1f 81 56 36 8b 92 7a 35 26 3a ac 36 fa b6 0c 38
       3.1963643e-06 9.3345506e-07 5.132769e-06 3.354901e-05
000040 80 1e f4 37 53 8a 89 36 f7 14 51 36 0a 8e 91 36
       2.910127e-05 4.099021e-06 3.115563e-06 4.3378723e-06
000050 04 24 f1 37 31 52 1e 37 d5 61 0c 36 78 0d 51 38
       2.874621e-05 9.436671e-06 2.0918571e-06 4.9842027e-05
000060 79 b7 37 37 15 01 c5 36 01 7a 29 37 9d f1 f8 36
       1.0950368e-05 5.8711835e-06 1.0101591e-05 7.4191034e-06
000070 8c 4c ba 37 f4 47 87 36 d4 91 03 38 03 68 85 36
       2.2208573e-05 4.03169e-06 3.1368647e-05 3.9758174e-06
000080 5b 2a 27 31 80 fe d0 32 24 6c 54 32 50 6f 01 33
       2.4325775e-09 2.433012e-08 1.23646124e-08 3.013639e-08
000090 38 5a bd 32 f2 9f 12 32 b4 a2 6b 2e 5e 50 2a 32
       2.2043523e-08 8.534686e-09 5.3577323e-11 9.913576e-09
0000a0 ce 49 ae 33 45 20 c2 2f e3 07 0e 33 4d ed fc 33
       8.1159314e-08 3.5311323e-10 3.3069124e-08 1.1777829e-07
0000b0 47 5c a5 30 d0 ad ca 2c c9 32 93 30 ba 2d 18 35
       1.2031557e-09 5.7604824e-12 1.0710092e-09 5.6690953e-07
0000c0 8a 79 5c 34 88 cc a1 30 25 bd 97 2f e3 ea 98 30
       2.0533312e-07 1.1772423e-09 2.7601135e-10 1.1126214e-09
0000d0 7b 76 57 32 d0 c9 dd 30 72 e2 00 2f a5 8f 1f 34
       1.2541586e-08 1.6137225e-09 1.1721982e-10 1.4860287e-07
0000e0 47 c9 2b 31 93 bf 1e 32 8f eb aa 2f 5e 08 23 33
       2.4998188e-09 9.240369e-09 3.1090194e-10 3.7959005e-08
0000f0 9c 65 18 34 94 30 d8 30 b5 3d 54 33 ae 40 41 30
       1.4193068e-07 1.5729875e-09 4.941622e-08 7.0304906e-10
000100 5b 97 65 36 fa 5a b0 37 ec b5 c9 36 ee 5b 84 36
       3.421176e-06 2.10232e-05 6.0114453e-06 3.9446086e-06
000110 b6 3b c9 36 bf ae f5 36 12 1b 54 36 42 64 4b 38
       5.997218e-06 7.321912e-06 3.1606219e-06 4.8492344e-05
000120 f3 ac 15 38 a9 7d 9e 36 54 ab a4 35 5a e1 c3 38
       3.568544e-05 4.7233957e-06 1.2268815e-06 9.3402996e-05
000130 e6 f0 dc 35 64 af a5 35 e2 84 a5 34 94 25 ae 37
       1.6461388e-06 1.2344503e-06 3.083033e-07 2.0759915e-05
000140 15 27 90 37 38 c1 d1 35 dd cf ee 34 2c 95 ab 35
       1.7184337e-05 1.5627948e-06 4.4482195e-07 1.2783908e-06
000150 ac 81 a2 37 e9 23 c5 35 6f be 8d 34 06 c7 03 38
       1.9372288e-05 1.4688095e-06 2.6401855e-07 3.141819e-05
000160 4d 43 8b 35 67 eb 3d 35 15 f4 90 36 50 dc 14 35
       1.0375894e-06 7.075054e-07 4.3199493e-06 5.5454893e-07
000170 be 76 91 37 ae af 1f 35 a3 69 c2 37 b8 3c 8b 35
       1.734064e-05 5.9487763e-07 2.3175793e-05 1.0373979e-06
000180 2d 69 b4 37 86 fb 8f 35 f3 ee ae 37 e3 0a a3 37
       2.1506648e-05 1.0727533e-06 2.0853686e-05 1.9436184e-05
000190 81 6f d2 35 00 5e 7e 36 01 0d 01 36 7c fb 08 36
       1.5678671e-06 3.7903665e-06 1.9230067e-06 2.0411962e-06
0001a0 a5 9b 8b 35 5e 6d 76 35 5d ec 55 36 ba 4c a9 36
       1.0401606e-06 9.180129e-07 3.1877055e-06 5.0455246e-06
0001b0 29 4a 13 37 e7 f7 21 36 e3 2c cd 36 17 bb 97 36
       8.7791495e-06 2.4135168e-06 6.1147016e-06 4.521931e-06
0001c0 e3 40 c7 36 29 3d 41 37 92 b3 08 37 b2 74 2e 36
       5.938216e-06 1.1517936e-05 8.148041e-06 2.5995946e-06
0001d0 29 61 7b 36 a3 47 66 37 3e 4e be 35 5a 3e 1b 36
       3.745847e-06 1.37257475e-05 1.4178875e-06 2.3133093e-06
0001e0 b0 43 c0 37 bc b1 fd 36 1a 66 1f 36 80 b7 12 37
       2.2919703e-05 7.5606786e-06 2.3752277e-06 8.745003e-06
0001f0 57 47 e2 36 ba 7a 85 36 74 34 fe 35 dc 3f 88 36
       6.74363e-06 3.977996e-06 1.8939741e-06 4.06055e-06
000200 c2 8e 74 38 8c 90 30 35 19 0a 8f 38 35 cf 62 38
       5.8307087e-05 6.577545e-07 6.820652e-05 5.4075575e-05
000210 b7 54 b0 36 5c b5 4a 37 58 95 e6 36 a0 e1 88 35
       5.255071e-06 1.2082364e-05 6.87192e-06 1.0198455e-06
000220 f7 fd 30 34 7a 5c 36 36 66 4f 0a 37 42 4c 88 35
       1.6483669e-07 2.7173942e-06 8.243927e-06 1.0154984e-06
000230 56 c1 c4 37 d1 26 d0 36 d1 99 88 37 6f c1 10 37
       2.345505e-05 6.203402e-06 1.628409e-05 8.628106e-06
000240 c9 7c b1 37 6c e5 0d 38 e0 31 ab 37 56 70 f1 36
       2.1158152e-05 3.3830685e-05 2.0408013e-05 7.1954373e-06
000250 b2 bf 3d 36 61 3a 1d 38 ed d0 ce 36 51 04 d4 35
       2.8274776e-06 3.7486087e-05 6.1636006e-06 1.5796487e-06
000260 07 1f 84 38 5a 3e ad 37 84 ee d9 36 47 54 be 37
       6.30003e-05 2.0652242e-05 6.494871e-06 2.268901e-05
000270 0e 12 e2 37 a8 d6 3c 37 ce 59 ad 34 a8 cb 2a 37
       2.6949707e-05 1.1255652e-05 3.2289103e-07 1.0180207e-05
000280 e0 3e a8 38 c3 30 e2 37 18 48 9a 37 e6 76 24 38
       8.022576e-05 2.6964006e-05 1.8391802e-05 3.921138e-05
000290 d6 44 e1 37 46 e6 37 38 39 9b ac 37 00 ac b2 37
       2.6854144e-05 4.384506e-05 2.0576279e-05 2.1299347e-05
0002a0 64 46 80 37 2b 5d ff 36 03 c3 15 37 31 e8 8b 38
       1.5291567e-05 7.6104384e-06 8.926497e-06 6.6712855e-05
0002b0 bd 4d 8c 37 9d 56 c5 36 f8 01 cb 36 1c 25 a7 38
       1.67255e-05 5.8811406e-06 6.0501006e-06 7.970093e-05
0002c0 61 7b c0 37 d2 bd 22 37 16 41 10 37 b0 c2 fb 36
       2.2945636e-05 9.700148e-06 8.598223e-06 7.5030475e-06
0002d0 be 54 85 38 27 e1 91 37 4c 75 b2 37 ba 74 21 38
       6.357719e-05 1.7390192e-05 2.1273874e-05 3.84941e-05
0002e0 00 bd 73 37 ad c6 6f 37 bf 5d 9f 37 c8 10 b9 37
       1.4527934e-05 1.4291768e-05 1.8997931e-05 2.2061533e-05
0002f0 44 1f ac 37 b5 82 49 37 f5 33 9d 37 84 aa 8d 37
       2.0518557e-05 1.2010966e-05 1.8740053e-05 1.6887912e-05
000300 da 1d ff 37 cc 32 fd 37 a0 a5 33 36 b2 4c 30 37
       3.041227e-05 3.0183604e-05 2.6769485e-06 1.05082745e-05
000310 ce 23 48 37 5e dd 08 38 2b 7a 4b 37 93 fd 6e 37
       1.1929265e-05 3.263109e-05 1.2128187e-05 1.4244945e-05
000320 24 7f 33 37 b0 0b 21 36 41 a5 e9 35 5e f6 f9 37
       1.0698834e-05 2.3997673e-06 1.7407948e-06 2.9797837e-05
000330 6c 24 a3 36 2d cf d4 35 19 ca 77 35 32 94 1c 38
       4.8620186e-06 1.5855527e-06 9.230876e-07 3.7331316e-05
000340 8a 96 c1 36 20 0d e9 35 a4 f3 0b 36 b3 60 07 36
       5.7693733e-06 1.7363673e-06 2.0854432e-06 2.0172854e-06
000350 26 c0 e3 37 55 10 7c 36 e2 95 16 37 22 eb 7d 37
       2.7149985e-05 3.7560433e-06 8.975594e-06 1.5134721e-05
000360 5f ab 1d 36 42 89 3b 36 99 69 65 37 46 45 c4 36
       2.3494574e-06 2.7945066e-06 1.367405e-05 5.8493197e-06
000370 b2 a4 7d 36 7f 2b c9 36 ae cb 09 37 7b 29 b0 36
       3.7795803e-06 5.9953304e-06 8.213259e-06 5.2500377e-06
000380 3a 56 ef 38 ff 2b 97 38 5b 29 2c 37 18 a4 dd 37
       0.00011412469 7.208436e-05 1.0261628e-05 2.6421665e-05
000390 37 99 1a 38 40 25 a0 38 9e 12 32 38 28 57 07 38
       3.6859154e-05 7.636333e-05 4.2455846e-05 3.226768e-05
0003a0 dd e1 ee 37 c2 78 e0 36 d1 74 c6 36 72 bf 90 38
       2.8476987e-05 6.6897783e-06 5.914459e-06 6.9021145e-05
0003b0 7b d2 71 37 85 60 2e 36 68 e7 ab 35 4d a4 b0 38
       1.4413726e-05 2.5984202e-06 1.2807841e-06 8.4229374e-05
0003c0 5f 48 cd 37 b0 15 3b 36 2d db 9d 36 8b 3b 15 36
       2.4471605e-05 2.7877795e-06 4.70448e-06 2.2237389e-06
0003d0 91 3f 97 38 03 66 25 37 34 93 0f 38 ee 88 1a 38
       7.212081e-05 9.858518e-06 3.423095e-05 3.6843987e-05
0003e0 65 e1 9f 36 46 b4 83 37 db a3 21 38 dd 1d da 37
       4.7648086e-06 1.5700363e-05 3.8537994e-05 2.6001531e-05
0003f0 4c 1b 15 37 ae 54 e5 37 03 e2 87 37 f9 a8 c5 36
       8.887448e-06 2.733836e-05 1.6198499e-05 5.8907285e-06

exp_avg f4 [16]
000000 f5 5f aa b8 90 de c1 1a eb 00 a1 b8 6c ed 07 b9
       -8.124105e-05 8.01825e-23 -7.677249e-05 -0.0001296305
000010 5b 2f 25 b9 bf e0 1f b8 ad 37 be b8 0e a6 97 b8
       -0.00015753268 -3.8117865e-05 -9.0702764e-05 -7.231171e-05
000020 37 29 b7 b8 e3 97 17 b9 09 c1 10 b9 56 03 00 00
       -8.733797e-05 -0.00014457064 -0.00013804821 1.197e-42
000030 39 50 af b8 b7 20 36 b8 f0 73 51 b8 f1 0b 32 b9
       -8.359593e-05 -4.342265e-05 -4.993746e-05 -0.00016979851

exp_avg_sq f4 [16]
000000 47 79 a1 38 2e ce f2 34 38 d6 37 38 15 33 2b 37
       7.699668e-05 4.5226028e-07 4.3830107e-05 1.0204288e-05
000010 56 15 29 38 64 46 43 39 17 f9 2a 38 45 8f 2d 39
       4.031261e-05 0.00018622872 4.076314e-05 0.00016551938
000020 ef a1 e7 38 7b 8e 2e 37 50 5f 48 38 33 cd 20 34
       0.00011045101 1.0404382e-05 4.7772483e-05 1.4975812e-07
000030 e9 5c 7e 37 b9 22 33 37 02 c8 2a 37 e1 f6 6a 38
       1.5161212e-05 1.0677316e-05 1.0179358e-05 5.601987e-05
