homework1/lightning_logs/version_8/checkpoints/epoch=99-step=900.ckpt (torch, 22040 bytes, 18 tensors)

network.0.weight f4 [32, 13]
0	0x3e0ad66f	0.13558362
1	0xbeb3b977	-0.35102436
2	0x3e03dbb5	0.1287678
3	0x3e117f35	0.14208682
4	0xbd04022a	-0.032228626
5	0x3dd173dd	0.10227177
6	0x3e208e89	0.15679373
7	0xbe4d9b9b	-0.2007889
8	0x3e097a36	0.13425526
9	0x3e2351da	0.15949193
10	0x3e45674b	0.19277684
11	0x3e963aff	0.29341885
12	0x3ec04342	0.37551314
13	0xbdd66430	-0.10468328
14	0x3dfb737b	0.122778855
15	0x3ca7bcda	0.020475794
16	0x3e25d5a1	0.16194774
17	0x3e00d0e0	0.1257968
18	0xbea241c4	-0.316908
19	0xbe9fa6e6	-0.3118202
20	0xbe27c442	-0.1638346
21	0xbea531b7	-0.32264492
22	0x3ecc1006	0.39855975
23	0xbed6ef8a	-0.4197963
24	0xbeb478b3	-0.35248336
25	0x3d86af90	0.06576455
26	0xbeea592a	-0.45771152
27	0xbdee9ef4	-0.11651412
28	0x3e030628	0.12795317
29	0x3e0acb21	0.1355405
30	0x3e9dad33	0.30796203
31	0xbe738c04	-0.2378388
32	0xbdeb3ff4	-0.114868075
33	0xbe1bfa68	-0.15232241
34	0x3eb6420b	0.35597262
35	0xbd66efae	-0.05638092
36	0x3eb5cb42	0.35506636
37	0x3dc9fb6a	0.098624066
38	0xbd3a483f	-0.045479055
39	0x3de6feaf	0.11279046
40	0x3ea8aebe	0.32945818
41	0xbc384eda	-0.011249268
42	0x3e4e57ba	0.20150653
43	0x3dae2636	0.08503382
44	0x3e0109fe	0.12601468
45	0xbefa116b	-0.48841414
46	0x3da60ac1	0.0810752
47	0xbe18e12c	-0.14929646
48	0x3ee7b01c	0.45251548
49	0xbef5eed4	-0.48033774
50	0xbe6fcd9b	-0.23418276
51	0xbe03b7ca	-0.12863079
52	0xbc97a76d	-0.018512452
53	0xbe6f312a	-0.23358598
54	0xbed21604	-0.41032422
55	0xbf0260d0	-0.50928974
56	0xbd44ee7f	-0.04807901
57	0x3e13c9a0	0.14432383
58	0x3e596420	0.21229601
59	0x3a7d5744	0.00096641877
60	0xbec67401	-0.3876038
61	0xbdf22a48	-0.11824471
62	0x3ec76638	0.38945174
63	0x3e3ebed0	0.18627477
64	0x3d416cec	0.047223017
65	0x3dfdf85a	0.12400885
66	0xbe511ae3	-0.20420413
67	0x3dc98c0d	0.09841166
68	0xbed0ca87	-0.40779516
69	0x3d9c0a21	0.076191194
70	0x3ea458db	0.3209904
71	0x3ef10b9a	0.47079164
72	0xbe0d7dca	-0.13817516
73	0x3da61235	0.081089415
74	0xbb2e4195	-0.0026589383
75	0xbde607ea	-0.11231978
76	0x3eb83276	0.35976
77	0x3eba2ca7	0.36362192
78	0x3d92dca8	0.07170993
79	0x3d56ae4e	0.052412324
80	0xbce061a2	-0.027390305
81	0x3ea21580	0.31657028
82	0xbe5ec35a	-0.21754208
83	0x3de4acb3	0.11165752
84	0x3e9cd46a	0.3063081
85	0x3e88bccc	0.2670654
86	0x3eceaefe	0.40367883
87	0xbd6d5ff9	-0.057952855
88	0x3c858ea0	0.01630336
89	0x3e307986	0.17233858
90	0xbe8586a1	-0.26079276
91	0x3d1d61c8	0.03842333
92	0x3ea29154	0.31751502
93	0x3ec5868e	0.3857922
94	0xbc75d485	-0.015004282
95	0x3e48be21	0.19603778
96	0xbea767ae	-0.3269629
97	0xbec32d34	-0.38120425
98	0xbdc3a88e	-0.09553634
99	0xbec8f548	-0.39249635
100	0x3e8a3c17	0.2699897
101	0xbe5a047d	-0.21290775
102	0xbea5c648	-0.3237784
103	0xbd902a4f	-0.0703932
104	0xbde40143	-0.11133053
105	0x3ce91063	0.028450197
106	0xbc99bb04	-0.018765934
107	0xbcb21a0f	-0.021740941
108	0x3db09af0	0.08623302
109	0x3e064e93	0.13115911
110	0xbefc96c7	-0.49333784
111	0xbd75db5d	-0.060023654
112	0xbde6ef5b	-0.11276122
113	0x3ee167e3	0.44024572
114	0xbec367bd	-0.38165084
115	0xbcaef9ed	-0.021359408
116	0xbe11b70d	-0.14229985
117	0x3b82d2a7	0.003992397
118	0xbda7671a	-0.08173962
119	0x3a5fefa1	0.00085424824
120	0x3d742a60	0.059610724
121	0x3e231eb7	0.15929686
122	0xbe887e5c	-0.26658905
123	0xbe057a69	-0.13034977
124	0xbe3ad3c9	-0.18244852
125	0x3d92c334	0.07166138
126	0xbe91fc24	-0.2851268
127	0x3e46dc76	0.19420037
128	0xbd36e544	-0.04465224
129	0xbed11d5a	-0.40842706
130	0x3cecae8f	0.02889183
131	0xbea30dd1	-0.3184648
132	0xbe75ab3b	-0.239911
133	0x3e2cc447	0.16871749
134	0xbc93b677	-0.018031342
135	0x3e706422	0.23475698
136	0x3cc111dd	0.023568088
137	0xbdca0d45	-0.09865812
138	0xbe6182b9	-0.22022523
139	0x3d547b19	0.051875208
140	0x3dcc20fb	0.09967228
141	0x3eac9a05	0.33711258
142	0xbea322aa	-0.31862384
143	0xbebfadee	-0.37437385
144	0x3dd7bb7d	0.105338074
145	0xbe3f850b	-0.18703096
146	0x3b7a802e	0.0038223374
147	0x3da5ab69	0.080893345
148	0x3d6dcc1f	0.058055993
149	0xbe1b69ed	-0.15177126
150	0x3e3212dd	0.17390008
151	0x3e1becf6	0.15227112
152	0x3d6e3baf	0.058162387
153	0x3e94b0bf	0.29041097
154	0x3e51645a	0.20448437
155	0xbeea8f1e	-0.45812315
156	0xbeb00caf	-0.34384677
157	0xbeb2d9cb	-0.34931788
158	0xbeaa429e	-0.3325395
159	0x3da2d058	0.07949895
160	0x3de11609	0.10990531
161	0x3d55e19f	0.052217122
162	0xbe61b2b1	-0.22040822
163	0xbb9e9e05	-0.0048406147
164	0xbd6c5358	-0.05769667
165	0xbf04d3a9	-0.5188547
166	0x3e81ebc3	0.25375184
167	0x3e978e34	0.2960068
168	0xbe17ccfb	-0.14824288
169	0x3eb27528	0.34855008
170	0xbd220a40	-0.039560556
171	0xbd7b335b	-0.061328273
172	0xbe966920	-0.2937708
173	0xbe08983a	-0.1333932
174	0x3db958d0	0.09050143
175	0xbd8d7157	-0.069063835
176	0xbd81c264	-0.06335905
177	0x3e171c5b	0.1475691
178	0x3e9d029f	0.30666062
179	0xbeafbbda	-0.34323007
180	0xbec6ccde	-0.38828176
181	0x3e0d38b4	0.13791162
182	0x3e5e9afb	0.21738808
183	0xbd343e9f	-0.044005033
184	0x3d6f3930	0.058404148
185	0xbdaa4601	-0.083141334
186	0xbd4b08e5	-0.04956903
187	0x3e30e847	0.17276107
188	0x3e5a1cb4	0.21300012
189	0x3d10392b	0.03521077
190	0xbd9930bd	-0.07479999
191	0xbe263878	-0.16232479
192	0x3c76179f	0.01502028
193	0x3e0849bf	0.13309382
194	0x3ecb9345	0.39760795
195	0x3ec5e97c	0.38654697
196	0x3d02e76b	0.03195898
197	0x3e95654c	0.29178846
198	0xbec2bdf6	-0.38035554
199	0x3e273dde	0.16332194
200	0x3acb873d	0.0015527975
201	0x3e3ee287	0.18641101
202	0x3de27809	0.11058051
203	0x3e536216	0.20642886
204	0xbd8224d9	-0.063546844
205	0xbc6b42f1	-0.014359222
206	0x3efd94e1	0.49527648
207	0x3e9facf3	0.31186637
208	0x3ed93844	0.4242574
209	0x3e31e222	0.17371419
210	0x3eca182d	0.3947157
211	0xbef7a636	-0.48368996
212	0x3d796fba	0.060897566
213	0xbccc8903	-0.024967676
214	0x3e4ffb90	0.20310807
215	0xbe5278de	-0.2055392
216	0xbd88012c	-0.066408485
217	0x3e3120e6	0.17297706
218	0x3e90acad	0.2825674
219	0x3e86620d	0.26246682
220	0x3d834c88	0.064110816
221	0xbe56ab54	-0.20963794
222	0x3ca26d7c	0.019827597
223	0xbe0747ae	-0.13210937
224	0xbdf62a5c	-0.12019798
225	0xbea86303	-0.3288804
226	0xbdaad8f3	-0.08342161
227	0xb8878f84	-6.4640335e-05
228	0x3e5987b9	0.2124318
229	0xbea4257f	-0.32059857
230	0x3e328ffb	0.17437737
231	0xbeb6ac91	-0.35678533
232	0xbe8c6d59	-0.27427176
233	0xbea67f86	-0.32519168
234	0x3ecc2373	0.39870796
235	0x3e23b629	0.15987457
236	0x3e0903e6	0.13380393
237	0xbe880112	-0.26563317
238	0x3e76379f	0.24044655
239	0x3e44fab5	0.19236262
240	0x3e47153c	0.19441694
241	0xbd296e70	-0.041365087
242	0x3d380f7e	0.04493665
243	0x3c62eaf0	0.013849959
244	0x3d8b363e	0.06797455
245	0xbd6c46b8	-0.05768463
246	0x3ec2dbbf	0.38058278
247	0xbe0adc41	-0.13560583
248	0x3c3a7b31	0.01138191
249	0xbe8c21f4	-0.27369654
250	0x3ec76653	0.38945255
251	0xbe7e7ee8	-0.24853098
252	0xbeaeab6c	-0.3411516
253	0x3e3f41f8	0.18677509
254	0xbdafdc8c	-0.08586988
255	0x3dcd53be	0.10025738

network.0.bias f4 [32]
0	0x3e814cd3	0.25253925
1	0xbdf576b5	-0.11985532
2	0x3dd05f6b	0.101744495
3	0x3df751c2	0.12076141
4	0x3cf6c042	0.030120973
5	0x3d91d2e3	0.071203016
6	0x3ea5fd0e	0.32419628
7	0x3e2a8558	0.16652429
8	0x3e127fa4	0.14306504
9	0x3e8edd73	0.27903327
10	0x3eb90b29	0.36141327
11	0x3e16fe49	0.1474544
12	0x3cfe6a63	0.031056589
13	0xbd24bb84	-0.04021789
14	0x3eaa70bf	0.33289143
15	0x3ec295ab	0.38004813
16	0x3e82ecb4	0.25571215
17	0x3ebaa31d	0.3645257
18	0x3e48a2c7	0.19593345
19	0x3eb01618	0.34391856
20	0x3eb64c7b	0.35605225
21	0x3ee02ca7	0.43784067
22	0x3e148b8d	0.1450636
23	0xbd789f7e	-0.06069898
24	0x3d1bca7e	0.03803491
25	0xbd9a7b13	-0.07543006
26	0x3ebadf2e	0.36498398
27	0x3e9d915f	0.30774972
28	0xbe0edc3a	-0.13951197
29	0x3ebd32c8	0.36952806
30	0xbd6ef049	-0.058334623
31	0x3ed610df	0.41809747

network.2.weight f4 [16, 32]
0	0x3de93cf3	0.11388578
1	0x3d1309da	0.035898067
2	0xbd629221	-0.05531514
3	0x3e9660d6	0.29370755
4	0xbe97b0e4	-0.29627144
5	0xbe2d4cc3	-0.16923814
6	0xbe8348e6	-0.25641555
7	0x3dbfe7c2	0.09370376
8	0x3e96b932	0.29438168
9	0xbaea8346	-0.0017891906
10	0xbd476b86	-0.048686527
11	0x3d0f3e88	0.034971744
12	0xbb120b68	-0.002228463
13	0x3deb410e	0.114870176
14	0xbe5068c7	-0.2035247
15	0xbdaadeb4	-0.083432585
16	0x3e5e7f46	0.21728238
17	0x3de56262	0.11200406
18	0x3dfb4ac1	0.122701176
19	0xbcef4cb1	-0.029211374
20	0xbe763a79	-0.24045743
21	0xbe157ab5	-0.1459759
22	0xbeb3187e	-0.34979624
23	0x3da02805	0.07820133
24	0xbdf74cf7	-0.12075227
25	0xbd8f25da	-0.069896415
26	0xbd8c1530	-0.06839979
27	0x3c8957ac	0.016765438
28	0x3dd05ef7	0.10174363
29	0xbe53ed98	-0.20696104
30	0x3eab6820	0.3347788
31	0x3ddc4b08	0.107564986
32	0x3e0c9f69	0.13732685
33	0x3e89a758	0.26885486
34	0x3e0dc36f	0.13844083
35	0x3e21593a	0.15756693
36	0xbd4faf8c	-0.050704524
37	0xbc2ba9af	-0.010477467
38	0x3da49395	0.080359615
39	0x3e1b3b83	0.1515942
40	0x3ce8d4df	0.028421817
41	0x3e1b2fca	0.15154949
42	0x3e8b6a46	0.27229518
43	0x3e9b48d1	0.30328992
44	0x3e5b09cc	0.21390456
45	0x3e33d7fe	0.17562863
46	0xbe6870ac	-0.22699231
47	0xbdeb20c2	-0.114808574
48	0xbe466cc6	-0.19377431
49	0x3e7c52fd	0.24641033
50	0xbe033f19	-0.12817039
51	0x3e91961f	0.28434846
52	0xbda7186d	-0.08158956
53	0xbd3de08d	-0.046356726
54	0x3ea95696	0.33073872
55	0x3e4af8bd	0.19821449
56	0x3e9c10f9	0.304817
57	0x3e0d2a65	0.13785703
58	0x3ea5b568	0.32364964
59	0x3ddee12d	0.108827926
60	0x3bbd7256	0.005781452
61	0x3dea61ee	0.1144446
62	0x3e69dbe3	0.22837786
63	0xbd157483	-0.036488067
64	0x3e3887ce	0.18020555
65	0x3ea31ee7	0.31859514
66	0xbe5fecb7	-0.21867643
67	0x3c48b3e8	0.012249924
68	0x3e0ea0bb	0.13928501
69	0x3e5db28a	0.21650138
70	0x3cb1f9bf	0.021725534
71	0x3e8a7d04	0.27048504
72	0xbd338a2c	-0.043832943
73	0xbe37911d	-0.1792645
74	0xbdbabc8e	-0.09117995
75	0xbda5fc7b	-0.081047975
76	0xbe3e2a68	-0.18570864
77	0x3e9f9dd5	0.31175104
78	0x3d25a845	0.040443677
79	0x3e88c9df	0.26716515
80	0x3e9622ca	0.29323417
81	0x3d939ede	0.07208036
82	0x3e220be0	0.15824842
83	0xbdbecbc2	-0.093162075
84	0x3c6f72ad	0.014614743
85	0x3b6b1fac	0.0035877032
86	0xbe8da3ae	-0.2766394
87	0xbe3d9d92	-0.1851714
88	0xbe2ebdee	-0.1706464
89	0xbe150f43	-0.14556603
90	0xbe1487d3	-0.14504938
91	0x3da34155	0.079714455
92	0xbe6489cb	-0.22318189
93	0x3e86ef48	0.26354432
94	0x3e1630a5	0.14666994
95	0x3e7c6e06	0.24651346
96	0x3e72ecc2	0.23723128
97	0xbd4f86ed	-0.050665785
98	0x3e1f248a	0.15541282
99	0xbe30d6cc	-0.17269439
100	0x3e9c34f9	0.30509165
101	0x3e8851b5	0.26624838
102	0x3e33a67f	0.17543982
103	0xbe18375f	-0.14864872
104	0xbe2719df	-0.16318463
105	0x3e9a2448	0.30105805
106	0x3e8db8b6	0.27679986
107	0x3ea9f985	0.3319818
108	0x3ea26a4f	0.31721732
109	0xbdc32a56	-0.09529559
110	0x3cd7d86a	0.026348311
111	0x3e44a0a8	0.1920191
112	0x3ec88f61	0.3917189
113	0x3d375333	0.04475708
114	0x3e83054b	0.25589976
115	0x3e5c497f	0.21512412
116	0x3e60311d	0.21893735
117	0x3ebc5fd3	0.36791858
118	0x3e50c0c6	0.20386037
119	0x3dc0c18a	0.09411915
120	0x3e0df087	0.13861285
121	0x3e178f8e	0.14800856
122	0x3d2c7218	0.042100996
123	0x3e30b8a4	0.17257935
124	0x3d1b26b6	0.037878715
125	0x3e41beb2	0.189204
126	0xbcc4a5f1	-0.024004908
127	0x3e06d06d	0.13165446
128	0x3c5f972c	0.013646882
129	0x3ea7b65c	0.32756317
130	0xbe5e2259	-0.2169279
131	0x3e7e6212	0.24842098
132	0xbde9ee8b	-0.114224516
133	0xbe5d9986	-0.21640596
134	0xbe08e235	-0.13367541
135	0x3d83aed1	0.06429828
136	0x3dcd3fe1	0.100219496
137	0x3d3bdd93	0.045865607
138	0xbd215ae0	-0.039393306
139	0x3d139c06	0.036037467
140	0xbe49ce6e	-0.19707653
141	0x3e680229	0.22657074
142	0xbe6c62a9	-0.23084511
143	0xbe5ad0cc	-0.21368712
144	0xbdea4765	-0.11439399
145	0x3e18e352	0.14930466
146	0x3d62965c	0.055319175
147	0xbe57669a	-0.21035233
148	0x3daa645c	0.08319923
149	0x3e0e6673	0.13906269
150	0xbe8ea3b6	-0.27859277
151	0xbd6bf990	-0.05761105
152	0xbe93b769	-0.28850868
153	0xbdaf5557	-0.08561199
154	0x3deb97fd	0.11503599
155	0x3e9bc812	0.3042608
156	0x3b3136db	0.0027040753
157	0xbd1a4b17	-0.037669268
158	0x3e84ce18	0.25938487
159	0x3e047bbd	0.12937827
160	0xbe39167b	-0.18074982
161	0xbcb0af3a	-0.02156793
162	0x3c89b9f9	0.016812311
163	0x3c8f360d	0.017481828
164	0xbd66f647	-0.056387212
165	0xbd4aa8ed	-0.049477506
166	0xbddc1bbb	-0.10747477
167	0xbd9885e0	-0.0744741
168	0x3e0325d0	0.12807393
169	0x3c5f529f	0.013630538
170	0xbe29c926	-0.16580638
171	0x3e091ba6	0.13389453
172	0x3dd61118	0.10452479
173	0x3e1e1122	0.15436223
174	0xbd08b1d8	-0.03337273
175	0xbe108b4b	-0.14115636
176	0xbd804e47	-0.0626493
177	0xbd5b2a7b	-0.05350731
178	0xbd07e021	-0.03317273
179	0x3cc607f1	0.024173709
180	0xbd5a9520	-0.053364873
181	0x3da94be9	0.08266432
182	0xbe30e026	-0.17273006
183	0xbda59c3b	-0.08086439
184	0x3df5ad70	0.11995971
185	0xbd923522	-0.071390405
186	0x3d83d26a	0.06436618
187	0xbd0cf1ce	-0.03441029
188	0x3dd20c50	0.10256255
189	0x3d0028fb	0.031289082
190	0xbdb61d58	-0.088923156
191	0x3c8d3725	0.017238209
192	0xbdb0202c	-0.08599886
193	0x3e7d9bd1	0.2476647
194	0x3e94096f	0.28913447
195	0x3e757c26	0.2397314
196	0x3e0245ec	0.12721986
197	0x3db7afb4	0.089690596
198	0x3deea89d	0.11653254
199	0x3e875a08	0.26435876
200	0xbc0d8f60	-0.00864014
201	0x3e9700af	0.2949271
202	0xbbf215dc	-0.0073878597
203	0x3e12d655	0.14339574
204	0x3e9968d8	0.29962802
205	0x3e1646f4	0.14675504
206	0xbbef83d8	-0.007309418
207	0xbe226a81	-0.1586094
208	0xbe73c64c	-0.23806113
209	0x3ea2a1f6	0.3176419
210	0x3d34ea1f	0.044168588
211	0x3e5ff704	0.21871573
212	0xbe10e887	-0.14151202
213	0x3d8a8d40	0.067652225
214	0x3e7f687b	0.249422
215	0x3c221e6b	0.0098949475
216	0x3d725378	0.059161633
217	0x3ec2b04f	0.38025138
218	0x3e9dc066	0.3081085
219	0x3e7be2e5	0.24598272
220	0x3e73ff59	0.23827876
221	0xbcb1a4a7	-0.021684958
222	0x3e358193	0.1772521
223	0xbe574b18	-0.2102474
224	0xbd2a78ae	-0.041618995
225	0xbe8839dd	-0.26606646
226	0x3e52c9ef	0.20584844
227	0xbe56721e	-0.2094197
228	0xbc5f931b	-0.0136459125
229	0xbdb69e22	-0.0891688
230	0x3dedc8d9	0.11610574
231	0xbd474e78	-0.048658818
232	0xbe287907	-0.16452418
233	0x3dcfee5f	0.101528876
234	0x3eb5b671	0.35490754
235	0x3e2df4d4	0.16987926
236	0x3e6e23ad	0.23255797
237	0xbeaebd56	-0.34128827
238	0xbd9a0261	-0.07519985
239	0xbc31b363	-0.010845992
240	0xbe8879fc	-0.26655567
241	0x3e706be8	0.23478663
242	0xbe06fa7e	-0.13181493
243	0x3dda6d5a	0.106653884
244	0xbd20d5d5	-0.039266426
245	0x3e904e2e	0.28184646
246	0x3e704552	0.23463944
247	0x3e4c9fb5	0.19982798
248	0x3e7af07d	0.24505801
249	0x3e99911c	0.29993522
250	0x3e5891c4	0.21149355
251	0x3d9dbf07	0.07702451
252	0x3e28f1fd	0.16498561
253	0x3ceccb9f	0.028905688
254	0x3e378229	0.17920746
255	0xbe66bb06	-0.22532281

network.2.bias f4 [16]
0	0x3e3022ec	0.17200822
1	0x3d0daeba	0.03459046
2	0x3e728b69	0.23685993
3	0xbaafbd12	-0.0013407788
4	0x3e473a79	0.194559
5	0xbe3b1fb6	-0.18273816
6	0x3dfbc916	0.122942135
7	0x3e503205	0.20331581
8	0x3e6b6d0a	0.22990814
9	0x3d193cc3	0.037411463
10	0x3de71477	0.112832
11	0xbe178c24	-0.14799553
12	0x3e96f277	0.2948186
13	0x3d3483db	0.04407106
14	0x3e05dbb7	0.13072096
15	0x3e7bfaa9	0.24607338

network.4.weight f4 [3, 16]
0	0xbdad3bac	-0.08458647
1	0xbebbb9a4	-0.3666507
2	0x3eba9eb4	0.36449206
3	0x3eadb5a1	0.33927634
4	0xbe9e4c46	-0.30917567
5	0x3e60872d	0.21926565
6	0xbe7d0d7e	-0.24712178
7	0xbeb3d076	-0.3511998
8	0xbe2677f4	-0.16256696
9	0xbedb13f9	-0.42788675
10	0xbeb208af	-0.3477225
11	0xbe708f8f	-0.23492263
12	0x3e0cca41	0.13749029
13	0x3daf4835	0.08558694
14	0x3e94d1dd	0.29066363
15	0x3edb4fda	0.4283436
16	0xbeca4b22	-0.39510447
17	0x3e84e54a	0.25956184
18	0xbed93575	-0.42423597
19	0x3e83df5a	0.2575634
20	0xbe552348	-0.2081424
21	0xbe139396	-0.14411768
22	0x3eac3288	0.33632302
23	0x3ef0f7ca	0.47064048
24	0x3eddab1b	0.43294606
25	0xbe8e5ad0	-0.2780366
26	0x3edc9806	0.43084735
27	0xbe3644d9	-0.17799701
28	0xbedcf5ea	-0.43156368
29	0xbef25189	-0.4732783
30	0xbe3a0d51	-0.18169142
31	0xbe88987b	-0.26678833
32	0x3ecdb6e9	0.40178612
33	0x3e5cfe5c	0.21581405
34	0x3e189d84	0.14903837
35	0xbf002016	-0.5004896
36	0x3ed0a1c1	0.40748408
37	0x3bb16b6f	0.0054144184
38	0x3e737317	0.23774372
39	0xbe571eda	-0.21007863
40	0xbede4cb6	-0.434179
41	0x3e121848	0.14267075
42	0xbe52e22a	-0.20594087
43	0x3d86bc53	0.06578889
44	0xbda53eb7	-0.080686025
45	0x3e99b7b3	0.30022964
46	0xbee440fe	-0.44580835
47	0xbe8e4709	-0.2778857

network.4.bias f4 [3]
0	0xbe6756dd	-0.2259173
1	0x3deb437f	0.11487483
2	0xbe67d8e6	-0.22641334

exp_avg f4 [32, 13]
0	0xb81655ff	-3.5842877e-05
1	0x3817c55d	3.6185014e-05
2	0xb91772fa	-0.00014443314
3	0x383296a0	4.2578788e-05
4	0xb7d4eb37	-2.53819e-05
5	0xb8190b57	-3.6488604e-05
6	0xb89aa368	-7.373729e-05
7	0xb78f0d30	-1.705307e-05
8	0x34a2e502	3.0341477e-07
9	0x381cd901	3.73954e-05
10	0xb83b9eb3	-4.4732074e-05
11	0xb8858ba7	-6.3679465e-05
12	0xb8a2fec8	-7.772219e-05
13	0xb801fcc7	-3.0991414e-05
14	0xb9781306	-0.0002365821
15	0xb93b053d	-0.00017835661
16	0xb884ba8f	-6.329e-05
17	0x38ee0be8	0.00011350942
18	0x37f6fad4	2.9442286e-05
19	0x3999d255	0.00029339144
20	0x38f1aafa	0.000115236224
21	0xb7378af6	-1.0940004e-05
22	0xb934760b	-0.00017210112
23	0x39814437	0.0002465562
24	0x38d399e9	0.00010089932
25	0xb648a10b	-2.9896062e-06
26	0x39429093	0.0001855514
27	0x3845dc08	4.717338e-05
28	0x391e5216	0.00015098634
29	0xb92bf12d	-0.00016397676
30	0xb8bf5886	-9.1240785e-05
31	0xb7025072	-7.767334e-06
32	0x37b4b924	2.1543885e-05
33	0x39137372	0.00014062019
34	0xb9051db2	-0.00012694931
35	0x38f242cf	0.00011551903
36	0xb8d7df88	-0.00010293635
37	0xb8635507	-5.4200205e-05
38	0xb6fd098b	-7.5410985e-06
39	0xb822beb1	-3.8801405e-05
40	0xb95f7d02	-0.00021313506
41	0xb97fa368	-0.00024379569
42	0xb849a45a	-4.80752e-05
43	0x38ed2f07	0.000113098
44	0xb7035647	-7.8282965e-06
45	0x39c32c14	0.0003722614
46	0x390fdde4	0.00013720203
47	0x3776026e	1.4663308e-05
48	0xb954ec9f	-0.00020306044
49	0x399c61b2	0.00029827427
50	0x3900f622	0.00012298723
51	0xb81565ff	-3.561936e-05
52	0xb821b133	-3.855042e-05
53	0x38db703b	0.00010463638
54	0x38ffbba0	0.000121942954
55	0x391e226b	0.00015080876
56	0xb8d3f450	-0.00010106771
57	0xb830e29e	-4.2172724e-05
58	0xb6cb0aa8	-6.051112e-06
59	0xb8de6c10	-0.00010605913
60	0x3995fcfc	0.00028607983
61	0x3864afe6	5.4523254e-05
62	0xb88e6b43	-6.791067e-05
63	0x38cca5cb	9.7583594e-05
64	0x38532b2a	5.034652e-05
65	0xb8938d1a	-7.0357884e-05
66	0xb7ff6b5a	-3.0448358e-05
67	0xb91f1963	-0.00015172879
68	0x390e583f	0.0001357505
69	0xb62db455	-2.5883976e-06
70	0xb845f529	-4.7196783e-05
71	0xb8ee433e	-0.00011361249
72	0xb7a8ae34	-2.010828e-05
73	0x37bb757f	2.234685e-05
74	0x38622348	5.3915457e-05
75	0xb7914671	-1.7318149e-05
76	0xb8d28538	-0.00010038394
77	0xb8d34a76	-0.000100751335
78	0x3859589b	5.1819352e-05
79	0x36d49b87	6.336198e-06
80	0x38c1c7b6	9.240156e-05
81	0xb8895976	-6.5493325e-05
82	0x38a48770	7.8453566e-05
83	0x38556b7f	5.088327e-05
84	0xb90e68fa	-0.00013581282
85	0xb87f2abb	-6.0836534e-05
86	0xb91fef41	-0.0001525255
87	0x3838c7fd	4.4055272e-05
88	0x36b66eb4	5.43691e-06
89	0xb785c8b3	-1.5948293e-05
90	0x382c378d	4.105973e-05
91	0xb814d279	-3.5481968e-05
92	0xb95cae12	-0.00021045681
93	0xb98d3281	-0.00026931244
94	0xb8c28498	-9.2753384e-05
95	0x38800063	6.103588e-05
96	0xb7720ec8	-1.4427766e-05
97	0x3994f826	0.00028413645
98	0x390d455a	0.00013472643
99	0xb7f4df48	-2.919104e-05
100	0xb91fb883	-0.00015232158
101	0x3978ffa8	0.00023746362
102	0x3884c203	6.330388e-05
103	0xb81b1f23	-3.6983878e-05
104	0xb8443ed3	-4.678855e-05
105	0xb94edbec	-0.00019727618
106	0xb9554996	-0.00020340676
107	0xb8699033	-5.5685825e-05
108	0x38d7095c	0.00010253742
109	0x370a1033	8.229213e-06
110	0x39ada448	0.0003311953
111	0x38b9d9a3	8.8620254e-05
112	0x3813ae28	3.5209727e-05
113	0xb92458ab	-0.0001567329
114	0x39747db8	0.00023316487
115	0x38f04061	0.00011456083
116	0xb7ecc7f5	-2.8226505e-05
117	0x38230e3b	3.887548e-05
118	0x3951e69e	0.00020017705
119	0x399d1781	0.00029962885
120	0xb8adead6	-8.2930244e-05
121	0xb96a9ff9	-0.00022375573
122	0x380d58d6	3.3699755e-05
123	0xb7c052b4	-2.2926695e-05
124	0xb9056c7b	-0.0001272428
125	0x395177a8	0.00019976369
126	0x39653294	0.00021857984
127	0xb92249a4	-0.00015476957
128	0x390c0bb8	0.00013355806
129	0x390d7842	0.00013491607
130	0xb886d190	-6.428652e-05
131	0x392a0ae9	0.00016216528
132	0x391fd9d0	0.00015244563
133	0x38a495cc	7.848031e-05
134	0xb940b04f	-0.00018376227
135	0xb9131bfb	-0.00014029436
136	0xb8905f43	-6.884199e-05
137	0xb8bdb53e	-9.045981e-05
138	0x39a22c2e	0.00030931964
139	0x38f27b3d	0.00011562414
140	0xb9369fd1	-0.00017416409
141	0x3850a35e	4.9743212e-05
142	0x38c2912b	9.2776805e-05
143	0x38c0b1f6	9.188421e-05
144	0x38807b25	6.126453e-05
145	0x39308812	0.00016835358
146	0xb962077d	-0.00021555829
147	0xb9266ad8	-0.00015870796
148	0x371e79b0	9.445866e-06
149	0xb965d86c	-0.00021919765
150	0x391ee0b5	0.00015151764
151	0xb8d2e364	-0.00010055935
152	0x38fbae3b	0.000120010656
153	0xb96393e8	-0.00021703506
154	0xb88b38b1	-6.638596e-05
155	0x38d4e847	0.00010152213
156	0x3866895c	5.49642e-05
157	0x399456d0	0.0002829344
158	0xb884083b	-6.2957835e-05
159	0xb9a410a4	-0.00031292916
160	0xba358606	-0.0006924573
161	0xb900151d	-0.00012214897
162	0x388555c9	6.357913e-05
163	0xb92acbf7	-0.00016288446
164	0x3a087872	0.0005205936
165	0x39d2c16f	0.0004019844
166	0xb9ddd27b	-0.00042309225
167	0x38c5d787	9.433837e-05
168	0x3936062c	0.00017359172
169	0x389bd9bb	7.4315314e-05
170	0xb9da716b	-0.00041664703
171	0xb8c6a917	-9.472871e-05
172	0xb8c640db	-9.453456e-05
173	0x39920dc9	0.0002785756
174	0x3990fa89	0.00027652484
175	0x39a5d87c	0.00031632546
176	0x396e86d9	0.00022747683
177	0xb9b20225	-0.00033952403
178	0xb912176c	-0.0001393237
179	0x39ef6e53	0.0004566783
180	0x39249228	0.00015694706
181	0xb7b9f4aa	-2.216765e-05
182	0xb862eb68	-5.4101838e-05
183	0xb8ead256	-0.000111971676
184	0xb9048014	-0.00012636214
185	0x38f6cc9e	0.00011768307
186	0x384d524f	4.8952465e-05
187	0x372b4127	1.0207564e-05
188	0xb90738f0	-0.00012895814
189	0x3832dac0	4.2642234e-05
190	0xb8d02e95	-9.9268895e-05
191	0xb7e10bb1	-2.6827534e-05
192	0x379e938f	1.890378e-05
193	0xb9027dc5	-0.00012444619
194	0xb8cefa21	-9.8694356e-05
195	0xb838c40a	-4.4051594e-05
196	0xb93f2492	-0.00018228803
197	0xb940f31f	-0.00018401117
198	0x38f5c331	0.000117188676
199	0x38c2438d	9.263223e-05
200	0x369072bb	4.304891e-06
201	0xb967048c	-0.0002203157
202	0x39084f6f	0.00012999562
203	0xb94d1640	-0.00019558612
204	0xb809fa45	-3.2896427e-05
205	0x374b5c05	1.2121168e-05
206	0xb96ab37e	-0.00022382845
207	0xb90a8d81	-0.0001321342
208	0xb89c063b	-7.43982e-05
209	0xb9a2b234	-0.0003103182
210	0xb99c316f	-0.0002979147
211	0x39481b60	0.00019083684
212	0x3920b830	0.00015327404
213	0x373f4a38	1.1401768e-05
214	0xb990806a	-0.00027561496
215	0x392508e7	0.00015738943
216	0xb98c8cf7	-0.00026807908
217	0xb82aaa9c	-4.069005e-05
218	0x38641c10	5.438557e-05
219	0xb9a2ecbc	-0.0003107543
220	0xb94c8c3c	-0.00019507197
221	0xb71644e6	-8.956738e-06
222	0x3892559c	6.9777685e-05
223	0x36cde6b0	6.1363316e-06
224	0x37ad3895	2.0649555e-05
225	0xb7e99e11	-2.784937e-05
226	0x3873f6ba	5.8165497e-05
227	0x390cf284	0.00013441785
228	0xb8bd1cbf	-9.017577e-05
229	0x39741e9b	0.00023281055
230	0x38c4a9be	9.377625e-05
231	0x37a2ec42	1.9421921e-05
232	0x39290782	0.00016119893
233	0x38509d6a	4.9737668e-05
234	0xb813b8e5	-3.5219728e-05
235	0xb8dd16b8	-0.00010542333
236	0xb930a656	-0.00016846633
237	0x38ccc3fa	9.7639815e-05
238	0x3826296c	3.961606e-05
239	0xb8410ebf	-4.602852e-05
240	0xb9537244	-0.00020165095
241	0x38dbc26b	0.00010478947
242	0xb9047747	-0.00012632935
243	0x371800b6	9.0600715e-06
244	0xb6c0ade6	-5.7422903e-06
245	0xb94fec4b	-0.00019829084
246	0xb8f10399	-0.000114924456
247	0x3946570f	0.00018915183
248	0x38cc0a81	9.7294345e-05
249	0x3915b8b9	0.00014278562
250	0xb954992d	-0.00020274958
251	0xb805a871	-3.1866544e-05
252	0x391e5fcd	0.00015103743
253	0xb9167f93	-0.0001435264
254	0x36947c19	4.4251906e-06
255	0xb9aa3813	-0.00032466705

exp_avg_sq f4 [32, 13]
0	0x3686ffe5	4.0233012e-06
1	0x359914c8	1.1405436e-06
2	0x3702d2fd	7.797728e-06
3	0x36b7e13c	5.4800457e-06
4	0x36f9c7f8	7.4440577e-06
5	0x3651339f	3.1173474e-06
6	0x367283ad	3.6137455e-06
7	0x35e54b93	1.7083825e-06
8	0x36456f55	2.9420091e-06
9	0x35b589ac	1.3525619e-06
10	0x36080822	2.0270313e-06
11	0x3676aa84	3.675611e-06
12	0x36c374e6	5.8250616e-06
13	0x36089cd4	2.0356865e-06
14	0x37418ecf	1.1536947e-05
15	0x362dedb5	2.5917373e-06
16	0x3692241a	4.355342e-06
17	0x36ce4520	6.1473256e-06
18	0x370c528a	8.363868e-06
19	0x37614f34	1.3429486e-05
20	0x3799b378	1.8322593e-05
21	0x370da7ba	8.443307e-06
22	0x36cc1fff	6.0833986e-06
23	0x3715d8a0	8.931529e-06
24	0x3781711e	1.5430673e-05
25	0x362e5508	2.5977515e-06
26	0x380a52b4	3.2978787e-05
27	0x36fa3303	7.456519e-06
28	0x3810adb8	3.4494064e-05
29	0x37ec6dc4	2.8184506e-05
30	0x384eb2f5	4.9280894e-05
31	0x376d6e53	1.4151988e-05
32	0x37044de8	7.885952e-06
33	0x376bddbf	1.4058721e-05
34	0x37aa014e	2.0266187e-05
35	0x37cf6c55	2.4726769e-05
36	0x37706cae	1.4330419e-05
37	0x375167a5	1.2481502e-05
38	0x374ddf30	1.2270917e-05
39	0x3713ee86	8.817418e-06
40	0x3818d152	3.643457e-05
41	0x373eab16	1.1364717e-05
42	0x3791da3e	1.7386974e-05
43	0x37a7756d	1.9962632e-05
44	0x380c4751	3.344502e-05
45	0x386514bc	5.4617165e-05
46	0x38814c99	6.165467e-05
47	0x3804cea2	3.1663694e-05
48	0x3804e192	3.168133e-05
49	0x37f759f1	2.9486577e-05
50	0x3886fa98	6.436295e-05
51	0x372f07ea	1.04326555e-05
52	0x35b425d8	1.3422059e-06
53	0x365153e0	3.1192249e-06
54	0x364e5836	3.0747738e-06
55	0x3648994e	2.9891557e-06
56	0x3586ee57	1.0053144e-06
57	0x35aea9f2	1.3013471e-06
58	0x35fc6fe8	1.8808032e-06
59	0x364f5385	3.0894018e-06
60	0x36940e79	4.4124286e-06
61	0x35ecda2a	1.7646864e-06
62	0x362b11e1	2.5491393e-06
63	0x3655a2fe	3.1834347e-06
64	0x35f4baf3	1.8233826e-06
65	0x36508837	3.1073703e-06
66	0x360465ab	1.9728711e-06
67	0x372318a8	9.721298e-06
68	0x36e38bbe	6.7813953e-06
69	0x370bb987	8.328242e-06
70	0x3694fe76	4.440367e-06
71	0x36b392c0	5.3516997e-06
72	0x3660ad97	3.3479644e-06
73	0x3668863b	3.4648826e-06
74	0x3597203a	1.1259756e-06
75	0x362c358f	2.5661172e-06
76	0x36b89c3a	5.5018145e-06
77	0x36bd6f12	5.645569e-06
78	0x361ebe19	2.3654486e-06
79	0x36762c25	3.6682552e-06
80	0x360bf3a9	2.0854443e-06
81	0x368e10dc	4.2338925e-06
82	0x369e95d8	4.726211e-06
83	0x36503079	3.102263e-06
84	0x360d785a	2.108069e-06
85	0x36d532cd	6.3538087e-06
86	0x35c26a26	1.448502e-06
87	0x35e57194	1.7094885e-06
88	0x35ba45c7	1.3878388e-06
89	0x362987f1	2.526209e-06
90	0x36644aee	3.4018262e-06
91	0x3724e2f4	9.828003e-06
92	0x37f3046e	2.896992e-05
93	0x372d4f18	1.0330019e-05
94	0x376ec09f	1.4230754e-05
95	0x3799099c	1.8243496e-05
96	0x37a5b890	1.9755476e-05
97	0x3806bbef	3.2123116e-05
98	0x384c9a5c	4.878115e-05
99	0x37ad1bb0	2.06361e-05
100	0x3805351f	3.1759144e-05
101	0x37d681e2	2.557127e-05
102	0x3829540e	4.0371022e-05
103	0x36fd20a6	7.5437883e-06
104	0x3692934a	4.3682858e-06
105	0x372c4600	1.0268297e-05
106	0x36982738	4.5345187e-06
107	0x36ac01fe	5.1262314e-06
108	0x37039979	7.843942e-06
109	0x36daaf30	6.517301e-06
110	0x371dc026	9.402667e-06
111	0x37a86028	2.0071937e-05
112	0x36db26a8	6.531209e-06
113	0x36cf44c4	6.177086e-06
114	0x368fb644	4.2829506e-06
115	0x37543852	1.2649298e-05
116	0x368911cf	4.0849914e-06
117	0x3745e888	1.1796255e-05
118	0x376e07ca	1.4187719e-05
119	0x37e27380	2.6995083e-05
120	0x37bae310	2.2278662e-05
121	0x38265ee3	3.9665854e-05
122	0x3742e40d	1.1616398e-05
123	0x371267b2	8.726422e-06
124	0x37bb6e0e	2.2343385e-05
125	0x3791589f	1.7326614e-05
126	0x3738f49e	1.1024209e-05
127	0x37226735	9.679982e-06
128	0x37575a13	1.2835971e-05
129	0x37547178	1.2662604e-05
130	0x36753acb	3.6542067e-06
131	0x36e37859	6.7791375e-06
132	0x36f7b5b2	7.3823257e-06
133	0x3718732a	9.08672e-06
134	0x36cba11c	6.068627e-06
135	0x36f0d9bd	7.1779054e-06
136	0x37307251	1.0517034e-05
137	0x3700c9d1	7.676384e-06
138	0x37104dd8	8.601193e-06
139	0x37032be6	7.818429e-06
140	0x36dccfab	6.5806867e-06
141	0x375649b9	1.2772559e-05
142	0x36c9b4ea	6.011328e-06
143	0x37193c6b	9.133578e-06
144	0x37343f48	1.074357e-05
145	0x36e6e32f	6.880982e-06
146	0x36dc159e	6.5590275e-06
147	0x37aff85d	2.0977279e-05
148	0x36c48799	5.857041e-06
149	0x37098e67	8.198992e-06
150	0x3776465e	1.4679126e-05
151	0x37505025	1.2416426e-05
152	0x36cf2b46	6.1741184e-06
153	0x36aad0c0	5.0906965e-06
154	0x36fe4a7f	7.5784624e-06
155	0x36f1db90	7.20792e-06
156	0x3851cbab	5.0019164e-05
157	0x3809f073	3.288728e-05
158	0x38105d33	3.4419074e-05
159	0x380fc556	3.427764e-05
160	0x38cf9d28	9.899802e-05
161	0x37c9a8e5	2.4039715e-05
162	0x37aff88d	2.0977366e-05
163	0x38340edc	4.2929183e-05
164	0x386dab43	5.6664703e-05
165	0x383f7794	4.5649314e-05
166	0x37cdbc9e	2.4525736e-05
167	0x3803b2e7	3.139945e-05
168	0x380119df	3.078009e-05
169	0x3722759d	9.683336e-06
170	0x3820442a	3.8210455e-05
171	0x372cb2ac	1.0293599e-05
172	0x3787b78e	1.6178728e-05
173	0x37b9aee0	2.2135151e-05
174	0x37b619fe	2.1708194e-05
175	0x3803ed5c	3.1453892e-05
176	0x389c4097	7.4506905e-05
177	0x37b6b647	2.178097e-05
178	0x37fdd071	3.0257013e-05
179	0x37ea2749	2.7913267e-05
180	0x3832351c	4.248797e-05
181	0x374104f4	1.150485e-05
182	0x37602920	1.3361016e-05
183	0x36c48c01	5.857554e-06
184	0x37c7d70a	2.3822784e-05
185	0x37b34ef5	2.137523e-05
186	0x37caf906	2.4196237e-05
187	0x373b5e4d	1.1168025e-05
188	0x37460cae	1.1804672e-05
189	0x36fc7d9e	7.524809e-06
190	0x371fdaee	9.528112e-06
191	0x369720c9	4.5039674e-06
192	0x36d54966	6.3564394e-06
193	0x37359c67	1.0824856e-05
194	0x3794ee0c	1.7753824e-05
195	0x371107e4	8.644511e-06
196	0x369581cf	4.4556577e-06
197	0x37ac301a	2.0526397e-05
198	0x37984cf6	1.815565e-05
199	0x37ab2c11	2.0405309e-05
200	0x37050696	7.928951e-06
201	0x371f4fcc	9.495718e-06
202	0x36e748aa	6.8927957e-06
203	0x371a42ca	9.194666e-06
204	0x366d9a5d	3.5405603e-06
205	0x369c1177	4.6511955e-06
206	0x3722bd9a	9.7000975e-06
207	0x374ecb99	1.2325961e-05
208	0x36d6668f	6.3896364e-06
209	0x36de9f62	6.63467e-06
210	0x384dccb6	4.906646e-05
211	0x380f0618	3.4099532e-05
212	0x37f64b0b	2.936043e-05
213	0x374a6b19	1.2065074e-05
214	0x375df8e0	1.3230572e-05
215	0x372fa23c	1.0468586e-05
216	0x36cfae02	6.189338e-06
217	0x369ec2b9	4.7314356e-06
218	0x372c11c4	1.0256135e-05
219	0x3793767b	1.7578937e-05
220	0x37975d26	1.8043978e-05
221	0x36872c7b	4.0284917e-06
222	0x37306f53	1.0516337e-05
223	0x3652f0f0	3.1432683e-06
224	0x3745e239	1.1794787e-05
225	0x3666643f	3.4331022e-06
226	0x3781e3c0	1.5484053e-05
227	0x37bb90c4	2.2359549e-05
228	0x37180dea	9.063146e-06
229	0x372178e5	9.624496e-06
230	0x37343d90	1.074317e-05
231	0x3786e720	1.608167e-05
232	0x37b91a03	2.2065831e-05
233	0x3702c7a5	7.795087e-06
234	0x370b4d59	8.3030545e-06
235	0x369677dc	4.484302e-06
236	0x37a5129b	1.9678197e-05
237	0x379cce93	1.8692843e-05
238	0x37a9a9a2	2.0225361e-05
239	0x37311098	1.0553886e-05
240	0x37675388	1.3788122e-05
241	0x36eefa97	7.122125e-06
242	0x37177629	9.027813e-06
243	0x367695ca	3.6744045e-06
244	0x36cf0abf	6.1703317e-06
245	0x3755a844	1.2734967e-05
246	0x37764fcb	1.4681321e-05
247	0x3683fe7e	3.933731e-06
248	0x3726f4bf	9.951355e-06
249	0x3698fa7f	4.5591146e-06
250	0x3727192a	9.959835e-06
251	0x3722472e	9.672525e-06
252	0x3702a5b0	7.787181e-06
253	0x3699af29	4.5801467e-06
254	0x37821a2c	1.5509395e-05
255	0x3669b249	3.4823481e-06

exp_avg f4 [32]
0	0xb902554c	-0.00012429542
1	0x3735912e	1.0822243e-05
2	0xb88f9ee4	-6.848367e-05
3	0x37f1574e	2.8770093e-05
4	0xb9642605	-0.00021757938
5	0xb94656f1	-0.0001891514
6	0xb8976ca4	-7.220477e-05
7	0x3699cdad	4.583699e-06
8	0x37ad526b	2.0661586e-05
9	0xb95693f6	-0.0002046375
10	0xb902f557	-0.00012489162
11	0xb8f26dcd	-0.00011559911
12	0xb9ab4ddc	-0.0003267367
13	0xb8e74447	-0.00011027656
14	0xb899275b	-7.302939e-05
15	0xb8dcc165	-0.0001052644
16	0xb942edea	-0.00018589912
17	0xb965b304	-0.0002190583
18	0xb922ecad	-0.00015537693
19	0xb8922aa5	-6.969766e-05
20	0xb95641f1	-0.00020433195
21	0xb95428b7	-0.00020233063
22	0xb7d46ae6	-2.5322148e-05
23	0xb9042f94	-0.00012606225
24	0xb9646410	-0.0002178105
25	0x378f71d5	1.7099936e-05
26	0xb947077c	-0.00018980907
27	0xb91c9918	-0.00014934351
28	0x378e4daa	1.6963884e-05
29	0xb94db01c	-0.0001961593
30	0xb91551a2	-0.00014240158
31	0xb956e709	-0.00020494698

exp_avg_sq f4 [32]
0	0x36c5308f	5.8767105e-06
1	0x3724d032	9.823636e-06
2	0x3793550d	1.756337e-05
3	0x38060675	3.1954103e-05
4	0x36f9a3aa	7.4398313e-06
5	0x37144872	8.838355e-06
6	0x3686ce8d	4.017557e-06
7	0x37b1b2e4	2.1183347e-05
8	0x37203499	9.5489895e-06
9	0x379f0798	1.8957813e-05
10	0x37489412	1.1955404e-05
11	0x37959517	1.783161e-05
12	0x38788962	5.9255755e-05
13	0x380b748d	3.324873e-05
14	0x373e8065	1.1354777e-05
15	0x37334817	1.0686016e-05
16	0x37ce6210	2.4602778e-05
17	0x37c2b47e	2.321065e-05
18	0x37815f4a	1.542237e-05
19	0x370cd790	8.39484e-06
20	0x37f1c228	2.881985e-05
21	0x371d73ed	9.38492e-06
22	0x389bc27f	7.427204e-05
23	0x36dd34eb	6.5924737e-06
24	0x37fbe779	3.002932e-05
25	0x381c2d5f	3.7235553e-05
26	0x3757a509	1.2853424e-05
27	0x36e0ad4d	6.695895e-06
28	0x36144091	2.2091301e-06
29	0x378b433a	1.6601396e-05
30	0x375e8e33	1.32653395e-05
31	0x3807c9e1	3.2374523e-05

exp_avg f4 [16, 32]
0	0xb6248f48	-2.4521305e-06
1	0xb9ab48d5	-0.00032669926
2	0x389f57cf	7.5980664e-05
3	0xb9d35532	-0.00040308532
4	0x39030cdc	0.00012497924
5	0x0000025b	8.45e-43
6	0x39140f93	0.00014120182
7	0xb9e1dc90	-0.00043079676
8	0xb99c0e5d	-0.0002976534
9	0x3674ae22	3.6460192e-06
10	0x38798595	5.9490634e-05
11	0x3880079c	6.104933e-05
12	0x38c3345b	9.3080766e-05
13	0xb92e3007	-0.00016611825
14	0x1402ab90	6.5971575e-27
15	0xb571a911	-9.002552e-07
16	0xb78686af	-1.6036762e-05
17	0xb96028a4	-0.00021377445
18	0xb7187a24	-9.088344e-06
19	0x392547f3	0.0001576243
20	0x375cf4f9	1.3170059e-05
21	0x38c14467	9.215698e-05
22	0x39425860	0.00018534204
23	0x37907bb6	1.7223745e-05
24	0x38f1d6a8	0.00011531758
25	0x376e3679	1.4198588e-05
26	0x378aed4d	1.6561384e-05
27	0xb98498c2	-0.00025290815
28	0x37861faf	1.5988799e-05
29	0x3759102a	1.2937971e-05
30	0xb9827e48	-0.0002488962
31	0xb7d93ce5	-2.5896772e-05
32	0xb83d717e	-4.516681e-05
33	0xb8b53fa5	-8.642607e-05
34	0xb91e03bb	-0.00015069444
35	0xb8d12bca	-9.974053e-05
36	0xb5fdf4e6	-1.8921244e-06
37	0x383be87a	4.4800785e-05
38	0xb8ba6085	-8.887149e-05
39	0xb921ee8d	-0.00015443024
40	0xb8844b16	-6.308236e-05
41	0xb9093314	-0.00013084366
42	0xb8cb5679	-9.695901e-05
43	0xb887d3c6	-6.4767475e-05
44	0xb90eae3b	-0.00013607081
45	0xb78e2e3f	-1.6949254e-05
46	0xb6e6d27b	-6.8790373e-06
47	0x381496b2	3.5426296e-05
48	0x3877daa7	5.9093025e-05
49	0xb923be84	-0.00015615864
50	0x36250d74	2.4594747e-06
51	0xb8b3a198	-8.565484e-05
52	0xb80f722a	-3.420018e-05
53	0xb7a81fbf	-2.0041944e-05
54	0xb87b55d3	-5.9922993e-05
55	0xb8afced5	-8.383176e-05
56	0xb8bab926	-8.903658e-05
57	0xb916877d	-0.00014355588
58	0xb9157d63	-0.00014256458
59	0xb93186aa	-0.00016930202
60	0xb8bece7b	-9.098366e-05
61	0xb7957008	-1.7814353e-05
62	0xb8904e8b	-6.881085e-05
63	0x3877bb8b	5.9064052e-05
64	0xb918e6c3	-0.00014581815
65	0xb90ce2ca	-0.00013435926
66	0x3888b9ae	6.519571e-05
67	0xb93c7f34	-0.00017976464
68	0x38ba679b	8.888469e-05
69	0xb981efc0	-0.00024783425
70	0x37e8b9e5	2.7743119e-05
71	0xb8e560d5	-0.00010937607
72	0xb9052681	-0.00012698212
73	0x38bdf486	9.057768e-05
74	0x38e7795e	0.00011037545
75	0x38940a18	7.05907e-05
76	0x3956aa78	0.00020472135
77	0xb8dde302	-0.00010580385
78	0xb904d34d	-0.00012667217
79	0xb9a5c7f6	-0.00031620235
80	0xb9957d00	-0.00028512627
81	0x38706862	5.7317673e-05
82	0xb9225b2b	-0.00015483487
83	0x38f1cff9	0.000115305134
84	0xb985caaa	-0.00025518733
85	0xb867ec29	-5.5294633e-05
86	0x3906282b	0.000127942
87	0x3929b63f	0.00016184988
88	0x392be707	0.00016393895
89	0x38dc02f8	0.000104909705
90	0x3942e5e9	0.0001858693
91	0x3811a2ac	3.4722194e-05
92	0x38c6da26	9.482009e-05
93	0xb96f8b3c	-0.00022844685
94	0xb8db6694	-0.000104618404
95	0xb96af962	-0.00022408881
96	0xb8f10cdf	-0.00011494173
97	0x388e3fba	6.782958e-05
98	0xb91339cb	-0.00014040542
99	0x392819fb	0.00016031407
100	0xb99a9a34	-0.0002948806
101	0xb92494a3	-0.0001569563
102	0xb973fd51	-0.00023268654
103	0x3844b78d	4.6900986e-05
104	0x38fd0f52	0.00012066834
105	0xb92e52b9	-0.0001662475
106	0xb924a4bc	-0.00015701627
107	0xb8b32302	-8.541906e-05
108	0xb93ecf94	-0.00018197141
109	0x38aeae8a	8.329477e-05
110	0xb945953e	-0.00018842981
111	0xb966199c	-0.0002194405
112	0xb923d5a3	-0.00015624477
113	0xb8ac25f7	-8.2086706e-05
114	0xb9317d44	-0.000169267
115	0xb959c28c	-0.00020767207
116	0xb961760b	-0.00021501647
117	0xb9450a5d	-0.00018791245
118	0xb95f0e57	-0.00021272279
119	0xb92e1877	-0.00016603047
120	0xb940b3f9	-0.00018377592
121	0xb7ac1461	-2.0513487e-05
122	0xb9303636	-0.00016804863
123	0xb8886138	-6.503094e-05
124	0xb79d77a9	-1.877158e-05
125	0xb9572d30	-0.00020520831
126	0x384c884d	4.876433e-05
127	0xb8df3c80	-0.000106447376
128	0xb64fac4d	-3.0945696e-06
129	0xb99ee947	-0.00030309914
130	0x3858c72a	5.16839e-05
131	0xb9ba989f	-0.00035590396
132	0x39403709	0.00018331049
133	0x1713db17	4.777479e-25
134	0x38e2ba27	0.00010811193
135	0xb9ba8f7c	-0.0003558359
136	0xb984086b	-0.00025183274
137	0x35e4afc0	1.7038474e-06
138	0x38b81b4e	8.7788896e-05
139	0x383fca47	4.5726334e-05
140	0x38fc7623	0.00012038301
141	0xb918140e	-0.0001450332
142	0x382fa13e	4.187342e-05
143	0x36b35ce7	5.345431e-06
144	0xb779583f	-1.4862103e-05
145	0xb915d74e	-0.00014289955
146	0x37801840	1.5270081e-05
147	0x38fe1625	0.000121157886
148	0x37226f34	9.681844e-06
149	0x388f6eca	6.8394074e-05
150	0x391972d8	0.00014634
151	0x38df46ae	0.00010646634
152	0x38e1c326	0.00010765185
153	0x374b21cc	1.2107612e-05
154	0x38833b81	6.25765e-05
155	0xb92ef1b9	-0.00016683982
156	0x371c23e1	9.306678e-06
157	0x37847961	1.5792148e-05
158	0xb9751d2d	-0.0002337589
159	0xb7c2cc20	-2.3221655e-05
160	0x340a9100	1.2905002e-07
161	0x8a1558b6	-7.190774e-33
162	0x35b07ed4	1.3149934e-06
163	0x8a6f7593	-1.1529545e-32
164	0x350c3976	5.223768e-07
165	0x34bdd6a5	3.5360168e-07
166	0x8732f762	-1.3463931e-34
167	0x8a1fe37b	-7.698356e-33
168	0x0e3a3b02	2.2954681e-30
169	0x3565b1f0	8.556808e-07
170	0x339b6886	7.236763e-08
171	0x3533958c	6.6900316e-07
172	0x358e4a8a	1.0601518e-06
173	0x8a158424	-7.198942e-33
174	0x0399f42d	9.048592e-37
175	0x34fdc040	4.7264803e-07
176	0x00000004	6e-45
177	0x8a2ec6a5	-8.415156e-33
178	0x34976c79	2.8204866e-07
179	0x3436139c	1.6957205e-07
180	0x3540282e	7.1584043e-07
181	0x35149fbb	5.5366735e-07
182	0x31488c50	2.9183589e-09
183	0x33fb6224	1.170595e-07
184	0x34a825f9	3.1320067e-07
185	0x355e98e0	8.2923907e-07
186	0x89556a45	-2.568891e-33
187	0x3457c14b	2.0093755e-07
188	0x350302d5	4.8805424e-07
189	0x350a90b4	5.1619577e-07
190	0x89ec53ed	-5.6893857e-33
191	0x33f7e574	1.1543571e-07
192	0x35b2d006	1.3322576e-06
193	0xb8610341	-5.364721e-05
194	0xb8a2fe45	-7.772123e-05
195	0xb880cdc9	-6.141846e-05
196	0xb816afd6	-3.5926547e-05
197	0x384160cf	4.6104946e-05
198	0xb82398ff	-3.9004717e-05
199	0xb8d6f047	-0.0001024907
200	0xb81843fd	-3.6302943e-05
201	0xb8d1c512	-0.00010002604
202	0xb8e6c7ff	-0.00011004507
203	0xb88a291e	-6.5880115e-05
204	0xb91c0141	-0.00014877786
205	0xb63285ab	-2.6601872e-06
206	0x376619f1	1.3715108e-05
207	0x38cdac5b	9.8072655e-05
208	0x38b74ba9	8.740213e-05
209	0xb90de995	-0.00013533824
210	0x380cb073	3.3542932e-05
211	0xb8d84131	-0.000103118255
212	0x37b1da60	2.1201733e-05
213	0xb82bb379	-4.0936724e-05
214	0xb8a02225	-7.6357544e-05
215	0xb8c6255a	-9.448333e-05
216	0xb8c7ae1f	-9.521492e-05
217	0xb909904c	-0.00013119093
218	0xb9148d9f	-0.00014167138
219	0xb8f8e408	-0.00011868036
220	0xb8b41ba0	-8.5882144e-05
221	0x373b2586	1.1154805e-05
222	0xb836cb11	-4.35813e-05
223	0x382afee1	4.0768533e-05
224	0x377a4e0b	1.4919332e-05
225	0x38a0e845	7.672658e-05
226	0xb946158d	-0.0001889078
227	0x391d1844	0.00014981726
228	0xb9616ee4	-0.00021498982
229	0x38ab7551	8.175767e-05
230	0xb9326aae	-0.00017015144
231	0x37dc06fc	2.6229296e-05
232	0x38e0e539	0.000107238484
233	0xb9695df0	-0.00022255606
234	0xb97610e7	-0.00023466685
235	0xb917759e	-0.00014444298
236	0xb9afb9f7	-0.00033517156
237	0x38bf5009	9.1224974e-05
238	0xb762c038	-1.3515404e-05
239	0x391124d8	0.00013842003
240	0x3918823f	0.0001454437
241	0xb920bc75	-0.00015328995
242	0x38005a90	3.060192e-05
243	0xb988948d	-0.0002605062
244	0x37f9f38a	2.979652e-05
245	0xb8f72bfc	-0.000117860705
246	0xb982a6de	-0.00024919858
247	0xb9803434	-0.00024452957
248	0xb98662c1	-0.0002563205
249	0xb95874f6	-0.00020642937
250	0xb995c8c7	-0.00028569085
251	0xb8ecf647	-0.0001129923
252	0xb9133450	-0.000140385
253	0x3748523d	1.1940077e-05
254	0x3872c09c	5.7876678e-05
255	0x38b890b4	8.800757e-05

exp_avg_sq f4 [16, 32]
0	0x34db4125	4.0839328e-07
1	0x3807fbc8	3.2420998e-05
2	0x36d03f8a	6.20628e-06
3	0x39013c00	0.0001232475
4	0x35d86044	1.6121271e-06
5	0x33fdb84b	1.1814753e-07
6	0x36b5ae68	5.414524e-06
7	0x3909c051	0.00013136982
8	0x37619975	1.3446775e-05
9	0x36ed9690	7.080678e-06
10	0x3605bde4	1.9929075e-06
11	0x36766da5	3.6720678e-06
12	0x36a04bcb	4.777195e-06
13	0x37142d42	8.832025e-06
14	0x359aca03	1.1532687e-06
15	0x34997b81	2.8588332e-07
16	0x363f6a9d	2.8523275e-06
17	0x38a38791	7.797697e-05
18	0x368a0b38	4.1140265e-06
19	0x36e2f417	6.7637407e-06
20	0x350fda6c	5.3589497e-07
21	0x37419d8b	1.1540377e-05
22	0x37499032	1.2014107e-05
23	0x370abcc9	8.269396e-06
24	0x36dde4db	6.6129555e-06
25	0x35933ef1	1.0970672e-06
26	0x378d6783	1.6856711e-05
27	0x380d311a	3.366275e-05
28	0x339fbc0a	7.4382186e-08
29	0x357abb00	9.340438e-07
30	0x3796232f	1.7897777e-05
31	0x35c52407	1.4688129e-06
32	0x376a1dc1	1.39544145e-05
33	0x375b3cc3	1.3067564e-05
34	0x3756a824	1.2794542e-05
35	0x3862f371	5.410932e-05
36	0x369d4094	4.6864825e-06
37	0x377418e3	1.4549328e-05
38	0x3744008c	1.1682638e-05
39	0x388f8e2e	6.8452544e-05
40	0x37027a20	7.777038e-06
41	0x36d15cf0	6.2395047e-06
42	0x37228f03	9.68925e-06
43	0x361f76f6	2.376209e-06
44	0x36ceefde	6.1672026e-06
45	0x3684767f	3.9477013e-06
46	0x371c239d	9.306616e-06
47	0x3788ebc8	1.6322258e-05
48	0x368cb536	4.193421e-06
49	0x3819d79d	3.6678848e-05
50	0x369109b4	4.3224663e-06
51	0x36cb2643	6.0543257e-06
52	0x380fbd98	3.427043e-05
53	0x37146d23	8.846898e-06
54	0x3707fb1f	8.105096e-06
55	0x3622379f	2.4172257e-06
56	0x362b44ca	2.5521026e-06
57	0x372ac280	1.0178075e-05
58	0x36f7fe9e	7.390815e-06
59	0x377f054d	1.5200419e-05
60	0x35e9565c	1.7384987e-06
61	0x37860f46	1.5981157e-05
62	0x36ed3080	7.0687965e-06
63	0x36cd3002	6.115065e-06
64	0x382c1738	4.102962e-05
65	0x370f674f	8.547518e-06
66	0x3836762c	4.3502238e-05
67	0x3801315b	3.0801963e-05
68	0x375bf484	1.3110348e-05
69	0x38901c7d	6.8717614e-05
70	0x38104346	3.439493e-05
71	0x3801724c	3.0862444e-05
72	0x36d3df5e	6.3142934e-06
73	0x37268d8f	9.92733e-06
74	0x3770a601	1.43437655e-05
75	0x367bf31a	3.7543418e-06
76	0x3793fc7f	1.7641343e-05
77	0x378f5fa8	1.7091472e-05
78	0x3848780b	4.7795515e-05
79	0x38d47c18	0.00010132062
80	0x37e1c711	2.6914788e-05
81	0x37eac2f3	2.7985754e-05
82	0x3826c102	3.9757237e-05
83	0x372b8888	1.0224183e-05
84	0x39211de2	0.00015365289
85	0x374d1b92	1.2225371e-05
86	0x37a93b26	2.0173913e-05
87	0x372427ed	9.784458e-06
88	0x36d5be5d	6.370056e-06
89	0x37dfda62	2.6685364e-05
90	0x378bf9b1	1.6686363e-05
91	0x378662cc	1.602005e-05
92	0x36a0c9fc	4.7918857e-06
93	0x387e47fc	6.062536e-05
94	0x36cb9bc3	6.0680045e-06
95	0x382c0c8e	4.1019688e-05
96	0x378ac56d	1.6542816e-05
97	0x3713f5d9	8.819124e-06
98	0x374b17ea	1.2105311e-05
99	0x37d28a01	2.5098214e-05
100	0x3794c6ed	1.7735607e-05
101	0x381584ae	3.5647936e-05
102	0x37c629d3	2.3622915e-05
103	0x37ea167c	2.7905444e-05
104	0x370bd635	8.33492e-06
105	0x36f4ef99	7.2996595e-06
106	0x3743d426	1.16723e-05
107	0x36b20af7	5.30609e-06
108	0x379a16eb	1.8368903e-05
109	0x36dbd516	6.551515e-06
110	0x381453e3	3.5364075e-05
111	0x3828d29d	4.025047e-05
112	0x3704e517	7.921152e-06
113	0x382167cf	3.848207e-05
114	0x37514463	1.2473293e-05
115	0x37958d9e	1.782813e-05
116	0x38aa4fe9	8.121116e-05
117	0x3796d53d	1.798069e-05
118	0x381e3174	3.7716192e-05
119	0x3738eba3	1.1022118e-05
120	0x37303bae	1.0504313e-05
121	0x36e01270	6.6778666e-06
122	0x37caf5d2	2.4194745e-05
123	0x37b2f869	2.1334929e-05
124	0x353f5be4	7.1286763e-07
125	0x385143fe	4.9892806e-05
126	0x36b00fba	5.2470396e-06
127	0x37e1b09c	2.690433e-05
128	0x36b3a2f4	5.353586e-06
129	0x3850959e	4.9730406e-05
130	0x3674bd34	3.6468964e-06
131	0x395ee816	0.00021258029
132	0x3682e74f	3.90123e-06
133	0x37210140	9.596639e-06
134	0x375a3a54	1.3007393e-05
135	0x397f72ed	0.00024361508
136	0x3784a4e1	1.5812404e-05
137	0x371869b9	9.0845215e-06
138	0x366ec555	3.5579626e-06
139	0x365854a8	3.2235785e-06
140	0x3692b8dc	4.3726595e-06
141	0x376518e4	1.3655259e-05
142	0x370ef756	8.521447e-06
143	0x37022f47	7.759611e-06
144	0x36b6bcd5	5.4460056e-06
145	0x38dac81f	0.000104323255
146	0x36dd3e4c	6.5935656e-06
147	0x36b345af	5.342728e-06
148	0x37c98332	2.402216e-05
149	0x376110d3	1.3414962e-05
150	0x373c853a	1.1236692e-05
151	0x36dc8f64	6.573204e-06
152	0x368bd800	4.1676685e-06
153	0x360b157f	2.0725126e-06
154	0x37748dcb	1.4576547e-05
155	0x382cad36	4.116931e-05
156	0x35c0a8e8	1.4354273e-06
157	0x372dba37	1.035496e-05
158	0x37d610e9	2.5518662e-05
159	0x36f9d048	7.4450254e-06
160	0x34053741	1.2406691e-07
161	0x34707789	2.2395228e-07
162	0x34b36293	3.341307e-07
163	0x352fc976	6.5485744e-07
164	0x34dc92dc	4.1085048e-07
165	0x349da86c	2.9366072e-07
166	0x347dcea5	2.3637638e-07
167	0x3293552f	1.715179e-08
168	0x360bae6b	2.0814139e-06
169	0x33c18b6c	9.0126235e-08
170	0x337a42bf	5.8268366e-08
171	0x34cc44ca	3.8048012e-07
172	0x354a7bca	7.5431e-07
173	0x33bed227	8.885791e-08
174	0x342ea84b	1.6266237e-07
175	0x3451cf12	1.9539974e-07
176	0x300eed20	5.1996274e-10
177	0x34f253d2	4.5137e-07
178	0x32d1bd4e	2.4416888e-08
179	0x3477c0c7	2.30738e-07
180	0x35c6ee35	1.4821477e-06
181	0x35ff9b7f	1.9044236e-06
182	0x3541ede3	7.2244273e-07
183	0x3365bf81	5.349239e-08
184	0x32ddfc20	2.584244e-08
185	0x35303c18	6.565256e-07
186	0x344512cb	1.8353892e-07
187	0x338f43d9	6.671298e-08
188	0x33d1a757	9.76276e-08
189	0x3587828c	1.0096278e-06
190	0x340c3fe9	1.3061766e-07
191	0x35bd78ef	1.4116794e-06
192	0x375595c1	1.2730657e-05
193	0x368f3440	4.267815e-06
194	0x37b85e33	2.1978374e-05
195	0x3779b22e	1.4883042e-05
196	0x36db04dd	6.5272748e-06
197	0x371d03a8	9.3587805e-06
198	0x372bd729	1.024249e-05
199	0x37af44a3	2.0893587e-05
200	0x37160b27	8.943293e-06
201	0x36c51501	5.8735027e-06
202	0x374b0809	1.2101614e-05
203	0x3676457c	3.6697302e-06
204	0x3767c1e3	1.3813816e-05
205	0x35db6498	1.6346048e-06
206	0x3723d822	9.765879e-06
207	0x37956fe4	1.7814287e-05
208	0x3691ca3b	4.3448795e-06
209	0x379d8ee3	1.8782395e-05
210	0x36cd29a5	6.114324e-06
211	0x3736360f	1.0860632e-05
212	0x38064ccd	3.2019616e-05
213	0x3736d5e5	1.0897847e-05
214	0x37bf8fb3	2.283589e-05
215	0x364bbf8f	3.036086e-06
216	0x368f39d6	4.268465e-06
217	0x379147d7	1.73188e-05
218	0x37385427	1.0986848e-05
219	0x37242dda	9.785837e-06
220	0x36014906	1.9265003e-06
221	0x379328ae	1.7542709e-05
222	0x364a76ea	3.0169563e-06
223	0x36d8ca04	6.4608193e-06
224	0x37a64e15	1.9825102e-05
225	0x3698fa01	4.5590573e-06
226	0x38223571	3.867358e-05
227	0x37636c16	1.355542e-05
228	0x373b1ead	1.1153211e-05
229	0x3746c453	1.184743e-05
230	0x37981030	1.812735e-05
231	0x37610e23	1.34143365e-05
232	0x36cbe6ff	6.076763e-06
233	0x37299055	1.010679e-05
234	0x379fe82d	1.9062392e-05
235	0x36e6607b	6.865766e-06
236	0x380802ab	3.242741e-05
237	0x35bb26ab	1.394384e-06
238	0x37641f70	1.3597179e-05
239	0x37c3f05c	2.3357738e-05
240	0x36dc586b	6.566804e-06
241	0x37e4271a	2.7197926e-05
242	0x37100328	8.583804e-06
243	0x37a7279a	1.9926392e-05
244	0x383e42fc	4.5361914e-05
245	0x37616b7b	1.343607e-05
246	0x386a650c	5.5884055e-05
247	0x372a7233	1.0159379e-05
248	0x37786283	1.4804888e-05
249	0x38181523	3.625931e-05
250	0x37e249f5	2.6975738e-05
251	0x379275f8	1.745949e-05
252	0x3649952e	3.0038168e-06
253	0x37c720a7	2.3737854e-05
254	0x367f9c90	3.8089092e-06
255	0x36c3b114	5.8320675e-06

exp_avg f4 [16]
0	0xb8e39593	-0.00010852064
1	0xb9117234	-0.00013870822
2	0xb8d00596	-9.919253e-05
3	0xb98a7d78	-0.00026414893
4	0xb85ffe5c	-5.3404234e-05
5	0x352c4049	6.416854e-07
6	0xb8c6e581	-9.484124e-05
7	0xb929bb09	-0.00016186772
8	0xb92dead1	-0.00016586042
9	0xb84f8650	-4.9477734e-05
10	0xb8f7ca2b	-0.000118155345
11	0x0000038a	1.27e-42
12	0xb8bafb9b	-8.916036e-05
13	0xb8e3c5b9	-0.00010861032
14	0xb9489b9b	-0.00019131454
15	0xb92e0e82	-0.00016599338

exp_avg_sq f4 [16]
0	0x3843aaca	4.6650683e-05
1	0x384dbf41	4.9053928e-05
2	0x38b9ae9e	8.8540124e-05
3	0x38d6da0e	0.00010244931
4	0x38881e4b	6.490628e-05
5	0x35efccd3	1.7866499e-06
6	0x385fdaa3	5.3370964e-05
7	0x386960de	5.5641744e-05
8	0x39310059	0.00016880165
9	0x37a0a1c1	1.9148809e-05
10	0x3839f43c	4.4334898e-05
11	0x34a998bc	3.1589832e-07
12	0x37cc8cc1	2.4384239e-05
13	0x38662324	5.4869e-05
14	0x389c208f	7.444724e-05
15	0x38aef9c2	8.3434876e-05

exp_avg f4 [3, 16]
0	0x3939210a	0.00017655283
1	0x3a3a6ba0	0.0007111374
2	0xba3c9657	-0.0007194033
3	0xba1afdd6	-0.00059124583
4	0x398cc6de	0.00026851048
5	0x3034bffe	6.5756456e-10
6	0x3a5a96a1	0.00083384855
7	0x3a0198cb	0.00049437274
8	0x39dd0d0d	0.00042162128
9	0x39c41e7b	0.00037406743
10	0x39fb87d0	0.0004797564
11	0x0000006f	1.56e-43
12	0xba79c256	-0.00095275545
13	0xb9f544d2	-0.00046781317
14	0xba4f685e	-0.0007911975
15	0xba465f0d	-0.0007567264
16	0x3a275791	0.0006383593
17	0xba2d0ec2	-0.00066016254
18	0x3a8c723f	0.00107152
19	0xba1a4fe8	-0.0005886541
20	0x3a26001f	0.00063324155
21	0xb04d9f59	-7.480501e-10
22	0xba2b0b86	-0.00065248495
23	0xba9c3780	-0.0011918396
24	0xba9c1a32	-0.0011909662
25	0x3a4b31d0	0.0007751258
26	0xbaa08705	-0.001224727
27	0x800000ff	-3.57e-43
28	0x3a97dc47	0.0011586034
29	0x3a8910b1	0.0010457245
30	0x3913729a	0.00014061705
31	0x39e1e213	0.00043083783
32	0xba559ff6	-0.0008149141
33	0xb855cf8f	-5.097646e-05
34	0xb9b89cd1	-0.00035212052
35	0x3a9aa6d8	0.0011798991
36	0xba6c63b7	-0.0009017544
37	0x2ec29422	8.848412e-11
38	0xb93e2d3b	-0.00018136662
39	0x3a36d63a	0.0006974671
40	0x3a49adf7	0.0007693464
41	0xba96a0a0	-0.0011491962
42	0x3a434a28	0.000744971
43	0x0000008d	1.98e-43
44	0xb957da08	-0.00020585221
45	0xba177f47	-0.00057791587
46	0x3a2a8b9b	0.0006505788
47	0x39aadbd4	0.00032588711
