homework1/lightning_logs/version_13/checkpoints/epoch=99-step=900.ckpt (torch, 22040 bytes, 18 tensors)

network.0.weight f4 [32, 13]
00000000: dc96 d63e 4d3c 983e 2257 673e 9560 4cbe
00000010: 6c0e 2b3e f7bd df3e 4a80 373d c7fe 1dbe
00000020: 8b41 163e 5979 25be cf30 3ebe f067 9b3e
00000030: 533f b0bd 2381 00be 1cc9 07be 8dc6 b8be
00000040: e1b4 f33e bd79 07be 18e4 4a3e 4f0e 093e
00000050: 1389 7e3e 1b21 19be 7f88 a8be d593 a7bd
00000060: 7e13 a0bd 6b57 4d3c 228d 33be 4506 723e
00000070: 7c91 023d 736a 893d 0159 1abe 375a 4ebe
00000080: 16d2 22be 8e7c 8b3e 68a3 b4be f7c6 c4be
00000090: f2b9 083b 29e7 053c 275e 85be 0102 bb3e
000000a0: 21dc 253e eede e5bb 3296 9e3d 64ac 1c3d
000000b0: d8ef 893e 1c19 b93e 3d2d a6bd 7da3 b13d
000000c0: 8504 c43d 356c 2f3e ff04 183e 2cbf b2bc
000000d0: a27d 8dbd 94ab 273d e17c a3be e201 b63d
000000e0: b308 46be 3bd4 46be 4ed5 adbe 7f59 9a3e
000000f0: 6872 c93c 0e3f 06bd 02a2 9c3e 5ce6 783d
00000100: 92c3 02bf e876 e83e 7eee b63e a499 b53e
00000110: 5856 e2be 5e66 973d db35 ae3e 9a12 583e
00000120: 11e1 4fbd 77c6 fabc 0e3b e73d b2c4 593e
00000130: d114 aa3e 9296 af3e 0afe cb3e 9e23 10be
00000140: 6121 8e3e 29b4 9c3d 61a8 7a3d a522 f83d
00000150: 87a9 683e 2bfe 1cbe fd09 843d c5da e2bd
00000160: 027b 6d3d c0e7 ea3e b566 ad3e 75b8 343e
00000170: c314 cabd 4582 8b3e 8ac7 97bd 173b 193e
00000180: 19b8 c9bd f53b ddbe 5c79 823e 610f bdbc
00000190: ff96 763e 9cc3 a5be 5a2c 82be e62e bfbe
000001a0: 5781 b2be 9d7a 183e b0a2 95be 02ad c43e
000001b0: dd19 8dbe eb8e 313e 0262 7a3e ce67 5d3d
000001c0: 6bc3 34bd 6b3a 2fbe 1205 2f3d 214d ca3d
000001d0: 471a 85be 29d6 83be 62a1 523d 5736 8a3d
000001e0: 03fd bfbb 7fcd bc3e ec8f 34be e237 7cbe
000001f0: 6f1c 6f3d 4add 82bd a4a6 3a3e 6f7b 83be
00000200: 44e4 81be c421 30be a89e 6ebd 8897 adbb
00000210: 080c c1be 74ad aa3e a601 3cbe 0491 43be
00000220: 6390 983e bb4e f43d a006 49be 211e 04bf
00000230: 4e1d a63e 8750 503d 0ec2 6fbd 3ae3 733e
00000240: 49ce 973e f087 993e 4807 823d 6720 a63d
00000250: 0858 93bc af61 aabe 5fee 953d d073 a03d
00000260: 7395 d33e 421a 72be f19d 19be 8d04 9e3d
00000270: 9367 5a3e 960d 50be b0a5 3f3e d040 1c3e
00000280: 4c44 893e 2e73 933e 66f3 79bd 8d6b b9be
00000290: 3b5b 7e3e c2d6 1fbe cd1b c03e fe78 cc3e
000002a0: 8794 ab3d 4da0 8dbe 7f41 61be 9b57 5dbe
000002b0: ac99 1c3e d390 043e c65a 81bd 386b e4bd
000002c0: 1224 09be f803 88bd fbcf dbbe 785e f33d
000002d0: 4bdd 8fbd bb86 e0be 796d e73e 06cf ed3d
000002e0: f030 bf3d 680d 2cbd db4d b53c 008e 1cbe
000002f0: 1446 a03d cb69 c4bd 0974 c23d d262 a53e
00000300: 8cee 9f3d ff41 f83c 1c4c b73e ecf8 26be
00000310: 883e acbe 2455 7cbd 0101 3d3e b496 cfbe
00000320: 8649 093e 8795 123e 8633 8b3e 70d6 d6bd
00000330: 4501 b8be e6d7 9e3d a23b e3bd 49a6 8abe
00000340: 781b 583d 6ab5 013d 009d b0bc a4be 90be
00000350: d1f9 4e3d e0e9 67bd b1c1 093e 4f40 aabe
00000360: fb82 c6bc 5821 c2bd 6ff7 cbbb d1c6 9bbd
00000370: 7caf d43e 2241 cabe 9ab1 16bd 1c12 e4bb
00000380: 5ddc e63e 8409 a1bd 66be a8be 74fb 8ebd
00000390: b6af 15be 9974 e53e 4e47 acbe dd38 703e
000003a0: db30 5e3e 557f c3bd b0ae 6dbc 1a2d dcbd
000003b0: 564a 4b3e 42cb b8be 13eb 493d 49b7 993e
000003c0: 80aa 703d 6fa7 a9bb 8dc4 973d 5c9d 6e3e
000003d0: 7ac7 ec3c 01de 823e e68d e43e f6c2 033d
000003e0: 21c0 473e 98bf 3b3e 76e9 01be e954 c13d
000003f0: d755 b2bd 576b 34be bd69 4fbe adb1 eabd
0.41911972 0.29733506 0.22591832 -0.19958718 0.1670472 0.4369962 0.04480008 -0.15429221
0.1467344 -0.16159572 -0.18573307 0.30352736 -0.08605828 -0.12549262 -0.13260311 -0.36088982
0.47598937 -0.13230033 0.19813573 0.13384365 0.24856977 -0.14954035 -0.32916638 -0.081824936
-0.07816218 0.012533049 -0.17534307 0.23635204 0.031877026 0.06709757 -0.15073015 -0.20151602
-0.15900454 0.27243465 -0.3528092 -0.38433048 0.0020862785 0.008172789 -0.26048395 0.36524966
0.16197254 -0.0070151007 0.07743491 0.038250342 0.269408 0.3615197 -0.08114097 0.08673761
0.095711745 0.17131121 0.14845656 -0.021819673 -0.06908728 0.040935114 -0.31931213 0.08887078
-0.19339256 -0.19416897 -0.339518 0.30146405 0.024590686 -0.032774977 0.30592352 0.060766563
-0.51079667 0.45403218 0.3572883 0.3546878 -0.442065 0.07392572 0.34025463 0.21100846
-0.05075175 -0.030612214 0.11290561 0.2126644 0.33219007 0.34294564 0.39842254 -0.14076087
0.2775984 0.0765155 0.061195735 0.12115983 0.2272092 -0.15331332 0.064472176 -0.11076883
0.057978638 0.45879936 0.33867422 0.1764849 -0.09867241 0.27247825 -0.07411106 0.14963947
-0.09849567 -0.43209806 0.25483215 -0.023078622 0.24081038 -0.323758 -0.25424463 -0.37340468
-0.34864303 0.14890523 -0.29225683 0.38413244 -0.27558795 0.17339675 0.2445145 0.054054074
-0.044131678 -0.17112128 0.042729445 0.098779924 -0.2599661 -0.2574933 0.051423438 0.06748646
-0.005859019 0.3687553 -0.17633027 -0.24630693 0.058376726 -0.06389864 0.18227631 -0.2568011
-0.25369465 -0.1720038 -0.058256775 -0.005297605 -0.37704492 0.3333546 -0.18360004 -0.19098288
0.29797658 0.11929079 -0.19631433 -0.51608473 0.32444233 0.050858047 -0.058534674 0.23817149
0.2964957 0.29986525 0.06349045 0.08111649 -0.017986313 -0.33277652 0.07320856 0.078345895
0.41324958 -0.23642829 -0.15001656 0.07715712 0.21328573 -0.20317683 0.18715549 0.15259099
0.2680992 0.28798813 -0.06102314 -0.36214867 0.24839489 -0.15609267 0.3752121 0.3993606
0.08377939 -0.27661362 -0.21997641 -0.2161545 0.15292996 0.12945871 -0.06316142 -0.11153263
-0.13392666 -0.06641382 -0.42932114 0.11883253 -0.0702463 -0.4385279 0.45200709 0.11611752
0.09335506 -0.042004973 0.022131851 -0.15288544 0.07825866 -0.09590491 0.09494788 0.32301956
0.07809171 0.030304907 0.35800254 -0.16305894 -0.33641458 -0.061604634 0.18457414 -0.40544665
0.13406953 0.14314853 0.27187747 -0.104901195 -0.3593847 0.07756023 -0.110953584 -0.2707999
0.05276057 0.03166715 -0.021559238 -0.28270447 0.050531212 -0.056619525 0.13452794 -0.3325219
-0.024232378 -0.09479016 -0.0062245647 -0.076062806 0.41540134 -0.39502817 -0.036790468 -0.0069601666
0.4509 -0.07863143 -0.32957762 -0.069815546 -0.1461781 0.4481552 -0.3364815 0.23459192
0.21698324 -0.09545771 -0.014506981 -0.1075079 0.19852576 -0.36092573 0.04929645 0.30022648
0.05875635 -0.0051774303 0.07410536 0.23302215 0.028903712 0.2556 0.4463951 0.03216835
0.19506885 0.18334806 -0.12686715 0.094400235 -0.08707779 -0.17619072 -0.2025518 -0.1145967

network.0.bias f4 [32]
00000000: 4d1a 093e 9c58 093e 7598 9e3e 7ace 443d
00000010: bfab e13e 192a 983e cb50 833e 91e3 cc39
00000020: 0ab6 4d3e ea1b 873d 5328 7b3e 5fe2 c33e
00000030: a365 de3e 31cc bc3e 44a4 b73e 12b5 f53c
00000040: 20b5 ae3c 47ca d83e 0702 7d3d 066f d43e
00000050: 3333 173e ede6 8d3d a80a 01bc 40d3 b63e
00000060: f83f aa3e 3837 5bbd 7f59 793e cb4f 433e
00000070: 014a 54bd 2fe1 413d 2542 1bbe 2011 cc3d
0.13388939 0.13412708 0.3097569 0.048048474 0.44076344 0.29719618 0.25647578 0.00039079462
0.20088974 0.06597121 0.24527101 0.38258645 0.43436918 0.36874536 0.35867512 0.029993568
0.021326602 0.42341825 0.06176951 0.41490954 0.14765625 0.06928811 -0.007876076 0.35708046
0.3325193 -0.053519458 0.24350546 0.19073407 -0.051828388 0.047333892 -0.15161951 0.09964204

network.2.weight f4 [16, 32]
00000000: f7f3 2f3c 6097 433d e603 363e 263f a03e
00000010: 7b07 c7bc 546d 2e3e 0bc3 993e 75c2 97bb
00000020: 461d 0b3e 049e 523c bcc2 e73e f7e2 273d
00000030: b1f2 5f3e fcd3 ca3d a87a 5abd 277b 533e
00000040: 3ecf 033e b5d4 323e 1386 393e 4fe2 48be
00000050: ed11 dabd 06d1 d6bd 4602 923e 6bcc f43e
00000060: 8193 583e dd91 99bc dd09 df3e 9c7c eabb
00000070: d3bb 5f3e 5eec f13e c2c1 68be 354c 773d
00000080: 0dd2 933e a7d6 89be 4b74 333e 62d1 923e
00000090: 5989 76bd e807 943e 7a02 903e d8f9 083d
000000a0: 1d12 88be 8410 38be b816 04be 843b d63d
000000b0: 1d56 e03d e562 c1bd d955 483e 9bea 23be
000000c0: d766 5a3e 5e45 f5bb 49da a63e 8785 963d
000000d0: fceb d43c ab40 06bc c8fd adbc ba9d 863e
000000e0: 0014 8f3e 3cb8 3cbe fa00 3cbe 68f4 c33d
000000f0: 377c 853e cbae 413e bbca 77be 281d a4bd
00000100: d0cd 57bd 827a f63d 1b96 853c d9ba 58bd
00000110: 6984 3a3e ab6e efbd b875 3fbe 36f4 bb3e
00000120: 789f 9ebb 6090 c83e 3c0a 9a3d 79d5 8e3e
00000130: 77b3 dcbd e844 483e 40df b73d 12dd 403e
00000140: f7e4 abbd 7096 743e cb1b 81bd aae0 0c3e
00000150: 01ef a13e 5942 473e 14d2 fa3d bce9 8fbd
00000160: 1933 2cbc 6f14 233e 7df3 0a3d c3aa 1dbd
00000170: 0a5b 05be 6f8d 0e3e d277 613e a835 943e
00000180: 3816 803d db13 3f3d 245b 1d3d a443 b03d
00000190: f35a 8f3e a440 8dbe d794 8cbd 7b1a a9bd
000001a0: ec95 073e ebe1 b1bd c1d5 933e aa14 0dbe
000001b0: 5dab 783e 6c70 843e 6256 5dbd 8baa 133e
000001c0: b572 80bd 3dbb 893e d42f 80bd 0e0b 1fbd
000001d0: 1f32 6abe 1745 3e3e 9d34 4e3e 11d2 253e
000001e0: 9c4d 903e 6ad8 d0bd 1a75 bf3e cb0e e93c
000001f0: 3803 26be 8355 d0bc e289 cf3c ea0d 2dbe
00000200: 2d6d 10bc e5ff 1d3e 9204 883e 7ad9 9abc
00000210: 1174 033e 05cf 58be 96fe c73d 2d72 503c
00000220: 6494 a23e 94a8 4a3e 4f30 0b3e e85f 10be
00000230: a404 453e 4e74 a23e f209 b13c 428b a53e
00000240: c6d3 ecbc 15bc b93e a623 ba3d 1fc8 84be
00000250: 42bd 84be 4288 de3d 4a02 813e 88bd eb3d
00000260: 44da fc3c 32e6 28be 602b ac3e adf7 cf3d
00000270: b091 a3be 7723 3f3e fda5 4dbe 9668 16be
00000280: b892 aa3d 9abd 993d 5084 583d b253 b2bd
00000290: 16ba 68bc 474b 1bbc 2fb6 65be f821 313e
000002a0: ce06 f8bd 1f6d 833e d250 71be c58a ad3e
000002b0: 5ee9 84be ff29 fc3c 434b 233e b967 7dbe
000002c0: 9298 123c 5b8f 0fbe 1b9d a1bd f249 803e
000002d0: 6372 873d 7efe 58bd 18a9 91be da57 0dbe
000002e0: 1998 b0bd 7556 893e 9b5b a6be 21eb 993d
000002f0: a6e9 593e 42ba 53be 2919 683e 8872 b93d
00000300: 5ed6 1dbd abbe 043e 20e1 0abe ea75 b53d
00000310: 8d6b b1bd bfa5 a2bd 2f60 d63d 5bcc 953d
00000320: d4de 3dbd 13fa 203e 9482 273d e745 acbd
00000330: 795e a7bd 22e4 e0bd 28ca 1bbe 163b ee3d
00000340: 1dcd 21bb 9e47 a53d 060d 163e 7980 e93c
00000350: bd58 0a3e d0d1 0abe b692 3dbc e645 c33d
00000360: 78a5 66bd a639 d5bd ff1c 28be 9992 5fbd
00000370: c7d7 1cbe 99c3 92bd 733d 08be 782f 2d3c
00000380: 1874 813d 7ae6 8e3e 35bc 4e3e 5602 363d
00000390: 0c53 9a3e ab91 3abd 91a5 aebd 1712 103e
000003a0: bb40 593d 3660 ce3c 924d 873e 4b48 66be
000003b0: 4d71 b53c 3c22 af3e f4c2 d1bd 63cc 993e
000003c0: 1ba5 a8bc 08f7 7e3e 639f 6cbe 3b2a aabe
000003d0: b98f 9abe db32 623e 6567 9f3e 148d 123e
000003e0: 743e a0ba 56c4 22be 39f1 a53e 2eb7 4cbd
000003f0: 5f4f a9be 1d1f 2dbd 19ac 40be 57be 373d
0.010739318 0.047751784 0.17774925 0.31298178 -0.02429556 0.17033893 0.30031618 -0.0046313354
0.13585386 0.012855057 0.45265758 0.040987935 0.21869923 0.09903714 -0.05333963 0.20652448
0.12872025 0.17463954 0.18117552 -0.1961758 -0.1064795 -0.10489087 0.2851736 0.4781221
0.21150018 -0.01874631 0.43562213 -0.007155968 0.21848993 0.47250646 -0.22730163 0.06037541
0.28871194 -0.2692158 0.17524831 0.2867537 -0.06018958 0.28912282 0.2812689 0.033441395
-0.2657632 -0.1797505 -0.12899292 0.104605705 0.10953925 -0.09442691 0.19563998 -0.16007464
0.21328293 -0.007485076 0.32588413 0.07349687 0.025991432 -0.008194129 -0.021239176 0.2629221
0.27944946 -0.18429655 -0.18359748 0.09568101 0.2607133 0.18914334 -0.2419843 -0.080133736
-0.052686512 0.12035085 0.016306927 -0.052912567 0.18214573 -0.1169103 -0.1869725 0.36709756
-0.0048407875 0.3917265 0.07521483 0.27897242 -0.10776418 0.19557536 0.089781284 0.18834332
-0.08393281 0.23885512 -0.06304129 0.13757578 0.31627658 0.19458903 0.122471005 -0.07027003
-0.0105102295 0.15925764 0.033923615 -0.03849293 -0.1302301 0.1392114 0.22018364 0.28947186
0.06254238 0.046649795 0.038416997 0.086066514 0.27999076 -0.2758838 -0.068643264 -0.08257004
0.13240784 -0.086856686 0.2887402 -0.13777414 0.2428412 0.2586702 -0.05403746 0.14420526
-0.06271879 0.26900664 -0.062591225 -0.038828902 -0.22870682 0.18581043 0.20137258 0.16193415
0.2818421 -0.10197528 0.3739403 0.028449437 -0.16212165 -0.0254314 0.025334302 -0.16899839
-0.008815092 0.15429647 0.26565987 -0.018902529 0.12837245 -0.21172722 0.09765355 0.012722534
0.31753838 0.1979087 0.13592647 -0.14099085 0.19240052 0.31729358 0.021611188 0.32332808
-0.028909575 0.36276308 0.09088831 -0.2593393 -0.25925642 0.10865833 0.2519706 0.115107596
0.030865796 -0.16494063 0.33626842 0.10154662 -0.31947088 0.18665873 -0.20082851 -0.14688334
0.08328766 0.07506867 0.052860558 -0.0870737 -0.014204523 -0.009478397 -0.22432779 0.17298114
-0.12110673 0.2566919 -0.23565987 0.33894935 -0.25959295 0.030781744 0.15946679 -0.24746598
0.008947508 -0.1401953 -0.078912936 0.25056416 0.066136144 -0.052977078 -0.2844932 -0.13803044
-0.0862276 0.26823774 -0.32491764 0.075155504 0.21280536 -0.2067652 0.22665848 0.09055048
-0.038534515 0.12963359 -0.13562441 0.08860381 -0.08663092 -0.0794177 0.10467564 0.07314368
-0.046355084 0.15720396 0.040896013 -0.0841177 -0.08172316 -0.10981013 -0.15213835 0.116323635
-0.0024688907 0.080703005 0.14653406 0.028503643 0.13510413 -0.135566 -0.011570623 0.095348164
-0.056310147 -0.10411386 -0.16417311 -0.054583166 -0.15316688 -0.071662135 -0.13304691 0.010570399
0.06320971 0.27910215 0.20188983 0.04443582 0.30141485 -0.045549076 -0.08527673 0.140694
0.053040247 0.025192361 0.2642637 -0.22488515 0.022148753 0.34205806 -0.102422625 0.30038747
-0.02058654 0.24898922 -0.23107676 -0.33235344 -0.30187777 0.22089712 0.3113357 0.1431163
-0.0012225644 -0.15895209 0.324106 -0.04997938 -0.33068368 -0.042266 -0.1881565 0.044859257

network.2.bias f4 [16]
00000000: eade 473a 54c5 1b3d d801 6f3e eab4 743e
00000010: fab9 233e 41bb db3d a2c9 22be a9aa 563e
00000020: 011a 673d b1b0 963e ca67 3dbe c58f 073e
00000030: 3c80 e43d 149d 523e 3aa8 d53d b61a c83d
0.00076244643 0.038029984 0.23340547 0.23897138 0.15988913 0.10729075 -0.1589723 0.20963539
0.056421284 0.2943168 -0.18496624 0.13238437 0.11157271 0.20567733 0.10432477 0.0977072

network.4.weight f4 [3, 16]
00000000: 07bd 723e 6264 e33e 1670 adbe 03b0 73be
00000010: ce5f 68be 89ac 16be 3dfb 003e d7f3 eabe
00000020: fb03 c8be 5c74 073e 9838 4abe 1c36 a73e
00000030: 9d92 9b3e de5d b5be bfff 623e 72b6 a1be
00000040: eb69 713e be94 cabe 0673 743e db61 873e
00000050: 13e6 7b3e 16c7 babe bf03 1bbe f30d b03e
00000060: 6b92 fe3d 0ec0 58bc b390 19be 62f9 e8be
00000070: 6b16 c6be 7ecf 993e 3458 98be 3365 263e
00000080: bb5b 12bf 8443 b9be fc4e be3e c049 c8be
00000090: 9c7d bcbe 51aa ad3e 145b 453d 900f c6be
000000a0: fbf7 733e 99d8 11bf be78 76bd 3999 933e
000000b0: 5dbd 453e 8739 32be aced 893e 3950 783e
0.2370492 0.44412524 -0.33874577 -0.23797612 -0.22692797 -0.14714254 0.1259584 -0.4588916
-0.39065537 0.13227981 -0.19748151 0.3265847 0.30385295 -0.35423177 0.22167872 -0.31584507
0.23575561 -0.39566606 0.23872003 0.26441845 0.24599485 -0.36480016 -0.15138148 0.34385642
0.12430271 -0.013229383 -0.14996605 -0.45502764 -0.3868898 0.30041116 -0.29754794 0.16249542
-0.5717122 -0.36184323 0.37169635 -0.39118767 -0.36814582 0.33919004 0.048182562 -0.38683748
0.23825066 -0.56971127 -0.060173742 0.28827837 0.19310518 -0.17404757 0.26939142 0.24249353

network.4.bias f4 [3]
00000000: a5eb acbc 8ed9 14be ca11 6bbb
-0.021108458 -0.14536116 -0.0035868757

exp_avg f4 [32, 13]
00000000: e234 62b8 3dc5 54b8 ff29 01b9 b006 5f38
00000010: 11c0 a0b7 676d 68b7 88e2 7cb8 41e8 14b8
00000020: 5a91 82b6 6194 9b37 5e3b ca36 1161 83b8
00000030: 6cf3 23b8 19e3 06b8 bf7f 0c36 f716 4939
00000040: 5d26 afb8 d685 23b8 b143 51b7 e62f f8b8
00000050: e1b5 12b8 933d d338 afb2 eb38 a200 9bb8
00000060: 2c28 bd37 213b 3439 3828 24b8 66d1 6938
00000070: 68eb 4e39 226c e938 4143 a4b8 cbaf c738
00000080: 311f a6b8 3013 55b8 1771 4939 8749 1c39
00000090: 3b87 bdb8 a0d3 bb38 df7f ad38 7860 2ab8
000000a0: faf1 0ab8 5982 4eb8 a8de 7138 f2b4 9fb7
000000b0: 4e6c 84b7 9079 44b8 ce1b 99b6 fcf3 7c37
000000c0: 98ce 0438 7467 85b7 da5f 18b8 9e01 32b8
000000d0: 8deb 90b8 d642 3136 835f 7d38 c248 4db8
000000e0: ab84 b4b8 7a6c ac38 5c6e 9db8 91c8 a3b8
000000f0: 66cd d138 dcf9 0039 b02e b9b8 2ddc 1b38
00000100: f0e9 1439 5581 d9b8 4fcd 60b9 dee4 11b9
00000110: a589 3a39 7947 e738 ff22 7a38 6062 59b9
00000120: 98a2 e538 6521 13b9 14f6 9eb7 f4c4 05b8
00000130: 1b97 4cb9 0a3d 32b9 17e4 beb8 90c6 65b8
00000140: ec0f c9b8 d6c2 1839 5068 5a36 2887 8eb6
00000150: e9bc b5b8 dc6c 14b8 abb0 4a38 bb76 6638
00000160: 6416 2eb8 a9c9 76b8 d83d d8b8 fb65 a838
00000170: bc9c a6b8 9d2d deb8 849c 92b8 cc49 f638
00000180: 1ec5 4238 a4b1 a839 4b83 0338 dbda 8a38
00000190: 4f2d 15b9 ceb2 7239 a0b3 2d39 f72c 6537
000001a0: 49f3 7538 eb83 dd38 c819 2f39 8d00 8fb8
000001b0: ffa6 eb38 0b27 9638 5bc6 26b9 aaa9 0fb9
000001c0: 5606 d1b8 6b9d 2638 ed88 b5b8 d6e4 6938
000001d0: 7cd8 f838 9026 7a38 a81b bbb8 83e3 90b8
000001e0: 2eef 83b8 eb08 83b6 bcae 3f38 fdb2 4f39
000001f0: 82df 4038 3d9a b8b5 95e2 92b8 ea17 1739
00000200: b41f dd38 30b8 a437 8372 35b9 3b9c 8f39
00000210: c3be df39 3dee 0f39 8b3d 93b9 950f f037
00000220: 5d07 d0b9 cab7 9cb9 0074 bc39 dfe0 ae39
00000230: 0061 a9b9 1f2e dc38 be38 6139 be1e f238
00000240: 7645 dcb8 dfb0 6bb9 c4db d8b8 964d 2739
00000250: 418e 0e37 47b6 c739 2688 8837 a6b5 afb6
00000260: a8f5 4eb9 742c a439 f05f 1a39 e83a 5cb2
00000270: 7ef2 e637 f36c 54b7 7404 49b8 73ff 51b7
00000280: 78b5 96b8 2cec 8a36 2b87 1a35 fe6d 7a38
00000290: eb12 ac35 0cfe 4438 a010 2bb5 8948 38b7
000002a0: 4e11 5b37 848e b4b7 fa77 4238 8529 9d39
000002b0: d326 aeb8 e3e0 b7b9 e372 be36 323b 5db9
000002c0: ed5d 4c38 30db 9938 8735 8e39 eb2e 50b9
000002d0: e99a 9837 6c33 6a39 69a5 5fb8 127e 4e38
000002e0: b5ee cdb8 960d 3c39 ea23 c8b8 6788 d9b8
000002f0: 7055 aab8 7374 4739 b6e1 c838 d219 2b38
00000300: fe64 70b8 39f3 d1b8 4b4b 0ab9 bd16 28b9
00000310: 308e f937 7470 a639 41fe 9038 cc32 f6b8
00000320: 0d5c cc37 102d 88b9 bf0f 62b9 7dc1 a839
00000330: 6472 8c39 548e 3fb9 52dd b338 483e 9439
00000340: 3c1d 80b8 5933 23b8 637f 1238 d675 d938
00000350: 5de4 de37 b083 bab6 4741 81b8 dc69 6138
00000360: fa3b 7e38 eb93 0138 950f 5db7 7d09 bbb7
00000370: 2c81 80b8 7c76 1139 e899 19b9 76da 8c39
00000380: dcf4 15b9 f935 c338 6179 7939 9c12 b5b8
00000390: cb46 6ab8 0dc1 c6b9 5acf b438 7ed3 e038
000003a0: 9bd0 b138 6db0 6139 88c8 fdb8 4fde d0b8
000003b0: 9190 05b9 9c51 1239 b928 9038 ce2c 8c36
000003c0: 5dd5 04b9 1c37 af35 c838 d837 85d8 2938
000003d0: a3d2 6eb8 3be4 d5b8 b730 e8b8 0878 3039
000003e0: 2e2a dd37 83e8 2fb9 0277 b737 f8ad 8239
000003f0: c51c 92b7 a9e7 e339 afdf 62b8 2887 cc38
-5.393185e-05 -5.072843e-05 -0.00012318043 5.317357e-05 -1.9162924e-05 -1.385375e-05 -6.0292456e-05 -3.5502253e-05
-3.891223e-06 1.8546534e-05 6.0269804e-06 -6.264647e-05 -3.9088933e-05 -3.215959e-05 2.0935984e-06 0.00019177409
-8.351796e-05 -3.8986873e-05 -1.2473131e-05 -0.00011834483 -3.49785e-05 0.00010072733 0.000112389556 -7.391094e-05
2.2549262e-05 0.00017188165 -3.9138104e-05 5.5746546e-05 0.00019733387 0.00011130447 -7.8326564e-05 9.5218034e-05
-7.921307e-05 -5.0801027e-05 0.00019210983 0.0001490471 -9.037411e-05 8.956273e-05 8.273101e-05 -4.0621002e-05
-3.3127122e-05 -4.9235623e-05 5.7666242e-05 -1.9038536e-05 -1.578606e-05 -4.6843255e-05 -4.562992e-06 1.50771775e-05
3.1663658e-05 -1.590301e-05 -3.6328893e-05 -4.2440013e-05 -6.91033e-05 2.641396e-06 6.0408853e-05 -4.894357e-05
-8.60778e-05 8.2218045e-05 -7.5068994e-05 -7.809804e-05 0.00010004155 0.00012300111 -8.830184e-05 3.7159934e-05
0.00014201528 -0.00010371456 -0.00021438788 -0.00013913537 0.00017789619 0.00011028251 5.9637237e-05 -0.0002073138
0.000109498564 -0.00014031453 -1.8949657e-05 -3.1893098e-05 -0.00019511247 -0.00016998142 -9.102391e-05 -5.478278e-05
-9.5873926e-05 0.00014568432 3.254525e-06 -4.247664e-06 -8.66594e-05 -3.5387333e-05 4.8325088e-05 5.494685e-05
-4.1505686e-05 -5.883878e-05 -0.00010311202 8.0298596e-05 -7.944691e-05 -0.00010594281 -6.990976e-05 0.0001174394
4.6436784e-05 0.0003217581 3.135511e-05 6.621118e-05 -0.00014226626 0.00023145528 0.00016565481 1.3659933e-05
5.863913e-05 0.00010562673 0.00016698905 -6.818874e-05 0.00011236779 7.15983e-05 -0.00015904887 -0.00013700748
-9.967077e-05 3.972409e-05 -8.656257e-05 5.576465e-05 0.00011865885 5.964056e-05 -8.922006e-05 -6.9088324e-05
-6.2911175e-05 -3.9051424e-06 4.5700683e-05 0.00019807737 4.5984525e-05 -1.3753958e-06 -7.004027e-05 0.00014409391
0.00010544006 1.9636092e-05 -0.00017304164 0.00027391486 0.00042676003 0.00013726293 -0.00028083878 2.8617485e-05
-0.00039678338 -0.00029891572 0.0003594458 0.00033355408 -0.00032306463 0.00010499008 0.0002147881 0.000115451854
-0.000105033556 -0.00022477236 -0.00010340617 0.00015955264 8.496981e-06 0.00038092045 1.6275862e-05 -5.236553e-06
-0.00019737205 0.00031313638 0.00014722324 -1.2819079e-08 2.7531056e-05 -1.2661551e-05 -4.792628e-05 -1.2516847e-05
-7.1863586e-05 4.1402145e-06 5.7566166e-07 5.9707083e-05 1.2820504e-06 4.696664e-05 -6.3726657e-07 -1.0984143e-05
1.3057446e-05 -2.1524036e-05 4.636494e-05 0.00029976308 -8.304198e-05 -0.00035072034 5.675816e-06 -0.00021098254
4.8724865e-05 7.3364354e-05 0.00027124232 -0.00019853904 1.8191948e-05 0.00022335135 -5.3321393e-05 4.923164e-05
-9.8196244e-05 0.00017934138 -9.543433e-05 -0.00010372773 -8.122146e-05 0.000190215 9.578785e-05 4.0793624e-05
-5.7314515e-05 -0.000100112 -0.00013188754 -0.00016030199 2.9749324e-05 0.0003174577 6.9138136e-05 -0.00011739656
2.436156e-05 -0.00025973516 -0.00021558905 0.00032187617 0.00026788109 -0.00018268201 8.576609e-05 0.00028275163
-6.108961e-05 -3.891005e-05 3.492775e-05 0.00010369315 2.6570802e-05 -5.5585624e-06 -6.163358e-05 5.374277e-05
6.0614177e-05 3.0893756e-05 -1.31762545e-05 -2.2296555e-05 -6.127576e-05 0.00013872416 -0.00014648552 0.00026865647
-0.00014300965 9.308378e-05 0.00023791708 -8.634219e-05 -5.585588e-05 -0.00037909337 8.621691e-05 0.00010720546
8.4788735e-05 0.00021523396 -0.00012101332 -9.959621e-05 -0.00012737724 0.00013954047 6.87404e-05 4.177541e-06
-0.00012667985 1.3054555e-06 2.5775647e-05 4.049439e-05 -5.6939793e-05 -0.00010199143 -0.00011071696 0.00016829383
2.6364894e-05 -0.00016775918 2.1870717e-05 0.0002492515 -1.7417953e-05 0.00043469414 -5.409092e-05 9.752653e-05

exp_avg_sq f4 [32, 13]
00000000: a56e 7336 98b7 3436 af3f aa36 d4f2 8c36
00000010: bacc 9336 bb3a 6536 541b 8136 5087 fa35
00000020: d9af 2536 72ce b335 f515 d235 d630 8b36
00000030: ec9b 8036 9829 0436 2c22 9b36 45bc 4d36
00000040: f3f0 b536 b33c 9536 4c3a 7636 d087 6636
00000050: 6ff6 0e37 0049 8536 7bba 1736 1a01 1436
00000060: 9db8 6a36 dfcb 5a36 7113 2f36 9e16 b336
00000070: 00d2 7f36 16a0 6736 fe14 8c36 0ab3 6f36
00000080: 5f69 6636 e962 3337 ca70 9c36 18f0 1536
00000090: ea4b fc35 24ce 9536 6422 5c36 dcb4 6336
000000a0: 3875 3836 1e46 2136 b763 9936 4822 0e36
000000b0: a665 7c36 dd68 a136 f5cb f535 2e05 1e36
000000c0: be7c 4035 eb45 fa35 00e7 6436 baef b136
000000d0: 1475 8b37 4b3e 8e37 8b6c 8837 edc3 1d37
000000e0: 22d1 8137 7f8e 1137 bce6 de36 d5af a037
000000f0: cdc0 5237 0004 5c37 db61 1737 19c7 1337
00000100: d162 9b37 e6f0 be37 abcb 8c37 90af e937
00000110: e343 1a38 eb5c 2938 2c0e 5037 94a3 9a37
00000120: e9b4 9537 1e3d 0638 4272 1637 de44 2d37
00000130: 2d2a a737 d3f4 0c38 e384 6037 1c47 c736
00000140: f196 5a37 51ca ba37 34b2 6d37 2a61 eb36
00000150: d573 2a37 c028 b936 40d8 f236 6c4e 3436
00000160: fd62 a436 b1e0 0a37 be97 b737 8c62 3f36
00000170: 1428 9037 99e7 9936 e932 1437 0729 2737
00000180: b16b 7d37 8a61 b437 12e8 e637 633f 7d37
00000190: 42b9 6337 e5b0 9637 88ed d337 9c4b 8d36
000001a0: cdf5 8b36 43ac 2a37 a7e8 9836 f6f8 2437
000001b0: 5bc2 0137 c07f f536 a9e6 ab36 50d8 7637
000001c0: 5c64 5936 10ef 4f36 4203 b536 d5bf d336
000001d0: 453c e636 aaa9 ca35 d248 e936 482a 4236
000001e0: 6b78 6436 d2a0 0d37 64a6 0337 f70c 3a37
000001f0: b62a 1937 2332 0c37 695a e236 69b3 1b37
00000200: f25d 6837 5fa9 dd35 9382 9337 8347 2738
00000210: 01e4 9337 bc06 c337 81be e437 148c a837
00000220: b878 a137 5b30 9b38 695a ef37 56e3 9237
00000230: 28ea 6237 7eb5 e437 5674 ea37 7e4d 0737
00000240: fe44 f437 16f3 4337 fe14 6837 cf3e a637
00000250: 3692 ba37 bf4a 0338 d2a8 6b38 6f93 df37
00000260: a944 ae37 a4e3 a837 5836 2638 efd6 1437
00000270: aa4a 9635 05d8 db35 507b 0936 ce81 0436
00000280: d503 fe35 c9a5 ce35 1564 3636 e72f ef35
00000290: b8f3 8735 5236 e835 d8c8 0c36 4355 4736
000002a0: 4dfd f735 49c0 6738 db5e 5a38 9b24 6f38
000002b0: 5211 2138 f086 b238 8df2 d737 4995 ab37
000002c0: 2d70 8a38 b3a1 8238 e157 9138 7aaf 1c38
000002d0: 42e4 0738 4f26 3738 6e9d f036 609e 4b37
000002e0: b8e0 5137 aea2 3537 ed42 8837 4f30 0637
000002f0: ff64 9436 8621 7b37 c104 0637 6bcf 1237
00000300: 5fc0 cc36 0cdf e536 82c3 2b37 eedb b637
00000310: 2c7d 2f38 a05e 9e37 5c5b bc37 5fa8 0238
00000320: ef02 b737 8ed2 d137 0e55 a138 9e52 0a38
00000330: 46db ec37 7750 a037 7759 0838 5e2a ec37
00000340: 31a2 1f37 1fd6 6036 3b62 f036 4aa0 9236
00000350: 65fe 2f37 6b5e 9536 9be3 9f36 47c3 3f36
00000360: 6bd5 e036 b872 9336 0bf6 3136 09c0 6e36
00000370: e74e 1337 64c3 7938 0754 2938 e374 2638
00000380: ec9a 2438 716c 6b38 6e7d d837 366d 8037
00000390: 67b6 5838 5a3e f637 f3a3 3e38 75f5 a737
000003a0: f0b9 ae37 adda 6038 5d4e 0c38 aec8 1937
000003b0: a21c 0638 47a0 f237 3d16 0938 dcf5 7437
000003c0: 3331 b537 192f 4537 c26b ad37 acaf b336
000003d0: 0778 3637 944c a437 5dbc 1b38 e3bc 6837
000003e0: 7e73 4138 7109 b237 a944 c137 b217 4838
000003f0: 488b d037 5aaa ea37 0192 c038 d664 4438
3.6274225e-06 2.6928956e-06 5.0738086e-06 4.200594e-06 4.4047747e-06 3.4157845e-06 3.847681e-06 1.8665833e-06
2.4689273e-06 1.3396623e-06 1.565261e-06 4.148208e-06 3.832849e-06 1.9693744e-06 4.623338e-06 3.0656968e-06
5.4222705e-06 4.4476124e-06 3.669079e-06 3.4351724e-06 8.521237e-06 3.972207e-06 2.26093e-06 2.205436e-06
3.4976176e-06 3.26032e-06 2.6088348e-06 5.3372487e-06 3.8120197e-06 3.4514865e-06 4.174769e-06 3.571799e-06
3.4334005e-06 1.0692261e-05 4.6622927e-06 2.2342483e-06 1.8797557e-06 4.464544e-06 3.2802573e-06 3.393091e-06
2.7486367e-06 2.4031683e-06 4.5713637e-06 2.1179603e-06 3.7610093e-06 4.8103816e-06 1.8313282e-06 2.354685e-06
7.17071e-07 1.86468e-06 3.4109107e-06 5.302919e-06 1.662461e-05 1.6956727e-05 1.6263008e-05 9.403547e-06
1.5475383e-05 8.675851e-06 6.6429766e-06 1.9155364e-05 1.2561865e-05 1.3113953e-05 9.023085e-06 8.808239e-06
1.8523455e-05 2.2761942e-05 1.678414e-05 2.7857517e-05 3.6779686e-05 4.0379276e-05 1.2401066e-05 1.8434403e-05
1.7846427e-05 3.200501e-05 8.967299e-06 1.0327638e-05 1.9927591e-05 3.360661e-05 1.33823805e-05 5.9389404e-06
1.3028956e-05 2.2267139e-05 1.4167792e-05 7.014857e-06 1.0159759e-05 5.5181736e-06 7.237337e-06 2.6867738e-06
4.8991046e-06 8.277756e-06 2.188596e-05 2.851858e-06 1.71848e-05 4.586717e-06 8.833341e-06 9.963528e-06
1.5105049e-05 2.1503092e-05 2.7526203e-05 1.50947335e-05 1.3573388e-05 1.7963766e-05 2.526377e-05 4.2109295e-06
4.171138e-06 1.0172897e-05 4.5570373e-06 9.8331275e-06 7.734251e-06 7.316441e-06 5.1230495e-06 1.4713107e-05
3.2393937e-06 3.0984556e-06 5.3945996e-06 6.310622e-06 6.8615504e-06 1.5099552e-06 6.9524185e-06 2.8932864e-06
3.404474e-06 8.441699e-06 7.846949e-06 1.10894825e-05 9.129455e-06 8.356324e-06 6.74585e-06 9.280492e-06
1.3850151e-05 1.6515077e-06 1.7584569e-05 3.9882503e-05 1.7629938e-05 2.3248947e-05 2.7268428e-05 2.009239e-05
1.924891e-05 7.399983e-05 2.853312e-05 1.7510418e-05 1.35251685e-05 2.7264232e-05 2.7949147e-05 8.06467e-06
2.9119194e-05 1.1679504e-05 1.3833165e-05 1.981799e-05 2.2241013e-05 3.1302447e-05 5.6185592e-05 2.6652326e-05
2.0774389e-05 2.0133164e-05 3.9628096e-05 8.871531e-06 1.1197601e-06 1.6379641e-06 2.0486368e-06 1.974509e-06
1.892559e-06 1.5396446e-06 2.7178369e-06 1.7820829e-06 1.0129215e-06 1.7301156e-06 2.0978532e-06 2.970294e-06
1.8476654e-06 5.525377e-05 5.206359e-05 5.7016132e-05 3.8401522e-05 8.5128355e-05 2.5742944e-05 2.0454305e-05
6.601247e-05 6.229002e-05 6.9305075e-05 3.7356724e-05 3.239909e-05 4.3666278e-05 7.1708846e-06 1.2136617e-05
1.2509692e-05 1.08263175e-05 1.6243628e-05 7.99827e-06 4.422501e-06 1.4968571e-05 7.988129e-06 8.750571e-06
6.1020687e-06 6.850698e-06 1.02379145e-05 2.1798503e-05 4.1839827e-05 1.8879131e-05 2.2453889e-05 3.1151223e-05
2.1816666e-05 2.5012789e-05 7.692921e-05 3.2978707e-05 2.82355e-05 1.9110956e-05 3.2508247e-05 2.8153121e-05
9.514902e-06 3.3503236e-06 7.163993e-06 4.369799e-06 1.0490044e-05 4.4515377e-06 4.765066e-06 2.8574884e-06
6.7005653e-06 4.3942964e-06 2.6518271e-06 3.5576543e-06 8.780254e-06 5.9548198e-05 4.0370996e-05 3.9686343e-05
3.924493e-05 5.612936e-05 2.5807614e-05 1.5309644e-05 5.166829e-05 2.935452e-05 4.545222e-05 2.0022251e-05
2.0829e-05 5.360942e-05 3.3451583e-05 9.166235e-06 3.1974756e-05 2.8923283e-05 3.2684056e-05 1.4600777e-05
2.1599792e-05 1.1753081e-05 2.0673386e-05 5.3550666e-06 1.0875991e-05 1.9585983e-05 3.7130307e-05 1.3872256e-05
4.6122346e-05 2.122365e-05 2.3039365e-05 4.7705784e-05 2.486039e-05 2.79743e-05 9.182469e-05 4.6823952e-05

exp_avg f4 [32]
00000000: 0f6c abb8 0825 36b8 e219 15b9 a8cf b7b8
00000010: 266c 90b8 a525 f9b8 d81c 22b9 6b07 85b8
00000020: f663 d5b8 9748 a3b8 b3ae 26b9 ba01 f1b8
00000030: 44fb 94b8 8415 f9b8 6e3d e1b8 f417 20b9
00000040: 2b06 00b9 7e3a 15b8 6cb0 20b9 5fb0 b5b9
00000050: 90e6 08b9 b96d 8cb8 3754 53b8 eb39 07b9
00000060: 1688 99b8 e744 82b8 fe01 d8b9 4308 0eb9
00000070: 044d 81b9 f6f2 08b9 cb7d 7337 ce3f 7eb8
-8.174043e-05 -4.342667e-05 -0.0001421939 -8.764799e-05 -6.886599e-05 -0.00011880257 -0.00015460269 -6.343316e-05
-0.00010175251 -7.7859666e-05 -0.00015896074 -0.00011492097 -7.103992e-05 -0.00011877253 -0.00010740278 -0.00015267712
-0.00012209329 -3.5578843e-05 -0.00015324511 -0.00034654417 -0.00013055862 -6.696158e-05 -5.038475e-05 -0.0001289618
-7.3209565e-05 -6.211717e-05 -0.00041200215 -0.00013545253 -0.00024662178 -0.0001306048 1.4513217e-05 -6.0617742e-05

exp_avg_sq f4 [32]
00000000: 70f6 e936 5754 d736 49b6 fa36 49c1 7136
00000010: 821f 1838 ed38 b837 a519 5637 acdf 9e37
00000020: 95b5 1937 018c 0537 2697 2138 221a 0838
00000030: 54c5 a236 6286 cd38 f222 8737 49dc 6f38
00000040: 958e b136 836f 6d38 50a1 ab37 cdb2 4038
00000050: 358a b937 1a93 6137 f155 fa36 dbf4 4c37
00000060: f78e 0e37 50f0 a337 587a 8538 91cc 0c36
00000070: 5106 3637 6e29 5b36 e3cd 4737 d3b0 7237
6.97263e-06 6.4173178e-06 7.4718014e-06 3.6024305e-06 3.6268968e-05 2.1961017e-05 1.2761365e-05 1.8939223e-05
9.1617885e-06 7.960015e-06 3.852616e-05 3.2449265e-05 4.8509482e-06 9.8001925e-05 1.6109527e-05 5.7187197e-05
5.29161e-06 5.6609057e-05 2.0459905e-05 4.594289e-05 2.2118076e-05 1.3445295e-05 7.4605855e-06 1.2216357e-05
8.497146e-06 1.9543018e-05 6.3647225e-05 2.09807e-06 1.0849516e-05 3.2657658e-06 1.1909261e-05 1.4465494e-05

exp_avg f4 [16, 32]
00000000: ce37 81b8 eb6d feb8 6eb1 dbb8 0898 3ab8
00000010: c0f7 bfb8 8823 b7b8 021d 88b8 2efb c738
00000020: 5806 fbb8 d376 eb37 7af4 93b9 8959 3a39
00000030: e0e9 d7b8 156f 5ab9 be5d c8b7 2439 04b9
00000040: 29dc 1fb8 a2b8 42b9 7ff8 0db8 3616 b738
00000050: 0b2d 8f39 fce6 a4b8 5733 3ab8 fea5 95b8
00000060: c13b 95b8 915d 5139 a49f 45b9 9c27 29b8
00000070: 76ab e5b7 90c6 03b8 d12c 9939 dc75 0739
00000080: 0103 28b9 e0bd 5c38 af1b adb6 8269 bbb8
00000090: e33e 2338 dc1c b2b9 a264 57b9 b382 3a36
000000a0: c18f 8338 cff8 e137 3722 a7b7 e5f0 a4b8
000000b0: ed9d f9b8 a3e1 a338 3305 1eb9 d125 1038
000000c0: 3a45 00b9 9fef 8538 7111 1ab9 5f8a ccb8
000000d0: 9564 9735 0758 8c37 f7ab c838 d347 48b9
000000e0: 84f2 c0b8 62c7 e4b4 ae7d b038 01f4 1bb9
000000f0: 4294 29b9 01a8 40b9 6933 3237 c1e1 1437
00000100: 4bb8 bfb7 9c83 65b8 07d5 eab8 fcf5 86b7
00000110: 4cff d1b8 1270 8438 a209 d237 6584 08b9
00000120: c06a 93b8 92b1 09b9 5cd2 9135 97a2 d3b8
00000130: 4d24 24b8 e724 f6b8 2cf5 6837 5712 33b8
00000140: 56d4 9137 7969 84b8 dd58 0138 8285 a8b8
00000150: 01ff 1eb9 ef53 0cb8 7659 b7b8 2e23 9ab6
00000160: 1d8d 63b8 84ff 16b9 b96b 58b8 844f 0c38
00000170: 4ac1 5538 5bf6 3f38 a267 25b9 3c37 f0b8
00000180: c7eb 3638 4ed9 13b9 2b8d f5b8 83a9 9737
00000190: 6776 f4b8 48f8 0939 99fd 9238 6550 a638
000001a0: 950d 1db9 b80f 1137 01e6 85b9 534d 3c39
000001b0: 5c2c aab7 cfda 79b9 4576 8838 38f4 fdb8
000001c0: a0f6 2738 b297 57b9 ba2d 8038 92b9 0139
000001d0: 7c6f 7139 df4e 84b8 e291 d1b8 7816 4e38
000001e0: 00b9 f2b6 6ea2 2939 c28d 60b9 d6d5 7038
000001f0: f5e6 9d38 2c1c a538 b431 7a39 0db0 ef38
00000200: 5da5 0838 1f70 0db9 81ad 0eb9 ec39 9037
00000210: 31aa 12b9 ec08 f238 27e3 8a38 d195 a738
00000220: 777d 1bb9 3953 ff37 3e1c 82b9 c86f 1a39
00000230: a09d 9cb7 ab1f 4db9 ad8f 5c38 3a5d ebb8
00000240: 86f6 5038 b481 49b9 39de 7138 82c1 fc38
00000250: 541f 5839 c204 77b8 93d4 c4b8 ee23 4338
00000260: 96a3 b4b5 2c75 2239 16c8 55b9 b09b 6b38
00000270: 80d4 9a38 b2a2 9b38 18ea 6839 d5aa e838
00000280: 193f 59b7 8dd8 a438 0b9f fbb7 9cec 69b4
00000290: 45a3 1ab7 5521 92b6 4e38 0ab4 1bfd 69b9
000002a0: 4ff8 a738 cb85 2eb9 9fd2 6f39 0cc3 8eb9
000002b0: 2a51 0438 4d37 a938 be53 b2b7 2e8e 8c38
000002c0: 02dc 41b7 cf5a 0b39 6733 f7b3 0372 47b9
000002d0: 3e34 c3b9 be2b 9037 f6aa d737 57b6 2037
000002e0: 4d7a cf36 9adb a5b9 3d53 1839 af6e bdb6
000002f0: 3567 90b6 1d3c c021 0b3d cdb9 9c66 78b9
00000300: 0400 0000 0000 0000 e731 7f04 0000 0000
00000310: 9f33 482e 0400 0000 0c00 0000 2800 9631
00000320: 0000 0000 fcf2 9b31 0000 0000 249f a231
00000330: 2900 0000 5f43 422c 2b98 d230 0000 0000
00000340: 2500 0000 2100 0000 1a00 0000 d3e9 8c31
00000350: a980 c631 640b e02f 0700 0000 1a00 0000
00000360: 2100 0000 54eb 7d31 1200 0000 c914 d330
00000370: 2a28 322e 0600 0000 f9a2 8831 fe62 ba31
00000380: 8110 6c37 a956 39b9 80b9 05b9 ee76 d435
00000390: c40d 06b9 04ba 1439 36cd 9138 3b39 e838
000003a0: c269 5ab9 1716 8237 1aa2 9cb9 adc3 6739
000003b0: 4eae 75b8 d1e2 9db9 e9c0 9e38 7cbe 1fb9
000003c0: 51fb 4538 1f90 8bb9 e70d 9438 56cd 1039
000003d0: 8e36 9039 0aea a0b8 4b26 21b9 9b22 0e38
000003e0: 6424 45b8 2f59 5139 58ad 8cb9 6972 8f38
000003f0: 099a c838 8c65 ca38 a810 9539 7868 1e39
-6.161594e-05 -0.000121321376 -0.000104757826 -4.4487446e-05 -9.153737e-05 -8.732738e-05 -6.4903885e-05 9.535845e-05
-0.00011969794 2.8069515e-05 -0.00028220174 0.00017771697 -0.000102955615 -0.00020831481 -2.388551e-05 -0.00012609788
-3.8113594e-05 -0.00018570063 -3.384845e-05 8.730257e-05 0.00027308645 -7.8631536e-05 -4.439367e-05 -7.135792e-05
-7.116004e-05 0.0001996665 -0.00018846855 -4.032963e-05 -2.737877e-05 -3.141776e-05 0.00029215825 0.0001291851
-0.00016022848 5.2628922e-05 -5.1590246e-06 -8.936507e-05 3.8920796e-05 -0.00033972308 -0.00020541486 2.7792237e-06
6.273343e-05 2.693795e-05 -1.9923884e-05 -7.8649995e-05 -0.00011902661 7.814474e-05 -0.00015069991 3.4367495e-05
-0.0001223282 6.386567e-05 -0.00014693082 -9.753252e-05 1.127965e-06 1.6730291e-05 9.568774e-05 -0.00019100243
-9.2004455e-05 -4.261338e-07 8.415744e-05 -0.0001487285 -0.00016172326 -0.00018373133 1.0621597e-05 8.87405e-06
-2.2854792e-05 -5.4720425e-05 -0.00011197669 -1.608859e-05 -0.00010013449 6.315125e-05 2.5038436e-05 -0.00013019292
-7.02939e-05 -0.00013131488 1.0864565e-06 -0.00010091549 -3.9134455e-05 -0.00011737068 1.3885361e-05 -4.2694006e-05
1.7384224e-05 -6.313896e-05 3.0838757e-05 -8.035732e-05 -0.0001516305 -3.345677e-05 -8.7427834e-05 -4.593653e-06
-5.425244e-05 -0.00014400302 -5.1598738e-05 3.3452656e-05 5.096317e-05 4.5767385e-05 -0.00015774232 -0.0001145438
4.3611766e-05 -0.00014099965 -0.00011708805 1.8079538e-05 -0.00011656881 0.0001315783 7.009059e-05 7.9304715e-05
-0.00014977746 8.646333e-06 -0.00025539103 0.00017957883 -2.0286236e-05 -0.00023828003 6.507015e-05 -0.000121094694
4.004559e-05 -0.00020560509 6.112033e-05 0.00012371529 0.00023025082 -6.3089414e-05 -9.9930694e-05 4.9135153e-05
-7.233699e-06 0.00016177606 -0.00021415114 5.741961e-05 7.5293625e-05 7.8730605e-05 0.00023860374 0.000114292
3.2578933e-05 -0.00013488576 -0.0001360681 1.719311e-05 -0.00013987046 0.00011541121 6.622663e-05 7.991086e-05
-0.00014828691 3.0437122e-05 -0.00024816574 0.00014728226 -1.8670049e-05 -0.0001956212 5.2585896e-05 -0.00011223038
4.9820657e-05 -0.00019217172 5.766584e-05 0.0001205234 0.00020611036 -5.889382e-05 -9.385603e-05 4.6525085e-05
-1.3458655e-06 0.00015493174 -0.00020387801 5.617336e-05 7.3828734e-05 7.42128e-05 0.00022212451 0.00011094442
-1.2948899e-05 7.860465e-05 -2.9995592e-05 -2.1785894e-07 -9.217129e-06 -4.3550194e-06 -1.2872735e-07 -0.000223149
8.0094316e-05 -0.00016643775 0.00022871279 -0.00027229672 3.1546842e-05 8.0688485e-05 -2.1258249e-05 6.702203e-05
-1.1554921e-05 0.00013289902 -1.1511184e-07 -0.00019020592 -0.00037232222 1.7186507e-05 2.5709607e-05 9.5791975e-06
6.1833184e-06 -0.00031634868 0.00014526858 -5.645524e-06 -4.3035493e-06 1.3026338e-18 -0.00039146128 -0.00023689348
6e-45 0.0 2.999802e-36 0.0 4.5520584e-11 6e-45 1.7e-44 4.3655923e-09
0.0 4.538718e-09 0.0 4.7329127e-09 5.7e-44 2.7606457e-12 1.532276e-09 0.0
5.2e-44 4.6e-44 3.6e-44 4.101119e-09 5.7771854e-09 4.0753456e-10 1e-44 3.6e-44
4.6e-44 3.6950114e-09 2.5e-44 1.5358178e-09 4.0508187e-11 8e-45 3.976649e-09 5.4245666e-09
1.4070539e-05 -0.00017675258 -0.00012752973 1.5829844e-06 -0.00012784364 0.00014183676 6.952362e-05 0.00011073282
-0.00020829498 1.5507494e-05 -0.00029875414 0.00022102772 -5.8574886e-05 -0.00030114365 7.5699594e-05 -0.00015234383
4.7202517e-05 -0.00026619525 7.0597795e-05 0.00013809404 0.00027506467 -7.672988e-05 -0.00015368422 3.3887667e-05
-4.700235e-05 0.00019965017 -0.00026832032 6.840082e-05 9.5654344e-05 9.651025e-05 0.00028431905 0.00015106972

exp_avg_sq f4 [16, 32]
00000000: 0fe6 ec34 8748 ad35 e2bd 5537 8401 1c34
00000010: 42fc fd36 3941 0d35 fc49 2934 7020 4536
00000020: 9549 4436 3bdf 8435 4415 9635 ca45 8236
00000030: c6b9 7434 648f 4d36 d888 3a35 907f c635
00000040: 3f52 c933 62b6 1235 88bc a733 e495 b834
00000050: e8d9 6836 537b ea35 d14e 3033 9a9b b334
00000060: 9c08 6634 cc81 1237 f750 0d35 1d90 dc33
00000070: 9bae a333 b2c2 1d34 138a 0d36 41fe 2936
00000080: ebf2 fc37 2ef5 5a35 d888 8636 5c1c a137
00000090: 5897 4b37 2753 1b3a 78a3 9539 db63 3c36
000000a0: d52d 1d37 b706 4d36 f9d2 df36 4221 e137
000000b0: 6012 1f39 55b4 b337 c05d 8738 d921 0536
000000c0: cc0c 2e37 aa16 0938 336b 0839 d21a 8738
000000d0: 0967 1d37 e30d ff35 c4ac 0e37 343b 4139
000000e0: d68b bb38 a4b5 a735 bf78 4d37 fbe7 4a38
000000f0: 8d99 2938 9be1 1138 2a9d 9f34 6b8d 9f36
00000100: 51fd 0037 6c1e 4c36 df1f 0438 11d2 dc35
00000110: c74a 4d38 7add 0238 6859 0237 09b7 da37
00000120: 29fa 5837 ad62 5137 0dc2 8936 d128 4638
00000130: 3eb7 1a37 3371 5a38 034f 8937 552b 8936
00000140: c2fb 4536 2636 6437 2762 3036 0eb9 b037
00000150: 2710 3b38 7878 1537 eafc f035 96d0 4237
00000160: 8847 1737 8457 8338 8131 8b36 32dc 0437
00000170: 55eb ac35 c966 3136 8350 3937 f2e0 1338
00000180: 9b64 9f36 8c92 4637 aadd 0438 5a58 8736
00000190: 21db a338 2ff9 6536 fff2 3337 cfae 8a37
000001a0: 27ef 3f38 647c 0f37 3d93 4938 6dac 8637
000001b0: 86ca 2d38 1e12 c538 facd 5e36 d567 d837
000001c0: 0183 9f36 bd97 1839 fb74 1236 accd bc36
000001d0: c5f2 8237 1187 0737 e9df 3137 47cc c137
000001e0: 7f32 0838 5f46 8f37 05ba 3538 6b2b 1d36
000001f0: e5e2 2a35 0dfd bf36 6da7 3537 6494 7237
00000200: 2abd 2f36 996e 0737 1174 c737 112c 1536
00000210: 22dd 6138 18c3 1b36 305e d236 3eac 5237
00000220: 166e dc37 20dc c636 8226 f337 8b12 1e37
00000230: a413 ba37 d3df 7638 a53f e135 c42e 9037
00000240: 1899 1e36 3839 a838 b13d ae35 98b5 2936
00000250: d319 1937 7997 bc36 60cd e136 6827 5d37
00000260: 8457 9437 b50d 3037 af27 d737 0162 a035
00000270: 9241 c434 9add 3336 5c05 0737 0511 3237
00000280: 8500 3136 2d42 dd36 3b94 dd37 42cb 2e35
00000290: d8c7 f737 374b a235 216c 3234 fda4 b837
000002a0: 4205 2437 fd95 2037 7c95 ea36 3d0e ed37
000002b0: f83a 8835 ef10 5a37 bc70 d936 6c8c 0037
000002c0: f04e cb35 673e 3b37 1b69 a433 d2f1 4237
000002d0: 5677 f137 46ee da36 d290 5133 9b9c b334
000002e0: a330 9635 860c f437 4b2b 5e36 39b3 1736
000002f0: 4d8e fd34 255f ce33 2c08 7237 8cb3 ba37
00000300: d395 f930 0000 0000 5bd4 f323 0000 0000
00000310: bd87 1031 b946 8531 579b 0b33 f5b0 7c33
00000320: 0000 0000 ca86 7634 0000 0000 af36 8732
00000330: 8bf5 a134 2802 f732 fde2 1e33 0000 0000
00000340: fa73 8934 59c5 5834 b9bf 0434 9a2e 2334
00000350: 1a4a 6029 babd 9226 b0f4 4e32 e3d1 1134
00000360: 86c3 5334 fb33 b428 22e4 7033 bb10 ef2e
00000370: daff 6c32 8665 c232 62f5 9a28 b7e6 2034
00000380: 192a 1c37 f77f 9b37 9505 4d38 5709 0237
00000390: 6ad5 1639 0403 c837 31b7 d137 ca4e aa37
000003a0: b88b bb38 9efa 4337 f597 a838 8a8c 9737
000003b0: 2c64 8538 c7e4 5639 a911 c436 6285 3638
000003c0: 6193 f836 b1d5 7839 ada8 bd36 21f4 d736
000003d0: 99f9 7d37 1a8e 4337 bb62 a237 1a35 2638
000003e0: 91ec 6338 6ffd a237 04f5 9638 8fda a536
000003f0: 9831 e935 b6ec 3237 16d1 5437 579f 9537
4.4125815e-07 1.2910613e-06 1.274e-05 1.4529184e-07 7.5693542e-06 5.2621505e-07 1.5766267e-07 2.9374169e-06
2.9249106e-06 9.899735e-07 1.118206e-06 3.8824264e-06 2.2791855e-07 3.0630845e-06 6.9489533e-07 1.4789275e-06
9.374752e-08 5.465464e-07 7.810837e-08 3.438173e-07 3.4697532e-06 1.7470251e-06 4.1049876e-08 3.3454563e-07
2.1423551e-07 8.732499e-06 5.264441e-07 1.02707624e-07 7.6220395e-08 1.4692594e-07 2.1091007e-06 2.5330958e-06
3.0153858e-05 8.156811e-07 4.009442e-06 1.9205901e-05 1.213498e-05 0.00059251714 0.00028541288 2.8072307e-06
9.3686e-06 3.055129e-06 6.6704783e-06 2.6837577e-05 0.00015170267 2.1422436e-05 6.454764e-05 1.9838246e-06
1.0374188e-05 3.2684453e-05 0.00013009906 6.442297e-05 9.381919e-06 1.9003022e-06 8.504085e-06 0.00018427969
8.942901e-05 1.2495334e-06 1.2247066e-05 4.83766e-05 4.0435745e-05 3.4780805e-05 2.973041e-07 4.7550325e-06
7.688374e-06 3.0416077e-06 3.1500935e-05 1.6452415e-06 4.894545e-05 3.120068e-05 7.76942e-06 2.6072858e-05
1.2932848e-05 1.24803455e-05 4.1055087e-06 4.7244892e-05 9.22178e-06 5.2080675e-05 1.6368465e-05 4.0879627e-06
2.950183e-06 1.3602466e-05 2.6283176e-06 2.1067008e-05 4.4599317e-05 8.909141e-06 1.7955001e-06 1.1611866e-05
9.016956e-06 6.262868e-05 4.148286e-06 7.919081e-06 1.2883489e-06 2.6434884e-06 1.1045605e-05 3.5257028e-05
4.7502813e-06 1.183584e-05 3.1677693e-05 4.033599e-06 7.8132616e-05 3.4268703e-06 1.0725808e-05 1.6532284e-05
4.5760677e-05 8.552426e-06 4.805926e-05 1.6054337e-05 4.143503e-05 9.3970666e-05 3.3200472e-06 2.5797557e-05
4.75382e-06 0.00014552377 2.1823787e-06 5.62678e-06 1.5610256e-05 8.078075e-06 1.0602155e-05 2.3102517e-05
3.2471955e-05 1.7079697e-05 4.3327007e-05 2.3420096e-06 6.366011e-07 5.7217026e-06 1.0827423e-05 1.4458874e-05
2.618714e-06 8.072378e-06 2.3776696e-05 2.222838e-06 5.3850126e-05 2.321036e-06 6.2694526e-06 1.2557079e-05
2.6277306e-05 5.9264858e-06 2.8985789e-05 9.421851e-06 2.2182074e-05 5.8859423e-05 1.6782329e-06 1.7187915e-05
2.3632947e-06 8.021522e-05 1.2981965e-06 2.5288664e-06 9.125523e-06 5.6204703e-06 6.7294313e-06 1.31818015e-05
1.7683727e-05 1.0493609e-05 2.5648476e-05 1.1949452e-06 3.6555554e-07 2.6802068e-06 8.047875e-06 1.0613589e-05
2.6375358e-06 6.594017e-06 2.6414278e-05 6.511583e-07 2.9537754e-05 1.2091831e-06 1.6616879e-07 2.2011338e-05
9.776386e-06 9.571665e-06 6.9911457e-06 2.8259232e-05 1.0149952e-06 1.2997755e-05 6.480228e-06 7.662089e-06
1.5147652e-06 1.1160598e-05 7.655964e-08 1.1619604e-05 2.8785009e-05 6.524645e-06 4.8793318e-08 3.3455294e-07
1.1190026e-06 2.9092898e-05 3.3105778e-06 2.2605075e-06 4.722846e-07 9.609929e-08 1.4426227e-05 2.2256536e-05
1.8159717e-09 0.0 2.6436049e-17 0.0 2.1031916e-09 3.8788497e-09 3.250474e-08 5.8834264e-08
0.0 2.2959571e-07 0.0 1.5740936e-08 3.0167243e-07 2.8755565e-08 3.6993686e-08 0.0
2.5602623e-07 2.0188362e-07 1.2363206e-07 1.5197512e-07 4.9802264e-14 1.0182211e-15 1.2046414e-08 1.3580534e-07
1.9722037e-07 2.0006557e-14 5.608684e-08 1.08714336e-10 1.3795182e-08 2.263074e-08 1.7203852e-14 1.4985095e-07
9.308126e-06 1.8537028e-05 4.8881007e-05 7.750778e-06 0.00014384618 2.3843262e-05 2.5000047e-05 2.0302268e-05
8.9428795e-05 1.1681257e-05 8.0391685e-05 1.8066046e-05 6.360593e-05 0.00020493857 5.843311e-06 4.3516404e-05
7.408133e-06 0.0002373073 5.6522754e-06 6.4359197e-06 1.5138089e-05 1.1655991e-05 1.935788e-05 3.962694e-05
5.4341337e-05 1.942992e-05 7.198195e-05 4.9428268e-06 1.7374286e-06 1.066474e-05 1.2684866e-05 1.7836383e-05

exp_avg f4 [16]
00000000: b0d6 3cb9 f49f 32b9 25a3 a1b8 1d32 89b8
00000010: e8e6 80b8 a5b7 9cb5 99f5 0531 c3f2 c0b8
00000020: 2d30 1db8 f743 76b9 f320 0200 931b dab8
00000030: ae22 83b9 55ec 16b8 b88c 97b8 0b0b 85b8
-0.00018009054 -0.0001703499 -7.707466e-05 -6.5420034e-05 -6.146525e-05 -1.1676353e-06 1.9493653e-09 -9.200491e-05
-3.7476584e-05 -0.00023485707 1.95491e-40 -0.00010400186 -0.00025012105 -3.598289e-05 -7.226452e-05 -6.343991e-05

exp_avg_sq f4 [16]
00000000: 2849 f736 1350 3d39 7298 aa38 eceb fb38
00000010: c0ce 9738 8b4e d337 454a 4134 75d9 6a39
00000020: 9e1f b836 d7d1 b837 c396 2c36 ec0a 8538
00000030: 6fe4 1538 3624 6338 e882 cf37 4a08 ae37
7.36969e-06 0.00018054275 8.134627e-05 0.000120125565 7.238751e-05 2.5189735e-05 1.8001545e-07 0.00022396988
5.487308e-06 2.2032224e-05 2.5717752e-06 6.3439686e-05 3.5737114e-05 5.415474e-05 2.4737281e-05 2.0746276e-05

exp_avg f4 [3, 16]
00000000: 2229 a5b9 007b 3eba b34d 053a 9616 8c39
00000010: 8e7b 9e39 18be 6239 018c 3a2d b304 df39
00000020: 2ded 133a bb03 f0b9 55ac 0080 8e29 d9b9
00000030: 0ebb c2b9 8f2b ef39 7afe 92b9 cfb4 033a
00000040: 544c d5b9 7adf 0a3a 2c6f 8439 f7bf 76ba
00000050: 031d 90ba 95b1 393a 69df 082b d05b 9cba
00000060: e2c0 ee38 7996 e0b9 282e 0000 f0c7 a63a
00000070: 2cbc 8c3a a20b 46ba 8a7e ae3a 9b1b 8bb7
00000080: 933a 3d3a c96f 4e39 5386 47ba 2bb4 303a
00000090: b8fb 503a b261 72ba 3808 43ad cb34 493a
000000a0: 4ec6 31ba 064d 683a 2d7e 0000 6cfb 60ba
000000b0: 381b 38ba d0ea 9c39 32bf 89ba 76b9 feb9
-0.000315019 -0.0007266253 0.00050851254 0.0002671971 0.00030228164 0.00021623855 1.0603963e-11 0.00042537376
0.0005642947 -0.00045779147 -6.1821e-41 -0.00041420426 -0.0003714193 0.00045618086 -0.0002803689 0.0005024196
-0.00040683395 0.0005297583 0.0002525983 -0.000941276 -0.0010994974 0.0007083652 4.862695e-13 -0.0011929218
0.000113846516 -0.0004283672 1.6558e-41 0.0012724381 0.0010737232 -0.0007554834 0.0013312858 -1.6582946e-05
0.0007218506 0.00019687334 -0.00076112634 0.00067407143 0.00079720793 -0.0009246125 -1.1086292e-11 0.0007675408
-0.0006781564 0.0008861575 4.5263e-41 -0.00085823867 -0.0007023099 0.00029929588 -0.0010509251 -0.00048584834

exp_avg_sq f4 [3, 16]
00000000: 83b7 7936 5218 6d3a 0f66 c239 eba2 0739
00000010: e26a c738 4bd0 3538 dd0d 8631 4d70 0f39
00000020: dddb de37 2bf9 4139 02ef 8135 dd58 4939
00000030: f166 3b39 257f fc38 c9e2 f138 4c73 e438
00000040: f4cf b136 5605 a938 0c17 a239 dbed 663a
00000050: 63dc 393a 0193 4f38 1b80 b932 1250 6d3a
00000060: 61e3 2839 47c0 ae38 07c1 9d34 ca2d 6239
00000070: 0b45 0239 9c75 b539 a9f1 8639 cb81 6939
00000080: e82e 8836 6981 133a be6f 153a 09e6 ed39
00000090: 8870 dd39 32f2 0d39 3f4b f531 fc1a c839
000000a0: 0882 5039 f19a 4639 8fa7 1135 a5f6 3039
000000b0: 9e5f d238 a08c 2a39 04eb 9039 e38e 3e39
3.721071e-06 0.00090444565 0.00037078603 0.00012935295 9.508968e-05 4.334775e-05 3.9014894e-09 0.00013679378
2.6566844e-05 0.00018498737 9.680809e-07 0.00019201958 0.00017872058 0.00012039979 0.000115340175 0.00010893363
5.29922e-06 8.059542e-05 0.0003091622 0.0008809247 0.000709003 4.9489554e-05 2.159509e-08 0.0009052764
0.00016106434 8.332781e-05 2.9383975e-07 0.00021570097 0.00012423487 0.00034610636 0.00025738523 0.00022268963
4.0585765e-06 0.00056268886 0.000570055 0.00045375552 0.00042236247 0.00013537033 7.138993e-09 0.00038167078
0.00019884866 0.00018940472 5.426054e-07 0.0001687655 0.000100313904 0.0001626485 0.0002764092 0.00018173041

exp_avg f4 [3]
00000000: fe9f 88b8 9c06 e836 aa3b 7438
-6.514786e-05 6.914908e-06 5.82297e-05

exp_avg_sq f4 [3]
00000000: 5988 c139 ba62 973a b7fb 973a
0.00036913416 0.0011549809 0.0011595403
