homework1/lightning_logs/version_16/checkpoints/epoch=99-step=900.ckpt (torch, 22040 bytes, 18 tensors)

network.0.weight f4 [32, 13]
00000000: b76f a63e 04de f93d 77e3 343e 2154 42bd
00000010: 2bec 6abd 6680 bebc b313 c9be 56a7 8abe
00000020: f796 96bd 1607 ae3e 65b2 f7be e15a b1be
00000030: 810c 9ebc c2a8 393e eb4b 593e 1848 963e
00000040: 54cb a5bd b826 ee3d 5446 e2bd 764f adbe
00000050: f66b 513e aed5 2b3d ebbc cb3d 77d0 d0be
00000060: 96da 65bd c78b e9bd 512d 55be 7602 d2be
00000070: 4788 83bd 0667 dc3b 3548 df3d 20ae 0abe
00000080: 5019 7e3e caf7 f5bd 88d3 3abe 75dd a5be
00000090: 503b 693e a446 a9bd bbbb cebe 3906 81be
000000a0: c5d9 efbd f1ea bfbe 8eb3 81bc d77e ce3e
000000b0: d2b8 aebc ee6d 303c 9aa0 7c3e 6171 67be
000000c0: 760c bfbe 444f ed3e a927 debc 208c 863d
000000d0: 549b 6abe 25ba c03d 0c50 913d 8460 573e
000000e0: 5f1b 12be 6cd7 c2be f2e1 a43d 98af 0b3e
000000f0: 7ff6 c0bd 9042 ddbc b95c 81be 8b2c a1bd
00000100: 5eb4 eabe 4d31 da3e 2dc8 b83d 2f10 5b3e
00000110: 944e 71ba 916f debd 908e 213d 46b7 563e
00000120: 8b0f babd cf84 0bbe d8bc 323e d8fd d63d
00000130: 4249 223d 12c0 f03d cc46 c03e e055 073e
00000140: 692d 113c fe44 903d 7863 083e 38c0 b1be
00000150: a20a fbbd c257 59bc 4618 0abc bcba be3e
00000160: 7d37 8fbe 7352 e1be 0008 bfbd d842 14bd
00000170: 6bab 3e3e 0a52 b13e c584 aabd ad96 5d3e
00000180: c0ca c4be 34ee b5be 56b3 933e abc7 cfbe
00000190: 74e2 873e b7df 92be a1e7 d2be 303b 16be
000001a0: 196f 1a3e 6484 803d bff2 39be 9dd8 b13e
000001b0: 5d94 913e 7073 93be 09b4 79be 1245 533c
000001c0: 83f5 563d 0eb3 08bb 63f1 8fbe 5194 f73d
000001d0: f3c5 03be caec 07be eef9 62bc fbfd 67be
000001e0: bf6b da3d ba92 34be 86f3 61be db3b 15be
000001f0: 20b2 50be 39be 6e3d de5a 823e ae4f f2bd
00000200: ff97 c6be 19c7 e3bd 45c2 ef3e 5e36 3cbc
00000210: 5abe f83c 8717 70be b80a 58bd d60d bc3d
00000220: aa0b 9e3e 35d2 9d3d b528 5f3e cd67 8a3d
00000230: 8ee1 1b3d f2c7 183e f6d2 dd3e 2c6c 81bd
00000240: fbf5 343e 5978 903e 1040 75be eb94 b93e
00000250: 4687 e8bd 555d 083e 4274 903d fa06 983e
00000260: d035 bdbe 0be5 9f3e 4892 fc3d dc4a 5cbe
00000270: b90d 893e eeac 093e 5914 e73d a1f7 66be
00000280: 138b 1a3e 432a 463d b069 5b3e d64e 8ebe
00000290: 122d 343e b160 f8bd edd4 b53e 883c aa3d
000002a0: 90cc 25bd 5e54 ad3d 97ad 353e e086 e7bd
000002b0: 4825 ea3e d83b 733e 83f3 babe d81a 643b
000002c0: 6ff8 6f3e e718 a13e c2c8 61be 26b5 fabd
000002d0: 83c0 8abd 3572 7ebc 8af6 9b3e 26a5 883e
000002e0: 6a7b 883e e42b f8bd 694f 2cbc f297 3cbe
000002f0: 2ef5 cdbe 9750 1c3e 231a 1dbe 24e3 b33c
00000300: 4415 c2be 5d6d e3be 59ef ebbd 791e 1bbe
00000310: 879a d43d 781d 7b3d f784 7c3e 6c62 a23d
00000320: 22dd c53d bd5a e83d f96a e93c 336f 923e
00000330: ce6a bcbe 237f 543d e133 1d3e 8667 8bbe
00000340: 44a1 c73e 6415 723e 2dc2 003e 056d 06bf
00000350: 101e 5b3e 2309 283e bcc6 aa3e 0fef 1ebe
00000360: 1268 51bd c936 523e 546c 6bbc a536 903e
00000370: 236c cf3d 49b5 713e 31c9 053d cd83 6a3e
00000380: d5be b0be 5776 c5bd 88ce e5bc c74f 873d
00000390: 4f7a 893d 7a16 1c3e 9c37 553e d9e0 d2bd
000003a0: 712a 923e 7127 be3e 893f 1f3e d17b 863e
000003b0: 237a c03d da30 93bc 7d62 343e 2e4a 243d
000003c0: 9e43 f7be 1c61 7f3d c07c aabe 6a54 893c
000003d0: 40ec a3bd 6ba0 4abe faa1 8a3e 1d10 913d
000003e0: ec50 4dbe e14f bd3c dc4d 4cbe 6a51 8fbe
000003f0: f0d1 3d3e 7d54 7f3e 020c 31be 321f 95be
0.32507107 0.12200549 0.17664896 -0.047443513 -0.057354134 -0.023254585 -0.39272842 -0.27080792
-0.07353013 0.3398978 -0.48378292 -0.34639648 -0.019293072 0.18130782 0.21220367 0.29351878
-0.080954224 0.11628479 -0.1104857 -0.33849686 0.2045134 0.041951828 0.099481426 -0.40784046
-0.056116663 -0.114036135 -0.20818068 -0.41017503 -0.06422477 0.0067261485 0.10902444 -0.13542986
0.24814343 -0.12010153 -0.18244755 -0.3239552 0.22776532 -0.08265427 -0.40377602 -0.2520006
-0.11711458 -0.37483934 -0.015832689 0.40331146 -0.021328364 0.010768397 0.2467064 -0.22601844
-0.37314194 0.46349537 -0.02711852 0.065696955 -0.22910815 0.09410504 0.07095346 0.21032912
-0.14268254 -0.3805498 0.08050908 0.13641202 -0.094220154 -0.027009279 -0.25266054 -0.07869824
-0.45840734 0.4261574 0.090225555 0.21392892 -0.00092051295 -0.10861123 0.0394426 0.20968351
-0.09084996 -0.13624881 0.1745485 0.104976356 0.039620645 0.117553845 0.37554014 0.13216352
0.008860924 0.07044409 0.13319194 -0.34716964 -0.122578874 -0.013265552 -0.008428639 0.37251842
-0.27972022 -0.44008216 -0.09327698 -0.03619656 0.18620078 0.34632903 -0.08326105 0.2163951
-0.38435936 -0.35533297 0.2884776 -0.40582022 0.26539958 -0.28686306 -0.41192344 -0.14671016
0.15081443 0.062752515 -0.18159007 0.34735575 0.28433505 -0.2879901 -0.24385084 0.012894886
0.052480232 -0.0020858678 -0.2811385 0.12088836 -0.1286848 -0.13273922 -0.013853533 -0.2265548
0.10665082 -0.17634097 -0.22065553 -0.14573614 -0.2038045 0.05828688 0.2545995 -0.11831604
-0.3878784 -0.11121959 0.46827903 -0.0114875715 0.030364204 -0.23446475 -0.052744597 0.091823265
0.30868274 0.077061094 0.21792872 0.0675808 0.038056903 0.14920023 0.43325013 -0.0631946
0.17671959 0.28216818 -0.23950219 0.36246428 -0.11353926 0.13316853 0.070534244 0.29692823
-0.36955118 0.31229433 0.123325884 -0.21512932 0.26768282 0.13444874 0.11283178 -0.225554
0.15092115 0.048380148 0.21427035 -0.27794522 0.17595318 -0.121278174 0.35514012 0.08312327
-0.04047829 0.084633574 0.17742 -0.11305022 0.45731568 0.23753297 -0.3651391 0.003480604
0.23434614 0.3146431 -0.2204924 -0.122415826 -0.06775 -0.015530159 0.30461532 0.26688498
0.26656657 -0.121177465 -0.01051698 -0.18417338 -0.4022612 0.15265118 -0.15342002 0.021958895
-0.3790685 -0.44419375 -0.11520261 -0.15148343 0.10381036 0.0613074 0.24660097 0.07928929
0.09661318 0.11345432 0.028493391 0.28600463 -0.36800236 0.05187906 0.15351821 -0.2722742
0.38990223 0.23640972 0.12574072 -0.525101 0.21398187 0.16409735 0.33354747 -0.15520881
-0.05112464 0.20528711 -0.014369089 0.2816669 0.10128047 0.23604311 0.032662574 0.2290184
-0.34520593 -0.09641712 -0.028052583 0.06607013 0.06712782 0.15242949 0.20821995 -0.102967925
0.28548005 0.37139466 0.1555158 0.2626634 0.09398296 -0.01796763 0.17615695 0.040109806
-0.48293775 0.06234847 -0.33298302 0.016763885 -0.080040455 -0.19787757 0.27076703 0.070831515
-0.200504 0.023109378 -0.19951576 -0.27991802 0.18537116 0.24934573 -0.17289737 -0.29125363

network.0.bias f4 [32]
00000000: c7ff 923d f3aa 623c 9aca 93bc 1b1f fabd
00000010: bebb 033e 35c9 a03e 5c02 de3e 0b9d e4bc
00000020: aac7 b23c a567 8f3e 9516 a53e cbc1 4f3a
00000030: b846 a43e b955 fa3d 2ede 01be 0a9b dc3e
00000040: 3a86 953e c521 ef3e 31ee 94be 8cae 943c
00000050: e88e 943e 7388 053e c7b4 713e cba5 203e
00000060: df84 803e bbb7 bdbb e561 08bc c694 853e
00000070: c2ce db3e 5ad0 25be 078a b73e 23ac 6c3c
0.07177692 0.013834703 -0.018040944 -0.12212964 0.12864587 0.3140351 0.43361175 -0.027906915
0.021823723 0.28008762 0.3224379 0.0007925301 0.32085204 0.122233815 -0.12682411 0.43087035
0.2920397 0.46705452 -0.29087976 0.018149637 0.2901528 0.13040332 0.23604117 0.15688245
0.25101373 -0.0057897246 -0.008324121 0.26090068 0.4293118 -0.16192761 0.35847494 0.0144453375

network.2.weight f4 [16, 32]
00000000: d4e5 e1be 518e f93b 876a 103e b63d d73e
00000010: f4d0 333e 5667 80bd e2fb f1bd 8825 d0bc
00000020: 3701 593d 52bb 3a3e 5280 18be 7661 023e
00000030: d9da b23c 9d31 8f3e 8623 96bc aaad 213e
00000040: c79f 1dbe e529 48be 5b1b 9abc 3674 843e
00000050: 6a45 0abe 8584 583e e935 183e 7410 da3e
00000060: db2e dd3c 9ef8 413d 9cd3 ee3d 1a9d 49be
00000070: 434c d33e 9648 55be 92c5 503e 71e4 6a3e
00000080: 5683 933e 72c4 083e 27f6 e7bd a7eb a1be
00000090: a06c 393d 27b2 2c3e 5e9e a83e ca13 843d
000000a0: dc7e 403e fdfd 653e fcd7 25be 081f 8bbe
000000b0: 6d2e 49be 6049 e23d 4d08 8a3d 39d4 b3bb
000000c0: b75e 653c 432b 173e f362 893e 5ada 68bd
000000d0: 1efc ac3d 6029 a5be 24d2 20bc f6dc 0dbc
000000e0: 24d4 20be ab3c 9ebe 3690 df3d 3661 a93d
000000f0: b473 2ebe e80f 5d3e e81f 003e a757 473d
00000100: 2c38 b23e 165e 473e de28 50be 04e4 cebd
00000110: 1758 273e 1f83 d53b bceb a13e 496c a43e
00000120: 97af 9d3e 0f1d 173e 4373 2ebe 2aca 51be
00000130: 35d2 12be 015e 1b3e 6674 3d3e 5a8e 8abe
00000140: 5941 ae3d 572a 153e d8e7 153e 4650 a83d
00000150: 4dda 99bd ef8b d8be 64d1 4abe 9796 163e
00000160: 194e 133d 9251 213b e8e0 3a3c 036f 41bd
00000170: 0659 ac3d 1e91 2f3d 00ed babd 87f2 4cbd
00000180: 1a45 303e c04a d5bc eb5f 283e 9fa5 833d
00000190: 4bb5 983e 1cf8 373c 2062 ac3d 4797 a23e
000001a0: 9bee 473e c9bc 5b3e 1d4f a5bd 40dd 16bd
000001b0: 479d bd3c 22d3 4f3e 57b0 8c3e 4542 8a3e
000001c0: 3b94 94be 6318 80bd 5714 ad3b 1dd6 bc3d
000001d0: 36ef 64be 4275 773e eeab 543d d062 0e3e
000001e0: ed05 b43c 0380 bdbd 1732 ba3d 6b94 853c
000001f0: 39ce 153e 83a4 303d 1b84 8a3e cbf7 8f3e
00000200: ad63 6ebe 544f 6d3c cc9e a93e a582 913e
00000210: b7f7 243e d250 0abe 236e f7bd 1d5f 233d
00000220: 25e6 4e3e 9492 28bd 5e76 7ebd 0d16 e43d
00000230: 1e22 213d fe78 dd3d ce4c dbbd 84aa af3d
00000240: 56c0 6ebd e68f 94be b20a 2ebe da3c 0a3e
00000250: 1ad6 b2bd c3f6 233e abd0 703e 065e 8d3d
00000260: 1769 79bd 42d3 1d3e 0d15 f1bd 8b0d 1ebe
00000270: 3ba3 8f3e c0bb 8cbe 96e7 863e 1f50 1a3e
00000280: 87df dabd 15d2 5bbe cd80 c53e 201f 5c3d
00000290: db8e d33c 7c61 55be ceb9 883d 13b7 783d
000002a0: a4cb 863e 283c 513e ea2c 95be bacb 303e
000002b0: 8d6c 5b3e f56f 04bc a43f ecbd acc3 2a3d
000002c0: 3d8f 72be 9fa5 a5be 09b1 0bbe 22b8 06bd
000002d0: 95b0 983c 7267 fd3c 2b84 0e3e 97cf a83e
000002e0: 7aad 373e 5925 a33b 138c 05bd 50ab 47be
000002f0: 4383 b03e 7725 89bd 9e22 db3d f103 993e
00000300: 5dea f73d 10bf 023e 3f32 9abe c996 b3bd
00000310: e475 6bbe 7433 4a3e 7f36 40bd c1c6 38be
00000320: 639b 91bd bd97 90be 9085 9a3e 5cd8 263e
00000330: 1af2 6e3e f7ed eabd 6030 49be 4f8c e1bb
00000340: d244 823e 2072 7a3e c0e6 87bd dc1a 943d
00000350: c972 5a3e 1672 d53d 1e23 a0bd a59f b8be
00000360: 4717 4e3e c9a8 9e3e 1376 c53e e1e7 923e
00000370: 3044 99be 95d3 1abe a6da e43d 4883 1dbe
00000380: 9bae 053e 71ad a73e 14c5 83be 72c3 83be
00000390: a0e7 1e3e cd5a 2b3e 9be9 623e ebda d83d
000003a0: ec7d da3c f636 71bb abfc b63e 10eb 21bd
000003b0: e8f0 883d 8a72 00be b498 a23e 11ae 82bd
000003c0: f780 c43d 1dcd 763e 79e4 2b3e 9171 c93d
000003d0: a828 5a3e 8edc 64be 4f47 3ebe 0bf3 02be
000003e0: 4ba6 cf3d 0d6e 5b3c b105 8d3e 914c 973d
000003f0: 1aff 3fbc 52fb 9c3e f330 933d 83f5 23be
-0.44120657 0.0076158424 0.14103137 0.4203927 0.17560178 -0.0626971 -0.11815621 -0.025408521
0.052979674 0.1823552 -0.148927 0.12732491 0.02183287 0.2796754 -0.018327486 0.15788904
-0.15392981 -0.19547231 -0.018811872 0.25869912 -0.13503042 0.21144302 0.14864315 0.42590678
0.026999881 0.04735624 0.11661455 -0.19688836 0.4126912 -0.2082847 0.20387867 0.22938706
0.2881114 0.13356188 -0.11326247 -0.316251 0.04526961 0.16864835 0.32933325 0.06449087
0.18798393 0.2246017 -0.16195673 -0.27172112 -0.19646616 0.110491514 0.067398645 -0.0054879454
0.013999633 0.14762597 0.26833305 -0.05684886 0.08446525 -0.3225813 -0.009815726 -0.008658638
-0.15705925 -0.3090566 0.10916178 0.08270495 -0.17036325 0.21588099 0.12512171 0.048667576
0.3480848 0.19469485 -0.2032809 -0.10102084 0.16342197 0.006515875 0.31625164 0.32113865
0.30798027 0.14757179 -0.17036156 -0.20487276 -0.14338 0.15172578 0.18501434 -0.2706173
0.08508558 0.14566933 0.14639223 0.08218436 -0.07512341 -0.4229426 -0.19806439 0.14705883
0.03596315 0.002461527 0.011406161 -0.04722501 0.084154174 0.042863004 -0.091272354 -0.05003598
0.1721386 -0.02603662 0.1644284 0.06428074 0.29825816 0.0112285875 0.08417153 0.3175604
0.19524615 0.21458735 -0.0807173 -0.036832094 0.023146285 0.20295385 0.27478287 0.27003685
-0.2901934 -0.062546514 0.0052819657 0.09220526 -0.22356877 0.24165824 0.051921777 0.13904881
0.021975482 -0.09252932 0.09091585 0.016306123 0.14629449 0.04312564 0.27053913 0.2811874
-0.23280211 0.014484245 0.33128965 0.28419986 0.1611012 -0.13507393 -0.12081554 0.03988563
0.2020498 -0.041155413 -0.062124602 0.11137018 0.039339177 0.10814093 -0.10708009 0.08577445
-0.058288895 -0.29016036 -0.16996267 0.13499776 -0.08732243 0.16012101 0.235171 0.06902699
-0.060891237 0.1541262 -0.11771593 -0.15434854 0.28054222 -0.27486992 0.2634856 0.15069626
-0.10687166 -0.21466859 0.3857483 0.05374062 0.025824955 -0.20837969 0.066760644 0.06072147
0.2632724 0.20433104 -0.2913583 0.17265216 0.21428128 -0.008083333 -0.11535576 0.041690513
-0.23687454 -0.3235292 -0.13641752 -0.032890446 0.018638888 0.030933116 0.13917606 0.32970878
0.1793727 0.0049788174 -0.03260429 -0.19498944 0.34475145 -0.06696599 0.10699962 0.2988582
0.12105248 0.12768197 -0.3011646 -0.08768994 -0.2299419 0.1974619 -0.04692697 -0.18044569
-0.07109716 -0.28240767 0.30180025 0.16293472 0.23334542 -0.114711694 -0.1964736 -0.006883181
0.2544313 0.24457598 -0.06635809 0.072316855 0.2133285 0.10422151 -0.07819198 -0.360593
0.20126067 0.30988148 0.38566646 0.28692535 -0.29934835 -0.15119775 0.111745164 -0.15382111
0.13054888 0.32749513 -0.25736296 -0.2573505 0.15518045 0.16733856 0.22159426 0.1058863
0.026671372 -0.003680644 0.35739645 -0.039530814 0.06686574 -0.12543693 0.31757128 -0.06380857
0.095949106 0.24101682 0.16786374 0.09836114 0.21304572 -0.2234976 -0.1858189 -0.12788026
0.1013914 0.013392937 0.27543405 0.07387651 -0.011718536 0.30660492 0.07187071 -0.16011624

network.2.bias f4 [16]
00000000: abb6 043d aa56 5b3d 1d9f d43d 0583 c43c
00000010: cbb0 8f3e 5bfe 983e 18d0 2cbc ee86 a83d
00000020: 9107 613e 42eb 3e3d f6b5 173e f65b ecbb
00000030: 702e 653e 6c33 093e 3428 23bd ea3a 463e
0.03240077 0.053549446 0.10381911 0.023988256 0.2806457 0.29881558 -0.01054766 0.08228861
0.21975543 0.046611078 0.14815506 -0.007213111 0.22380996 0.13398522 -0.039833263 0.19358411

network.4.weight f4 [3, 16]
00000000: 1ca7 00bf 2f92 f4be 907f b5be 4a41 d0be
00000010: 014d 52be 54dc c2bd 9d4a 273f cee6 9a3e
00000020: 14a9 e43d 6ef3 acbe 9830 c7be 783f a13e
00000030: 492d cb3e bbb3 3dbe 3994 993e 774b 183e
00000040: 042f 963e da0a babe 9ebe acbe 1d0b a23e
00000050: bdad f13e 1057 e53e 494c adbe 6cc7 f3be
00000060: 0b7e 523e fc03 b93e 0d3d 283e feeb 9e3e
00000070: 370b c7be 7cd8 8fbe fb48 dbbe d1f9 613e
00000080: 531f b4be 0cfe be3e cfee 4b3e 8fd3 923e
00000090: cc76 02be af19 073e 3b85 5abe 5586 973e
000000a0: 8eb5 c4be 77d8 833d 572d f4be 8abc 71be
000000b0: 8f60 4dbe 6a06 af3e db1b 92be 78e5 afbe
-0.5025499 -0.4776778 -0.35448885 -0.40674812 -0.20537187 -0.095146805 0.65348226 0.30254215
0.111650616 -0.33779472 -0.38904262 0.31493735 0.39682987 -0.18525593 0.29995897 0.14872538
0.29332745 -0.36336404 -0.3373918 0.31649104 0.47202864 0.44792986 -0.33847263 -0.47613084
0.20555894 0.36135852 0.16429539 0.31039423 -0.38875744 -0.28094852 -0.42829117 0.22067954
-0.35180148 0.37303197 0.19915317 0.2867703 -0.1274063 0.13193391 -0.21339886 0.29594675
-0.38419765 0.06437772 -0.47690842 -0.23607078 -0.20056365 0.3418458 -0.28536877 -0.34354758

network.4.bias f4 [3]
00000000: 98ae e63d 8365 47bd 66a3 d33d
0.1126377 -0.048680793 0.103339

exp_avg f4 [32, 13]
00000000: c741 3e38 6da1 1339 25d6 16b9 136c 1639
00000010: 1f4f f138 2f45 4db8 aad0 2e3a 2aae 50b9
00000020: 2458 ec39 1bc5 7ab9 5825 023a 5ba6 063a
00000030: 2ac4 8138 756e 0538 d92f 0838 f8dc 10b9
00000040: 2bce b437 933e d637 8635 3037 09c8 b439
00000050: 30b2 68b8 db71 4539 5adf 0db9 3de5 8e39
00000060: dd33 8f39 e959 3338 f6b0 2d39 0abf cc38
00000070: 5b09 8438 8f7d bcb9 964c c2b9 12a9 a6b9
00000080: 5eab ddb8 0187 f838 644f f938 fb4b 8439
00000090: dd79 9fb9 5757 91b9 f17c 4439 3203 b538
000000a0: ffa4 a638 c936 5f39 668f bfb8 4123 b5b9
000000b0: e021 45b9 bc33 8cb9 500a ba39 5860 4fb8
000000c0: 2b8c 6d39 838e b8b9 84f0 aab9 1ca6 b537
000000d0: aed2 8538 a426 aab8 40f9 82b8 61b2 01b9
000000e0: 93a3 42b8 b673 7a38 4c32 c3b8 bb93 8cb7
000000f0: 6ef6 feb7 df9b 0a38 8bff 01b8 48a5 3ab8
00000100: f843 8138 262b 3db8 db38 ecb8 e45e feb8
00000110: 8670 3c39 7f98 adb8 e133 8a36 f58e 5db8
00000120: f7d5 4439 2f86 17b8 f5a8 a737 8155 27b8
00000130: 5357 f5b8 cb57 57b9 a5be 0138 59a2 5f38
00000140: 4fa4 beb8 226d 3838 a398 2338 feff f537
00000150: 1fcf de39 86b4 10b9 7fa8 9e39 d4b3 0ab9
00000160: 0245 9d39 4be6 b639 07ce 8738 16f7 1b37
00000170: c83c 8938 707c 60b8 8487 0438 cb06 7537
00000180: d1ba 8c37 1b54 8939 5ef6 11b9 0298 6639
00000190: 3e1e 55b8 8542 1739 f469 6a39 117c 2838
000001a0: 3709 c737 db82 ceb6 91fe 0639 96b3 6bb7
000001b0: 44a5 45b8 f511 f637 1b8e e438 5425 1238
000001c0: fffe 4638 e12f 12b6 273d 2638 c966 d638
000001d0: f8bf b837 27d7 2038 a46c a538 447a 7f37
000001e0: faac eb37 4dfb 2638 cae6 b237 8aa3 2e39
000001f0: 6b7c 45b8 8881 1a39 6768 18b7 6028 a638
00000200: 7727 3139 be03 8738 dfd8 8cb8 e352 29b9
00000210: 102e e7b8 d9a3 8439 6622 6338 944f 7938
00000220: 30bd 2ab9 000f ef38 1a52 afb8 3157 5038
00000230: 0398 6db8 3d48 1ab9 c941 7eb9 3fa2 6738
00000240: 4560 0ab8 6bad aeb8 414b 6435 818e d5b8
00000250: de8a 6e37 92e3 b8b5 9132 bd38 888c 39b6
00000260: 7e4c 9a38 5dae 8eb5 464c e0b7 7529 e336
00000270: 1795 feb7 f73f cbb8 2f45 bcb8 f307 9738
00000280: 0c4d c936 b26f 30b8 8404 96b8 b6c8 cab7
00000290: ce37 13b8 c669 5438 e380 83b8 fc3f 05b9
000002a0: fabd aab8 3b86 1a39 6933 68b7 a49c 5139
000002b0: d1c5 2cb9 cf07 fe37 4282 e238 d879 19b8
000002c0: 37d8 0eb8 4b33 38b9 a3b7 2838 a65f 4ab8
000002d0: 94f7 e5b6 d6bd ad37 5641 d737 9dd0 a438
000002e0: 126b 8bb8 eddd 7438 b8d1 6b38 8012 2237
000002f0: 28ed b439 1c0c beb8 4a3a 5f39 518d 08b9
00000300: 4abd 8039 d847 9339 56d0 1f38 ef79 7e39
00000310: 2bbe 0339 9da4 7939 8daf 09b9 2e5e 8d38
00000320: 7748 5739 2cbf b0b8 f3c3 af38 2418 54b9
00000330: 9810 3b39 a64a 79b6 fe6f 9238 5e83 7b38
00000340: 1faf fcb8 d914 96b7 b233 dcb8 b2e7 aa39
00000350: 319f af36 759e 0238 ac71 9db8 5ee6 1ab8
00000360: a461 0b39 3cc1 f638 c17b acb8 d8a8 1db8
00000370: 4cf7 82b9 fd88 8cb8 a048 f637 25e7 31b8
00000380: 1efc 9339 5c5c 1039 7cd4 b738 3c2e 3439
00000390: cc3b 96b9 7a3d 3b39 b8d1 bf38 b9c3 0938
000003a0: b0f0 3839 f2f5 88b9 c333 4238 f6c4 a938
000003b0: a197 d1b8 e3f4 7b38 fa05 d638 ccfc 91b6
000003c0: 14f3 eb39 6c69 dab8 6643 8739 6e5d 40b9
000003d0: deed ab39 96ee b239 14cb 3d38 0db2 9337
000003e0: 4207 b538 8655 5f37 99dc 0b38 6f8e efb7
000003f0: c3cc 58b8 2666 0438 996e d2b8 9d56 2c39
4.536079e-05 0.00014079148 -0.0001438489 0.00014345376 0.00011506513 -4.894024e-05 0.00066686666 -0.00019901307
0.00045079098 -0.00023915285 0.0004964671 0.0005136483 6.187738e-05 3.1812542e-05 3.246949e-05 -0.00013815227
2.1553677e-05 2.5539926e-05 1.0502879e-05 0.00034481313 -5.547906e-05 0.00018829799 -0.00013530013 0.00027255146
0.00027313727 4.276066e-05 0.00016564489 9.763062e-05 6.295993e-05 -0.00035951703 -0.00037059624 -0.00031787955
-0.00010570021 0.00011850708 0.00011888033 0.00025233612 -0.00030417638 -0.00027721628 0.00018738561 8.631348e-05
7.94623e-05 0.00021287346 -9.1343e-05 -0.00034549276 -0.00018800003 -0.00026741426 0.00035484368 -4.9442373e-05
0.00022654298 -0.00035201394 -0.00032604125 2.1654232e-05 6.381176e-05 -8.113429e-05 -6.2453095e-05 -0.0001236885
-4.6405545e-05 5.971241e-05 -9.307693e-05 -1.6758093e-05 -3.0393912e-05 3.304693e-05 -3.099399e-05 -4.4499786e-05
6.1638595e-05 -4.5101297e-05 -0.00011263947 -0.000121293386 0.00017970995 -8.2776874e-05 4.11876e-06 -5.2823645e-05
0.00018771725 -3.6126174e-05 1.9986628e-05 -3.9895534e-05 -0.00011698776 -0.00020536703 3.093355e-05 5.331854e-05
-9.090511e-05 4.3970656e-05 3.9004382e-05 2.9325482e-05 0.00042497457 -0.0001380016 0.00030261648 -0.00013227697
0.00029996788 0.00034885327 6.475677e-05 9.296249e-06 6.5439905e-05 -5.3521653e-05 3.159746e-05 1.460472e-05
1.6776294e-05 0.0002619334 -0.00013920057 0.00021991137 -5.0811323e-05 0.00014425263 0.0002235545 4.0169867e-05
2.372694e-05 -6.154512e-06 0.00012874069 -1.4048905e-05 -4.7122376e-05 2.9333847e-05 0.000108983564 3.4843877e-05
4.7444362e-05 -2.1783565e-06 3.9634437e-05 0.000102234604 2.2023902e-05 3.834735e-05 7.888049e-05 1.5227652e-05
2.8094732e-05 3.9811526e-05 2.1326723e-05 0.00016654856 -4.7084333e-05 0.00014734839 -9.084214e-06 7.923017e-05
0.00016894737 6.437999e-05 -6.7161156e-05 -0.00016147974 -0.00011023518 0.00025299078 5.4153053e-05 5.944034e-05
-0.00016282941 0.00011399202 -8.359943e-05 4.9672268e-05 -5.6646775e-05 -0.00014713495 -0.00024247835 5.5225795e-05
-3.2991422e-05 -8.329268e-05 8.504613e-07 -0.00010183175 1.4218238e-05 -1.37753e-06 9.021641e-05 -2.7648948e-06
7.35754e-05 -1.0630571e-06 -2.6738398e-05 6.7699534e-06 -3.0348585e-05 -9.691709e-05 -8.977425e-05 7.201722e-05
5.9992362e-06 -4.2065694e-05 -7.1533985e-05 -2.417374e-05 -3.5099503e-05 5.0643248e-05 -6.270574e-05 -0.00012707704
-8.1416176e-05 0.00014736589 -1.3840247e-05 0.00019990146 -0.0001647689 3.0282796e-05 0.00010800782 -3.659152e-05
-3.4056804e-05 -0.00017566716 4.0225346e-05 -4.8249633e-05 -6.8535537e-06 2.0711606e-05 2.5660422e-05 7.858987e-05
-6.64798e-05 5.8380818e-05 5.6223682e-05 9.66026e-06 0.0003450897 -9.0621616e-05 0.00021288652 -0.00013022615
0.00024555094 0.00028091553 3.8102582e-05 0.00024268751 0.00012563977 0.00023807814 -0.00013130736 6.740946e-05
0.00020530993 -8.4279425e-05 8.381149e-05 -0.00020226889 0.00017839891 -3.7147342e-06 6.982683e-05 5.996541e-05
-0.00012048915 -1.7891101e-05 -0.000105000465 0.00032597553 5.2339387e-06 3.114199e-05 -7.5075164e-05 -3.6931007e-05
0.00013292447 0.00011766187 -8.22465e-05 -3.7588965e-05 -0.00024979783 -6.701236e-05 2.9359304e-05 -4.241536e-05
0.00028225867 0.00013767317 8.765698e-05 0.00017183361 -0.00028654782 0.00017856612 9.146653e-05 3.2845626e-05
0.0001763727 -0.00026123185 4.630141e-05 8.095235e-05 -9.99414e-05 6.0071132e-05 0.000102054284 -4.350766e-06
0.000450038 -0.000104146864 0.00025799422 -0.00018345352 0.00032792886 0.00034128566 4.5250243e-05 1.7606677e-05
8.6321044e-05 1.3311748e-05 3.334563e-05 -2.8557346e-05 -5.1689112e-05 3.1566386e-05 -0.00010034181 0.00016435464

exp_avg_sq f4 [32, 13]
00000000: 30b1 7436 ce60 de37 6986 aa36 3d89 4437
00000010: e51c 9d37 2c4c a137 3fa9 b137 7dc1 4738
00000020: ca80 9f37 2768 3f37 2c35 8d37 52d6 1038
00000030: fdca ef36 a41d 9936 a038 ab37 ec2f 7b36
00000040: 8451 1637 5727 2737 aeaa a337 796d 0b38
00000050: 2aa4 f937 4a19 b437 19b8 f437 b2d3 c237
00000060: b063 3438 cca3 a436 94f6 1938 7ba0 2138
00000070: 10b5 2138 47de 1338 154d 2a38 35f8 f837
00000080: 7131 8837 7eaf 1838 10e9 1e38 db90 2c38
00000090: 33ea 1038 27fe 0b38 22af 0238 cbfa e936
000000a0: 576e 0937 b4c3 2537 7c15 7737 c769 7137
000000b0: feff 1037 b987 0137 a028 7837 d15e 9637
000000c0: c0a6 e536 7293 0437 01e8 6737 ceb5 0937
000000d0: 4377 1e37 8375 3a36 6055 9f36 3240 df36
000000e0: d5c9 6036 55e8 7c36 e19d a336 101c c936
000000f0: 1a4e 4536 9c40 a436 0145 1736 4d34 6836
00000100: 558f 0337 3938 5937 1207 5c37 91e4 eb37
00000110: a61d 1f38 1b6b b737 748b 8d37 dc43 9337
00000120: 8ac5 9737 21ca 4037 0e12 e736 1445 6137
00000130: 314f 8837 0e78 0d38 6a36 a836 f1ad 9837
00000140: 95b6 9b36 c72a f536 c6d8 3637 24aa 5037
00000150: ab42 a137 20b3 d237 0f30 5d37 ce94 a937
00000160: 6b38 9037 b910 e737 c516 aa36 8fa9 cb35
00000170: c9b2 9636 aa94 7b36 60e5 7836 3a37 5836
00000180: e658 cb36 34b1 0b37 5d4d 1a37 01ba b936
00000190: 4273 c236 b34a da36 97ea 3937 f00a 2536
000001a0: 9e7c 0b36 06b0 c236 8c70 1337 25a5 f836
000001b0: 9378 0c37 ee4f ae36 07cb ff36 f297 a336
000001c0: d3c6 9236 06ad 2537 5a26 fe36 6418 3237
000001d0: 88e7 a335 04bb 9836 185d 7e36 0a91 6c36
000001e0: 02ce 7a36 9a02 9136 891a e536 d54d 0637
000001f0: dd1b b636 faf2 8036 941c 7b36 9e73 9f36
00000200: 249d ef36 77bd 2437 d20f a437 9d1e 5f37
00000210: 326e 4338 714a 5f38 228e 0738 39d5 9937
00000220: 9b27 a037 5c17 8437 f5f2 2737 17eb f536
00000230: 6dd4 7737 0a34 8f37 8577 2538 5e23 3136
00000240: 18e9 ab35 93c7 4f36 f318 e235 412c 6d36
00000250: 2009 a735 65bd d135 61d4 2d36 3126 0436
00000260: 07f3 f935 d7b7 ae35 d016 cd35 3e21 a335
00000270: b959 8836 9736 0337 49b2 b236 f611 a736
00000280: b574 cf36 cb53 5337 300c 5537 93aa 0537
00000290: 81d9 4837 c3ed f136 fe09 4237 1097 9537
000002a0: 776b 9936 ebaf a937 b303 4a37 85c0 5838
000002b0: b8e0 5938 9b7c 4b38 9be3 9f37 1f3d 8437
000002c0: 7137 ab37 477c 5737 43d6 2737 a1fb 4e37
000002d0: 4217 6a37 ed1b 8737 b83a 0736 b4e4 7837
000002e0: ae42 4d36 0ab3 d236 1301 0b37 2f7a 5f37
000002f0: 6f69 9837 7f8f ba37 3f47 4e37 0959 4437
00000300: 4d72 7437 634a dd37 c3e9 8236 cd05 4d38
00000310: 558d a137 1c3c 0138 55ca 2f38 dadb 2b38
00000320: 2d35 a337 8f9d 2f37 be28 1338 2970 5137
00000330: ff5a fb37 d518 8237 9411 6c37 e7e5 1938
00000340: e1e4 ad37 0075 6737 c817 5338 2022 4a38
00000350: cfd3 0438 c6ab 8d37 b54c 9937 698f 7337
00000360: 8c9e 3437 9de5 fc36 7183 8537 faf0 9037
00000370: fcac 1238 2038 d737 f20d 7937 5087 5c38
00000380: f87b ea37 80cb e537 fac0 6937 0136 8537
00000390: a57d 9737 a5e3 5f37 f603 7e37 e309 3437
000003a0: 0131 7f37 190a 1238 4890 3736 8845 5b37
000003b0: 5c2d 5e36 b4b0 bb36 f0f1 3237 91fe 2137
000003c0: 938c 0537 29df e337 68b3 0f37 a7b1 9a36
000003d0: 375f e236 0a4a 7437 735c 9336 c111 6836
000003e0: bc5b 0436 1972 b335 7369 2336 614c f535
000003f0: 8b96 2e36 6bb1 2d36 fffb 2236 5670 1136
3.646197e-06 2.650954e-05 5.082042e-06 1.1714464e-05 1.8729314e-05 1.9228166e-05 2.1178856e-05 4.7625497e-05
1.901425e-05 1.1408737e-05 1.683327e-05 3.4531877e-05 7.146386e-06 4.563206e-06 2.0411157e-05 3.7429809e-06
8.959676e-06 9.963135e-06 1.9510593e-05 3.3242137e-05 2.9759558e-05 2.1469448e-05 2.9172794e-05 2.322518e-05
4.3008185e-05 4.9066493e-06 3.6707686e-05 3.853485e-05 3.855402e-05 3.5254543e-05 4.0602947e-05 2.9679484e-05
1.6235486e-05 3.6403064e-05 3.7887192e-05 4.1142903e-05 3.455039e-05 3.337688e-05 3.115752e-05 6.9731373e-06
8.191527e-06 9.880332e-06 1.47273495e-05 1.4389348e-05 8.642672e-06 7.7206e-06 1.4791411e-05 1.7925546e-05
6.844144e-06 7.902143e-06 1.3822691e-05 8.208166e-06 9.445302e-06 2.778456e-06 4.748508e-06 6.653391e-06
3.3496083e-06 3.7686161e-06 4.876158e-06 5.9935337e-06 2.9400749e-06 4.8951024e-06 2.254092e-06 3.4601137e-06
7.841581e-06 1.2947298e-05 1.3114668e-05 2.8120618e-05 3.7936166e-05 2.1865175e-05 1.6873448e-05 1.7555365e-05
1.8092589e-05 1.1491154e-05 6.8864383e-06 1.3427129e-05 1.624934e-05 3.372883e-05 5.013125e-06 1.820081e-05
4.6406153e-06 7.306549e-06 1.0898517e-05 1.243738e-05 1.922374e-05 2.5117362e-05 1.3183816e-05 2.0215663e-05
1.719241e-05 2.7545133e-05 5.0690455e-06 1.5174027e-06 4.4911617e-06 3.7488448e-06 3.7088394e-06 3.2218654e-06
6.0602206e-06 8.326304e-06 9.197128e-06 5.5350833e-06 5.7950683e-06 6.5056024e-06 1.1081479e-05 2.4593282e-06
2.078515e-06 5.8021424e-06 8.788087e-06 7.4102013e-06 8.372724e-06 5.194909e-06 7.6232277e-06 4.8754673e-06
4.3742853e-06 9.875052e-06 7.5742546e-06 1.0615306e-05 1.2211831e-06 4.5517245e-06 3.7903137e-06 3.5251164e-06
3.7372815e-06 4.3216396e-06 6.827821e-06 8.005144e-06 5.4272664e-06 3.8429835e-06 3.741855e-06 4.752029e-06
7.1410486e-06 9.819275e-06 1.955769e-05 1.32989635e-05 4.659425e-05 5.3236672e-05 3.231888e-05 1.833831e-05
1.9091929e-05 1.5746504e-05 1.00105435e-05 7.328937e-06 1.47718065e-05 1.7071161e-05 3.9450377e-05 2.6395642e-06
1.2808332e-06 3.0961571e-06 1.6845573e-06 3.5341511e-06 1.2445125e-06 1.5626835e-06 2.590263e-06 1.9691763e-06
1.8622676e-06 1.3017515e-06 1.528033e-06 1.2154121e-06 4.063561e-06 7.820919e-06 5.3255685e-06 4.9790788e-06
6.182667e-06 1.259609e-05 1.2698627e-05 7.967133e-06 1.19715705e-05 7.210039e-06 1.1565628e-05 1.7832528e-05
4.572266e-06 2.0228288e-05 1.20409995e-05 5.167771e-05 5.1946117e-05 4.851502e-05 1.9060264e-05 1.5764088e-05
2.0410605e-05 1.2843934e-05 1.0003862e-05 1.2337144e-05 1.3952902e-05 1.6106258e-05 2.0150746e-06 1.4835201e-05
3.0586193e-06 6.2793306e-06 8.285296e-06 1.3320284e-05 1.8168908e-05 2.2239748e-05 1.2295145e-05 1.17032405e-05
1.4570146e-05 2.6379892e-05 3.9015154e-06 4.888121e-05 1.9258508e-05 3.0811978e-05 4.1911688e-05 4.097433e-05
1.9455876e-05 1.0467497e-05 3.5085475e-05 1.2483485e-05 2.9963905e-05 1.5508771e-05 1.4070789e-05 3.6692156e-05
2.0729787e-05 1.3795914e-05 5.032847e-05 4.8192334e-05 3.1668515e-05 1.6888498e-05 1.827474e-05 1.4517319e-05
1.0765751e-05 7.5369157e-06 1.5916043e-05 1.7278351e-05 3.4970217e-05 2.5656132e-05 1.4844803e-05 5.2578107e-05
2.7952701e-05 2.739369e-05 1.3932813e-05 1.5879983e-05 1.805911e-05 1.3344838e-05 1.5140502e-05 1.0731138e-05
1.5210594e-05 3.4818517e-05 2.7353108e-06 1.3069606e-05 3.310698e-06 5.5936052e-06 1.0665957e-05 9.655619e-06
7.960148e-06 2.7164426e-05 8.5652355e-06 4.610239e-06 6.7464093e-06 1.4560772e-05 4.391704e-06 3.4581028e-06
1.972293e-06 1.3369746e-06 2.4350272e-06 1.8276152e-06 2.6015648e-06 2.588228e-06 2.4286562e-06 2.1672072e-06

exp_avg f4 [32]
00000000: e07e 8bb9 0d25 2cb9 015b a1b7 b81c 3239
00000010: 1965 a5b8 7e76 f0b8 9316 61b9 5dd8 1ab9
00000020: df1e 9db8 39e0 4db9 1fc5 0bb9 8be3 f6b8
00000030: acfc b7b8 f0a8 fbb7 71c7 06b9 b5e0 83b9
00000040: bf8f 5db9 b258 0aba bde8 11b9 44d5 18b9
00000050: c8bc afb8 6660 76b9 74db 2e37 033c 15b9
00000060: eac8 20b9 3a8d c437 3fa0 1cb9 76d5 c6b8
00000070: 1d16 1a39 9401 48b9 5606 efb8 a1b1 0ab9
-0.00026606675 -0.00016417001 -1.9235073e-05 0.00016986101 -7.886644e-05 -0.00011466163 -0.00021466082 -0.00014767186
-7.4920936e-05 -0.00019633853 -0.00013329506 -0.00011772577 -8.773184e-05 -3.00002e-05 -0.00012853534 -0.00025153687
-0.00021129752 -0.0005277499 -0.0001391498 -0.00014575297 -8.3798135e-05 -0.000234963 1.0422304e-05 -0.00014232103
-0.00015333635 2.3430784e-05 -0.00014937016 -9.481136e-05 0.00014694822 -0.00019074074 -0.00011397588 -0.00013226877

exp_avg_sq f4 [32]
00000000: 6087 cc37 587b 8b37 f2b3 5638 96ac 3237
00000010: 58b0 7a37 73a3 8d37 6f9b a737 b5d9 0037
00000020: f464 b836 5f89 4237 0c5e e037 f3e2 8436
00000030: 135f 6837 eff8 b137 52ab 5837 4671 2238
00000040: 32bf d537 d5fe 3e38 2c06 2c37 8c98 a036
00000050: 48ca 4037 76f3 8338 46cf 6338 aa97 a138
00000060: 4ca4 3437 5238 2e37 fa5f fd36 786b bb37
00000070: 12e3 2b38 5e9b 7437 f8ab 2f38 6e21 3037
2.4381734e-05 1.6627528e-05 5.1189163e-05 1.064981e-05 1.4942219e-05 1.6884622e-05 1.998033e-05 7.680083e-06
5.49538e-06 1.1595285e-05 2.6746675e-05 3.960327e-06 1.3850414e-05 2.1215963e-05 1.2914492e-05 3.8729304e-05
2.5480611e-05 4.553686e-05 1.0253436e-05 4.7861304e-06 1.1491189e-05 6.291915e-05 5.4314056e-05 7.705328e-05
1.0767089e-05 1.0384321e-05 7.5511607e-06 2.2342181e-05 4.0981053e-05 1.4579708e-05 4.188341e-05 1.0498201e-05

exp_avg f4 [16, 32]
00000000: ec64 7239 abfa 0439 b203 49b9 76da 75b9
00000010: 027a e9b7 96c1 0d38 48e3 b238 d7db d738
00000020: 7b37 25b8 c9a6 a538 4072 f838 6373 44b8
00000030: 7fae 6537 7f86 24b9 e729 0639 33bd 63b9
00000040: 3aa0 d938 8d84 0039 6840 8e38 2dee 80b8
00000050: b1bb 8d37 e204 7db9 5b3a 21b9 5ea2 37b9
00000060: 2b5a 60b8 481b 83b8 fb29 1d38 3586 d638
00000070: aa32 85b9 85a4 3639 2aec 6bb8 1c1d 31b9
00000080: 80d6 fcb9 93d9 b5b9 2318 3c37 0dc3 8b38
00000090: 443f 4eb9 6037 32b8 99ac eab9 a44a 31ba
000000a0: e1d8 d2b8 a51c 95b9 fb8f 81b6 07fb 0b38
000000b0: cefa 7137 b92b 8038 fd79 0dba 75b0 8738
000000c0: 38ff 14b6 0cb1 c3b7 f6d7 b5b9 68fa ee35
000000d0: 3fb1 3937 fdf4 8838 d394 b038 5568 b937
000000e0: ae0d cf37 f31f 3438 a31a 2bb6 dae5 8cb6
000000f0: ffee f538 fc97 c9b9 f115 52b9 ffa8 5038
00000100: 255e b4b9 10f1 78b9 f30b 3138 a9b0 dd38
00000110: e7a5 0eb9 f8b7 bcb7 38a1 9cb9 9dea dfb9
00000120: 5613 91b8 dd49 52b9 13b0 35b6 6ab7 d437
00000130: 9921 3637 8806 4b38 fc24 b9b9 a958 4e38
00000140: 208d e3b5 7065 89b7 f8d4 60b9 29fd 9237
00000150: dd44 d537 a8d8 b438 d9d5 8338 b705 9337
00000160: f61e f737 31cc 9738 d578 9d36 e3f8 3bb6
00000170: 2934 b738 5118 8bb9 8978 b6b8 e383 1a38
00000180: 2b6a 87b8 c823 7bb8 1864 f4b8 5d83 cab8
00000190: 742b ccb8 ab3a d037 d42b 05b9 6abe 66b9
000001a0: 38db 88b8 38e3 9db8 39a3 d138 aee0 3bb7
000001b0: d324 cd37 196b 5db8 c6a3 14b9 96cb 04b9
000001c0: b74b be38 607e c838 50b1 ceb8 b373 f8b7
000001d0: 97e5 3e38 68a8 d7b8 5cd3 73b8 53ab ffb8
000001e0: 4e7f f6b6 d384 ae37 4aff 2138 ad5f bc38
000001f0: ffa1 02b9 246c 8db8 386a d3b8 d467 dcb8
00000200: 0774 6e39 5813 0639 e00d 32b9 1b00 5db9
00000210: 5b77 99b7 1076 3838 ab02 d938 d2d4 ef38
00000220: 86c7 f4b7 0343 af38 0c8c 0439 0af9 27b8
00000230: 93c3 2038 ff96 1bb9 4586 0639 34ed 37b9
00000240: dcae 1839 4503 0a39 f309 8f38 f895 21b8
00000250: 2dc0 b137 bc3d 5db9 9065 11b9 9c1a 21b9
00000260: 4580 5ab8 d31a 56b8 d729 6138 791e a738
00000270: 2761 6bb9 d468 3239 c3e8 2bb8 6051 fbb8
00000280: dd0f 1039 9f01 aa38 519c f5b8 def4 0db9
00000290: 4525 c4b6 26b5 f237 f446 8638 ba18 7138
000002a0: b9eb 62b7 7a96 5538 337f 9e38 c625 dfb7
000002b0: ede4 1637 8100 92b8 74d2 a838 9929 08b9
000002c0: 7db0 8e38 9bb7 a738 e5c7 2138 f523 1ab8
000002d0: 8078 8637 626e 0ab9 553a acb8 8e17 e0b8
000002e0: cad5 feb7 803d e6b7 d83a d837 4c63 8d38
000002f0: 4096 19b9 7c79 bf38 f242 1cb8 4b5e d4b8
00000300: 9397 8bb6 df20 03b8 8e2c ba38 b157 6838
00000310: da8e 9b37 62a9 25b9 3caa 7637 7f5e ad38
00000320: c36f 0f38 a1de 9137 c9b8 96b9 e6df cab8
00000330: 716d 50b9 40ae da35 5427 5038 4504 1a37
00000340: df3f aeb9 8bce 97b9 793f 5438 09c1 32b8
00000350: 1968 6eb9 d222 fa37 bf57 0538 3dd3 fc38
00000360: 1e1a 3db9 40d8 eab8 89cc 16b9 34ab 6ab9
00000370: e8c0 eb38 fb6d 2837 134b 44b6 b8e5 8438
00000380: 256a d6b9 e14d 90b9 2364 1a39 d799 5939
00000390: 9224 ebb8 086c 08b9 5046 96b9 97a9 b9b9
000003a0: 3369 17b8 95e8 52b9 d78e 5cb9 af5d 85b8
000003b0: a684 0cb9 1dcf b038 a7ee adb9 1a21 9238
000003c0: 3455 79b9 dcd8 67b9 a73b 43b9 74c3 e136
000003d0: 5d6e e2b8 88f6 3439 b67a 0039 c0e2 0439
000003e0: 31d8 dab8 b328 1c38 9bf8 d2b8 e9d5 36b9
000003f0: e7cd 5c39 4319 9bb9 52bb 2cb8 1e5d c638
0.00023116515 0.00012681882 -0.0001917023 -0.00023446404 -2.7832579e-05 3.379731e-05 8.530036e-05 0.00010292947
-3.9390736e-05 7.898879e-05 0.00011846842 -4.6837504e-05 1.3690092e-05 -0.00015690362 0.00012794846 -0.00021718889
0.00010377211 0.0001225641 6.783084e-05 -6.147879e-05 1.689591e-05 -0.00024129779 -0.00015375896 -0.00017512726
-5.3489737e-05 -6.251648e-05 3.7470814e-05 0.00010229313 -0.00025405484 0.00017418161 -5.624831e-05 -0.0001689088
-0.00048225 -0.00034685116 1.1211293e-05 6.6643675e-05 -0.00019669259 -4.249008e-05 -0.00044760553 -0.00067631365
-0.00010053977 -0.00028440836 -3.861261e-06 3.337397e-05 1.4423114e-05 6.1116596e-05 -0.0005396901 6.470169e-05
-2.2202275e-06 -2.3328255e-05 -0.00034683914 1.780526e-06 1.1068128e-05 6.530618e-05 8.420055e-05 2.2102302e-05
2.4682693e-05 4.29451e-05 -2.549649e-06 -4.1990834e-06 0.00011727027 -0.00038450945 -0.00020035334 4.9748454e-05
-0.00034402419 -0.00023740926 4.2211217e-05 0.00010571007 -0.00013603979 -2.2497014e-05 -0.00029874756 -0.00042708675
-6.9177404e-05 -0.00020054677 -2.707359e-06 2.5357778e-05 1.0855868e-05 4.8405054e-05 -0.00035313505 4.91968e-05
-1.6953891e-06 -1.6378908e-05 -0.00021441642 1.7522443e-05 2.5423646e-05 8.623424e-05 6.286399e-05 1.7526427e-05
2.9459112e-05 7.238275e-05 4.6930313e-06 -2.8010043e-06 8.7358356e-05 -0.00026530263 -8.700888e-05 3.683929e-05
-6.457077e-05 -5.9876387e-05 -0.000116534706 -9.656579e-05 -9.735572e-05 2.4822852e-05 -0.00012700196 -0.00022005444
-6.525818e-05 -7.528666e-05 9.996299e-05 -1.1198381e-05 2.4455052e-05 -5.279025e-05 -0.0001417539 -0.00012664343
9.074009e-05 9.560282e-05 -9.8558725e-05 -2.961778e-05 4.5513352e-05 -0.00010283367 -5.813256e-05 -0.00012191259
-7.3461915e-06 2.0804267e-05 3.8623148e-05 8.9823596e-05 -0.00012458114 -6.743547e-05 -0.00010081049 -0.00010509757
0.00022740672 0.00012786442 -0.00016980572 -0.00021076242 -1.82946e-05 4.3978973e-05 0.00010347863 0.00011436049
-2.9179977e-05 8.357132e-05 0.00012640673 -4.004784e-05 3.8329115e-05 -0.00014838202 0.00012829255 -0.00017540605
0.0001456099 0.00013161924 6.8206245e-05 -3.852506e-05 2.1189533e-05 -0.000210992 -0.00013866113 -0.00015364069
-5.209471e-05 -5.1046558e-05 5.3683147e-05 7.9688565e-05 -0.00022447539 0.00017014454 -4.0986353e-05 -0.0001198377
0.0001373882 8.106534e-05 -0.000117116266 -0.00013538028 -5.845594e-06 2.8933002e-05 6.402834e-05 5.7481906e-05
-1.3525533e-05 5.09233e-05 7.55772e-05 -2.6601261e-05 8.993998e-06 -6.9619164e-05 8.050064e-05 -0.00012985467
6.803961e-05 7.99738e-05 3.8571558e-05 -3.674995e-05 1.6030157e-05 -0.00013201826 -8.212464e-05 -0.0001068554
-3.0378713e-05 -2.7446775e-05 2.5776608e-05 6.7418994e-05 -0.0001464719 9.130218e-05 -3.7255646e-05 -0.00010126511
-4.1601684e-06 -3.1263447e-05 8.87747e-05 5.539478e-05 1.854396e-05 -0.00015798726 1.4702378e-05 8.266884e-05
3.4197943e-05 1.7389017e-05 -0.00028747905 -9.673815e-05 -0.00019877196 1.6292979e-06 4.962769e-05 9.180109e-06
-0.00033235454 -0.0002895485 5.0603852e-05 -4.2618285e-05 -0.00022736228 2.9818537e-05 3.179139e-05 0.000120556426
-0.00018034174 -0.00011198269 -0.0001438131 -0.00022379757 0.00011241605 1.0039187e-05 -2.9249975e-06 6.337039e-05
-0.00040896345 -0.00027523845 0.00014723888 0.00020752042 -0.00011212485 -0.00013010215 -0.00028662616 -0.00035412304
-3.609918e-05 -0.00020113804 -0.00021034047 -6.359384e-05 -0.00013400856 8.430912e-05 -0.0003317494 6.967988e-05
-0.00023778231 -0.00022110663 -0.00018618871 6.7282763e-06 -0.000107970765 0.00017257978 0.00012252745 0.00012672972
-0.00010435319 3.7231202e-05 -0.00010059887 -0.0001743656 0.0002105754 -0.00029582725 -4.118245e-05 9.45872e-05

exp_avg_sq f4 [16, 32]
00000000: 643f 0e36 ce0c 4b36 5ab8 cc36 06a8 af36
00000010: 6f38 f836 14b4 1636 53bb d036 4f6d 1a37
00000020: 1c21 0636 60c0 5236 f797 a236 b5ea c436
00000030: ef12 0b37 d15b 1137 268d d336 7967 db37
00000040: dbd1 af36 7954 5036 3511 6e35 dcfc 4236
00000050: 3b49 1737 ba6a 3537 ed8b 2437 ed63 0337
00000060: aa91 af37 32c3 4436 60cb 5c35 e4b1 db36
00000070: c5d7 5137 b175 a035 5bef 9d37 bca1 8836
00000080: d7fc bc37 c8e3 9537 3602 d635 6461 0735
00000090: e5f6 8137 9d06 9736 dd74 4638 c948 8a38
000000a0: 25d8 cf36 a6e2 9137 f638 d636 6714 2634
000000b0: 2fc0 2a36 4a27 3e37 10e0 1d38 b320 eb36
000000c0: dee9 d436 5781 a436 9a9e 8a36 d348 0d36
000000d0: 98da a336 b362 0f36 deb9 5c36 e47b b436
000000e0: 5d93 1a37 3bf4 a734 10cf 8c35 1453 9236
000000f0: dd83 cf36 ec73 8337 4d46 fb36 511f 2136
00000100: 0147 f137 849c 0338 3c2a 4736 2fb9 1536
00000110: 74b5 b337 0269 3f37 ac59 8e38 ecf3 0c39
00000120: f119 fa36 dd09 b237 4c40 3237 1651 9b34
00000130: 7bec 7e36 c389 8337 47af 9f38 020c ac36
00000140: 32fc 4637 6b65 e136 a25c 1a37 1f0c 8236
00000150: ddd9 4236 61d0 f235 4205 9336 06f3 5e37
00000160: 558f 1d37 7672 e535 800b a435 bc6a 3c36
00000170: 3ae3 ed36 b288 c637 afa4 3037 24ac 8936
00000180: 1362 1b37 5f52 8737 623c 7037 9120 0c37
00000190: d916 e837 92ec 8f37 b908 1938 0a55 9338
000001a0: c60f 2237 6aa6 8e37 9405 c837 bc6e 5f37
000001b0: f1f4 b737 4ae0 bf37 4eeb 0d38 cf73 7638
000001c0: a84d c937 759b 3437 c1d8 9c36 0f2c f136
000001d0: 37b6 e737 9f31 ab37 accf d437 6f4e 2f38
000001e0: 47df 5738 3f69 a436 fc88 2436 e9dc c837
000001f0: 8d2e 1b38 3416 4937 54ce 7d38 904b 3837
00000200: 440f 8f36 c274 c336 47ec 8737 8074 2837
00000210: b961 8e37 ab61 9336 71a7 4c37 1789 9637
00000220: 9dac bb36 4186 e636 ccb7 a537 9ecb 2d37
00000230: 86a3 8337 e73c 8d37 21a7 5137 f869 6138
00000240: ec5a bd37 3c66 1937 e5d8 ea35 54bb e536
00000250: ed04 8637 a5d4 b137 1a7c 0a38 7eb5 d037
00000260: db33 0e38 b80a a536 aff0 d335 1f3c 5337
00000270: 18e4 0638 7a2c 2a36 75a1 6e38 0bc0 de36
00000280: 1e99 4f35 5b8f 9635 477d 9736 0368 6036
00000290: 4336 7b36 4265 0136 3911 1936 4b35 6936
000002a0: c6f4 9835 e0ca be35 225f 9436 8aa6 8d36
000002b0: 51d3 cd36 2f41 9c36 8a3e 0e36 eab0 9937
000002c0: b0ac b836 4fa7 4836 f985 c834 cfef f935
000002d0: 4cc8 0537 cbd9 eb36 5d4d 0037 6493 e936
000002e0: 1b1d 7c37 7ad0 d835 9b2c 0535 1885 d336
000002f0: cadd 1837 dc4d 2835 3603 7437 9e98 2c36
00000300: 3808 6033 97d5 2f34 1611 9a35 1fc4 1a36
00000310: c78f 4033 a4dd 4136 6f90 2834 25c4 1e35
00000320: 48ee ae34 e819 bb32 30e7 0837 e340 9f36
00000330: 18af fd36 c217 4036 fc6a 7c34 defe 4b37
00000340: fdbc 2337 a811 c036 94ee b534 59fa 0d36
00000350: c38c 4837 d784 8b36 f87d 8434 c9a1 2c35
00000360: ba43 a737 f7dc 2d36 af19 a835 9354 2437
00000370: 17a7 0636 7555 d833 6621 6936 384a 0536
00000380: fabc 0538 a6f6 e037 6226 5c37 2d34 0d37
00000390: a13b da37 a7ad bc37 a4ae 9838 389b cf38
000003a0: a5a9 1b37 9b94 ad37 b57c b938 11de 2b37
000003b0: 5aa5 0238 7ac7 cb37 8199 8438 904b 3038
000003c0: 3eea b138 f682 7638 4033 0b37 c426 fd36
000003d0: 1c9e 4d38 6e9c 8d37 1bb0 c537 4c89 a737
000003e0: 4ccf 8f38 f7d9 0437 2481 2937 1b9e 7238
000003f0: 2820 0438 d0fc 9337 651a 8d38 303c 2337
2.1196547e-06 3.025681e-06 6.101135e-06 5.234967e-06 7.3975457e-06 2.245656e-06 6.2206905e-06 9.204566e-06
1.9986828e-06 3.1404415e-06 4.8456673e-06 5.8685787e-06 8.289454e-06 8.664051e-06 6.304722e-06 2.6155018e-05
5.239837e-06 3.1043585e-06 8.868695e-07 2.9055436e-06 9.017352e-06 1.081329e-05 9.807741e-06 7.831474e-06
2.0929456e-05 2.9319895e-06 8.2252336e-07 6.547418e-06 1.25076085e-05 1.1955182e-06 1.8827317e-05 4.071944e-06
2.2529084e-05 1.7868253e-05 1.5944886e-06 5.043314e-07 1.5492968e-05 4.5009206e-06 4.7315716e-05 6.59391e-05
6.1942433e-06 1.7390888e-05 6.384328e-06 1.5467377e-07 2.544384e-06 1.133403e-05 3.764039e-05 7.0073525e-06
6.345318e-06 4.902638e-06 4.131184e-06 2.1053027e-06 4.883226e-06 2.136611e-06 3.2890744e-06 5.378841e-06
9.213426e-06 3.1283875e-07 1.0491076e-06 4.3608106e-06 6.1844316e-06 1.5670397e-05 7.488567e-06 2.4009098e-06
2.8762503e-05 3.13786e-05 2.9677894e-06 2.2310521e-06 2.1422959e-05 1.1408936e-05 6.78779e-05 0.00013442308
7.4536006e-06 2.1223846e-05 1.0624597e-05 2.8929998e-07 3.79866e-06 1.5680567e-05 7.614359e-05 5.1273973e-06
1.18604385e-05 6.717329e-06 9.200683e-06 3.875713e-06 2.9035066e-06 1.8091051e-06 4.3815535e-06 1.3288814e-05
9.391301e-06 1.7095142e-06 1.2222299e-06 2.807631e-06 7.089603e-06 2.3667093e-05 1.0528761e-05 4.102958e-06
9.261555e-06 1.6131611e-05 1.4319174e-05 8.352233e-06 2.7667194e-05 1.715709e-05 3.6486166e-05 7.025346e-05
9.659625e-06 1.7005212e-05 2.3844455e-05 1.3317618e-05 2.192936e-05 2.2873417e-05 3.3836164e-05 5.8758826e-05
2.3997229e-05 1.0765031e-05 4.6743958e-06 7.187489e-06 2.7622196e-05 2.0407895e-05 2.5369074e-05 4.17963e-05
5.1467938e-05 4.899833e-06 2.451764e-06 2.3944727e-05 3.6998234e-05 1.1985703e-05 6.051206e-05 1.0984848e-05
4.2635093e-06 5.8250453e-06 1.620328e-05 1.0040705e-05 1.6973225e-05 4.3923114e-06 1.2198333e-05 1.794523e-05
5.593129e-06 6.8701634e-06 1.975512e-05 1.0359012e-05 1.5692563e-05 1.683687e-05 1.24962835e-05 5.374287e-05
2.2572895e-05 9.143314e-06 1.7497483e-06 6.8465397e-06 1.5976339e-05 2.1199065e-05 3.3017343e-05 2.4880046e-05
3.3903732e-05 4.918631e-06 1.5790773e-06 1.2590578e-05 3.216052e-05 2.5357863e-06 5.689399e-05 6.6384723e-06
7.7336324e-07 1.1217593e-06 4.514735e-06 3.3439144e-06 3.74335e-06 1.9281438e-06 2.2808802e-06 3.4750726e-06
1.1396121e-06 1.4215148e-06 4.4218186e-06 4.221515e-06 6.1340766e-06 4.6567507e-06 2.1196051e-06 1.8321403e-05
5.503731e-06 2.9899709e-06 3.735038e-07 1.8621739e-06 7.974053e-06 7.0289e-06 7.647407e-06 6.9610996e-06
1.5027147e-05 1.6153929e-06 4.961127e-07 6.303784e-06 9.111545e-06 6.269818e-07 1.4544281e-05 2.5718832e-06
5.216154e-08 1.6375849e-07 1.1478867e-06 2.3061946e-06 4.483425e-08 2.8888253e-06 1.5698764e-07 5.9145015e-07
3.2583398e-07 2.1781446e-08 8.160059e-06 4.746123e-06 7.560371e-06 2.8624058e-06 2.350825e-07 1.2159084e-05
9.759559e-06 5.7241014e-06 3.3887466e-07 2.1156359e-06 1.1953703e-05 4.1579874e-06 2.467857e-07 6.431042e-07
1.9939489e-05 2.5907627e-06 1.252445e-06 9.794853e-06 2.0064815e-06 1.0073828e-07 3.4739146e-06 1.9861745e-06
3.188567e-05 2.6817735e-05 1.3121959e-05 8.416403e-06 2.6015392e-05 2.249221e-05 7.280454e-05 9.899441e-05
9.278218e-06 2.0692407e-05 8.844716e-05 1.0244098e-05 3.114841e-05 2.4292374e-05 6.322843e-05 4.2032043e-05
8.483649e-05 5.8772937e-05 8.296978e-06 7.5445005e-06 4.902306e-05 1.6881353e-05 2.3566236e-05 1.9971885e-05
6.8573834e-05 7.918562e-06 1.0103253e-05 5.7844543e-05 3.15012e-05 1.764149e-05 6.72832e-05 9.729571e-06

exp_avg f4 [16]
00000000: afcc 69b8 e376 7db9 2f8b 08b9 2071 f8b8
00000010: 8373 17b7 926e eeb7 bec1 0db9 1fb3 42b9
00000020: 24f7 f2b7 f8c4 74b8 1153 37b8 bcec b4b7
00000030: 261c 16b9 7d8c 3fb9 af0c 71b8 daa7 ee37
-5.5742155e-05 -0.00024172249 -0.0001302182 -0.00011846633 -9.027196e-06 -2.84233e-05 -0.00013518982 -0.0001856801
-2.8963732e-05 -5.8357575e-05 -4.370796e-05 -2.156791e-05 -0.00014315601 -0.00018267515 -5.747069e-05 2.8449973e-05

exp_avg_sq f4 [16]
00000000: 4ac7 dc37 39f2 c937 6039 e737 5370 1439
00000010: 334e b038 cc31 bd37 9fef 1d37 3caf b838
00000020: 6b5d 9138 e503 0439 9c49 6a38 fd56 5838
00000030: e7a5 9d38 ee0b 2438 1e1a 5538 ba8e 9538
2.6318845e-05 2.4073861e-05 2.7564063e-05 0.00014156224 8.4069e-05 2.2553744e-05 9.41372e-06 8.806444e-05
6.931539e-05 0.00012589952 5.58585e-05 5.1579427e-05 7.517245e-05 3.9111757e-05 5.080748e-05 7.1314586e-05

exp_avg f4 [3, 16]
00000000: 97b2 e039 c675 5139 418b 8e39 8da1 233a
00000010: f85b b239 6d9a ed39 bddb 46ba e672 66b9
00000020: c6f1 16b9 2213 103a adbb de39 0d8c 5db9
00000030: cf2e 16ba 7cd8 6539 d25c 12ba 0587 52b9
00000040: cb0b 8dba 93a1 643a 31f7 773a a0f6 8037
00000050: cb4b 67ba 578b 3cba 11d4 2d3a a7e6 a23a
00000060: e075 eeb9 a745 ecb9 d13f 89ba 0302 f6b9
00000070: 106c 013a 099b 6e3a 4052 f839 3f06 fab9
00000080: 36be 293a 537f 8cba 2b9e 9fba e5a8 27ba
00000090: b01d 0e3a 547c 8b39 553e c838 1918 86ba
000000a0: 5af7 1c3a 0881 cfb8 c221 233a 0a64 323a
000000b0: bd16 a638 6408 94ba 5f9e b138 e2a4 313a
0.0004285767 0.00019975667 0.00027188103 0.00062420295 0.00034019328 0.0004531922 -0.0007585844 -0.00021977312
-0.00014395182 0.0005496015 0.0004248297 -0.00021128375 -0.0005729021 0.00021919789 -0.00055832893 -0.0002007746
-0.0010760961 0.0008721586 0.00094591366 1.5373633e-05 -0.0008823245 -0.0007192394 0.00066310266 0.0012428359
-0.0004548272 -0.00045065323 -0.0010471289 -0.00046922275 0.0004937062 0.00091020815 0.00047363527 -0.0004768837
0.0006475182 -0.0010719098 -0.0012177875 -0.00063957117 0.0005421294 0.00026604778 9.5483534e-05 -0.001023057
0.0005987786 -9.894563e-05 0.0006222987 0.0006805068 7.919732e-05 -0.0011294005 8.4695166e-05 0.00067765836

exp_avg_sq f4 [3, 16]
00000000: 40e9 f737 caf6 b036 5b3e df38 b3b7 8339
00000010: 7844 8b38 100d ec38 4600 c137 9ec7 c038
00000020: 5fdd 8739 0103 9739 5198 c338 db50 9739
00000030: 6e74 023a d6ee 6838 b2c5 5439 ac5f 0a3a
00000040: b0ed d038 8452 1038 804c a139 82a4 8e39
00000050: 4c4d 8f39 ffa5 4139 ce40 9137 5070 9739
00000060: d110 8d39 89aa 9a39 5099 ce39 3de5 6739
00000070: b3dd 4639 02d2 1239 8959 d538 b523 d139
00000080: 7e88 1738 ac53 5b38 c5a8 323a 6222 bf39
00000090: 946c db38 e2fa 8538 935b 4a35 d9cf 7139
000000a0: 0d9c 9c39 4a0a c139 8b70 1f39 2a92 5339
000000b0: 6536 0039 bded 9939 c598 2138 f395 f439
2.955331e-05 5.2739388e-06 0.00010645083 0.00025123134 6.64079e-05 0.0001125579 2.300752e-05 9.192455e-05
0.0002591414 0.00028803202 9.326696e-05 0.00028861206 0.0004976456 5.5535544e-05 0.00020291543 0.00052785384
9.962486e-05 3.4409124e-05 0.0003076531 0.00027206918 0.00027332676 0.00018467753 1.7315524e-05 0.00028884644
0.00026906145 0.00029500228 0.0003940561 0.00022115275 0.00018965341 0.00014001879 0.00010173309 0.0003989019
3.6128324e-05 5.2291594e-05 0.000681531 0.00036455976 0.00010462958 6.388665e-05 7.538412e-07 0.0002306098
0.00029870906 0.00036819495 0.00015205347 0.00020176978 0.00012227295 0.00029359563 3.852767e-05 0.00046651028

exp_avg f4 [3]
00000000: b8d2 1c37 2736 2739 a002 31b9
9.347386e-06 0.00015946534 -0.00016881013

exp_avg_sq f4 [3]
00000000: 7014 ab39 88f2 283a 0d20 003a
0.0003263089 0.00064448314 0.00048875884
