homework1/lightning_logs/version_3/checkpoints/epoch=99-step=900.ckpt (torch, 22040 bytes, 18 tensors)

network.0.weight f4 [32, 13]
000000 80 ac 45 be ef 28 e9 bc 82 f2 ea 3d 0a 59 c5 3c
       -0.19304085 -0.028461901 0.11472036 0.024090309
000010 2d b6 53 bc 9c 87 04 be 65 97 58 3d a3 88 81 3e
       -0.012921852 -0.12942356 0.052878756 0.25299558
000020 88 6c aa 3d ac 71 61 3e e9 a3 bc be 9c e4 bb be
       0.08321482 0.22016019 -0.36843804 -0.36697853
000030 9d 64 aa be 18 89 fb 3d ba 33 67 bd 5c bf 16 3e
       -0.33279887 0.12282008 -0.056445815 0.14721435
000040 52 ed 1b be 86 41 22 be 66 dd 36 3e a7 dd 93 bd
       -0.1522725 -0.15845308 0.17857894 -0.07220011
000050 1c c6 27 be a5 d3 02 3e 74 27 9f 3d c5 24 4c 3b
       -0.16384166 0.12776048 0.07771197 0.0031149846
000060 81 af c5 3e 35 72 cf 3e 63 4e d1 bc b2 95 09 3e
       0.3861046 0.4051682 -0.025550073 0.1343601
000070 e0 c4 d0 3e 82 21 f7 be 66 eb d9 bb 40 9d 42 3e
       0.40775204 -0.48267752 -0.006650376 0.19005299
000080 c4 84 94 3e 3c f2 0d 3d 03 37 51 bd 75 d4 40 3e
       0.29007542 0.03465484 -0.051077854 0.18831046
000090 6c 2f 79 3e 94 0a b2 3e f9 62 be 3e 6e 38 86 3d
       0.24334496 0.34773695 0.37184885 0.06553732
0000a0 73 c4 10 be f1 a4 1f 3e a0 1f 04 be 80 73 54 be
       -0.1413744 0.15590264 -0.12902689 -0.20747185
0000b0 4f 39 94 3c cc c9 cc 3e f4 9b 9a be 22 89 36 3d
       0.018093733 0.3999771 -0.30197108 0.044564374
0000c0 cf 61 0b bb bf cf 67 3d 57 b1 29 3e 7d 0c ac 3e
       -0.0021268015 0.056594606 0.16571556 0.33603278
0000d0 59 38 4e be d4 1a 3b 3e de be 3c be ff 2d 1c 3e
       -0.20138682 0.18271953 -0.18432185 0.15251921
0000e0 98 02 30 bd 2d f7 57 be 0d 5c bc be f5 d0 5b 3e
       -0.042971224 -0.21090384 -0.3678898 0.2146643
0000f0 ac 36 b9 be 05 0d 26 be 4b f8 67 bd fa 8c 53 be
       -0.36174524 -0.16215904 -0.056633275 -0.20659247
000100 9a 74 5d 3d 2a 8b 93 be f7 61 50 be 0c 5d cd be
       0.054066278 -0.2881711 -0.2034987 -0.40110052
000110 06 ad e8 3e ee 0f 91 be 61 f6 90 bd 24 ce 8c 3e
       0.45444506 -0.28332466 -0.07078243 0.27501023
000120 b8 6f 04 be 67 31 bc 3e 86 75 d5 be 04 2e d3 3d
       -0.12933242 0.3675644 -0.41691226 0.10311511
000130 59 dc 68 bd 24 16 0c bf 54 fd f0 be 29 1b 7d bd
       -0.056850765 -0.54721284 -0.47068274 -0.06179348
000140 cb e3 93 be 5b 15 d1 3e 4b ac 4f 3e 6c c8 06 3d
       -0.2888473 0.40836605 0.20280568 0.03290598
000150 de 62 e5 bd 8d 2c 5c 3d b2 50 58 3e f6 8c 59 ba
       -0.11200498 0.053753424 0.21124533 -0.0008298898
000160 88 c3 36 3e 1f fc 84 3e 12 eb fe be 3d 4c 67 3d
       0.17848027 0.25973603 -0.4978872 0.05646919
000170 58 3a 12 be c1 2d 22 3e 68 b2 eb 3d 3f a7 e9 bd
       -0.14280069 0.15837766 0.11508638 -0.11408853
000180 06 b5 af bb e2 cb df be 45 62 5d bd 5b a4 bb be
       -0.005362156 -0.43710238 -0.054048795 -0.3664883
000190 c0 f7 96 3e 8f 8a 9e be 17 c8 e5 be 55 bd 2d 3e
       0.29485893 -0.30965087 -0.4487922 0.16966756
0001a0 19 80 6b 3e 3c 71 78 3e 41 1b 12 3d 4d 5c 98 be
       0.22998084 0.24261945 0.035670523 -0.2975792
0001b0 a9 5c 94 3e e3 eb 9f 3d 5e bd 93 3d 2f c8 80 be
       0.28976944 0.07808664 0.07213853 -0.25152728
0001c0 c0 57 cf 3d 6e 1b 49 be ba 20 4d 3e 43 b7 b5 3e
       0.10124159 -0.1963937 0.20032015 0.3549138
0001d0 4d 2e c9 3e 23 89 1e be 3f 8a 1c be eb 5e 11 bc
       0.39293137 -0.15482001 -0.15287112 -0.008872728
0001e0 7f fc 81 3e 41 c4 2c 3d fc b3 6c be 47 ca 34 be
       0.25387952 0.04217935 -0.23115534 -0.17655288
0001f0 ae a4 57 be ec 4a 6a 3e af a9 e0 be 1e ed d4 3e
       -0.21058914 0.22880143 -0.43879458 0.41587156
000200 b1 21 af 3e 98 04 dd be d2 28 be be b9 04 ce bd
       0.34205392 -0.43167567 -0.37140518 -0.100594945
000210 9b ad af bb 37 d0 9b 3e a3 74 01 3e fa dc be 3c
       -0.0053612716 0.30432293 0.1264215 0.02329873
000220 dc 02 37 bd a8 33 ef 3d ca e8 af 3d 41 89 d5 bd
       -0.04468046 0.116797745 0.08589323 -0.1042657
000230 65 a6 ad 3d 24 b8 a9 be 90 99 c2 bd 82 90 04 3e
       0.08479003 -0.331483 -0.09501946 0.1294575
000240 38 74 7b bd 6e c7 9e 3e da c9 67 be a7 f9 af 3d
       -0.06139013 0.31011528 -0.22635594 0.08592539
000250 c6 4b 8c 3e bb e3 88 3e f9 1c 8e bd 3e 2a 2c 3e
       0.2740156 0.26736245 -0.0693912 0.16812989
000260 a8 8b 89 bc e0 07 b7 3d cd 5f 8e 3e c2 4f af 3e
       -0.016790226 0.08937049 0.27807465 0.34240538
000270 6f e5 9b be bb c4 87 be b2 a4 9e bc 9d 2a cd 3e
       -0.3044848 -0.2651728 -0.019365642 0.40071574
000280 fe 16 de 3d 2d 40 1b be 66 aa fb bd 57 71 56 bd
       0.10844229 -0.151612 -0.1228836 -0.052354183
000290 e2 59 84 bb 7b ea 1e be 1b 70 13 3e 53 79 a6 be
       -0.004039035 -0.15519135 0.14398234 -0.32514438
0002a0 3f dc fd 3d e8 1b 65 3e a3 0b 4b 3e 3e 53 f8 bc
       0.12395524 0.22373927 0.19828658 -0.03031313
0002b0 d9 88 fd bd 35 9c a7 3e 22 91 8c be ec 6a 82 bc
       -0.12379617 0.32736364 -0.27454478 -0.015920125
0002c0 70 0d ef 3d 62 e0 1b be 17 e2 a4 3d 6a 58 ec be
       0.11672485 -0.15222314 0.08050936 -0.46161205
0002d0 81 f5 8e be b5 0c 1b 3e 33 30 0d be 2f 9f 09 be
       -0.2792168 0.15141566 -0.13787918 -0.1343963
0002e0 43 b0 14 3e 18 06 6e 3e 46 b6 89 be ec 76 4e 3e
       0.14520364 0.23244512 -0.26896876 0.20162553
0002f0 a2 84 5b be 23 a5 4b be 04 7b 9a be f4 af b6 3d
       -0.21437314 -0.19887213 -0.30171978 0.08920279
000300 b7 b2 1b be 4d e7 6c be 09 8a df be 02 2d 54 be
       -0.15204893 -0.23135109 -0.4366 -0.20720294
000310 8d 92 d9 be 98 d6 0e 3e ea dd 01 3e 17 52 88 bc
       -0.42494622 0.13949049 0.1268231 -0.016640706
000320 1e e8 4d be 58 72 7e 3e 36 a1 dc 3d 2f 9b cd bd
       -0.20108077 0.24848306 0.10772936 -0.100393645
000330 40 70 cd be bb 6a ca 3d 4c ca af 3e c2 ef 49 3e
       -0.40124702 0.098836385 0.34334028 0.19720367
000340 a2 9b d6 3e d2 7e 4d 3e 0b f4 ba 3e ac d5 ad 3c
       0.41915613 0.2006791 0.36514315 0.02122005
000350 d8 fa 9e 3d 7e 39 1f bd 81 16 9f bc 16 f0 d2 3c
       0.077626884 -0.03887319 -0.01941991 0.025749248
000360 52 68 a6 be 88 7c 64 3e ca db 06 be 15 80 68 be
       -0.32501465 0.2231313 -0.1316978 -0.2270511
000370 80 2e b1 3e 56 50 b8 3e 3f 52 49 be 97 ba 43 3d
       0.3460579 0.3599879 -0.1966028 0.047785368
000380 fd 35 57 be 07 4a 17 bd 53 77 8b 3e 3e c6 98 3e
       -0.21016689 -0.036935832 0.27239475 0.29838747
000390 b3 0f 11 bd 2d ec 4e be 0d 16 66 be 7c 4d 99 3d
       -0.035415363 -0.20207281 -0.22469349 0.07485482
0003a0 20 06 10 3e 35 27 fe bd 19 97 58 3e 01 41 d9 be
       0.14064837 -0.12409822 0.21151389 -0.42432407
0003b0 ef 51 a3 be 74 16 a8 be 01 88 c9 3e 96 ff a1 3e
       -0.31898448 -0.3282963 0.39361575 0.3164031
0003c0 2a 9b b1 3c 5c 31 42 bd 90 a9 83 bd 3a 56 d9 be
       0.021680433 -0.047410354 -0.06428826 -0.42448598
0003d0 38 c0 06 3f 4d 4a 52 be a8 1b 81 be 39 85 44 bd
       0.5263705 -0.20536156 -0.25216413 -0.047978614
0003e0 5c 34 3f 3e 4f 11 d9 bc c7 bf fe 3d 26 1a db be
       0.18672317 -0.026497511 0.124389224 -0.42793387
0003f0 02 d3 b2 be aa 38 a6 3e ad 47 99 3e 40 39 a5 3e
       -0.3492661 0.32465106 0.29937497 0.3227024

network.0.bias f4 [32]
000000 fb 50 81 3e 42 7f 26 3e af 4a b3 3c 75 0a a5 3e
       0.25257096 0.16259483 0.021886198 0.3223454
000010 91 e2 b6 3e 9f aa a9 3e ad 9f d7 3e 21 30 f1 3d
       0.3571973 0.33137986 0.4211401 0.11776758
000020 03 8c ac 3e ed 9a 0f 3b 76 46 5e 3e 25 62 05 3e
       0.3370057 0.0021912411 0.21706566 0.1302572
000030 5e bb 77 3e d7 07 2c bd c5 00 b3 3e 5d c7 98 3e
       0.24192569 -0.041999664 0.34961525 0.29839602
000040 0f 4c d0 3e 28 f3 99 3e bb 60 37 3e 2c 95 54 3e
       0.40683028 0.30068326 0.17907993 0.2076003
000050 54 de 5e 3c a0 d3 61 3d 61 45 a5 3e f7 51 f4 3d
       0.013602812 0.055133462 0.32279494 0.11929696
000060 eb 52 3c bc 87 83 84 3e 39 2b 35 3d 58 8d ef bb
       -0.011494379 0.25881597 0.044230673 -0.0073105507
000070 cd 59 59 3e ba 09 2d 3e e4 64 c9 3d 27 dd b9 3d
       0.21225663 0.16898242 0.098336965 0.090753846

network.2.weight f4 [16, 32]
000000 cb e1 14 3e 29 4c 62 3e b3 b7 a1 3e 6b f3 b3 3d
       0.14539258 0.22099365 0.31585464 0.08786663
000010 e7 81 a0 3d ed d6 a1 be e6 f1 48 be 73 ea a5 3e
       0.07837277 -0.31609288 -0.19623527 0.32405433
000020 0e ba 23 3e 32 4f b7 bd 7b bd 0d be 19 b5 15 3e
       0.15988943 -0.08950652 -0.13841812 0.14619865
000030 0a 46 fe bd e1 fd 3b 3c 71 23 31 bd bc b3 0f 3e
       -0.12415703 0.011474104 -0.04324669 0.14033407
000040 dd 34 6c 3e a7 0d 79 3e 40 eb bf 3d f7 e4 1c 3e
       0.2306704 0.24321614 0.09371042 0.15321718
000050 2d a4 89 3d f2 bb 2c 3e a0 6f 05 3e 2e 67 36 3e
       0.06720767 0.1686857 0.13030863 0.17812797
000060 b6 6a aa 3e 9b 86 52 be 20 97 0e 3e 12 48 5a 3e
       0.3328454 -0.2055916 0.13924837 0.21316555
000070 10 fd a2 bd cc b6 67 be dc 25 a5 3c 1e d6 3d 3e
       -0.07958424 -0.22628325 0.020159654 0.1853871
000080 16 d4 27 3e 5e e1 73 be f3 36 5b be 3f 7b 57 3d
       0.16389498 -0.2381644 -0.2140768 0.05260777
000090 ba 8e 86 3e 4e c4 bc 3e 62 eb 97 3e 5a ea 0e be
       0.26280767 0.3686852 0.2967177 -0.13956586
0000a0 9f 04 cf 3c 45 ca b6 3e 3e 06 9e 3e 60 d1 82 bd
       0.025270758 0.35701194 0.30864137 -0.06387591
0000b0 15 6f 22 3e da c1 dd bc a2 a7 12 3e 5a ea 27 3e
       0.15862687 -0.027069975 0.1432176 0.16397992
0000c0 96 16 73 be 6b d1 1a ba cb 7b 4a 3e 34 16 5f 3e
       -0.23739085 -0.00059058395 0.19773786 0.21785814
0000d0 a1 79 35 3e bc b2 e3 bd 41 cb 33 be 45 77 47 be
       0.17722179 -0.11118075 -0.17558004 -0.19479091
0000e0 4f 6b ec bd c1 86 a6 3e 5b 78 b5 bd 70 ea de 3d
       -0.11543905 0.32524684 -0.088608466 0.10884559
0000f0 b0 9b c0 3e fc 8a 0e 3e d9 e8 1e 3e 52 78 95 be
       0.3761878 0.13920206 0.15518512 -0.2919336
000100 ef 47 5d 3e 91 41 cc 3c 07 6b c5 3c 20 9b bf bd
       0.21609472 0.024933608 0.024098886 -0.093557596
000110 c4 bf 99 3d 95 4c 78 be 87 4e f7 bc b0 61 40 3e
       0.075072795 -0.24247964 -0.030188812 0.18787265
000120 2a a9 b5 bd 6f c9 b0 be 10 67 a9 3d 22 2f 48 3d
       -0.08870156 -0.34528682 0.08271611 0.048873074
000130 e0 ad 6e 3e 6c 37 a0 3e 1a 87 9f 3e 24 b4 9a be
       0.23308516 0.31292284 0.31157762 -0.3021556
000140 49 54 8d 3e 24 e6 b0 be 02 f7 5a be f3 e4 b1 bd
       0.27603367 -0.34550583 -0.21383289 -0.08686247
000150 69 f9 09 3d 7a 47 de 3d b2 18 93 3e 15 6e cb 3d
       0.03368512 0.10853477 0.2872978 0.09933106
000160 48 73 b1 3e 9d de 15 3d 1f e9 24 be 48 f4 2f be
       0.34658265 0.036589254 -0.16104554 -0.1718303
000170 1b 25 74 bd 8d 27 9a be 52 97 a3 3d 13 49 d0 bc
       -0.0596057 -0.301083 0.079878464 -0.02542547
000180 34 e5 97 3d cf 1b 0c bd 30 db 62 be 6a 90 b6 bd
       0.07416764 -0.034206208 -0.22153926 -0.089142635
000190 6a 0d 92 3e 7c 68 8a 3e 6a 00 60 3e 21 5e 90 3e
       0.2852586 0.2703284 0.21875158 0.28196815
0001a0 43 e2 a4 bd f3 b6 3e 3e 3f 43 a8 3e 81 3f 17 be
       -0.080509685 0.18624477 0.32863805 -0.14770319
0001b0 b9 cc 5c 3e 44 d8 8e 3d c1 8c 4d 3e 73 1e 18 bd
       0.2156247 0.06974843 0.20073225 -0.037138414
0001c0 8c c7 e7 3d 09 c1 09 3d b5 f1 71 3e 82 77 93 3d
       0.113173574 0.03363136 0.2362736 0.07200529
0001d0 c4 16 08 3e 9d 20 87 3e f2 5d 2e 3e 68 92 26 be
       0.13289934 0.2639207 0.17028025 -0.16266787
0001e0 96 41 ae 3c 68 c4 8e 3e 0e 6a c4 bd be d0 05 be
       0.021271508 0.2788422 -0.09590541 -0.1306791
0001f0 c6 62 78 3e 96 75 7b 3e 67 5c 6c 3e ac 7d 6a bd
       0.24256429 0.24556574 0.23082124 -0.057248756
000200 33 b4 72 3e 29 49 16 be 57 05 4b be 8f 37 f0 3d
       0.23701553 -0.14676346 -0.19826256 0.11729347
000210 1b ca 4a 3e fe 0d 6e 3e 99 1f 46 3d 0b e5 84 3d
       0.1980366 0.23247525 0.048369978 0.06488999
000220 47 c7 89 3d c9 35 8a 3e 86 7d 98 3e 55 62 e4 bd
       0.06727462 0.2699416 0.29783267 -0.11151568
000230 c7 0f 94 3e db 66 0c 3d dd 1f 68 3e f4 af 06 be
       0.28918287 0.034277778 0.22668405 -0.13153058
000240 aa 47 1b 3e ea 37 32 bc e0 8b e3 3d 67 01 e3 bc
       0.15164056 -0.010877589 0.111106634 -0.02771063
000250 29 bb 44 3e 5b fd 6b 3e 63 94 38 3d cc bc 5a be
       0.19212021 0.23045866 0.045063388 -0.21361083
000260 b0 7e 9c bd 98 0b 21 3e 37 24 1d be 0a 20 36 bd
       -0.07641351 0.15727079 -0.15345846 -0.04446415
000270 e5 1e 44 3e b1 8a 1b 3e 3c eb 32 3d b1 14 20 be
       0.1915241 0.15189625 0.04368137 -0.15632893
000280 7e 9c 76 3e 5c 04 28 be a6 ec 83 be f9 17 0a 3d
       0.24083135 -0.16407913 -0.25766486 0.03371427
000290 fb 94 5f 3e 08 1a 4d 3e e2 84 9a 3e ab f4 45 3e
       0.21834175 0.20029461 0.30179507 0.19331615
0002a0 00 ea ea bd f8 96 a3 3e aa 78 2f 3e d0 13 86 3d
       -0.11470413 0.31951118 0.17135873 0.06546748
0002b0 3b 23 6e 3e 37 f4 e4 3d 2b bb 37 3e c5 13 54 3e
       0.23255627 0.11179393 0.17942493 0.20710666
0002c0 61 22 e0 3c 05 85 1b bd 50 af 86 3e 18 7f b2 3e
       0.027360143 -0.037968654 0.26305628 0.3486259
0002d0 d4 c5 63 3e d1 c5 f1 bd e2 5b 93 bd 5c 3d 49 be
       0.22243434 -0.118053086 -0.0719526 -0.19652313
0002e0 a0 df 3f be cb 82 aa 3d cf 8a 53 be 91 da f3 bd
       -0.1873765 0.08325728 -0.2065842 -0.119069226
0002f0 e0 f5 bc 3e e3 31 8d 3e 35 e1 03 3e ff ed a1 bc
       0.36906338 0.27577123 0.12878878 -0.019766806
000300 e7 79 f3 bc 90 96 94 3e f5 51 4e 3d e7 e0 2b 3e
       -0.029721214 0.2902112 0.05037113 0.16785012
000310 7a af 1a 3e f6 a9 d5 3e 42 79 af 3e af a2 73 be
       0.15106001 0.41731232 0.342722 -0.23792528
000320 05 f9 76 3e 1b 5a 9e 3e 9c 92 2f 3d e5 34 27 3e
       0.24118431 0.3092812 0.042864427 0.16328771
000330 02 70 12 3e 21 52 c1 bd 50 48 8a 3c 66 7d d6 3e
       0.1430054 -0.09439493 0.016880184 0.41892546
000340 7a f9 12 bd 70 e6 9a 3e 97 96 8e 3e 55 18 d5 3e
       -0.03588245 0.30253935 0.27849266 0.41620126
000350 fb 6f 73 3e a4 70 a0 bd 55 77 4a 3d 79 be 4e 3e
       0.23773186 -0.078339845 0.04943021 0.20189847
000360 36 f7 ce be cd e8 9f 3e df 5f 6d 3d 91 e3 8b 3e
       -0.40422982 0.312323 0.057952758 0.27322057
000370 02 45 f6 3d a6 1d cf 3e 3b 6f 1b 3e 0c 8f 82 3e
       0.12024881 0.40452307 0.1517915 0.2549976
000380 f7 97 10 be bb cd ee 3d 77 60 94 3e a7 dd 3c 3e
       -0.1412047 0.11660334 0.28979847 0.18443929
000390 de 3b 42 be 38 f3 a6 be 45 62 9c be 0a a1 18 3d
       -0.1896815 -0.32607436 -0.30543724 0.037262954
0003a0 77 82 c7 3e 64 f6 54 be 22 10 16 be 70 35 1a 3e
       0.38966724 -0.20797116 -0.14654592 0.15059447
0003b0 1d 79 5a 3d 52 7c 1a 3d 42 9b 9a be 88 fb 99 3e
       0.05333816 0.037716217 -0.30196577 0.30074716
0003c0 bb 18 a0 3e 60 1a 7c 3e 4e 66 4a 3d 17 2a 75 3e
       0.31268868 0.24619436 0.04941397 0.23941837
0003d0 27 a0 82 3d 53 77 9a 3d 7a cd 9c 3e 08 b9 f7 3d
       0.06378203 0.075422905 0.30625516 0.12095839
0003e0 83 24 a0 3e 68 ba 64 bd 82 c3 a7 3e e9 64 84 3e
       0.31277856 -0.055841833 0.32766348 0.25858238
0003f0 e2 d0 68 3b 5a dc 05 3e 8b f4 d4 3d 63 93 cc 3e
       0.0035524894 0.13072339 0.10398205 0.39956197

network.2.bias f4 [16]
000000 59 bf 5d bb 32 9e 8c 3e 70 5d 9b bd e1 fb 03 3d
       -0.0033835976 0.27464443 -0.07586181 0.032222632
000010 cf 1d 0b 3e 48 80 38 3d b2 ef 06 3e e4 23 15 3e
       0.1358559 0.045044214 0.13177374 0.14564472
000020 20 f8 5c 3e 81 0e d7 bd 05 09 0d bd 69 20 1c be
       0.21579027 -0.10500813 -0.03443243 -0.15246738
000030 30 f1 28 3d 3d 0a e3 3d 7a 77 e4 bd 6c db a7 bd
       0.04124564 0.11085937 -0.11155601 -0.08196148

network.4.weight f4 [3, 16]
000000 a2 f3 a4 3e 79 de 92 be af e7 c8 be 7c 51 a2 be
       0.32217127 -0.28685358 -0.3923926 -0.31702793
000010 57 da db be 9a d8 91 be 39 6b eb 3d 6f 1a a7 3d
       -0.42940018 -0.28485566 0.114950605 0.08159339
000020 d9 d1 d6 be 7c 73 a8 bd 1a 32 8e be c4 b6 73 be
       -0.41956976 -0.08225152 -0.277726 -0.23800188
000030 5c 09 81 3e a7 61 df 3e a7 d7 0b bd 20 bb 69 bd
       0.25202453 0.4362919 -0.03414121 -0.057063222
000040 59 b6 01 bf d9 0f bf 3e f1 04 c2 be e4 08 d8 3d
       -0.50668865 0.37316778 -0.37894395 0.10548571
000050 81 d4 9e 3e 2a 44 d3 3e 35 09 95 3e d0 7c d0 be
       0.31021503 0.41262943 0.29108587 -0.40720224
000060 45 89 b0 3d e8 3c 3f 3e 62 02 bf be 27 74 6a be
       0.08619932 0.18675578 -0.37306505 -0.22895871
000070 12 43 9d be a6 d0 c8 be 02 57 56 be 12 1e 03 bf
       -0.30715233 -0.39221686 -0.20931628 -0.5121776
000080 70 ee 6d bc e3 f1 ef bd 9e 59 e0 3e eb 4d 80 3c
       -0.01452218 -0.11716058 0.43818372 0.015662154
000090 71 eb 18 3e 71 44 0b 3d 85 f3 e2 be 34 94 ab be
       0.14933564 0.034000818 -0.44326416 -0.33511508
0000a0 75 f9 0f be 98 9e b6 3d 8e db e0 3e 44 63 9c bd
       -0.14060004 0.08916968 0.43917507 -0.07636121
0000b0 f5 5e b0 be cb 1f 3f be 35 4a d9 3e af 45 27 3d
       -0.34447446 -0.18664472 0.42439428 0.04083794

network.4.bias f4 [3]
000000 34 37 ec bd a6 70 06 3e f3 a3 90 be
       -0.11533967 0.1312891 -0.28250083

exp_avg f4 [32, 13]
000000 e6 53 54 38 68 38 fe 38 f2 28 f6 b8 9e 76 ae 38
       5.0622875e-05 0.0001212217 -0.00011737821 8.319061e-05
000010 3a 4c 83 38 47 af 2f b8 21 35 a5 39 04 9b 22 b9
       6.260765e-05 -4.188649e-05 0.00031510837 -0.00015507272
000020 d8 7a 0f 39 e1 6f 5e b8 6c 11 52 39 37 eb 4a 39
       0.00013683306 -5.303312e-05 0.00020033651 0.00019351846
000030 92 12 05 b7 ac 0b 02 b9 6f d1 aa b6 41 5d 25 b9
       -7.9317415e-06 -0.00012402114 -5.090776e-06 -0.00015770366
000040 e8 e2 94 39 77 7b 0d b8 b5 15 ad b6 e0 18 3c b9
       0.00028397818 -3.3732005e-05 -5.158329e-06 -0.00017938344
000050 4c 3c bd b7 20 84 93 38 22 43 25 39 5a 9f 15 b9
       -2.2558634e-05 7.0341164e-05 0.00015760635 -0.0001426911
000060 68 90 f0 b8 d2 5d 55 b9 11 16 30 b9 4f cc 51 37
       -0.000114709896 -0.00020348214 -0.00016792888 1.250494e-05
000070 16 32 36 b9 c7 b0 b7 39 63 ea ac b7 ca 8d 05 37
       -0.00017375531 0.0003503619 -2.0613143e-05 7.960431e-06
000080 bd ef 4c b9 0f 6a 09 b8 28 39 ac 38 d2 e9 29 39
       -0.00019544266 -3.276212e-05 8.212245e-05 0.00016204201
000090 14 56 26 b9 60 f4 f6 b8 a3 7f 82 b9 38 c5 7e b8
       -0.0001586306 -0.000117757125 -0.0002489063 -6.0741993e-05
0000a0 80 56 03 b8 7d f3 93 b8 04 ab 02 39 b3 43 d8 b7
       -3.1313393e-05 -7.0548595e-05 0.00012461474 -2.5780731e-05
0000b0 e3 be 16 b8 de 5e d8 b8 c1 8e 82 37 a7 3e 7a 37
       -3.5940564e-05 -0.00010317353 1.5563683e-05 1.4915749e-05
0000c0 18 be 9b 38 e6 14 3f b8 00 09 9e b8 01 1a b4 b8
       7.426384e-05 -4.555741e-05 -7.5357035e-05 -8.5879125e-05
0000d0 7a d6 1d b6 65 04 18 38 aa b5 63 36 b4 92 cf 37
       -2.3519665e-06 3.6243717e-05 3.3931378e-06 2.4744637e-05
0000e0 6d e9 0c b7 63 f6 87 37 77 8c a7 38 cc 4f b3 b8
       -8.398999e-06 1.6207987e-05 7.989344e-05 -8.5502485e-05
0000f0 96 95 15 39 8a e2 66 38 af 46 38 b5 8e ae 90 38
       0.00014265472 5.5047254e-05 -6.86482e-07 6.8989684e-05
000100 8a 56 15 38 47 12 ac b4 70 44 87 ba 55 07 72 b8
       3.5604964e-05 -3.2050795e-07 -0.0010320079 -5.7704125e-05
000110 26 2a b4 ba d4 ea 22 ba 3c eb e5 39 22 da 00 ba
       -0.0013745471 -0.00062148017 0.00043853547 -0.0004915317
000120 1e b6 44 38 14 e8 a0 b8 20 a1 8f 39 c8 a0 f4 b9
       4.689965e-05 -7.6726225e-05 0.00027395133 -0.00046659098
000130 aa a5 6c b9 77 f6 31 3a ee 2a 45 38 a2 8b 10 b9
       -0.00022568429 0.000678874 4.700844e-05 -0.00013784927
000140 b4 77 09 3a 42 58 6a b9 1a 38 bd b8 68 b5 01 39
       0.00052439724 -0.00022348858 -9.022672e-05 0.00012369978
000150 a0 b9 ad b9 8e 11 bb 39 ff 8d 30 b8 1b e4 1b 39
       -0.00033135433 0.000356805 -4.2093914e-05 0.00014866928
000160 b8 81 a7 b9 56 fb b2 b8 f2 35 1d 39 e4 6e c9 38
       -0.0003194937 -8.5345164e-05 0.00014992783 9.605082e-05
000170 c1 0d 75 39 f1 f9 6c b9 40 61 39 39 75 44 56 39
       0.00023370144 -0.00022599824 0.00017679203 0.00020434133
000180 4e be d7 b8 87 10 27 3a e1 8f 4a b9 67 e6 1a 39
       -0.00010287446 0.0006373007 -0.0001931782 0.00014772416
000190 43 b3 47 b9 f0 85 e5 39 16 cd b5 39 e3 98 9e b8
       -0.00019044899 0.00043778075 0.0003467581 -7.5625045e-05
0001a0 25 e6 b7 b8 02 2f e3 b7 e9 c9 0c b9 51 a6 48 39
       -8.768988e-05 -2.7082398e-05 -0.00013426658 0.00019135444
0001b0 6c 6d 3c b8 22 eb 33 b8 fe e7 28 b9 b8 51 06 37
       -4.49246e-05 -4.289591e-05 -0.00016108152 8.006049e-06
0001c0 54 f9 e9 37 2b df ee 38 51 8a b4 b8 22 44 e9 b8
       2.7891867e-05 0.00011390293 -8.608832e-05 -0.000111229965
0001d0 90 3e 16 b9 1f ed 90 39 90 f2 90 38 69 ed 75 39
       -0.00014328421 0.0002764249 6.911636e-05 0.00023453463
0001e0 db 7e 5b b9 c6 9a 9f b8 69 66 38 39 d7 50 2d 39
       -0.00020932725 -7.6105396e-05 0.00017585758 0.00016528681
0001f0 42 1f 20 39 55 ff 06 b8 9b fd 0d 39 2a bf b8 38
       0.00015270434 -3.2185886e-05 0.00013541283 8.809411e-05
000200 0e 02 0b 39 ac 81 dc 38 1e cd 1e 38 8d bf 9f 38
       0.00013256838 0.00010514571 3.7861166e-05 7.61739e-05
000210 30 6c b3 39 8d 86 f9 b7 ab 79 ac b8 56 a6 c6 b8
       0.00034222146 -2.9745768e-05 -8.2242615e-05 -9.472358e-05
000220 e9 4e c6 b8 b7 f1 0d 39 9e 51 99 38 e6 77 af 38
       -9.456074e-05 0.00013536854 7.310811e-05 8.366983e-05
000230 9c 04 ee b8 b4 60 38 b6 9d fe 05 38 62 e3 7c b8
       -0.00011349583 -2.7474425e-06 3.1946798e-05 -6.029325e-05
000240 f4 0a ac b6 80 d9 9e b8 fa 31 26 39 7f 0a 7d b7
       -5.1272746e-06 -7.5745396e-05 0.00015849611 -1.5082419e-05
000250 e5 ad 5a b7 1e cd dc b8 34 8f 80 35 29 0f 1a 38
       -1.30343005e-05 -0.000105286235 9.578421e-07 3.673058e-05
000260 d0 eb c0 38 b6 a0 9f b8 3e 90 8b b8 68 04 e2 b8
       9.199197e-05 -7.6116456e-05 -6.654904e-05 -0.000107773405
000270 d0 2b 60 38 86 a1 e2 b7 76 37 3a 39 27 5b 43 b9
       5.3446565e-05 -2.7016515e-05 0.00017759003 -0.00018630606
000280 d2 6d aa b8 55 0c 50 b8 3b da 2d 38 7e 21 98 b6
       -8.126687e-05 -4.960255e-05 4.1449657e-05 -4.533852e-06
000290 00 26 76 38 c7 fe 80 37 79 73 08 38 98 bb 13 38
       5.868636e-05 1.5377429e-05 3.253247e-05 3.522224e-05
0002a0 48 34 4c 39 e9 45 50 38 03 51 36 39 23 41 13 b9
       0.00019474432 4.9656173e-05 0.00017387052 -0.00014043278
0002b0 60 f2 04 39 2b 32 f4 38 d6 3b 90 b8 7f 5b e0 39
       0.00012678793 0.00011644171 -6.8776004e-05 0.0004279278
0002c0 3c 46 32 b9 1a 85 17 39 36 2d dc b8 bc 47 90 39
       -0.00017001567 0.00014450066 -0.00010498839 0.00027519267
0002d0 9b 52 83 39 4e cb 45 b8 b3 5e 8d 38 cb b9 4a 39
       0.00025047813 -4.7157802e-05 6.741043e-05 0.00019333434
0002e0 9d 00 21 b8 2f e2 a3 38 07 01 d1 38 27 44 e8 b8
       -3.8385962e-05 7.814576e-05 9.966088e-05 -0.000110753164
0002f0 ca 72 73 39 18 6d d3 b8 b9 fb 33 39 10 3a 5f b6
       0.00023217048 -0.00010081584 0.00017164544 -3.3263386e-06
000300 ea ef 0a 39 37 c7 27 39 f2 ed 30 37 6c dc c8 38
       0.0001325008 0.00016000574 1.0545818e-05 9.5778e-05
000310 9d 06 2f 39 76 a5 9c 38 2a 86 a7 38 b2 f6 a9 b7
       0.00016691764 7.469479e-05 7.9881705e-05 -2.0261246e-05
000320 5d 4c d2 38 9d 50 74 b7 fe 15 07 b8 9f dc d6 b6
       0.00010027804 -1.4562303e-05 -3.220699e-05 -6.4033807e-06
000330 1f bf 42 39 f9 21 ed b8 27 9f e2 b6 2e 12 d6 b8
       0.0001857248 -0.000113073685 -6.7538526e-06 -0.000102077014
000340 7d f7 85 38 0c 54 5d 39 4a 3c ce b9 95 88 ce 39
       6.3880325e-05 0.00021107512 -0.000393363 0.00039393143
000350 58 01 62 39 96 80 2f b9 8c 4d 03 3a 03 48 05 b9
       0.0002155354 -0.00016737203 0.0005008809 -0.00012710695
000360 84 3c e8 38 64 86 aa b8 d9 77 c9 39 62 6f 77 39
       0.00011073894 -8.131264e-05 0.00038427 0.00023597249
000370 57 b5 82 b9 d3 e6 16 b7 34 12 11 39 9d 65 c4 38
       -0.0002493064 -8.99444e-06 0.00013835059 9.364935e-05
000380 c6 04 93 39 a7 61 4c b8 dc ed 81 37 1e c1 21 b8
       0.0002804158 -4.8728336e-05 1.548876e-05 -3.8565246e-05
000390 b5 51 48 b9 74 1e 9b 39 bf 64 93 38 57 35 d5 b8
       -0.00019103925 0.00029586593 7.028272e-05 -0.00010166567
0003a0 0c 29 04 39 cd 7f 0f 38 c8 27 8f b8 ef af 07 b9
       0.00012603792 3.421288e-05 -6.826181e-05 -0.00012940144
0003b0 bc 9e 2b 38 09 ad 92 b9 5d 4f 21 ba ab f9 a4 b8
       4.091741e-05 -0.0002797621 -0.00061534886 -7.866634e-05
0003c0 db ea cb b9 f4 a8 dc 39 72 7a 2e 39 b7 27 3d 39
       -0.00038894158 0.0004208755 0.00016639548 0.0001803924
0003d0 28 b2 00 ba 25 b4 b0 b9 11 72 c0 38 ae 70 0c 39
       -0.000490936 -0.00033703554 9.17652e-05 0.00013393417
0003e0 d9 6f 1d b9 09 bc f8 38 9f 7a 90 b9 1b 03 9e 39
       -0.00015014353 0.00011860586 -0.0002755718 0.00030138422
0003f0 20 44 e7 39 a6 d3 50 b8 32 d7 f3 b9 47 88 41 b9
       0.0004411051 -4.9788177e-05 -0.00046508905 -0.00018456682

exp_avg_sq f4 [32, 13]
000000 6d 06 aa 36 ff cd c6 37 97 12 bb 37 fe 97 6a 37
       5.067143e-06 2.3699364e-05 2.2300794e-05 1.3982875e-05
000010 80 76 4b 37 48 3f e5 37 2f 80 34 38 42 46 c8 37
       1.2127333e-05 2.7328395e-05 4.3034725e-05 2.3874574e-05
000020 d2 42 97 37 b4 a3 0f 38 f6 75 1c 38 80 35 4a 38
       1.8031718e-05 3.4246317e-05 3.7303158e-05 4.821038e-05
000030 2a 59 dc 36 dd 49 f0 37 c9 98 54 37 54 10 5f 38
       6.566891e-06 2.8644625e-05 1.2671758e-05 5.318255e-05
000040 33 ed 7d 38 8f e2 58 38 1d f4 96 37 b8 df b9 37
       6.054081e-05 5.1709412e-05 1.7995068e-05 2.2157896e-05
000050 70 f9 82 37 94 bd 80 37 4e 48 11 37 05 3c 96 37
       1.5613361e-05 1.5347068e-05 8.659508e-06 1.7909342e-05
000060 75 b4 97 37 4d dd 37 38 a3 77 6f 37 67 ff 19 37
       1.8084635e-05 4.3836702e-05 1.4273365e-05 9.178976e-06
000070 5d c4 2b 38 5d a7 46 38 8d 39 14 38 e3 67 5c 37
       4.0952455e-05 4.7362748e-05 3.5339548e-05 1.313721e-05
000080 b5 fc 51 37 59 39 4a 37 12 68 ce 36 b9 62 9e 36
       1.2516209e-05 1.20534905e-05 6.151394e-06 4.7202598e-06
000090 a3 d6 56 37 8c fe 53 37 40 49 ad 37 cb 9a aa 35
       1.2805368e-05 1.2635846e-05 2.0657317e-05 1.2711038e-06
0000a0 a1 5f 8a 35 52 9e d7 35 06 bf 0a 36 06 ef 9d 35
       1.0309633e-06 1.6064826e-06 2.0674793e-06 1.1766977e-06
0000b0 b4 a3 f0 35 17 83 27 36 e3 5c 89 35 36 6b a3 35
       1.7929037e-06 2.4961244e-06 1.0234329e-06 1.2175649e-06
0000c0 18 07 01 36 56 75 00 36 37 c6 4f 36 fe f9 25 36
       1.9226627e-06 1.9141785e-06 3.096078e-06 2.473243e-06
0000d0 44 5a d2 35 af 01 86 36 81 85 f7 35 4f ae 25 36
       1.567249e-06 3.993707e-06 1.8441789e-06 2.4688377e-06
0000e0 dd 03 ad 35 94 87 ca 36 d8 9a fb 36 14 35 5a 36
       1.2890629e-06 6.0358525e-06 7.498409e-06 3.2515427e-06
0000f0 99 8e 9a 36 45 84 14 36 c5 1a 70 36 8b e7 b9 36
       4.606158e-06 2.213071e-06 3.5778369e-06 5.540385e-06
000100 2c 3d 41 36 eb 1c 8a 38 49 da a9 38 b9 20 4d 38
       2.8794848e-06 6.585739e-05 8.099207e-05 4.8906284e-05
000110 c6 ae 03 39 c3 dc f7 38 b1 2a 80 38 fd 7b 29 38
       0.00012558242 0.00011818998 6.1114675e-05 4.0408213e-05
000120 f3 fb 14 39 05 c4 79 38 44 30 8e 38 aa 30 8a 38
       0.00014208238 5.9548784e-05 6.780078e-05 6.589417e-05
000130 62 0f af 38 96 d4 93 38 a6 e1 96 37 c2 44 93 37
       8.3475155e-05 7.0491034e-05 1.798647e-05 1.7555783e-05
000140 00 8e 39 38 f9 cf 19 38 55 73 32 38 71 76 79 37
       4.4239685e-05 3.6671732e-05 4.254592e-05 1.4869133e-05
000150 5f c4 29 37 54 a7 ca 37 32 9f 5f 37 2d 51 6f 37
       1.0118906e-05 2.4158195e-05 1.3328901e-05 1.426441e-05
000160 72 f6 94 37 e9 e8 78 37 7f 04 3a 37 0b 9a e3 36
       1.7757735e-05 1.48361805e-05 1.1087511e-05 6.78306e-06
000170 a2 32 fb 37 e0 40 2b 37 f7 46 69 37 a2 62 73 37
       2.994511e-05 1.0207499e-05 1.3904405e-05 1.4506893e-05
000180 23 0a b9 37 df 4c f8 37 3f 98 4d 38 a2 f6 be 37
       2.2058439e-05 2.95997e-05 4.90176e-05 2.2764612e-05
000190 06 ab d7 37 9f ac e5 37 d1 2f 26 38 87 fe 13 37
       2.5709636e-05 2.737931e-05 3.9622017e-05 8.821145e-06
0001a0 8a f5 b4 36 c4 90 54 36 3a b2 6f 37 94 53 6d 37
       5.3930025e-06 3.1674726e-06 1.4287007e-05 1.414576e-05
0001b0 05 3c 36 37 5e d6 be 36 2d 40 f7 36 ff f0 82 36
       1.086202e-05 5.687397e-06 7.3686447e-06 3.9023575e-06
0001c0 9c 52 51 36 4e fc e1 35 7a e8 89 36 aa 21 de 36
       3.1191512e-06 1.6837237e-06 4.109982e-06 6.6200346e-06
0001d0 34 c0 21 37 54 cd fc 37 70 c6 30 37 cd 79 fd 37
       9.641099e-06 3.0136354e-05 1.053662e-05 3.0216668e-05
0001e0 88 62 ee 37 4a 18 f9 37 37 53 79 37 49 14 d0 36
       2.8417693e-05 2.9694424e-05 1.48609315e-05 6.2012446e-06
0001f0 82 4b 5e 37 e0 c6 19 37 5c ab cf 37 e5 77 52 37
       1.3249812e-05 9.165815e-06 2.4756118e-05 1.25448905e-05
000200 ae e0 15 37 24 06 85 37 a5 ca 91 36 70 94 bb 36
       8.933404e-06 1.5857695e-05 4.3449277e-06 5.5903147e-06
000210 7b bb 2f 38 f5 61 20 38 b5 9d 51 38 83 06 5e 37
       4.1897856e-05 3.8238202e-05 4.997636e-05 1.3233747e-05
000220 76 cf 2c 37 6e 5d 2b 37 8c 3b 64 37 e0 f7 dd 36
       1.0300302e-05 1.0214148e-05 1.3603723e-05 6.6151697e-06
000230 d6 30 5b 37 f4 95 4f 37 08 f1 b4 36 21 c0 23 36
       1.3064788e-05 1.2373075e-05 5.3924778e-06 2.4400726e-06
000240 64 cf 00 36 88 78 e0 36 47 82 0d 37 36 9d cd 36
       1.9194204e-06 6.689752e-06 8.4345875e-06 6.127778e-06
000250 1e 6a 40 36 bc 3b 6a 36 2f 9d 0d 36 b2 a4 06 36
       2.8671998e-06 3.4903487e-06 2.110213e-06 2.0063421e-06
000260 e1 86 9a 35 5d ca 19 36 0e bd 51 36 71 52 92 36
       1.1513149e-06 2.2916568e-06 3.1253471e-06 4.3607365e-06
000270 26 49 0c 37 32 81 03 37 01 33 22 38 47 4d 09 38
       8.3616815e-06 7.838289e-06 3.867131e-05 3.2735315e-05
000280 83 e1 15 38 58 cd 82 37 04 94 92 37 17 5d 56 37
       3.5734392e-05 1.5592828e-05 1.7473481e-05 1.2777068e-05
000290 a7 e3 6f 37 ef 41 f9 36 15 fa 84 37 3e 79 72 37
       1.42985145e-05 7.428454e-06 1.585208e-05 1.4452553e-05
0002a0 91 74 a9 37 b5 78 a2 36 1d 29 7f 37 07 72 87 36
       2.020065e-05 4.8420284e-06 1.5208757e-05 4.036588e-06
0002b0 e4 5f 1b 37 41 0c 38 37 35 fd ab 37 a6 0a d0 37
       9.261046e-06 1.0970108e-05 2.0502697e-05 2.480049e-05
0002c0 86 fe c0 37 90 fb 73 37 bd 60 ef 36 b9 49 57 37
       2.3006705e-05 1.45425e-05 7.134017e-06 1.28321635e-05
0002d0 be d1 e3 37 07 9d 24 37 28 bf a9 36 46 5a 36 37
       2.7158178e-05 9.8117225e-06 5.058846e-06 1.0869064e-05
0002e0 65 04 a8 36 58 f7 0d 37 96 0b 84 36 ce 66 57 37
       5.0073018e-06 8.461844e-06 3.9352553e-06 1.2838935e-05
0002f0 e8 3b 8e 37 0d 10 55 37 07 e0 29 37 d0 aa 44 37
       1.6955615e-05 1.2699526e-05 1.0125345e-05 1.1722281e-05
000300 7c 45 67 37 a4 ad 9a 37 c4 46 d6 36 cb 6d 88 37
       1.3784851e-05 1.8439088e-05 6.385935e-06 1.626359e-05
000310 d6 d7 75 37 f7 fc c7 36 34 31 36 37 d8 91 5b 37
       1.4653391e-05 5.960111e-06 1.0859501e-05 1.3087374e-05
000320 b3 2d 3c 37 1e d6 37 37 5d b1 c7 37 c7 3e ce 37
       1.1216313e-05 1.0957503e-05 2.380524e-05 2.4586347e-05
000330 6b 5c a8 37 e3 3a 19 37 c7 10 92 37 5a db 0d 37
       2.0070196e-05 9.133221e-06 1.7412369e-05 8.455327e-06
000340 12 0f f4 37 65 4f 5e 38 b3 a1 22 38 92 c4 26 38
       2.9094084e-05 5.3002866e-05 3.8774404e-05 3.9760555e-05
000350 60 6c 20 38 d9 75 07 38 29 bc 23 38 02 52 b3 38
       3.8247905e-05 3.2296262e-05 3.9037466e-05 8.55066e-05
000360 d0 f1 3c 38 f7 ca 69 38 3d df 3d 38 2b dc 71 38
       4.50479e-05 5.5740555e-05 4.526902e-05 5.7663925e-05
000370 c8 69 c3 37 73 6d 99 36 5b 3c 91 36 87 fb 45 37
       2.329507e-05 4.572497e-06 4.328363e-06 1.1800678e-05
000380 82 f7 87 37 9c f3 05 37 8a 6a a8 36 f0 23 eb 36
       1.6208509e-05 7.9841375e-06 5.019193e-06 7.0077294e-06
000390 77 c5 bd 36 25 f9 c6 36 ef 60 40 36 59 66 83 36
       5.655627e-06 5.929864e-06 2.8666652e-06 3.916019e-06
0003a0 16 69 f6 36 2a 44 14 37 36 2d 5f 36 c1 b9 e4 36
       7.343605e-06 8.837358e-06 3.3255906e-06 6.816554e-06
0003b0 9b b7 95 36 cc f5 c7 36 bd 22 b9 36 70 8e 82 36
       4.4619205e-06 5.9592767e-06 5.5174737e-06 3.890884e-06
0003c0 0e 35 96 36 80 0c 1d 37 c1 80 62 37 a6 61 37 36
       4.4765247e-06 9.36084e-06 1.3500628e-05 2.7325964e-06
0003d0 05 70 66 36 3e 19 0d 37 cc fb 9d 36 3b 32 a4 36
       3.4337875e-06 8.410132e-06 4.7082776e-06 4.8934285e-06
0003e0 e0 b0 95 37 e9 b8 62 36 65 a8 2d 37 0b 4c 4e 37
       1.7844548e-05 3.3784256e-06 1.0350811e-05 1.2296262e-05
0003f0 47 4d 44 37 74 b6 00 37 c7 78 0d 38 2e 63 28 36
       1.1700503e-05 7.671875e-06 3.3729502e-05 2.509168e-06

exp_avg f4 [32]
000000 22 17 0d b9 cf 23 a8 b9 8e a6 c0 b9 17 f5 40 b9
       -0.00013455426 -0.00032070137 -0.00036745187 -0.0001840185
000010 01 bf f1 b8 fb f0 e9 b8 48 17 fd b7 1f be ff b8
       -0.00011527353 -0.00011155192 -3.0170791e-05 -0.0001219476
000020 7b b3 91 b9 fa ba f6 b8 b7 c5 c3 b8 d1 2f 41 b9
       -0.0002779028 -0.00011765021 -9.335152e-05 -0.00018423727
000030 43 24 d5 37 fe 1c e2 b8 06 af 62 b9 47 73 10 b9
       2.5408464e-05 -0.0001078192 -0.00021618241 -0.00013775854
000040 8b 12 e0 b9 69 41 dc b9 10 02 a6 38 ec 58 f3 b9
       -0.00042738425 -0.00042010404 7.915881e-05 -0.00046414824
000050 15 4c 92 b8 bc 1c 0a b9 63 ce 66 b9 9b 37 a5 b9
       -6.975994e-05 -0.0001317141 -0.00022011394 -0.00031512682
000060 87 bf bd b8 19 51 7a 37 88 19 a4 b9 dc 71 5f b9
       -9.047897e-05 1.4920043e-05 -0.0003129954 -0.00021309353
000070 77 d1 64 b9 0c 7b c4 b9 0f cd 5c b8 ef bb ae b9
       -0.00021821806 -0.0003747571 -5.2643063e-05 -0.00033327888

exp_avg_sq f4 [32]
000000 a0 30 df 37 80 1a e6 37 d2 de ad 37 2a e7 45 36
       2.6606314e-05 2.7430477e-05 2.0726966e-05 2.9489843e-06
000010 f2 f4 f4 36 64 67 f6 38 52 4a d0 37 42 be c7 37
       7.300282e-06 0.00011749452 2.483014e-05 2.3811244e-05
000020 3a 45 2b 37 10 30 02 38 f6 80 86 37 ff 08 9f 36
       1.0208512e-05 3.1039177e-05 1.6034097e-05 4.7396165e-06
000030 8e 29 7d 37 a7 4e 4b 37 1c fe cf 37 50 fc bd 37
       1.508965e-05 1.2118056e-05 2.4794652e-05 2.2648048e-05
000040 5b c8 a4 38 12 fb 56 37 4f c8 15 37 b3 83 ad 37
       7.8574485e-05 1.2813851e-05 8.92773e-06 2.0684534e-05
000050 4f 9f ca 36 73 93 d1 36 ad 70 2c 38 55 eb 9d 37
       6.038615e-06 6.2458507e-06 4.1112933e-05 1.8825443e-05
000060 be 7b e1 37 60 5c 14 37 7b e6 c2 37 90 2b 88 37
       2.6879712e-05 8.842995e-06 2.3233928e-05 1.6232749e-05
000070 d9 2b ca 36 ce 94 0e 38 a2 54 b9 35 bd 34 a3 37
       6.0251737e-06 3.3994023e-05 1.3808205e-06 1.9455672e-05

exp_avg f4 [16, 32]
000000 b1 98 25 b9 83 fd 3f b9 9b 39 a2 b9 f8 49 8b b9
       -0.00015792508 -0.0001830962 -0.00030941967 -0.00026567257
000010 7e 01 be b8 e4 52 8c 39 a1 fc 3f 39 f6 c2 a9 b9
       -9.060184e-05 0.0002676464 0.00018309291 -0.0003237945
000020 30 54 b3 b9 24 d7 53 38 38 1c c0 b7 06 c3 8a b9
       -0.00034204265 5.0506686e-05 -2.2901324e-05 -0.00026466715
000030 15 20 2d b8 d4 64 c2 b8 3c 2a 1b b9 36 3c ec b8
       -4.1276293e-05 -9.2694216e-05 -0.00014797685 -0.00011264572
000040 b4 b9 7d b9 43 7c 09 b9 d3 5a 11 39 ed 5d f4 38
       -0.0002419714 -0.00013111629 0.00013862112 0.00011652322
000050 7b d8 a0 b8 ea ae fe b8 a2 22 69 b9 7b a4 5f b9
       -7.669717e-05 -0.00012144244 -0.00022233513 -0.00021328211
000060 e2 8e 6a b9 44 d2 00 38 91 de 86 b9 5f 71 66 b9
       -0.00022369207 3.0713403e-05 -0.00025724297 -0.00021976743
000070 74 6d 57 39 ef 5c 1b 39 8c ec d8 b7 a6 ce 8c b9
       0.00020544772 0.00014816572 -2.5859357e-05 -0.00026856846
000080 86 f2 15 39 a0 44 b1 38 92 5e 29 39 7e 6e f0 38
       0.00014300094 8.4528e-05 0.00016152326 0.000114646726
000090 1b 8a 44 38 b5 ad bc b9 cb 23 90 b9 2f 43 ab 39
       4.6858662e-05 -0.00035987576 -0.00027492488 0.00032665717
0000a0 e6 0c 04 39 96 fd 0c b9 1f bc b9 b7 41 ba fd 38
       0.00012593306 -0.00013445909 -2.214132e-05 0.000120986726
0000b0 63 83 92 b7 f5 85 a2 38 a2 b2 e6 38 01 7c 0c b8
       -1.7465738e-05 7.7497134e-05 0.000110005276 -3.349409e-05
0000c0 f4 86 23 39 3e 88 c6 b7 4a e5 85 b9 28 34 6f b9
       0.00015595165 -2.3666882e-05 -0.0002553857 -0.00022812246
0000d0 0f c8 94 b7 1c c3 f1 38 81 c6 3b 39 c6 64 e2 38
       -1.7736134e-05 0.000115281175 0.00017907658 0.0001079529
0000e0 72 0f 66 39 d7 be cf b8 d8 ae fd 38 e9 02 a8 38
       0.00021940263 -9.906076e-05 0.00012096547 8.011406e-05
0000f0 59 b8 93 b9 e0 78 8a b9 ac 37 02 b8 16 86 0d 39
       -0.00028175375 -0.0002641147 -3.1046264e-05 0.00013496759
000100 37 af c3 b9 18 1d 30 b6 4a d0 83 1d b2 25 ce 00
       -0.00037323844 -2.6242978e-06 3.4890777e-21 1.8931635e-38
000110 74 d6 cb b9 d3 6f aa 39 20 d2 5c 39 64 28 4a ba
       -0.00038878957 0.00032508242 0.00021059113 -0.0007711707
000120 8e 68 2f 37 5d 9a 9a 38 7c eb e2 b8 d4 5c 27 b5
       1.0455156e-05 7.372045e-05 -0.00010820382 -6.234743e-07
000130 78 91 10 b9 b0 df 81 b9 a1 d6 e1 b9 4a c5 ad 38
       -0.00013787101 -0.00024771458 -0.00043075255 8.286031e-05
000140 84 04 ad b9 35 1b 5c 38 25 2e 6a 39 19 ce c9 39
       -0.00033000496 5.2477426e-05 0.00022333169 0.00038491262
000150 52 eb 13 b5 e2 d1 7f b9 be 8f dc b9 9b ca 8c b6
       -5.5104204e-07 -0.00024396883 -0.00042068766 -4.1959115e-06
000160 23 76 e2 b9 86 f9 ee b7 f3 02 a2 b5 1f 1c 3b 07
       -0.00043194098 -2.8488004e-05 -1.2070799e-06 1.407658e-34
000170 05 02 94 39 2b ac 8f 39 7c 8a 59 b9 a1 d0 e2 b6
       0.00028230264 0.0002740336 -0.00020746322 -6.7596125e-06
000180 fa c1 99 36 7a 93 e3 37 be 04 7f 38 ac 2a 4f 38
       4.582337e-06 2.7129183e-05 6.0801154e-05 4.9392387e-05
000190 af e7 d2 b7 80 c9 e5 b8 a0 b3 ed b8 1f 97 ee 37
       -2.5141837e-05 -0.00010957103 -0.000113344984 2.8442182e-05
0001a0 86 1c 3f 38 4a 3a 94 b8 7c 90 26 b8 3c a7 ae 37
       4.5564513e-05 -7.068047e-05 -3.9712046e-05 2.0820291e-05
0001b0 ec a3 1f b8 8f be 74 b6 64 6d 58 b7 d1 bb 2f b7
       -3.806122e-05 -3.6469753e-06 -1.2900073e-05 -1.0474542e-05
0001c0 76 c7 6a 36 a1 ed 55 37 16 72 fa b7 35 d7 40 b8
       3.4984819e-06 1.2751117e-05 -2.9855448e-05 -4.5976794e-05
0001d0 51 87 3a b8 5b f4 d6 36 fd 70 38 37 20 41 1d 38
       -4.447188e-05 6.4061437e-06 1.0993562e-05 3.749237e-05
0001e0 9f 2a c8 37 6c 5c 06 b8 37 1a 6e 38 f8 93 0e 37
       2.3861705e-05 -3.2034164e-05 5.6768036e-05 8.498311e-06
0001f0 24 8c ad b8 d7 9c 14 b8 bf e9 08 b8 b8 35 21 38
       -8.275386e-05 -3.543202e-05 -3.264262e-05 3.843542e-05
000200 0b 66 19 37 91 7f 9d 38 0f 41 32 39 7f 8a fc 38
       9.143269e-06 7.5101045e-05 0.00016999639 0.00012042093
000210 78 3f 37 b8 a7 6d 4c b9 3d 13 28 b9 cf 86 5d 38
       -4.368971e-05 -0.00019495805 -0.00016028895 5.2816056e-05
000220 b3 2d 0b 39 69 c7 a0 b8 f9 a0 e1 b7 4c f8 00 39
       0.00013273097 -7.6665376e-05 -2.6897049e-05 0.00012299529
000230 bc 49 d1 b7 12 51 bb b6 51 eb b3 b7 5c d2 97 38
       -2.4949077e-05 -5.582472e-06 -2.144804e-05 7.2394236e-05
000240 1f 57 8d 38 0e 9a 60 38 c2 f9 68 b8 61 4d 6b b8
       6.7396315e-05 5.3549236e-05 -5.5545715e-05 -5.610043e-05
000250 10 b6 f2 b7 53 bf 52 37 41 70 af 37 68 86 cf 38
       -2.8933428e-05 1.25615215e-05 2.0913898e-05 9.895564e-05
000260 5f 65 38 38 bb 05 70 b8 c1 eb 0b 39 f4 27 ac 38
       4.3963428e-05 -5.7225796e-05 0.00013343898 8.209041e-05
000270 e3 78 1a b9 2f 7d 88 b8 32 c9 71 b8 92 56 00 39
       -0.00014731618 -6.5083026e-05 -5.7646255e-05 0.00012239281
000280 f4 a5 c9 38 52 75 ca 38 eb f9 3d 39 3a c0 0d 39
       9.615338e-05 9.653963e-05 0.00018117546 0.00013518418
000290 85 e1 80 37 11 29 9e b9 e2 48 74 b9 c5 67 73 39
       1.5363805e-05 -0.00030166705 -0.00023296804 0.00023212943
0002a0 54 0f 1e 39 1f 90 ea b8 f5 b5 ca b7 95 51 13 39
       0.00015073764 -0.00011184834 -2.4165007e-05 0.00014049404
0002b0 88 e9 a9 b7 28 19 4c 38 0e 2d 86 38 b9 9e 66 37
       -2.0255116e-05 4.866082e-05 6.39801e-05 1.3746024e-05
0002c0 da d6 06 39 cb 00 87 37 c5 36 3b b9 ac 32 2a b9
       0.00012859274 1.6093623e-05 -0.00017854113 -0.0001623134
0002d0 be d9 b9 b6 8a 46 a6 38 2f c8 02 39 fb ef fa 38
       -5.538778e-06 7.928636e-05 0.0001247234 0.00011965629
0002e0 97 fd 26 39 b1 dd b2 b8 7a 06 12 39 a6 89 cb 38
       0.00015925463 -8.528995e-05 0.00013926058 9.705433e-05
0002f0 0f 66 74 b9 2a 75 48 b9 fd 05 2b b8 a5 6b 1d 39
       -0.00023307673 -0.00019117133 -4.0775154e-05 0.00015012787
000300 ba be 39 39 e7 c7 03 b8 5f e5 f5 b7 84 ec 6a b8
       0.00017714026 -3.1419007e-05 -2.9313085e-05 -5.601022e-05
000310 53 83 84 38 26 80 e7 b9 6b ad b3 b9 8b 8d ee 39
       6.3187115e-05 -0.0004415523 -0.00034270747 0.00045500355
000320 87 db af b8 f1 4a 30 b9 34 cb 2c b8 c3 b7 5a b8
       -8.3855404e-05 -0.00016812586 -4.1197243e-05 -5.214639e-05
000330 87 9b 25 b8 62 a6 b2 38 77 12 3a 39 28 21 75 b9
       -3.948391e-05 8.5186926e-05 0.00017745221 -0.00023377372
000340 5d d9 cc 38 4a f1 5b b9 1e 47 f7 b9 5a 6c d9 b9
       9.767965e-05 -0.00020975355 -0.00047164498 -0.00041470194
000350 f6 a8 ac b8 4a 4c 08 39 2a 1a 6a 39 3c 43 b5 b7
       -8.2330705e-05 0.0001299839 0.00022325726 -2.160819e-05
000360 5d f3 8d 39 40 a6 13 b9 54 86 49 b8 a8 fd 7e b8
       0.00027074935 -0.00014080945 -4.8047237e-05 -6.0794555e-05
000370 b2 28 bc b9 23 dc ed b9 41 77 60 b8 70 c5 10 b8
       -0.00035888475 -0.00045368177 -5.3516826e-05 -3.4516153e-05
000380 a4 af 1a 36 d6 41 02 b9 14 fb 58 b9 65 cc 39 b9
       2.3050025e-06 -0.00012422292 -0.00020692899 -0.00017719118
000390 50 75 48 37 44 f1 79 38 e0 0b 18 38 04 46 49 37
       1.1948243e-05 5.9590922e-05 3.6250683e-05 1.1996835e-05
0003a0 68 8b 75 b9 0a c4 a8 37 23 9c 37 35 6f 76 43 b9
       -0.00023416954 2.0118448e-05 6.840002e-07 -0.00018640769
0003b0 27 68 ef b4 8b 97 34 b7 f8 0b d5 37 a7 c2 f7 b8
       -4.4593e-07 -1.076412e-05 2.5397152e-05 -0.000118141346
0003c0 bf 7a d4 b8 66 8f 11 b9 b4 e2 4e b8 0f 54 93 b8
       -0.00010131811 -0.00013881698 -4.932536e-05 -7.025163e-05
0003d0 a3 f6 88 b8 e4 ae 0b b7 a2 7c 0a b8 87 76 13 b9
       -6.530925e-05 -8.3257655e-06 -3.3017837e-05 -0.00014063167
0003e0 eb 9a 6b b7 cc 4b 1e 37 3b 27 42 b9 3f aa 24 b9
       -1.4043161e-05 9.435182e-06 -0.00018515896 -0.0001570368
0003f0 ac 2b 17 38 df 9d d6 b7 a9 d7 f2 34 12 6a 43 b9
       3.6041878e-05 -2.5584302e-05 4.5232926e-07 -0.00018636163

exp_avg_sq f4 [16, 32]
000000 1c b9 a4 37 c6 bd 0d 38 8c eb 3e 38 0c 8b ea 37
       1.9636522e-05 3.379376e-05 4.55189e-05 2.7959723e-05
000010 f9 2b db 37 72 b2 e6 37 e4 ac e4 37 d2 dc bc 37
       2.612731e-05 2.7501232e-05 2.7260226e-05 2.2514174e-05
000020 28 53 66 38 b0 59 a4 37 23 ee 64 37 42 bc c2 38
       5.491372e-05 1.9592087e-05 1.36453045e-05 9.2857066e-05
000030 85 85 96 37 21 de 2c 37 71 c1 2f 37 30 79 0f 38
       1.7943568e-05 1.0303717e-05 1.0475852e-05 3.420672e-05
000040 b5 66 66 38 f4 96 50 37 31 cf fd 37 54 3a b7 36
       5.4931927e-05 1.2432913e-05 3.0256431e-05 5.4606153e-06
000050 72 70 0d 38 ef 58 0c 37 d8 9c 92 37 c1 2d 1b 38
       3.3721743e-05 8.365357e-06 1.7477592e-05 3.699749e-05
000060 cd 90 0f 37 a4 d3 00 37 d8 ac 27 38 ff 20 5e 38
       8.557178e-06 7.678671e-06 3.9976876e-05 5.2959655e-05
000070 26 b7 83 36 ec cf 2d 37 9e ad bc 37 5b 1f b5 38
       3.9254255e-06 1.0360014e-05 2.2492193e-05 8.636593e-05
000080 e0 b1 a8 37 32 77 96 36 98 88 f4 36 a3 3e ba 36
       2.010999e-05 4.4842245e-06 7.2876683e-06 5.550524e-06
000090 93 b1 e8 37 be 41 d4 38 5c ee 4e 38 e3 49 88 37
       2.7739245e-05 0.00010121193 4.9336217e-05 1.624687e-05
0000a0 b0 b8 9c 37 a4 fb cf 37 7f 10 7c 37 01 ef 99 37
       1.8682651e-05 2.4793502e-05 1.5024211e-05 1.8350316e-05
0000b0 eb a8 99 37 36 34 b1 36 38 99 cd 37 1b 4a c2 37
       1.831768e-05 5.281089e-06 2.4509252e-05 2.316111e-05
0000c0 83 1b 7d 37 ab 4d 01 37 d5 92 d1 37 c6 9d c7 36
       1.5086381e-05 7.707083e-06 2.4983116e-05 5.9490294e-06
0000d0 5f 5f a6 37 a1 15 43 36 0a b8 30 37 b8 4f 86 36
       1.9833153e-05 2.9069854e-06 1.0533267e-05 4.0027917e-06
0000e0 27 7a b5 36 13 d9 58 37 e6 4b b0 36 9f f5 bf 37
       5.4084408e-06 1.2925145e-05 5.2540445e-06 2.288335e-05
0000f0 87 03 5d 37 4e d3 c6 37 1d 6f e4 37 33 b3 25 37
       1.3173448e-05 2.3701836e-05 2.723146e-05 9.8764895e-06
000100 ac 47 bc 38 79 c9 56 35 fe 55 ef 35 43 d9 27 35
       8.9778885e-05 8.0014394e-07 1.7831915e-06 6.2528505e-07
000110 5e aa e0 38 85 3d d6 37 6d 1d 97 38 29 f2 07 39
       0.00010712886 2.5539435e-05 7.205722e-05 0.00012964815
000120 de e6 64 35 0f b8 91 36 28 26 18 38 d1 06 84 36
       8.5272575e-07 4.342764e-06 3.627516e-05 3.9347e-06
000130 3f 08 d4 37 e8 20 49 38 51 89 6a 38 a5 c0 58 37
       2.527621e-05 4.795278e-05 5.5917833e-05 1.2919457e-05
000140 6c ca d6 38 d9 61 ec 35 ea 33 1f 37 11 2d 77 37
       0.00010242019 1.7611848e-06 9.489226e-06 1.473284e-05
000150 84 47 9c 35 5f 73 9a 37 cc 22 98 38 60 f1 ac 35
       1.164372e-06 1.8411954e-05 7.254406e-05 1.2885248e-06
000160 f8 b5 8a 38 ad 2e b5 37 e7 49 12 36 51 83 00 35
       6.614247e-05 2.1598617e-05 2.1798712e-06 4.7874806e-07
000170 59 91 21 37 bb d3 05 37 3e 3a bd 38 fb f2 f5 35
       9.630189e-06 7.976715e-06 9.023071e-05 1.8324639e-06
000180 0b ec 9e 34 5a d5 35 34 ff d8 73 34 e7 9f d0 34
       2.9601537e-07 1.6934555e-07 2.2710081e-07 3.8859363e-07
000190 cc 57 f9 34 fc 64 7f 35 6d 35 35 35 c2 20 f7 34
       4.6443745e-07 9.5141854e-07 6.75055e-07 4.603117e-07
0001a0 62 b9 41 35 bc 65 cd 34 91 6b 97 34 3e f9 08 35
       7.216787e-07 3.8258247e-07 2.8204207e-07 5.1026643e-07
0001b0 e6 62 e2 34 25 2e 1b 34 02 ab d5 34 84 c4 28 35
       4.2167738e-07 1.4452287e-07 3.9798766e-07 6.2870845e-07
0001c0 14 73 dc 34 21 07 c8 34 54 02 67 35 53 94 c5 33
       4.1061924e-07 3.725809e-07 8.6057594e-07 9.2005074e-08
0001d0 a2 06 2d 35 43 7d 33 33 3e 6c 75 34 25 98 12 34
       6.4457174e-07 4.179061e-08 2.2856781e-07 1.365266e-07
0001e0 97 23 2f 34 b4 56 5a 34 7c fe 55 34 9a fa 48 35
       1.6311093e-07 2.0334375e-07 1.9929752e-07 7.487048e-07
0001f0 34 46 14 34 dc 2d 08 35 56 95 b4 34 1e a1 8c 34
       1.3809114e-07 5.073068e-07 3.363627e-07 2.619426e-07
000200 fa 71 8b 37 22 c4 a6 36 2c 04 28 37 f2 60 f1 36
       1.6623166e-05 4.9700184e-06 1.0014552e-05 7.1936456e-06
000210 e1 8b 7c 37 d2 31 09 38 30 af 2a 38 37 b7 6c 37
       1.5052939e-05 3.2709744e-05 4.0694315e-05 1.4109354e-05
000220 09 6c b0 37 69 79 7a 37 42 c6 56 37 df c6 ed 37
       2.1031143e-05 1.4929429e-05 1.28015545e-05 2.8345208e-05
000230 a7 91 61 37 7a fc 9b 36 51 c2 a1 37 6f 44 b9 37
       1.3444957e-05 4.648752e-06 1.9283181e-05 2.2085585e-05
000240 4b 42 83 37 77 33 af 36 d3 37 77 37 2f 05 b4 35
       1.5647287e-05 5.2213977e-06 1.4735345e-05 1.3412554e-06
000250 74 38 a1 37 51 3c 8e 36 c0 01 12 37 be fc c1 36
       1.9218984e-05 4.2389515e-06 8.702686e-06 5.7812713e-06
000260 68 04 c6 36 07 d5 93 36 c5 3f fa 36 88 dc e0 37
       5.901373e-06 4.405741e-06 7.4580043e-06 2.6805574e-05
000270 30 4f 67 36 97 2d 05 37 ff f2 37 37 7e 48 58 37
       3.4467776e-06 7.9380325e-06 1.0964227e-05 1.2891482e-05
000280 a0 cf 94 37 d1 d8 28 37 cd 58 8f 37 81 59 34 37
       1.7739658e-05 1.0064062e-05 1.708828e-05 1.0749675e-05
000290 63 2f b0 37 19 38 8a 38 13 0b 42 38 15 53 5c 37
       2.1002901e-05 6.590802e-05 4.6263518e-05 1.3132366e-05
0002a0 33 0a c1 37 87 8a 9a 37 89 f7 61 37 0c fc 8c 38
       2.3012142e-05 1.8422737e-05 1.3468679e-05 6.7226676e-05
0002b0 40 45 7d 37 a2 58 a5 36 be 56 c0 37 fd 11 e4 37
       1.5096099e-05 4.9277014e-06 2.2928576e-05 2.7188094e-05
0002c0 44 08 9c 37 cd 31 d4 36 4d 26 a7 37 05 e0 6e 36
       1.8600498e-05 6.32389e-06 1.9925787e-05 3.559516e-06
0002d0 d9 75 a7 37 72 6c 5c 36 8a 62 14 37 7d d1 2b 37
       1.9962828e-05 3.2845678e-06 8.84443e-06 1.024117e-05
0002e0 a3 d0 a5 36 25 05 0e 37 8c 28 45 37 3c b1 ec 37
       4.9416717e-06 8.465057e-06 1.1751556e-05 2.8215924e-05
0002f0 af 4f 01 37 52 0a 7d 37 cc 35 b1 37 30 25 14 38
       7.707552e-06 1.5082378e-05 2.1125095e-05 3.5320583e-05
000300 15 f0 19 38 7e 06 db 36 89 e3 d0 36 76 24 09 37
       3.6701636e-05 6.5274644e-06 6.2253716e-06 8.174326e-06
000310 c8 0d 62 38 4f 81 09 39 1c 36 38 38 38 93 0d 38
       5.3895434e-05 0.0001311351 4.3919412e-05 3.3754128e-05
000320 f7 99 8f 37 5a 86 e9 37 3b 39 aa 37 6e 63 75 37
       1.7118624e-05 2.7838327e-05 2.029223e-05 1.4626288e-05
000330 2f 39 af 37 94 13 48 37 cb 84 ee 37 6c c1 0d 38
       2.0888254e-05 1.1925487e-05 2.8433647e-05 3.3797158e-05
000340 47 72 85 37 33 f8 5f 37 15 f6 0a 38 f9 ea 84 37
       1.590805e-05 1.3349624e-05 3.3130946e-05 1.5845044e-05
000350 60 fc 70 37 3c da 35 36 fe f0 9c 37 c5 e3 87 36
       1.4363875e-05 2.709813e-06 1.870887e-05 4.0498294e-06
000360 cd 6e 33 37 a5 d1 bf 37 6d 17 9c 36 af a8 66 37
       1.0695029e-05 2.2866598e-05 4.6518894e-06 1.3748343e-05
000370 25 cd be 37 4f b7 26 38 0b ef 57 38 ee 48 15 37
       2.2745293e-05 3.9748204e-05 5.148262e-05 8.898072e-06
000380 dc 73 a2 34 b8 99 82 36 b1 9c d9 36 58 af 83 36
       3.025915e-07 3.892197e-06 6.4853452e-06 3.924517e-06
000390 f3 0b fd 34 45 a4 1e 36 86 ed 5a 36 d7 2f dd 34
       4.7133616e-07 2.3639452e-06 3.2622788e-06 4.1199266e-07
0003a0 36 56 0b 37 cf 0a 30 36 ff 46 93 35 0d 19 1d 37
       8.305118e-06 2.6232335e-06 1.0973016e-06 9.363762e-06
0003b0 30 53 0a 36 73 54 6e 34 f0 47 c7 34 5b a3 a8 36
       2.0612024e-06 2.21962e-07 3.711898e-07 5.0258072e-06
0003c0 c4 83 76 36 65 66 1e 36 cf e7 5a 36 63 42 0e 35
       3.6733554e-06 2.3603436e-06 3.2619462e-06 5.299573e-07
0003d0 59 52 b1 36 c8 99 37 35 fb 96 04 35 cd 64 90 36
       5.2845976e-06 6.8396594e-07 4.939354e-07 4.303269e-06
0003e0 2e 16 19 33 89 62 32 34 8b 30 b1 36 e7 b9 0a 37
       3.564326e-08 1.6613389e-07 5.280662e-06 8.268725e-06
0003f0 3d 78 94 34 62 6a 95 35 bd 21 8a 34 a4 34 22 37
       2.7654633e-07 1.1132327e-06 2.572905e-07 9.668209e-06

exp_avg f4 [16]
000000 2c 1c 8f b9 d4 4f 5d 38 f1 ba 27 b9 cb 97 71 35
       -0.00027296075 5.276485e-05 -0.00015996002 9.0000384e-07
000010 dc f5 5c 38 8c 05 8c 38 73 ce 02 b9 1e 14 2d b9
       5.268106e-05 6.6767534e-05 -0.00012474674 -0.0001650606
000020 8b 4d a9 38 00 00 00 00 2a 50 28 b9 0c d3 1a 35
       8.0729915e-05 0.0 -0.00016051592 5.7676584e-07
000030 a1 e4 5b b9 2a 73 87 b9 27 bb 7f b8 0f b5 26 b9
       -0.00020970638 -0.0002583501 -6.0971037e-05 -0.00015898443

exp_avg_sq f4 [16]
000000 ad 75 ca 38 9d 0e 87 38 42 a7 d9 38 f0 69 9f 35
       9.6540294e-05 6.4400236e-05 0.000103785205 1.1877255e-06
000010 ab 0c 41 38 71 1c 74 38 d8 2e ed 38 32 b4 ea 36
       4.6026584e-05 5.820062e-05 0.00011309766 6.994721e-06
000020 51 d2 b2 37 00 00 00 00 fc 98 aa 38 7f 99 50 35
       2.131719e-05 0.0 8.134727e-05 7.7709404e-07
000030 19 06 08 38 0f 67 b8 38 0f 35 b7 37 2d 7c 82 37
       3.2430606e-05 8.793e-05 2.1840007e-05 1.5555031e-05
