homework1/lightning_logs/version_15/checkpoints/epoch=99-step=900.ckpt (torch, 22040 bytes, 18 tensors)

network.0.weight f4 [32, 13]
0	0xbe99967b	-0.2999762
1	0x3ea2cfd1	0.31799176
2	0xbdfb0539	-0.122568555
3	0x3e87e8c8	0.26544785
4	0x3d7a834e	0.06116038
5	0x3bf450f1	0.007455938
6	0x3da0cd00	0.07851601
7	0xbc87e8ba	-0.016590465
8	0xbea710c9	-0.32629994
9	0x3e9ff26e	0.31239647
10	0xbec15813	-0.37762508
11	0xbeba8af7	-0.36434147
12	0xbe94d45f	-0.29068276
13	0x3ebc6378	0.3679464
14	0x3cc56e24	0.02410037
15	0x3e8260a4	0.25464356
16	0xbc366773	-0.011133063
17	0xbe1c90e6	-0.1528965
18	0x3d98468b	0.0743533
19	0x3ee1189a	0.43964082
20	0xbea09038	-0.3136003
21	0x3e9f963e	0.31169313
22	0xbec04a82	-0.37556845
23	0x3eb5ef2c	0.35534036
24	0x3e0c9a55	0.13730748
25	0xbe0acca6	-0.1355463
26	0x3dfb1d8c	0.12261495
27	0x3e111d2a	0.14171281
28	0x3eaef87f	0.34173962
29	0x3cdeb519	0.027185963
30	0xbd9f22df	-0.07770323
31	0xbd3702a8	-0.044680268
32	0xbea33de7	-0.31883165
33	0xbe60c079	-0.21948422
34	0xbea98e4b	-0.33116373
35	0xbc9160c1	-0.017746331
36	0xbe3a865c	-0.18215317
37	0xbe8397f1	-0.2570186
38	0xbe76e37b	-0.24110214
39	0xbd08e0a4	-0.03341736
40	0xbe323a82	-0.17405131
41	0xbe9d074d	-0.30669633
42	0x3da143c1	0.07874251
43	0xbcbf479a	-0.023349572
44	0x3d44c705	0.048041362
45	0xbe538d6d	-0.20659418
46	0x3e76a29c	0.24085468
47	0x3e03e014	0.12878448
48	0xbeee67aa	-0.46563464
49	0xbe2700e9	-0.16308941
50	0xbbd35e40	-0.0064504445
51	0xbe6687a6	-0.22512683
52	0x3d81e3f1	0.063423045
53	0x3e560b05	0.20902641
54	0xbd2c647a	-0.04208801
55	0xbe219f28	-0.1578337
56	0x3e103448	0.14082444
57	0xbca51f34	-0.02015648
58	0xbe8a80ad	-0.27051297
59	0x3cae2e0e	0.021262195
60	0xbeb10c73	-0.3457981
61	0x3eab7b96	0.33492726
62	0xbd111c51	-0.035427395
63	0xbeb13701	-0.34612277
64	0x3b9440c0	0.0045243204
65	0xbe498f1f	-0.19683503
66	0xbd8b6533	-0.068064116
67	0xbe3dcaca	-0.18534389
68	0x3ea40fb6	0.32043236
69	0xbd34ad98	-0.044110864
70	0x3ba4d6f9	0.0050305096
71	0xbe8327ec	-0.25616395
72	0xbeb6c807	-0.35699484
73	0x3e84854d	0.2588295
74	0xbda73134	-0.081636816
75	0x3e4dbeaa	0.20092264
76	0x3e43e900	0.19131851
77	0xbe86e1f5	-0.26344267
78	0xbe334d46	-0.17509946
79	0x3ddde766	0.108351514
80	0xbe0b4677	-0.13601099
81	0x3e9f5eda	0.31127053
82	0x3dabbfdb	0.08386203
83	0xbe9339cd	-0.28755036
84	0x3df50415	0.11963669
85	0x3e2b245e	0.16713092
86	0x3ea136ff	0.3148727
87	0xbeb3d86a	-0.35126048
88	0x3e5c5c95	0.21519692
89	0x3dacac73	0.084313296
90	0xbedaaffd	-0.42712393
91	0xbd83b460	-0.06430888
92	0xbeee17f9	-0.46502665
93	0xbe140309	-0.14454283
94	0x3e4d167f	0.20028113
95	0x3e48e555	0.19618733
96	0xbe3a6eac	-0.1820628
97	0xbdb50476	-0.088387415
98	0x3d13f98b	0.036126655
99	0xbe88ec70	-0.26742887
100	0xbea333ca	-0.3187545
101	0x3ebda513	0.37040004
102	0x3ec07bde	0.37594503
103	0xbe54105f	-0.2070937
104	0x3e931576	0.2872731
105	0xbd6df779	-0.058097336
106	0x3e85cf40	0.26134682
107	0xbd5114a6	-0.051045083
108	0x3e07c4fb	0.13258736
109	0xbdde2977	-0.108477525
110	0xbebb913f	-0.3663425
111	0xbe3c638d	-0.1839735
112	0xbc57266c	-0.013131719
113	0x3e13dc3b	0.1443948
114	0xbeece8da	-0.46271402
115	0xbd2121ab	-0.03933875
116	0x3e255c44	0.16148478
117	0xbe66e627	-0.22548734
118	0x3e5bedff	0.21477507
119	0x3de8c9b4	0.11366597
120	0xbd1c044e	-0.038090043
121	0x3e25c62c	0.16188878
122	0xbdb1b976	-0.08677952
123	0xbed9c2da	-0.42531472
124	0xbda40f83	-0.08010771
125	0xbe0f6689	-0.14003958
126	0x3e994bf3	0.29940757
127	0xbe982cd9	-0.29721716
128	0xbe8d3016	-0.2757575
129	0xbcd631e8	-0.026146844
130	0x3ec24692	0.37944466
131	0x3c3bc8b4	0.011461426
132	0x3ec43318	0.3832023
133	0xbe65b224	-0.22431237
134	0xbdfe1d48	-0.12407929
135	0x3e31d5b0	0.17366672
136	0x3e9c7d0d	0.30564156
137	0xbd46274b	-0.048377316
138	0x3e1bac07	0.15202342
139	0xbe0f0c82	-0.13969615
140	0x3e61ee89	0.2206365
141	0x3e3424f0	0.17592216
142	0x3eaed9e2	0.34150606
143	0x3e5fa33d	0.21839614
144	0xbec3175d	-0.38103762
145	0xbe29f0a8	-0.1659571
146	0x3db93108	0.09042555
147	0xbeb249a0	-0.34821796
148	0x3e5f5299	0.21808852
149	0x3e5cf0c9	0.21576227
150	0x3a967f77	0.0011482079
151	0x3e615f43	0.22008996
152	0x3c9abb2e	0.018888082
153	0x3e85863f	0.26078984
154	0x3ec70bfb	0.38876328
155	0x3e79e0f0	0.24402213
156	0x3d9f9e1b	0.07793828
157	0xbca1e6d3	-0.019763386
158	0x3e822d45	0.25425163
159	0x3e195d34	0.1497696
160	0x3d86aaa8	0.06575519
161	0xbe19090a	-0.14944854
162	0xbec63c83	-0.38718042
163	0xbe32b070	-0.17450118
164	0xbda1fa5c	-0.079090804
165	0x3e9cd02f	0.3062758
166	0xbeb42c1b	-0.351899
167	0xbe2ae550	-0.16689038
168	0x3e624788	0.220976
169	0x3e331a5a	0.17490521
170	0x3db179b7	0.086657934
171	0x3c42771e	0.01186922
172	0x3e2ad3c9	0.16682352
173	0x3c34cab4	0.011034656
174	0xbd948095	-0.072510876
175	0xbee8261f	-0.45341584
176	0x3da1451c	0.0787451
177	0x3d9b2b34	0.075766
178	0x3e3a1b35	0.18174441
179	0xbe24a978	-0.16080272
180	0xbe9c245d	-0.30496493
181	0xbd93ed50	-0.07222998
182	0xbe8a1f0c	-0.26976812
183	0xbe992106	-0.29908007
184	0xbcfe8971	-0.031071397
185	0x3d48a34a	0.04898385
186	0x3dbe6eff	0.092985146
187	0x3df2aea0	0.11849713
188	0x3c7e4261	0.015518756
189	0xbe1315c5	-0.14363773
190	0xbd4f4149	-0.05059937
191	0xbda316bd	-0.07963321
192	0x3e850055	0.25976816
193	0xbd6e8831	-0.05823535
194	0xbee5169a	-0.44743806
195	0xbde23516	-0.110452816
196	0x3e2959ea	0.16538206
197	0x3eb214a8	0.34781384
198	0xbdc99f5c	-0.098448485
199	0x3e909db5	0.2824532
200	0x3cdeafab	0.027183374
201	0xbe4e7f1a	-0.20165673
202	0xbcb345a6	-0.021883797
203	0xbe670bce	-0.22563097
204	0x3ebc5b6f	0.36788508
205	0xbef90fa0	-0.48644733
206	0x3ce555af	0.027994959
207	0x3dd7271c	0.105055064
208	0x3ea9adb4	0.33140337
209	0xbdf2cc80	-0.118554115
210	0xbd9a7d0c	-0.07543382
211	0xbdbd1419	-0.09232349
212	0x3cb33d0a	0.021879692
213	0xbd6218f8	-0.055199593
214	0xbd9daff1	-0.07699574
215	0xbe511006	-0.20416269
216	0x3de1c714	0.11024299
217	0x3e11d9e9	0.14243282
218	0xbeb19076	-0.34680527
219	0x3e8f9198	0.28040767
220	0x3e133121	0.1437421
221	0xbe5bba05	-0.2145768
222	0x3e2a9f6e	0.1666238
223	0x3e5323a8	0.2061907
224	0x3e346cb7	0.17619596
225	0xbe98165b	-0.29704556
226	0x3d49895d	0.049203265
227	0xbea66ceb	-0.32504973
228	0x3e4fc389	0.20289434
229	0x3d517fec	0.051147386
230	0x3ec69231	0.3878341
231	0xbe514aff	-0.20438765
232	0xbe14f12e	-0.14545128
233	0xbda434b0	-0.08017862
234	0x3eb460f1	0.3523021
235	0x3e1d5d35	0.15367587
236	0x3c0d9b3c	0.008642968
237	0xbeb5a7fc	-0.35479724
238	0x3eaea726	0.341119
239	0x3e404af3	0.18778591
240	0x3e9f66c9	0.31133106
241	0xbd68d101	-0.056839947
242	0x3e827b80	0.25484848
243	0xbe68b32d	-0.227246
244	0x3e820223	0.25392255
245	0x3decd3b0	0.11563814
246	0xbd78c373	-0.06073327
247	0xbefbbc9b	-0.49167332
248	0xbe837766	-0.2567703
249	0x3bb0684c	0.005383527
250	0xbd4c75c6	-0.049917005
251	0xbe10be7b	-0.14135163
252	0xbde7a0ac	-0.113099426
253	0xbe4edcf1	-0.2020147
254	0xbdb84d65	-0.08999137
255	0x3eb82edb	0.35973248

network.0.bias f4 [32]
0	0x3e8aa564	0.27079308
1	0x3e8abadd	0.2709569
2	0x3e8a099e	0.26960462
3	0x3e09ebd9	0.13468875
4	0x3c9a06b6	0.018802028
5	0x3e27d614	0.16390258
6	0x3ecf8c5d	0.40536776
7	0x3e5b9175	0.21442206
8	0x3e8e05df	0.27738854
9	0xbddc2757	-0.10749691
10	0x3e88b9c8	0.2670424
11	0x3e38f003	0.18060307
12	0x3d7d4fab	0.061843555
13	0x3e4bb34f	0.1989262
14	0x3e4eabee	0.20182773
15	0x3dfce650	0.12348616
16	0x3e7fbc02	0.24974063
17	0x3e21cf2f	0.1580169
18	0x3e57d144	0.21075922
19	0xbdec628b	-0.11542233
20	0xbcc70a2d	-0.024296844
21	0x3c35d94a	0.011099169
22	0x3e97af05	0.29625717
23	0x3ea89291	0.3292432
24	0x3eefd5b6	0.46842736
25	0x3a2459d0	0.00062694866
26	0x3e7a1db2	0.2442539
27	0xbda5a7df	-0.080886595
28	0xbcfda71c	-0.030963473
29	0x3ea98d9c	0.33115852
30	0xbd8c72c9	-0.06857831
31	0x3d411498	0.04713878

network.2.weight f4 [16, 32]
0	0x3e1d6cce	0.15373537
1	0x3dcf281d	0.10115073
2	0x3e892e63	0.26793203
3	0xbdce6631	-0.10078085
4	0x3e251ca8	0.16124213
5	0xbe8db2e1	-0.27675536
6	0xbe94a02a	-0.29028445
7	0xbe2b2aaa	-0.16715494
8	0x3e933b09	0.28755978
9	0x3e32aa75	0.17447837
10	0x3ec68a96	0.38777608
11	0x3e2cef95	0.16888268
12	0x3dd6bd27	0.10485297
13	0xbae0fb0a	-0.0017164659
14	0xbe088645	-0.1333247
15	0x3db94fb7	0.090484075
16	0x3d55884c	0.052131936
17	0x3e05c53d	0.13063522
18	0x3e9916a2	0.2990008
19	0x3ca49ba6	0.02009375
20	0x3d76aed0	0.060225308
21	0xbd59f5fa	-0.053213097
22	0x3e981900	0.29706573
23	0xbd1231a6	-0.03569188
24	0xbe0613f4	-0.13093549
25	0xbe0376f3	-0.12838344
26	0x3e316096	0.17322001
27	0x3cc0819b	0.0234993
28	0x3ca7313e	0.020409223
29	0xbd9c9b46	-0.076468036
30	0xbe9bb323	-0.30410108
31	0x3e769f2f	0.24084161
32	0x3e42839b	0.18995516
33	0x3eace419	0.33767775
34	0x3d1b727a	0.03795097
35	0x3da4b735	0.080427565
36	0xbe63b179	-0.22235669
37	0x3eb5aa2a	0.35481387
38	0x3ea4115e	0.320445
39	0x3dbf288b	0.09333905
40	0xbddd5d79	-0.10808844
41	0xbdcdd8a6	-0.10051088
42	0x3c7411d4	0.014896829
43	0x3e8a3f33	0.27001342
44	0xbe969618	-0.29411387
45	0xbe14215d	-0.14465852
46	0x3ca71d28	0.020399645
47	0xbe5d4909	-0.21609892
48	0x3dcbe5f8	0.099559724
49	0x3dda6b05	0.106649436
50	0x3c8cbde2	0.017180387
51	0x3e8388d6	0.25690335
52	0x3e1f68aa	0.1556727
53	0x3e0924b9	0.13392915
54	0xbccabf41	-0.0247494
55	0x3e034093	0.12817602
56	0x3e36c780	0.1784954
57	0x3e71cded	0.2361371
58	0x3e86c2c2	0.26320463
59	0x3dd9d566	0.10636406
60	0xbe61fb6b	-0.22068565
61	0x3eba14db	0.36344036
62	0x3e35d312	0.17756298
63	0x3e9e872d	0.30962506
64	0x3db48748	0.08814865
65	0x3e9d0942	0.30671126
66	0xbc773b9d	-0.0150898965
67	0xbe54ba32	-0.20774153
68	0xbe2289fa	-0.15872946
69	0xbd3e90ee	-0.046524934
70	0xbdd245f0	-0.10267246
71	0x3daaad64	0.08333853
72	0x3e03214e	0.12805673
73	0xbe7cc66e	-0.2468507
74	0x3d95b92f	0.073107116
75	0x3e6a4ff0	0.22882056
76	0x3db45322	0.08804919
77	0xbd877820	-0.06614709
78	0x3d534afc	0.051585183
79	0x3dafe8af	0.08589303
80	0x3e7de005	0.24792488
81	0xbe25d6ca	-0.16195217
82	0x3e867ca2	0.26266962
83	0xbde04a7b	-0.10951706
84	0x3e9253bf	0.28579518
85	0xbe4042f6	-0.18775544
86	0x3e8de781	0.27715686
87	0xbc6fbd14	-0.014632482
88	0xbdfe1e67	-0.124081425
89	0xbd922dcd	-0.07137642
90	0x3e08449a	0.1330742
91	0xbe3eb9b3	-0.18625526
92	0x3cd4d073	0.025978303
93	0x3ddc0206	0.107425734
94	0xbea9c3f4	-0.33157313
95	0x3e074025	0.13208063
96	0xbbe3783d	-0.0069418238
97	0xbc86f780	-0.01647544
98	0x3d95ccc4	0.073144466
99	0x3e5b79b9	0.21433152
100	0xbd9dc6c2	-0.07703926
101	0x3ea60d9f	0.32432267
102	0x3e45d45d	0.19319291
103	0x3ea2aaed	0.3177103
104	0xbd8a7147	-0.06759887
105	0xbdca6df3	-0.098842524
106	0xbde79a81	-0.11308766
107	0xbbe15d03	-0.006877543
108	0xbe8e5305	-0.27797714
109	0x3d8e524b	0.0694929
110	0x3ea9647f	0.33084485
111	0xbe9e1d10	-0.30881548
112	0xbdcf068a	-0.10108669
113	0x3df36dae	0.11886154
114	0x3d1bbae9	0.03802005
115	0x3e8fb7a7	0.28069803
116	0xbd701e7d	-0.058622826
117	0x3ed2cd6d	0.41172352
118	0xbdaf402c	-0.08557162
119	0x3e8828ab	0.26593527
120	0x3db1a62b	0.08674272
121	0x3e66d429	0.2254187
122	0xbbcde74c	-0.0062836763
123	0x3e16d91f	0.14731263
124	0xbe50735e	-0.20356509
125	0x3ad09d30	0.0015915986
126	0x3de77551	0.11301673
127	0xbe438ce5	-0.19096716
128	0x3e372d2e	0.17888328
129	0x3e298f5e	0.16558596
130	0x3e790f19	0.24322166
131	0xbe4cee1b	-0.20012705
132	0x3dcb485a	0.09925909
133	0xbe8655e9	-0.2623742
134	0xbe529854	-0.20565921
135	0x3d6d0612	0.057867117
136	0x3ead544f	0.33853385
137	0x3e086f81	0.13323785
138	0x3e94072b	0.2891172
139	0xbd4397f3	-0.047752332
140	0x3ea76c2b	0.32699713
141	0x3bd9de62	0.0066488246
142	0xbd8e2070	-0.06939781
143	0x3e8ce857	0.2752101
144	0x3e727025	0.23675592
145	0x3e44ff21	0.19237949
146	0x3e0703a3	0.13184981
147	0xbe674501	-0.22584917
148	0x3e701259	0.23444499
149	0xbeb1a7b0	-0.34698248
150	0x3e0f937c	0.14021105
151	0x3ddc970c	0.107709974
152	0xbd48eec1	-0.04905582
153	0xbe318038	-0.17334068
154	0xbd4abffc	-0.049499497
155	0xbccce70d	-0.025012517
156	0x3cca200b	0.024673482
157	0xbe3091cc	-0.17243117
158	0xbda4409e	-0.08020137
159	0x3d8da95d	0.06917069
160	0x3e93cf84	0.2886926
161	0x3cfcceb3	0.03086028
162	0xb9e1d762	-0.00043075817
163	0x3eaaaf45	0.33336845
164	0xbdd4119e	-0.10354923
165	0x3f196bf1	0.5993033
166	0x3eaf4cf8	0.3423841
167	0x3e1e7320	0.15473604
168	0xbe9c830d	-0.30568734
169	0xbe25c35c	-0.16187805
170	0xbe1ccad9	-0.15311755
171	0xbda8b7c1	-0.08238173
172	0xbeae8f81	-0.3409386
173	0x3e032c60	0.12809896
174	0x3ea281a9	0.31739548
175	0xbe480e73	-0.19536762
176	0xbde94660	-0.11390376
177	0xbdbc0e4c	-0.091824144
178	0xbe55520e	-0.20832083
179	0x3e94c699	0.29057768
180	0x3dbd52ed	0.092443325
181	0x3f0bdd0f	0.54634184
182	0x3d0270a9	0.031845722
183	0x3eb52ae0	0.35384274
184	0x3ea08909	0.3135455
185	0x3e776ac2	0.24161819
186	0x3d802e83	0.062588714
187	0x3e374e5d	0.17900987
188	0xbe6c6cc2	-0.23088363
189	0x3d5a3551	0.053273503
190	0x3ed0dd07	0.4079363
191	0xbe44f78b	-0.19235055
192	0x3df8127b	0.121129
193	0xbd10a78c	-0.035316035
194	0x3d58da14	0.05294235
195	0x3e9abb1c	0.30220878
196	0x3eb149c3	0.34626588
197	0x3ebfab0d	0.3743519
198	0x3d3e6eb3	0.04649229
199	0x3e604bcf	0.21903919
200	0x3e5edcbf	0.21763895
201	0x3ebc2fa4	0.36755097
202	0xbe3b7abc	-0.18308538
203	0x3e2619eb	0.16220824
204	0x3d914f89	0.07095248
205	0x3df9be96	0.121945545
206	0x3e7c46bb	0.24636357
207	0x3e7cda68	0.2469269
208	0x3dbc2dd2	0.09188427
209	0x3e88400d	0.26611367
210	0x3ce7825c	0.028260402
211	0x3e61c9e6	0.22049674
212	0xbe42e337	-0.19031988
213	0x3e864028	0.26220822
214	0xbe6d1560	-0.23152685
215	0x3e8b811d	0.27246943
216	0x3de2bb44	0.11070874
217	0x3df53f67	0.11974984
218	0x3d63e615	0.055639345
219	0x3cb85a13	0.022503888
220	0x3e3b8bde	0.18315074
221	0x3db19914	0.086717755
222	0x3e1109c8	0.14163888
223	0xbe167bf1	-0.14695717
224	0xbbc1d1f5	-0.0059149214
225	0x3e36ab90	0.17838883
226	0xbcecf65b	-0.028926065
227	0xbe8858c5	-0.26630226
228	0x3e471532	0.19441679
229	0xbe8e186e	-0.27753013
230	0xbe1096fa	-0.14120093
231	0x3bda4270	0.006660752
232	0x3e42ce1f	0.19023941
233	0x3ec333ad	0.38125363
234	0x3d66732f	0.05626219
235	0x3e05c599	0.13063659
236	0x3dcf3878	0.101181924
237	0x3e7ba0d4	0.2457307
238	0xbe766f41	-0.24065877
239	0x3eb9a4fb	0.36258683
240	0x3e429a06	0.19004068
241	0x3e6799dd	0.22617288
242	0x3d901cc7	0.07036739
243	0xbdc7f6dc	-0.097638816
244	0x3de00483	0.109383605
245	0xbe9515dd	-0.29118243
246	0x3daac8e7	0.083391
247	0xbdcbf96a	-0.09959681
248	0xbe275372	-0.16340426
249	0xbe1e484a	-0.15457264
250	0x3e0dd846	0.13852033
251	0x3d991594	0.07474819
252	0x3e2e208f	0.17004608
253	0x3e84deaf	0.25951144
254	0xbec1de89	-0.37865093
255	0x3e61a121	0.22034122

network.2.bias f4 [16]
0	0x3e011ddf	0.12609051
1	0x3e6229f6	0.2208632
2	0x3d52a1f5	0.051423986
3	0x3e61e22c	0.22058934
4	0x3dd552ca	0.104161814
5	0xbdffbf19	-0.12487621
6	0xbbbe951c	-0.005816115
7	0x3e881680	0.26579666
8	0x3e09ca6d	0.13456126
9	0xba99ab4f	-0.0011724028
10	0x3d0b9833	0.034080695
11	0x3d80be66	0.062863156
12	0x3e113de1	0.14183761
13	0x3dad0fa6	0.0845025
14	0x3e876c14	0.26449645
15	0x3e52a41c	0.20570415

network.4.weight f4 [3, 16]
0	0x3edea34b	0.43483958
1	0xbdd3b389	-0.10336978
2	0x3ebf41f1	0.37354997
3	0xbee22d34	-0.44175112
4	0x3e2fa4a1	0.17152645
5	0xbeddc670	-0.43315458
6	0xbf073b18	-0.52824545
7	0x3ed8ecfd	0.42368308
8	0x3ee7bf37	0.45263073
9	0xbec9913d	-0.3936862
10	0xbe76782f	-0.24069284
11	0x3e76c7fe	0.24099728
12	0xbe026473	-0.12733631
13	0xbe78e29b	-0.24305193
14	0x3e8152ee	0.25258583
15	0xbdb84b9a	-0.08998795
16	0xbebf84a4	-0.37405884
17	0x3ddbe739	0.107374616
18	0xbedaa913	-0.42707118
19	0x3e8920c6	0.26782817
20	0xbec20c12	-0.37899834
21	0x3ee7a326	0.4524166
22	0x3eabe0d5	0.3356997
23	0xbec05c02	-0.37570196
24	0xbe21abcd	-0.15788193
25	0xbeab3b6d	-0.33443776
26	0xbe4db19c	-0.20087284
27	0x3ebe833d	0.37209502
28	0xbe3fc9b8	-0.18729293
29	0x3f0e1c51	0.5551196
30	0xbeb93248	-0.36171174
31	0x3ece6daf	0.40318057
32	0x3e80233e	0.25026888
33	0xbed69f91	-0.41918615
34	0xbea7f0e4	-0.32800972
35	0xbeb31c1e	-0.3498239
36	0x3e8f4c51	0.27987912
37	0xbe32acfe	-0.17448804
38	0x3e63eed0	0.22259068
39	0x3e97941a	0.2960518
40	0x3d3ffddb	0.046872955
41	0x3e01add1	0.12663962
42	0x3eb30946	0.34968013
43	0xbee67386	-0.45010012
44	0x3e9fa5b3	0.31181106
45	0xbf01a4b5	-0.5064195
46	0xbe8b3b09	-0.27193478
47	0x3dd905eb	0.10596832

network.4.bias f4 [3]
0	0xbcbd6aed	-0.023122275
1	0x3ce2d24f	0.027688174
2	0xbe1a1ba0	-0.150496

exp_avg f4 [32, 13]
0	0xb708bfbc	-8.150873e-06
1	0xb7d94acb	-2.5903244e-05
2	0xb6a04423	-4.7763037e-06
3	0xb69a17e7	-4.5923402e-06
4	0xb7d9d345	-2.5966796e-05
5	0x38881a96	6.4899374e-05
6	0x389f2298	7.5881544e-05
7	0xb8a41c31	-7.8253805e-05
8	0x38fb9b9b	0.000119975964
9	0x3807c044	3.236557e-05
10	0x38410c79	4.6026402e-05
11	0x38d8c4c1	0.00010336331
12	0x3832c9c3	4.2626412e-05
13	0xb88dae31	-6.7558496e-05
14	0xb7997c11	-1.8296794e-05
15	0xb918846d	-0.00014545182
16	0x38cd29bb	9.782935e-05
17	0xb8bd73ab	-9.033767e-05
18	0xb8b80f66	-8.776672e-05
19	0xb91e334d	-0.00015087165
20	0x386968c3	5.5649096e-05
21	0x366416e5	3.3987974e-06
22	0x38fd07ae	0.000120654106
23	0xb8beb763	-9.0940644e-05
24	0xb8fdd217	-0.000121031124
25	0xb9120b49	-0.00013927849
26	0x37d870da	2.5801757e-05
27	0xb735f9e1	-1.084662e-05
28	0xb8ab66e9	-8.173084e-05
29	0x36af6d18	5.2281066e-06
30	0xb7476b07	-1.1886244e-05
31	0xb6863ab9	-4.0003474e-06
32	0x38dc10d3	0.00010493551
33	0x38fa2ca4	0.00011929244
34	0xb71de6c5	-9.411659e-06
35	0xb8bc96bd	-8.992616e-05
36	0x38c721e0	9.495369e-05
37	0x38256068	3.942885e-05
38	0xb74876e9	-1.1948615e-05
39	0xb8062f6d	-3.199226e-05
40	0xb89aaae7	-7.375125e-05
41	0xb8e8181b	-0.00011067112
42	0xb982c3b0	-0.0002494133
43	0xb8f88862	-0.00011850965
44	0x38c4d19b	9.38505e-05
45	0x38d9d7fd	0.00010387597
46	0xba06d533	-0.00051434635
47	0x3938c1a2	0.00017619741
48	0x391b3400	0.00014801323
49	0x38625e07	5.397017e-05
50	0x3926f11a	0.00015920811
51	0x39873103	0.00025785723
52	0x382341e4	3.8923594e-05
53	0xb7bd2598	-2.2548062e-05
54	0xb88078c9	-6.1260136e-05
55	0x383e583b	4.53817e-05
56	0x380a0e6c	3.2915195e-05
57	0xb700125f	-7.633672e-06
58	0x39627106	0.00021595144
59	0x395591ea	0.0002036762
60	0x3705d3f6	7.976769e-06
61	0xb942e160	-0.0001858524
62	0x39404392	0.00018335719
63	0x38c064c1	9.17404e-05
64	0xb71b0817	-9.2406035e-06
65	0x39343c4a	0.00017188597
66	0xb832549c	-4.2517306e-05
67	0x39e93682	0.00044481835
68	0xb7a288ce	-1.937561e-05
69	0x3909413b	0.00013089638
70	0x381cc840	3.7379796e-05
71	0x38aef3f8	8.342409e-05
72	0x3933678d	0.00017109346
73	0xb869a118	-5.570156e-05
74	0xb73c1095	-1.1209534e-05
75	0x38338351	4.2799224e-05
76	0x380ece98	3.4047844e-05
77	0x38796d97	5.946829e-05
78	0x38dc6957	0.000105100386
79	0xb94d12f2	-0.00019557381
80	0x39f82c66	0.00047335326
81	0xb92efae9	-0.00016687404
82	0x390af9ae	0.00013253718
83	0x39aec022	0.00033331016
84	0xb947e1a8	-0.00019062182
85	0x384c2aee	4.867737e-05
86	0xb9320090	-0.00016975612
87	0x38b6235d	8.685023e-05
88	0xb818f823	-3.647072e-05
89	0x38a82e98	8.019543e-05
90	0x3927b4df	0.00015993741
91	0x37a1d0da	1.928995e-05
92	0x393cbd76	0.00017999657
93	0x39284214	0.00016046345
94	0x38c23463	9.260399e-05
95	0xb8a9f7bb	-8.1046914e-05
96	0xb829e6ad	-4.0507573e-05
97	0x38e1bbb5	0.00010763799
98	0xb9320326	-0.00016976576
99	0x39805bc0	0.00024482422
100	0x38c52cac	9.402013e-05
101	0xb7c4d46a	-2.3463934e-05
102	0x390b9bf6	0.00013314173
103	0x3887dbca	6.4782405e-05
104	0x382c6ed3	4.111121e-05
105	0xb87f165f	-6.0817572e-05
106	0xb9ab0e57	-0.00032626346
107	0xb83874c0	-4.397775e-05
108	0xb8c30f7f	-9.301211e-05
109	0xb8f3b92d	-0.000116216346
110	0x383a8ee7	4.4478944e-05
111	0x397ec878	0.00024298008
112	0xb8d62030	-0.000102103106
113	0xb9209208	-0.0001531319
114	0x38f64e75	0.00011744808
115	0xb8ae0c04	-8.299205e-05
116	0xb8644a03	-5.4428365e-05
117	0x386c3639	5.6317283e-05
118	0x3813f9ec	3.528029e-05
119	0xb882c40d	-6.2354e-05
120	0x38906428	6.8851106e-05
121	0x367d957f	3.7786956e-06
122	0xb7a4266e	-1.9568219e-05
123	0x3958ceef	0.00020676454
124	0x3995b485	0.00028553992
125	0xb79022bc	-1.7182312e-05
126	0xb95818f1	-0.00020608657
127	0x3950bc1e	0.00019906505
128	0x38bbf120	8.961768e-05
129	0xb7d7eae7	-2.5739382e-05
130	0xb8eae18f	-0.00011200003
131	0xb50da63f	-5.2768513e-07
132	0xb98d6edc	-0.00026976212
133	0x392edfd2	0.00016677313
134	0xb8e4d873	-0.00010912204
135	0xb8ba2c12	-8.87738e-05
136	0xb9817e30	-0.00024698814
137	0x386cdfbc	5.6475154e-05
138	0xb73b439b	-1.1161809e-05
139	0x394706ca	0.00018980648
140	0xb94bbd42	-0.00019430093
141	0xb9522c8e	-0.00020043759
142	0xb985c046	-0.00025510992
143	0xb8334a5d	-4.2746182e-05
144	0x387407fe	5.8181577e-05
145	0xb8f5f7cd	-0.00011728667
146	0x3848b33d	4.7850644e-05
147	0xb854522f	-5.062128e-05
148	0xb836424a	-4.3453918e-05
149	0xb8b2f850	-8.533953e-05
150	0x37a79e78	1.9981744e-05
151	0x370d6dd6	8.429828e-06
152	0x3895ee21	7.1492286e-05
153	0xb8d1cd5e	-0.00010004149
154	0xb888f529	-6.53065e-05
155	0xb8fe6ec9	-0.00012132299
156	0x3904f356	0.0001267915
157	0x38892083	6.538725e-05
158	0xb9bed10f	-0.00036395385
159	0xb88c6100	-6.693788e-05
160	0xb8cdafbe	-9.807896e-05
161	0xb91439f0	-0.00014135963
162	0x38ceb164	9.855887e-05
163	0x39b0fe80	0.00033758953
164	0xb94befb6	-0.00019448888
165	0xb98bcc27	-0.0002666425
166	0x390baf46	0.00013321367
167	0xb89eee16	-7.578374e-05
168	0xb8642378	-5.439247e-05
169	0x375e8097	1.3262171e-05
170	0x382417d9	3.9122857e-05
171	0xb7e4d5ac	-2.7279217e-05
172	0x3813f590	3.527623e-05
173	0xb7add894	-2.072406e-05
174	0x375e1a76	1.3238392e-05
175	0x390534bd	0.00012703515
176	0x3879ac90	5.9526938e-05
177	0x38910741	6.91549e-05
178	0xb8838879	-6.271987e-05
179	0x38c0117b	9.1585294e-05
180	0x38c9fb76	9.631265e-05
181	0x36778697	3.688421e-06
182	0xb7021597	-7.753631e-06
183	0x3881e566	6.193928e-05
184	0x3989b444	0.00026264985
185	0x368d00a7	4.2022034e-06
186	0xb9330c28	-0.00017075299
187	0xb84bf8ce	-4.863069e-05
188	0x38e4ecfd	0.0001091603
189	0xb853c889	-5.0493083e-05
190	0x398d8be5	0.00026997845
191	0x3884495a	6.307913e-05
192	0x3680e3b2	3.8412045e-06
193	0x38db7f3c	0.00010466433
194	0x392c33f8	0.00016422558
195	0x3897ada8	7.232587e-05
196	0xb85a4dd9	-5.204775e-05
197	0xb9b2c925	-0.0003410067
198	0xb8a332c1	-7.781899e-05
199	0xb9075d7a	-0.00012909426
200	0xb83520e3	-4.318439e-05
201	0x38e84abb	0.00011076542
202	0x39b55106	0.00034583377
203	0xb953dd60	-0.00020204997
204	0xb91bd4f2	-0.0001486128
205	0x392b4442	0.00016333259
206	0xb88392f7	-6.273941e-05
207	0xb8bcbfb5	-9.000247e-05
208	0xb8696aa1	-5.5650835e-05
209	0x372437f8	9.788193e-06
210	0x38a88f1d	8.037521e-05
211	0x3980437f	0.0002446435
212	0x37aade81	2.036919e-05
213	0x365aa774	3.2582002e-06
214	0xb8b305fb	-8.536499e-05
215	0x38e1f235	0.000107739506
216	0x38bcfeb5	9.0119815e-05
217	0x38a42d77	7.828598e-05
218	0xb80e62f5	-3.39476e-05
219	0xb65ae46c	-3.261749e-06
220	0xb8f45407	-0.00011650478
221	0x36a3ccf7	4.8816396e-06
222	0x3854a5ae	5.069904e-05
223	0xb89c03cd	-7.4393676e-05
224	0x385765ea	5.135491e-05
225	0xb74a4b43	-1.20576615e-05
226	0xb84ad6e0	-4.836067e-05
227	0x39553623	0.0002033343
228	0xb81135ef	-3.4620924e-05
229	0x39251687	0.00015744018
230	0xb86cb7af	-5.6437853e-05
231	0x38a1bf80	7.712748e-05
232	0x38cee19d	9.864869e-05
233	0xb6acf761	-5.154798e-06
234	0xb8a892d8	-8.038216e-05
235	0xb86d6bd5	-5.660563e-05
236	0xb94439a5	-0.00018713491
237	0x38e3b85f	0.00010858545
238	0xb89b0a6d	-7.392918e-05
239	0xb8b18cf9	-8.466276e-05
240	0xb95b7c8b	-0.00020931863
241	0x38b7add1	8.758496e-05
242	0xb86c5d6f	-5.63538e-05
243	0x38fac043	0.000119567405
244	0xb8f3ab1b	-0.00011619014
245	0xb93a5447	-0.00017769738
246	0xb93ead7d	-0.00018184441
247	0x39287ffb	0.00016069405
248	0xb88d8f58	-6.750104e-05
249	0x3921d6f0	0.00015434227
250	0xb90f8752	-0.00013687953
251	0xb7e26001	-2.6986005e-05
252	0x390b6824	0.00013294868
253	0x3935e1fb	0.0001734569
254	0x38c1fca3	9.2500144e-05
255	0xb7dff6f8	-2.6698675e-05

exp_avg_sq f4 [32, 13]
0	0x35901d9c	1.0737454e-06
1	0x36624b4a	3.3720448e-06
2	0x35ecb1df	1.7635138e-06
3	0x35ff5fbb	1.9026842e-06
4	0x35ab3076	1.2754597e-06
5	0x36649d69	3.4066272e-06
6	0x36b0b4c9	5.266255e-06
7	0x3643db70	2.9184994e-06
8	0x3648a253	2.9896808e-06
9	0x362fe00c	2.6207445e-06
10	0x3693ad47	4.4011135e-06
11	0x36cccc7c	6.103479e-06
12	0x35a1c19d	1.2051784e-06
13	0x3656887c	3.196793e-06
14	0x36a1fba0	4.827467e-06
15	0x36f76a7a	7.373569e-06
16	0x36abce2f	5.1202e-06
17	0x368758bc	4.0336436e-06
18	0x36a1a206	4.817036e-06
19	0x37139a16	8.797759e-06
20	0x363fd380	2.8584327e-06
21	0x365bbd50	3.2743737e-06
22	0x36807d4e	3.8292847e-06
23	0x3698443c	4.5378965e-06
24	0x371a4b52	9.196652e-06
25	0x36bcdc75	5.628501e-06
26	0x36d53487	6.3540097e-06
27	0x379a3863	1.8384488e-05
28	0x36d7c429	6.4303354e-06
29	0x36b2e061	5.3309345e-06
30	0x370d5353	8.423655e-06
31	0x37417617	1.1531191e-05
32	0x37a16387	1.9239042e-05
33	0x3795c575	1.7854132e-05
34	0x374d3a51	1.223253e-05
35	0x379fb10c	1.9036721e-05
36	0x379d202a	1.8730836e-05
37	0x37e269a4	2.6990492e-05
38	0x3680e5ee	3.8414646e-06
39	0x3765d30d	1.3698603e-05
40	0x37d332f2	2.5176883e-05
41	0x37221932	9.661819e-06
42	0x378afafa	1.6567752e-05
43	0x37f76f25	2.949645e-05
44	0x374c1948	1.2165234e-05
45	0x37514707	1.2473908e-05
46	0x381dc1d7	3.7612244e-05
47	0x380e50a9	3.393056e-05
48	0x37820486	1.5499314e-05
49	0x37115103	8.6615355e-06
50	0x378ae83f	1.655903e-05
51	0x379590d3	1.7829623e-05
52	0x36892a32	4.0878303e-06
53	0x380bc3a0	3.3322372e-05
54	0x369aad8f	4.6097625e-06
55	0x374f38d8	1.2351396e-05
56	0x3751503b	1.2476051e-05
57	0x37e544fd	2.7331052e-05
58	0x3831f6bf	4.242989e-05
59	0x38305e02	4.204922e-05
60	0x37c493fb	2.343393e-05
61	0x379f8e60	1.9020576e-05
62	0x37f81ccd	2.9577315e-05
63	0x38543fdd	5.0604216e-05
64	0x37039829	7.843636e-06
65	0x37a4441b	1.9582038e-05
66	0x3730879b	1.0521991e-05
67	0x3826d29f	3.977364e-05
68	0x37bc4c38	2.2446839e-05
69	0x380689ca	3.2076416e-05
70	0x3730b179	1.0531739e-05
71	0x36f08f1f	7.169219e-06
72	0x37227460	9.683048e-06
73	0x376a5816	1.3967996e-05
74	0x37b53e86	2.1605996e-05
75	0x3736b014	1.0889042e-05
76	0x37391721	1.1032244e-05
77	0x375eca32	1.3279308e-05
78	0x3876805d	5.8770518e-05
79	0x3832477a	4.2505075e-05
80	0x3870fe4a	5.7457284e-05
81	0x383aa02e	4.4495035e-05
82	0x387aa221	5.975564e-05
83	0x37f39930	2.903919e-05
84	0x378fef76	1.7158436e-05
85	0x38630b24	5.4131393e-05
86	0x37a9e0d3	2.0251062e-05
87	0x3816b54a	3.5931625e-05
88	0x378e0fd6	1.6935093e-05
89	0x37c7b731	2.3807954e-05
90	0x38268c2e	3.9708037e-05
91	0x3718217e	9.067704e-06
92	0x370a2251	8.233431e-06
93	0x373cf5db	1.1262916e-05
94	0x3717273c	9.009436e-06
95	0x3731d123	1.0598716e-05
96	0x369e8f36	4.725439e-06
97	0x36e766e0	6.8963127e-06
98	0x3742a34d	1.16013225e-05
99	0x37586c7d	1.2899863e-05
100	0x372d87ca	1.0343219e-05
101	0x36e02029	6.679464e-06
102	0x373117cf	1.05555655e-05
103	0x36ed8765	7.0789124e-06
104	0x36b33a30	5.3413896e-06
105	0x376a5d20	1.3969169e-05
106	0x370f970d	8.558633e-06
107	0x36d9223a	6.4710885e-06
108	0x37306cbf	1.0515737e-05
109	0x36eb3981	7.01024e-06
110	0x372bcc25	1.0239925e-05
111	0x379d2dfe	1.8737275e-05
112	0x374d6267	1.2241863e-05
113	0x372dcebc	1.0359738e-05
114	0x3720859b	9.567851e-06
115	0x3774786a	1.4571569e-05
116	0x36ad7db3	5.170435e-06
117	0x36081ce2	2.0282391e-06
118	0x374f4668	1.2354554e-05
119	0x35de5108	1.6563872e-06
120	0x36a0662f	4.7802673e-06
121	0x36fe63b7	7.581398e-06
122	0x372ed502	1.0420803e-05
123	0x378eacc4	1.700817e-05
124	0x37afa2b1	2.0937385e-05
125	0x37275fb9	9.976263e-06
126	0x36a3f8d1	4.8867446e-06
127	0x373403a0	1.072968e-05
128	0x37c12339	2.3023795e-05
129	0x365541d5	3.1777793e-06
130	0x37877430	1.6147358e-05
131	0x3760857a	1.3382518e-05
132	0x3846780b	4.7318677e-05
133	0x37fcf954	3.0156843e-05
134	0x37fc4c7d	3.0076359e-05
135	0x3755f66b	1.2753163e-05
136	0x37a09103	1.9141013e-05
137	0x37339efc	1.0706248e-05
138	0x376886d2	1.3859668e-05
139	0x36a343c8	4.8656693e-06
140	0x3733fd4a	1.0728205e-05
141	0x379ec1d8	1.8925333e-05
142	0x37f24e65	2.8885153e-05
143	0x367dd58b	3.7824236e-06
144	0x36ae76a5	5.199416e-06
145	0x3696f2bc	4.4986064e-06
146	0x369f7655	4.752345e-06
147	0x363ee9c1	2.844827e-06
148	0x368023d2	3.8188673e-06
149	0x36f39334	7.259101e-06
150	0x3647e5a0	2.978697e-06
151	0x362c9aca	2.5720096e-06
152	0x36556e89	3.1803813e-06
153	0x36b1d08d	5.2992896e-06
154	0x370a0304	8.226143e-06
155	0x3704c8d5	7.914573e-06
156	0x36c646d1	5.909104e-06
157	0x37dd8ad5	2.6409902e-05
158	0x3784d20e	1.583344e-05
159	0x377c6fc2	1.5046391e-05
160	0x37cae7c1	2.4188195e-05
161	0x3794f1ff	1.7755663e-05
162	0x37b5ef70	2.1688378e-05
163	0x383a5fa9	4.4434946e-05
164	0x3777763d	1.4749877e-05
165	0x37057e38	7.956805e-06
166	0x3760fea3	1.3410728e-05
167	0x3806db85	3.2152533e-05
168	0x36dafdb2	6.5264403e-06
169	0x36103c13	2.149264e-06
170	0x370fff82	8.582954e-06
171	0x36203287	2.3871269e-06
172	0x3670c79a	3.587897e-06
173	0x36a4649f	4.8992947e-06
174	0x36de1fa4	6.619799e-06
175	0x3755a605	1.2734444e-05
176	0x374fb4a0	1.23802165e-05
177	0x370d9ee9	8.441254e-06
178	0x36f0da7e	7.177993e-06
179	0x371e4943	9.434591e-06
180	0x378c8e74	1.6755635e-05
181	0x361f7d6c	2.3765851e-06
182	0x37dafc53	2.6105123e-05
183	0x37858a81	1.5919331e-05
184	0x387d4b8c	6.039026e-05
185	0x3820c1da	3.832751e-05
186	0x382d4229	4.130803e-05
187	0x37689dc8	1.3865014e-05
188	0x37a2f7a8	1.9427229e-05
189	0x37bdb60c	2.2615328e-05
190	0x3803d80f	3.1434054e-05
191	0x37a58bd6	1.9734649e-05
192	0x3762c609	1.3516758e-05
193	0x37b18d08	2.1165717e-05
194	0x37bc5718	2.2451903e-05
195	0x370d6108	8.426847e-06
196	0x37a4df5f	1.9654339e-05
197	0x37689ffd	1.3865528e-05
198	0x372dc424	1.0357271e-05
199	0x375061c8	1.2420533e-05
200	0x372dd82d	1.0361936e-05
201	0x37a56617	1.9717072e-05
202	0x37de4953	2.6498607e-05
203	0x37c637d8	2.3629444e-05
204	0x3754870f	1.26676305e-05
205	0x37630353	1.3531028e-05
206	0x37dca379	2.6302167e-05
207	0x369bbcdf	4.6413475e-06
208	0x36f4ec93	7.2993075e-06
209	0x36696474	3.4778177e-06
210	0x365f5b9c	3.3282913e-06
211	0x36efb304	7.143595e-06
212	0x371d0097	9.358067e-06
213	0x3662b47a	3.3781675e-06
214	0x36485982	2.9854423e-06
215	0x362652c8	2.4784113e-06
216	0x36c7e133	5.956879e-06
217	0x369dd532	4.703784e-06
218	0x36360639	2.7123735e-06
219	0x365b8580	3.271125e-06
220	0x36ec75a5	7.0470437e-06
221	0x369a54b7	4.5994198e-06
222	0x37a397a1	1.9501722e-05
223	0x3735d547	1.0838098e-05
224	0x37107cb3	8.612103e-06
225	0x370ca143	8.382197e-06
226	0x37b582d5	2.1637805e-05
227	0x38449905	4.6872552e-05
228	0x37e635aa	2.7443126e-05
229	0x379ff9f1	1.9070665e-05
230	0x37d861e9	2.57948e-05
231	0x37fe031f	3.0280613e-05
232	0x384027f4	4.5813576e-05
233	0x36ab567c	5.1062652e-06
234	0x376a0879	1.394946e-05
235	0x36cc762a	6.09343e-06
236	0x37858fc7	1.5921787e-05
237	0x3789e36c	1.6437574e-05
238	0x371cb131	9.33958e-06
239	0x375478ce	1.2664312e-05
240	0x378f4d2b	1.7082863e-05
241	0x36c16d34	5.764561e-06
242	0x36edb912	7.0846954e-06
243	0x361a1f62	2.2966055e-06
244	0x36fe693a	7.58204e-06
245	0x37611a37	1.3417149e-05
246	0x37c11b9e	2.3020253e-05
247	0x37ec1d1e	2.8146951e-05
248	0x37012099	7.696589e-06
249	0x378a8866	1.6514397e-05
250	0x3742ada9	1.16037345e-05
251	0x37a3c975	1.9524925e-05
252	0x372e10eb	1.0375147e-05
253	0x372404e4	9.7763e-06
254	0x37947b6a	1.7700444e-05
255	0x37354a4d	1.080574e-05

exp_avg f4 [32]
0	0xb906ea80	-0.00012866594
1	0xb9920ef3	-0.00027858428
2	0xb66bee0d	-3.5156293e-06
3	0xb8db9fd7	-0.00010472506
4	0x383a0b71	4.435651e-05
5	0x38cd2bdf	9.7833334e-05
6	0xb868ecd4	-5.5533674e-05
7	0xb842348f	-4.6302153e-05
8	0xb8c59333	-9.42111e-05
9	0x38a6352c	7.925401e-05
10	0xb9d04358	-0.00039723027
11	0xb923233b	-0.00015558016
12	0x38c7576a	9.5053416e-05
13	0xb7e19793	-2.6892672e-05
14	0x3921ddfd	0.00015436854
15	0xb7bdf489	-2.2644426e-05
16	0xb9610862	-0.00021460795
17	0xb87f4508	-6.0861028e-05
18	0xb99bf939	-0.0002974959
19	0x38d07593	9.940113e-05
20	0xb9604ac4	-0.00021390157
21	0xb9023b48	-0.0001241985
22	0xb9909c59	-0.00027582308
23	0xb8e38459	-0.00010848855
24	0xb91514f4	-0.00014217553
25	0xb88b652e	-6.646883e-05
26	0xb9271cfb	-0.00015937157
27	0x37b5d944	2.1678054e-05
28	0x36ddb3f6	6.6072635e-06
29	0xb96f6038	-0.0002282866
30	0x38ae6a4b	8.316765e-05
31	0xb9be0ad6	-0.00036247697

exp_avg_sq f4 [32]
0	0x36985352	4.5396528e-06
1	0x37c06ae7	2.2937964e-05
2	0x372b11d7	1.0196548e-05
3	0x37e59b98	2.7371381e-05
4	0x37e8ed97	2.7767192e-05
5	0x37a907fa	2.0150084e-05
6	0x3832e151	4.264835e-05
7	0x376bb2c3	1.4048713e-05
8	0x37be22f3	2.266604e-05
9	0x3756cb8d	1.2802787e-05
10	0x37ea0b39	2.79002e-05
11	0x37a42f75	1.9572422e-05
12	0x37aca19c	2.0579253e-05
13	0x36fa1119	7.452571e-06
14	0x37d41772	2.5283287e-05
15	0x37c5e713	2.3591832e-05
16	0x36c703a8	5.931088e-06
17	0x37a7b210	1.9990868e-05
18	0x37bda9f9	2.2609705e-05
19	0x37947fb4	1.7702441e-05
20	0x37bfdbab	2.2871265e-05
21	0x37f9d6ba	2.9783103e-05
22	0x3848a851	4.7840473e-05
23	0x3833cd28	4.2867992e-05
24	0x372cd54e	1.0301663e-05
25	0x374d8e77	1.2252122e-05
26	0x364e69bc	3.0757938e-06
27	0x362b9633	2.5568413e-06
28	0x3705803f	7.957277e-06
29	0x37afc224	2.095203e-05
30	0x37ddca32	2.6439408e-05
31	0x377adc51	1.4952458e-05

exp_avg f4 [16, 32]
0	0xb55c8eda	-8.2164263e-07
1	0xb96171ef	-0.00021500116
2	0xb78a37b6	-1.6476824e-05
3	0x38ce56f5	9.8390425e-05
4	0x378a7715	1.6506334e-05
5	0x386d57d6	5.6587007e-05
6	0x38bf472b	9.120846e-05
7	0x38668af0	5.496567e-05
8	0xb8dcbebb	-0.00010525944
9	0xb8b09338	-8.4197556e-05
10	0xb98de62a	-0.000270651
11	0xb8ff1d12	-0.00012164762
12	0xb8d38468	-0.000100859266
13	0x36c61403	5.9031895e-06
14	0x382b72c4	4.087646e-05
15	0xb9019385	-0.00012357354
16	0xb8a64168	-7.92768e-05
17	0xb63a842e	-2.7793099e-06
18	0xb94d5254	-0.00019580993
19	0x3736d05f	1.08965605e-05
20	0xb9205013	-0.00015288619
21	0x38cd17b0	9.779574e-05
22	0xb935f98e	-0.00017354471
23	0x3486968b	2.506898e-07
24	0x38e649f9	0.00010981033
25	0x38229048	3.8758182e-05
26	0xb84f8243	-4.947396e-05
27	0x37c73f5a	2.3752149e-05
28	0xb879e617	-5.9580514e-05
29	0xb7a6a3c6	-1.9865005e-05
30	0x38ad8081	8.2732186e-05
31	0xb95cdccf	-0.00021063093
32	0xb83034b5	-4.2010757e-05
33	0xb792e0bb	-1.7509205e-05
34	0xb7b73a71	-2.1842514e-05
35	0xb89fe897	-7.625034e-05
36	0xb728fe04	-1.0072723e-05
37	0xb81fcf25	-3.8101472e-05
38	0xb92b564f	-0.00016339983
39	0xb8e8f12c	-0.00011107544
40	0x3842aff3	4.641707e-05
41	0x3872f32c	5.7923768e-05
42	0xb6fcb6fe	-7.5314883e-06
43	0xb6ed0518	-7.0637434e-06
44	0x38932df3	7.018065e-05
45	0xb7ac7b4a	-2.0561409e-05
46	0xb83016db	-4.1982956e-05
47	0x38589393	5.1635852e-05
48	0xb6178664	-2.257898e-06
49	0xb76a1d39	-1.3954291e-05
50	0xb7ba0ec9	-2.2179813e-05
51	0xb7ca1be7	-2.409327e-05
52	0xb77cdae5	-1.5071336e-05
53	0xb8b839b8	-8.784555e-05
54	0xb805941a	-3.18476e-05
55	0xb8566b8b	-5.1121733e-05
56	0xb90be275	-0.00013340435
57	0xb893a902	-7.0409864e-05
58	0xb8b8cc47	-8.811853e-05
59	0xb793814e	-1.7583978e-05
60	0x36a6c024	4.9695536e-06
61	0xb8de92d5	-0.000106131345
62	0xb8860eda	-6.392384e-05
63	0xb7c23bf1	-2.3154515e-05
64	0xb754ead7	-1.2690863e-05
65	0xb9a1e23a	-0.00030876865
66	0x37177ef4	9.02986e-06
67	0x3836adb1	4.3553944e-05
68	0x386016f0	5.3427124e-05
69	0x382c2cc1	4.1049676e-05
70	0xb8aeb14f	-8.329993e-05
71	0xb884a715	-6.325372e-05
72	0xb81d6b17	-3.7531452e-05
73	0x37823999	1.5524029e-05
74	0xb9c4e375	-0.00037553502
75	0xb92e595e	-0.00016627225
76	0x3666db49	3.4400312e-06
77	0x37f71d24	2.9458264e-05
78	0x3664a8d2	3.4072914e-06
79	0xb88edd0e	-6.812262e-05
80	0xb8e09f00	-0.000107107684
81	0x36f3456d	7.2500466e-06
82	0xb99aac34	-0.0002950147
83	0xb5b15f0f	-1.3215193e-06
84	0xb96b5667	-0.00022443534
85	0x37350075	1.0788547e-05
86	0xb994b964	-0.00028366887
87	0xb7a4a98e	-1.9629279e-05
88	0x36cfd436	6.1937853e-06
89	0xb874b049	-5.833831e-05
90	0xb938f9e2	-0.00017640696
91	0x378af6ca	1.6565802e-05
92	0xb8131d8b	-3.5075045e-05
93	0xb93e4937	-0.00018147087
94	0x37f86aeb	2.9613691e-05
95	0xb9a62b20	-0.00031694118
96	0xb81abacb	-3.6890426e-05
97	0x38d4fd1d	0.00010156094
98	0xb7786ebb	-1.4807733e-05
99	0xb8f72fe5	-0.00011786799
100	0xb79780b7	-1.806054e-05
101	0xb89b7d07	-7.414264e-05
102	0xb922acf2	-0.00015513951
103	0xb8dc8a4c	-0.00010516177
104	0x389317bf	7.013929e-05
105	0x3894233b	7.063752e-05
106	0x391d1c4a	0.00014983225
107	0x3889ef22	6.577211e-05
108	0x38b1c2ae	8.4762796e-05
109	0xb79d3a2e	-1.874295e-05
110	0xb8814996	-6.164906e-05
111	0x38c131db	9.2122435e-05
112	0x38039596	3.1372147e-05
113	0xb694de3c	-4.436615e-06
114	0x38b040de	8.4044164e-05
115	0xb7fcaed1	-3.0122146e-05
116	0x3893b2e3	7.0428265e-05
117	0xb8e53607	-0.00010929634
118	0x38ae8a0f	8.322682e-05
119	0xb8712fc7	-5.7503374e-05
120	0xb922c71c	-0.00015523698
121	0xb87016e3	-5.7241774e-05
122	0xb8064c10	-3.201893e-05
123	0xb80951fd	-3.2739703e-05
124	0x3850ccf5	4.9781946e-05
125	0xb869efb3	-5.5774766e-05
126	0xb8c7aee0	-9.5216325e-05
127	0x38ccf877	9.773758e-05
128	0xb8126f89	-3.4912988e-05
129	0xb8ffccb7	-0.00012197479
130	0xb85eebd2	-5.314855e-05
131	0x38b82a6e	8.781707e-05
132	0xb80fdf58	-3.4301862e-05
133	0x3834f594	4.3144057e-05
134	0x3902c18f	0.00012469872
135	0x38c1a685	9.233974e-05
136	0xb8ea569c	-0.00011174122
137	0xb8fb0d0b	-0.00011971042
138	0xb919acc7	-0.00014655582
139	0xb8a09021	-7.6562406e-05
140	0xb9028170	-0.00012445985
141	0xb80a9df3	-3.3048866e-05
142	0x3802ca7b	3.118299e-05
143	0xb90be045	-0.0001333962
144	0xb83a32d5	-4.4393197e-05
145	0xb83681c2	-4.3513028e-05
146	0xb8d69279	-0.00010231598
147	0x37817c91	1.5436004e-05
148	0xb8b47e3d	-8.6065826e-05
149	0x38b0a1b4	8.4224535e-05
150	0xb89ff04f	-7.626472e-05
151	0x378ed19f	1.7025332e-05
152	0x38cfe781	9.91365e-05
153	0x384015f1	4.57968e-05
154	0x37f49a8b	2.9159031e-05
155	0x375f6ad2	1.3316707e-05
156	0xb8ba276b	-8.876513e-05
157	0x38277a38	3.9929728e-05
158	0x388e65be	6.7900386e-05
159	0xb8d87a92	-0.00010322513
160	0xb85c5277	-5.252889e-05
161	0x390cb276	0.00013417922
162	0xb80a2098	-3.293212e-05
163	0xb90d6a28	-0.00013486354
164	0xb81d7590	-3.7541206e-05
165	0xb8b1fa06	-8.486588e-05
166	0xb920676e	-0.0001529732
167	0xb8cf7c49	-9.893679e-05
168	0x388875b6	6.506911e-05
169	0x387e7602	6.0668222e-05
170	0x394b5276	0.00019390308
171	0x38b61d84	8.683934e-05
172	0x38a7bad4	7.99798e-05
173	0xb8138615	-3.5172405e-05
174	0xb88b7c5c	-6.6512e-05
175	0x38c307e9	9.299798e-05
176	0x381bc268	3.7135935e-05
177	0xb7867837	-1.6030024e-05
178	0x38e8a83a	0.00011093957
179	0xb8018b02	-3.0885458e-05
180	0x38c0839e	9.179789e-05
181	0xb8f35924	-0.00011603747
182	0x38f2907a	0.0001156637
183	0xb8820abc	-6.2008825e-05
184	0xb93306e7	-0.00017073342
185	0xb850e6e1	-4.9806087e-05
186	0xb7578384	-1.28456195e-05
187	0xb81c60ad	-3.7283335e-05
188	0x384e2387	4.9147315e-05
189	0xb8296384	-4.038542e-05
190	0xb8d7c210	-0.00010288146
191	0x39089ccd	0.00013028384
192	0xb919e815	-0.00014677674
193	0x39250003	0.0001573563
194	0xb91b480e	-0.00014808794
195	0xb8d1bf0e	-0.00010001483
196	0xb91669c5	-0.00014344517
197	0xb884a63c	-6.325214e-05
198	0xb7d94e86	-2.5904981e-05
199	0x3703ce18	7.856193e-06
200	0xb87fb6c9	-6.096697e-05
201	0xb8bfcb70	-9.145483e-05
202	0x396245df	0.00021579069
203	0x38d388c8	0.000100867415
204	0xb885b1c2	-6.375044e-05
205	0xb90fb3c2	-0.00013704508
206	0xb816c409	-3.594536e-05
207	0xb7f59137	-2.9273897e-05
208	0x37befd59	2.276774e-05
209	0xb8d92437	-0.00010354112
210	0x39084e42	0.00012999124
211	0xb716cd5e	-8.9885125e-06
212	0x38d9c570	0.00010384142
213	0xb850f1c8	-4.981624e-05
214	0x391e623a	0.00015104646
215	0xb85f8f25	-5.3300657e-05
216	0xb91b20eb	-0.00014794215
217	0x37952985	1.7781518e-05
218	0x389d2c2d	7.494572e-05
219	0xb7dbcd47	-2.6202424e-05
220	0xb878c2f6	-5.930938e-05
221	0x38766ff5	5.875524e-05
222	0xb85401f9	-5.0546576e-05
223	0x3924a1d0	0.00015700539
224	0x3571218d	8.982832e-07
225	0xb96639b9	-0.00021956013
226	0xb787f4fc	-1.6207334e-05
227	0x38f104dd	0.000114926814
228	0x3738d136	1.1015965e-05
229	0x386e3182	5.678973e-05
230	0x38f94073	0.0001188525
231	0x38a573b2	7.889363e-05
232	0xb8d886fb	-0.00010324825
233	0xb8b7af12	-8.7587294e-05
234	0xb98b2659	-0.00026540717
235	0xb90e228d	-0.00013555046
236	0xb8d3b872	-0.0001009562
237	0x372c6b85	1.0277033e-05
238	0x381e11ad	3.7686597e-05
239	0xb90b644f	-0.00013293441
240	0xb8a29870	-7.753156e-05
241	0xb71dc565	-9.403889e-06
242	0xb9489cb4	-0.00019131863
243	0x37860480	1.597614e-05
244	0xb928df9b	-0.00016105028
245	0x38bd9d6c	9.0415444e-05
246	0xb9293ed2	-0.00016140498
247	0x37e2227a	2.6957354e-05
248	0x3914119a	0.00014120937
249	0x38306d0f	4.206324e-05
250	0xb7bbc061	-2.238172e-05
251	0x37c6db27	2.370549e-05
252	0xb8925909	-6.9784066e-05
253	0xb7939e48	-1.7597471e-05
254	0x389e9e5e	7.563525e-05
255	0xb952eb98	-0.00020114926

exp_avg_sq f4 [16, 32]
0	0x372578e0	9.86291e-06
1	0x37521578	1.2521974e-05
2	0x37554f89	1.2714308e-05
3	0x36e40da0	6.7965157e-06
4	0x37063a69	8.000622e-06
5	0x36013468	1.9253002e-06
6	0x374d406a	1.223395e-05
7	0x3721865d	9.627632e-06
8	0x36db07b9	6.5276076e-06
9	0x36156c39	2.2265724e-06
10	0x380157d7	3.0837804e-05
11	0x3759f7f9	1.2991944e-05
12	0x36465510	2.9553812e-06
13	0x371aa32b	9.217106e-06
14	0x36ab5cd5	5.107004e-06
15	0x36c81c71	5.9637755e-06
16	0x3645712b	2.942116e-06
17	0x37271fe9	9.961405e-06
18	0x375a6181	1.30165145e-05
19	0x35fd5593	1.8874874e-06
20	0x37eb53e1	2.8053242e-05
21	0x362c332a	2.5659779e-06
22	0x37eaf065	2.8006916e-05
23	0x37c144b5	2.3039387e-05
24	0x3791af71	1.7367043e-05
25	0x36b80d09	5.485145e-06
26	0x372c6fdd	1.0278044e-05
27	0x36062cbb	1.9993593e-06
28	0x3716c002	8.985402e-06
29	0x37457615	1.1769608e-05
30	0x36556f8d	3.1804404e-06
31	0x373dbf7e	1.1309863e-05
32	0x36e26888	6.747494e-06
33	0x36f9e078	7.44691e-06
34	0x370f50b2	8.5422525e-06
35	0x3702f496	7.805551e-06
36	0x3688bdaf	4.075198e-06
37	0x36684253	3.46093e-06
38	0x37f7073c	2.9448063e-05
39	0x3781b511	1.5462314e-05
40	0x363dff59	2.8311827e-06
41	0x35e8d58c	1.7347497e-06
42	0x355d968d	8.2547996e-07
43	0x3677b635	3.6911927e-06
44	0x35f74122	1.842189e-06
45	0x36d5ca93	6.3714774e-06
46	0x3742b024	1.1604312e-05
47	0x35bef1e1	1.4226499e-06
48	0x35090ecd	5.1058015e-07
49	0x37032426	7.816625e-06
50	0x361d4e3d	2.3440364e-06
51	0x36c05bfe	5.732755e-06
52	0x35fff86c	1.9071281e-06
53	0x36514ea4	3.1189202e-06
54	0x360d70fb	2.10764e-06
55	0x37e140c1	2.6852244e-05
56	0x379e0df6	1.8841569e-05
57	0x369e03ce	4.70921e-06
58	0x36d705ae	6.4081605e-06
59	0x3670b751	3.586949e-06
60	0x367f6f1b	3.8062633e-06
61	0x36c0bdbf	5.7441353e-06
62	0x3732fe75	1.0668872e-05
63	0x35a22166	1.2079661e-06
64	0x35942117	1.103649e-06
65	0x3792fd5f	1.7522541e-05
66	0x35b20740	1.3264143e-06
67	0x35a53deb	1.2311478e-06
68	0x35928c00	1.0918593e-06
69	0x363e36c0	2.8344075e-06
70	0x370c8f59	8.378026e-06
71	0x36c4410b	5.848827e-06
72	0x361ae94e	2.308359e-06
73	0x33bb7831	8.729729e-08
74	0x384f53f7	4.9430844e-05
75	0x37b5de3b	2.1680366e-05
76	0x340ee83b	1.3309266e-07
77	0x341368b8	1.3728538e-07
78	0x368e1546	4.2344063e-06
79	0x366a2d2a	3.4895006e-06
80	0x36a10843	4.7991357e-06
81	0x3434389c	1.6784401e-07
82	0x37c699ce	2.367506e-05
83	0x36168847	2.2431066e-06
84	0x3864059f	5.436467e-05
85	0x35a08402	1.1959348e-06
86	0x382b2020	4.0799496e-05
87	0x371c5ba3	9.31966e-06
88	0x36460eeb	2.9512983e-06
89	0x368f849b	4.2771694e-06
90	0x36bd2620	5.6370773e-06
91	0x360692f0	2.0053085e-06
92	0x35e2b1d5	1.6890068e-06
93	0x3781403f	1.5407915e-05
94	0x365a37f8	3.251711e-06
95	0x3797fb07	1.8117496e-05
96	0x3772d039	1.4472805e-05
97	0x37e70092	2.7537611e-05
98	0x37a731e4	1.9931183e-05
99	0x37d4ca90	2.5366695e-05
100	0x3704a33a	7.905817e-06
101	0x377f436c	1.5214882e-05
102	0x38d4572f	0.00010125187
103	0x386522c2	5.4630225e-05
104	0x368111c2	3.846567e-06
105	0x3620b2d2	2.3945945e-06
106	0x37891cb9	1.6345048e-05
107	0x3778f275	1.4838403e-05
108	0x360081ee	1.9149115e-06
109	0x373030e9	1.0501805e-05
110	0x384c0b20	4.864775e-05
111	0x365eb911	3.31883e-06
112	0x363ef3d6	2.8454137e-06
113	0x37898aa0	1.6396225e-05
114	0x3754a6c8	1.26750165e-05
115	0x37b40194	2.1458407e-05
116	0x374ce94b	1.2213665e-05
117	0x373d6175	1.1287969e-05
118	0x37860959	1.5978398e-05
119	0x39004848	0.00012233958
120	0x38762929	5.8689304e-05
121	0x37a72d16	1.9928946e-05
122	0x37b997e9	2.2124457e-05
123	0x3772b392	1.44661335e-05
124	0x36f61e04	7.3348656e-06
125	0x379a544b	1.8397483e-05
126	0x383d69de	4.5159708e-05
127	0x37028189	7.778764e-06
128	0x3767c682	1.3814892e-05
129	0x369cd89a	4.674378e-06
130	0x37908c63	1.723151e-05
131	0x36e7cdd1	6.9082967e-06
132	0x3715d8d8	8.93158e-06
133	0x358a4eb5	1.0304708e-06
134	0x3748d2a4	1.1969973e-05
135	0x375ed642	1.3282117e-05
136	0x3708c165	8.15126e-06
137	0x367c1c33	3.756734e-06
138	0x370516d3	7.932732e-06
139	0x36871686	4.0259356e-06
140	0x36bcf63c	5.631502e-06
141	0x376c4c59	1.4084472e-05
142	0x37021118	7.752584e-06
143	0x36b420af	5.368223e-06
144	0x362cc186	2.5742643e-06
145	0x376d7ce7	1.4155382e-05
146	0x36b2f9ae	5.33388e-06
147	0x35d67dec	1.598089e-06
148	0x3719705d	9.145672e-06
149	0x3595181d	1.1108383e-06
150	0x37455d70	1.176387e-05
151	0x380952d4	3.2740485e-05
152	0x37b63bf4	2.1724009e-05
153	0x364c6b67	3.0460885e-06
154	0x3745c1bd	1.1787223e-05
155	0x36392b5d	2.759239e-06
156	0x37813ad5	1.5405394e-05
157	0x36aa45f0	5.0745366e-06
158	0x36d97463	6.480653e-06
159	0x36619415	3.3613808e-06
160	0x344d5e25	1.9126362e-07
161	0x342918c2	1.5748358e-07
162	0x340e0e1b	1.3229912e-07
163	0x3422c843	1.516028e-07
164	0x33fc5f99	1.17520536e-07
165	0x332489cf	3.830956e-08
166	0x34a5d18e	3.0886116e-07
167	0x347b4db3	2.3404463e-07
168	0x3356483b	4.989145e-08
169	0x33814389	6.019315e-08
170	0x3452629e	1.9593651e-07
171	0x33b266e2	8.307485e-08
172	0x332b9eba	3.99584e-08
173	0x34445cea	1.8287724e-07
174	0x33b0ec8a	8.238665e-08
175	0x3371ad20	5.626964e-08
176	0x31d8196e	6.2893184e-09
177	0x348ab082	2.583293e-07
178	0x33afad9f	8.180654e-08
179	0x32220f36	9.4331e-09
180	0x3461e468	2.1037852e-07
181	0x336817c8	5.403834e-08
182	0x343fffec	1.7881365e-07
183	0x343520b6	1.6868839e-07
184	0x34dec22e	4.1492007e-07
185	0x343e732b	1.7737027e-07
186	0x343ce586	1.7592365e-07
187	0x330fd743	3.349056e-08
188	0x34068004	1.2526294e-07
189	0x3463ae21	2.120437e-07
190	0x33709b51	5.6020614e-08
191	0x33d765ee	1.00302586e-07
192	0x37905cde	1.7209382e-05
193	0x37906c43	1.7216551e-05
194	0x37b6af4f	2.1777725e-05
195	0x3745a0ba	1.1779537e-05
196	0x3708f8e9	8.164186e-06
197	0x37157d47	8.9102605e-06
198	0x381d2907	3.7469927e-05
199	0x37bcd79d	2.251175e-05
200	0x3696b3d1	4.4912817e-06
201	0x3674b7f4	3.6465908e-06
202	0x37883ddf	1.6241274e-05
203	0x371fc03c	9.521897e-06
204	0x36a00058	4.7684116e-06
205	0x37536532	1.2600141e-05
206	0x37aaa176	2.0340765e-05
207	0x365b1e66	3.2651237e-06
208	0x3606d42e	2.009106e-06
209	0x3781a750	1.545591e-05
210	0x376975e3	1.391533e-05
211	0x3710b008	8.624054e-06
212	0x375a18d5	1.2999594e-05
213	0x36b065ec	5.257074e-06
214	0x37473c87	1.1875417e-05
215	0x387861a4	5.9218743e-05
216	0x3825f985	3.957145e-05
217	0x376360d4	1.3552799e-05
218	0x373341c9	1.0684548e-05
219	0x368f4793	4.2700644e-06
220	0x3732e6c1	1.0663353e-05
221	0x37379fd5	1.0944864e-05
222	0x3782ffc6	1.5616311e-05
223	0x371f5ac8	9.498275e-06
224	0x371cae3e	9.3388935e-06
225	0x378e335b	1.6951633e-05
226	0x374fdc18	1.2389406e-05
227	0x36b276b2	5.3186313e-06
228	0x37157018	8.907191e-06
229	0x362e37dd	2.5960537e-06
230	0x37914d3c	1.7321312e-05
231	0x373007ad	1.0492205e-05
232	0x36ffa54e	7.618836e-06
233	0x3628915e	2.5118566e-06
234	0x381f7550	3.801781e-05
235	0x37924c55	1.7440101e-05
236	0x364e798e	3.0767146e-06
237	0x3736e660	1.0901684e-05
238	0x36a9aea8	5.056925e-06
239	0x36f04a0a	7.1611767e-06
240	0x369664bc	4.4820754e-06
241	0x37526db1	1.2542515e-05
242	0x37a16579	1.9239948e-05
243	0x35cad454	1.5111968e-06
244	0x381fee8b	3.8130715e-05
245	0x35973064	1.126446e-06
246	0x3819dd2c	3.6684025e-05
247	0x374ec2ac	1.2323882e-05
248	0x37ab4fbe	2.0421921e-05
249	0x37249f15	9.812201e-06
250	0x37173689	9.012999e-06
251	0x3659c27a	3.244872e-06
252	0x37605822	1.337196e-05
253	0x3762a4b2	1.3508996e-05
254	0x362aee44	2.5470663e-06
255	0x3762755f	1.3497977e-05

exp_avg f4 [16]
0	0xb8ce3d9d	-9.834322e-05
1	0xb8e14b3b	-0.00010742849
2	0xb97ba02a	-0.00023996891
3	0xb806ce5a	-3.214027e-05
4	0xb7ee0167	-2.8372464e-05
5	0xb7c978da	-2.4017343e-05
6	0xb70bcdf5	-8.332999e-06
7	0xb8a70ae3	-7.965208e-05
8	0xb939cba1	-0.00017718833
9	0xb77ed0df	-1.5188211e-05
10	0xb753a55c	-1.2615081e-05
11	0xb96a1bb6	-0.00022326302
12	0x368f521a	4.27129e-06
13	0xb8f30595	-0.00011588183
14	0xb9405284	-0.00018341286
15	0x3794dab6	1.774482e-05

exp_avg_sq f4 [16]
0	0x38436d95	4.659368e-05
1	0x37fb3cb0	2.9949791e-05
2	0x382d2db1	4.1288968e-05
3	0x38d4a35c	0.00010139376
4	0x38145f84	3.5374906e-05
5	0x34c3be9a	3.646026e-07
6	0x3876b735	5.8821595e-05
7	0x38812ca7	6.1595165e-05
8	0x37e1608e	2.6867052e-05
9	0x37b4e954	2.1566324e-05
10	0x382614d7	3.9596893e-05
11	0x3938f393	0.00017638346
12	0x378c1e07	1.6703283e-05
13	0x37fa3c90	2.9830524e-05
14	0x384f0f1a	4.936671e-05
15	0x37d42896	2.5291269e-05

exp_avg f4 [3, 16]
0	0xba09f3d9	-0.00052624714
1	0xba1fa68a	-0.0006090185
2	0xba3e97fa	-0.0007270571
3	0x39132c8c	0.00014035607
4	0xb980e06f	-0.0002458128
5	0x3967f543	0.00022121244
6	0x3a0158b8	0.00049341796
7	0xb9c1b59b	-0.00036947135
8	0xba72dada	-0.0009264179
9	0x39d28780	0.00040155277
10	0x39d43b78	0.000404801
11	0xba49ef99	-0.00077032443
12	0x3995acf4	0.00028548355
13	0xb7641942	-1.359574e-05
14	0xba750f31	-0.0009348272
15	0x39bff281	0.00036611038
16	0x3a344772	0.0006877101
17	0xb97045da	-0.00022914205
18	0x39d60e92	0.00040828116
19	0xba198c30	-0.00058573764
20	0x3a28bd9d	0.0006436946
21	0xba551620	-0.0008128602
22	0xb95bc625	-0.00020959282
23	0x3a2a1b3c	0.00064890436
24	0x3a0e7196	0.0005433796
25	0x39b726dc	0.00034933432
26	0x39a6a9b0	0.00031788414
27	0xb8e84cec	-0.0001107695
28	0x39af9f3f	0.0003349725
29	0xb9cdc208	-0.00039245212
30	0x3a06f37f	0.0005147978
31	0xba1d76d5	-0.0006006782
32	0xb9294e8b	-0.00016146355
33	0x3a5bb8b6	0.0008381711
34	0x39a7218f	0.00031877725
35	0x39e983b1	0.0004453934
36	0xb9d09aee	-0.00039788283
37	0x3a1b19d5	0.000591663
38	0xb994cd5f	-0.00028381773
39	0xb992813f	-0.00027943586
40	0x39c8d2a2	0.00038303906
41	0xba44d76d	-0.00075089076
42	0xba3d72cf	-0.00072268856
43	0x3a66f9e9	0.0008811043
44	0xba22a654	-0.00062045944
45	0x39d4e41a	0.0004060574
46	0x39dc378d	0.00042003058
47	0x3975f9dc	0.000234581
