homework1/lightning_logs/version_6/checkpoints/epoch=99-step=900.ckpt (torch, 22040 bytes, 18 tensors)

network.0.weight f4 [32, 13]
0.22905253 -0.008059698 0.021784296 0.33659378 -0.050247647 -0.17301853 -0.3533602 0.106886186
0.009485219 0.24542741 -0.41308242 -0.36195847 -0.08281859 -0.49301994 -0.1533627 -0.066536956
0.37440965 -0.063210346 -0.0108102625 0.0995591 -0.3134239 0.07671292 0.04445927 0.33276364
0.28449297 -0.3002983 0.20459993 0.24326202 0.37190264 0.09409186 -0.11189869 -0.07273309
-0.4495617 -0.19806083 -0.28024417 0.01990821 -0.36076453 -0.2603313 0.18976179 0.22213577
-0.17856169 0.008698277 -0.0077954554 -0.05350534 -0.30451345 -0.25596753 0.244307 -0.35113156
0.3762726 -0.354554 -0.014738606 -0.08576211 -0.34702948 -0.3325614 0.13131572 0.02706172
0.40120968 0.07805369 -0.2782498 0.2004951 0.17098635 0.047593858 0.107303955 -0.2081848
0.033508774 0.37623888 0.031351298 0.34212634 -0.092933826 -0.0020865058 0.041860536 0.24166052
-0.24468483 -0.09912171 0.0028108465 0.2748231 0.3578036 0.21398333 0.07877229 -0.26183885
0.105649516 -0.37813044 0.2940145 -0.063923635 0.010562518 0.13965598 -0.17774008 -0.18844353
0.43158144 0.17595218 0.30309498 -0.3191522 0.13783094 -0.117702916 0.25152472 0.017484989
0.2768518 0.17055494 -0.25529218 0.12160993 0.04164187 0.048964467 0.29390374 -0.22681649
-0.29732698 -0.086317725 -0.20901002 0.04590387 -0.20948465 -0.37499893 -0.097635165 0.2565819
-0.14230666 -0.44613323 0.13380015 -0.058626488 -0.091712885 -0.037846316 -0.09077811 -0.042494453
0.37622577 -0.25929782 -0.24477783 0.25128886 0.05576792 0.33323205 -0.31924406 0.1633995
0.07460381 -0.33178797 -0.45428485 -0.12572663 -0.32250383 0.0047964836 0.29133677 -0.30836025
-0.26333207 -0.06820903 0.13144441 -0.09944772 0.4192103 0.20830409 -0.15776561 0.038033586
-0.40506 -0.34766683 -0.39996508 0.29222468 0.09329721 0.1763972 -0.06428022 -0.11939273
-0.37277693 0.4268657 0.2522389 -0.008968804 0.15246378 0.18669137 0.19596195 -0.45775723
0.19654581 0.17510258 0.091982305 -0.2229202 0.020928603 -0.076275244 0.10550946 0.09878803
0.4387755 0.19370481 0.20112251 0.18545605 -0.02015168 -0.16608568 -0.02812761 -0.4964469
-0.096572876 -0.00590714 0.41007796 -0.27950606 -0.43488538 0.24170901 0.024211176 0.25881156
-0.012653233 -0.069108255 0.15445799 -0.02268088 -0.18141775 -0.17730367 -0.29483306 0.1323278
-0.4771168 -0.3126776 0.104703926 -0.040727377 0.0036596684 0.04647236 -0.28869152 0.17278036
0.06679662 0.41702923 -0.36801693 0.19276895 -0.15796459 -0.019172389 0.3505971 0.01696957
0.0349071 -0.024908263 -0.12115347 -0.17401288 0.24162532 0.33234572 0.2010409 -0.41866627
-0.040897436 0.08208745 0.3082546 0.38156232 -0.116617575 -0.06061919 0.28797457 -0.12930056
0.21574998 0.041435953 -0.28188133 0.1049093 0.29150364 -0.17600016 -0.10178095 -0.051545758
-0.328082 -0.2630882 0.06138147 -0.060041685 0.23007955 -0.4044894 0.103403024 0.04764864
0.4051751 -0.17081375 0.049087916 -0.04004401 -0.08313969 0.050845683 0.40851623 0.24080998
0.27937067 0.44047064 -0.061442956 0.14650413 -0.027393583 -0.0811137 -0.1637563 -0.22393483
00000000: bf8c 6a3e d30c 04bc fb74 b23c 0556 ac3e
00000010: 7ad0 4dbd c52b 31be a1eb b4be 25e7 da3d
00000020: e467 1b3c 5351 7b3e 8a7f d3be 9f52 b9be
00000030: cb9c a9bd 1c6d fcbe 1d0b 1dbe 8744 88bd
00000040: 9fb2 bf3e 6d74 81bd 871d 31bc a4e5 cb3d
00000050: 1979 a0be aa1b 9d3d ec1a 363d ff5f aa3e
00000060: 10a9 913e b3c0 99be a582 513e ae19 793e
00000070: 066a be3e 3cb3 c03d 242b e5bd 16f5 94bd
00000080: f32c e6be 75d0 4abe 2a7c 8fbe 8b16 a33c
00000090: 21b6 b8be 254a 85be ea50 423e 8f77 633e
000000a0: e0d8 36be 3883 0e3c 0571 ffbb 6a28 5bbd
000000b0: 30e9 9bbe 2d0e 83be 9d2b 7a3e 84c7 b3be
000000c0: cda6 c03e 1a88 b5be 327a 71bc 0ca4 afbd
000000d0: d9ad b1be 7d45 aabe a177 063e 8ab0 dd3c
000000e0: 5b6b cd3e 9dda 9f3d c276 8ebe 964e 4d3e
000000f0: 0c17 2f3e c7f1 423d 2dc2 db3d 652e 55be
00000100: 7f40 093d 62a2 c03e 386a 003d 2f2b af3e
00000110: 1754 bebd c2bd 08bb f475 2b3d db75 773e
00000120: a98e 7abe 5300 cbbd 2e36 383b 9db5 8c3e
00000130: 0932 b73e 721e 5b3e 5e53 a13d be0f 86be
00000140: c65e d83d 509a c1be 1289 963e 65ea 82bd
00000150: 690e 2d3c fa01 0f3e 7f01 36be 57f7 40be
00000160: 3ef8 dc3e cf2c 343e 442f 9b3e eb67 a3be
00000170: 8e23 0d3e 3a0e f1bd d9c7 803e ae3c 8f3c
00000180: 85bf 8d3e f4a5 2e3e a8b5 82be a10e f93d
00000190: aa90 2a3d f78e 483d 8d7a 963e 9542 68be
000001a0: 3e3b 98be 59c7 b0bd b906 56be b205 3c3d
000001b0: 2583 56be dcff bfbe f2f4 c7bd b45e 833e
000001c0: d6b8 11be 936b e4be e802 093e 5422 70bd
000001d0: f7d3 bbbd bd04 1bbd e0e9 b9bd aa0e 2ebd
000001e0: aaa0 c03e afc2 84be 0aa7 7abe efa8 803e
000001f0: e76c 643d 649d aa3e f573 a3be 3352 273e
00000200: e2c9 983d 1de0 a9be 0698 e8be 7bbe 00be
00000210: 391f a5be d22b 9d3b 182a 953e 65e1 9dbe
00000220: 76d3 86be 2db1 8bbd 5d99 063e 3fab cbbd
00000230: bca2 d63e ab4d 553e 4f8d 21be 1bc9 1b3d
00000240: 0664 cfbe 6301 b2be 39c8 ccbe 799e 953e
00000250: 9c12 bf3d 78a1 343e 59a5 83bd 2d84 f4bd
00000260: 9edc bebe 248e da3e 7525 813e e4f1 12bc
00000270: 771f 1c3e 062c 3f3e 40aa 483e 285f eabe
00000280: 4e43 493e 174e 333e 3861 bc3d 3145 64be
00000290: 7672 ab3c 3236 9cbd 5815 d83d 6151 ca3d
000002a0: 2fa7 e03e 8e5a 463e 0ff3 4d3e 31e8 3d3e
000002b0: 2315 a5bc 5d12 2abe e06b e6bc 4a2e febe
000002c0: 00c8 c5bd af90 c1bb bdf5 d13e 6b1b 8fbe
000002d0: 4ca9 debe 9182 773e 8456 c63c f382 843e
000002e0: 814f 4fbc a188 8dbd 3c2a 1e3e 41cd b9bc
000002f0: 93c5 39be 188f 35be 5cf4 96be f080 073e
00000300: a748 f4be 4717 a0be 036f d63d c0d1 26bd
00000310: 0cd7 6f3b cd59 3e3d 60cf 93be 56ed 303e
00000320: abcc 883d db84 d53e b76c bcbe 3965 453e
00000330: 78c1 21be 6a0f 9dbc 7781 b33e c503 8b3c
00000340: bffa 0e3d 6a0c ccbc 4f1f f8bd 6f30 32be
00000350: a16c 773e 3829 aa3e aadd 4d3e 6d5b d6be
00000360: 1284 27bd 771d a83d 8cd3 9d3e 235c c33e
00000370: 32d5 eebd d44b 78bd 6771 933e 5e67 04be
00000380: 90ed 5c3e bfb8 293d c052 90be b0da d63d
00000390: f73f 953e 6339 34be 8872 d0bd a521 53bd
000003a0: 5dfa a7be 7fb3 86be 236b 7b3d 45ee 75bd
000003b0: f999 6b3e 3c19 cfbe f7c4 d33d 382b 433d
000003c0: 1c73 cf3e cde9 2ebe 6910 493d 3005 24bd
000003d0: 2445 aabd 9043 503d 0a29 d13e e496 763e
000003e0: ac09 8f3e 5e85 e13e 9cab 7bbd 2e05 163e
000003f0: 8268 e0bc f11e a6bd bbaf 27be 2c4f 65be

network.0.bias f4 [32]
0.15767638 0.3351287 0.16973363 0.020842379 -0.0095713 0.35696104 0.3054011 0.2984878
0.14785708 0.37768015 0.06005139 0.45641395 0.046411924 0.136681 0.2133836 0.2552999
0.4389289 0.34863603 0.26299885 -0.038226936 0.1926957 0.2544545 0.005553985 0.060769998
0.09930932 0.25847155 0.33784676 -0.013697358 0.18333371 0.3014151 0.030238058 0.3145602
00000000: eb75 213e fd95 ab3e a7ce 2d3e a3bd aa3c
00000010: f1d0 1cbc 99c3 b63e 885d 9c3e 65d3 983e
00000020: d967 173e 4b5f c13e 72f8 753d 17af e93e
00000030: 6e1a 3e3d 1bf6 0b3e 3b81 5a3e abb6 823e
00000040: 4abb e03e 6c80 b23e c9a7 863e d993 1cbd
00000050: 0652 453e dc47 823e 34fe b53b f6e9 783d
00000060: af62 cb3d 6256 843e 40fa ac3e e26a 60bc
00000070: d5bb 3b3e 1453 9a3e ceb5 f73c 090e a13e

network.2.weight f4 [16, 32]
0.07919059 -0.21018529 0.074855566 0.16118354 -0.0011917871 0.25680643 0.19002724 -0.07106007
-0.16833165 0.063986465 -0.1755037 -0.01367598 0.22636001 0.009707479 0.1861575 0.11113491
0.18605563 -0.12038472 0.32497376 0.10426634 0.31063414 0.13195415 -0.22290829 -0.038981482
-0.26407433 0.26539218 0.02331949 -0.0672773 0.15160407 0.049624838 -0.24056879 0.13932599
-0.06735307 -0.06774299 0.07192574 -0.13761859 -0.031662125 0.05679244 0.26558396 -0.08713356
0.014559173 0.0422767 -0.15974715 0.26058772 0.34574682 0.15137246 -0.10807473 0.31914166
0.24516167 -0.19025315 0.24265973 0.21916175 0.17849164 0.20934825 -0.19189642 -0.16261125
-0.05513134 0.1867602 -0.22017998 -0.12380487 0.02675166 -0.038283493 -0.021060714 0.2283701
0.023258446 -0.050241992 0.10699428 -0.19217059 0.020138668 0.29793426 0.15054972 0.13356747
-0.25761858 0.051683675 -0.18399757 0.19360179 0.26473078 -0.008849561 0.083007775 0.07113228
0.18826719 0.025185384 0.24428049 0.04563078 0.2723929 0.33141094 -0.27810138 -0.27305314
-0.26542225 0.13483673 -0.15819709 -0.110783294 -0.054403875 0.06493637 -0.05175218 0.32700717
-0.16394964 0.20205374 0.039213594 -0.0033633625 -0.0069121853 0.089673474 0.0700336 0.27549872
0.14266755 0.19984266 0.24610433 0.1685508 -0.26260707 -0.01974777 -0.20814049 0.07391776
0.07562766 0.14993876 -0.2008476 -0.08179663 -0.12763616 -0.1540643 0.2724227 0.09288631
0.3946964 -0.31279442 0.2194496 0.11208033 -0.1885709 0.052678537 0.06672496 -0.008526255
0.11396091 -0.23390432 0.35946998 0.13023737 0.18499105 -0.14895353 -0.21957947 -0.2689607
-0.002086883 -0.12032404 -0.25703076 -0.26454434 0.07994224 0.31811535 0.1379167 0.03421815
0.0203839 0.101290785 0.1266145 0.4115289 -0.20150049 -0.1026998 -0.043825913 0.0277382
-0.08736091 -0.20082408 -0.022734351 -0.21732852 0.42742154 -0.054698475 -0.11637559 -0.108374365
0.34017575 -0.18535258 0.1301048 0.18035395 0.04454848 -0.07187227 -0.18969682 0.019327179
0.20285285 -0.20758805 -0.15368925 -0.23226611 0.07601156 0.22850005 0.08845867 -0.17776822
-0.020909943 0.21211545 0.12272773 0.1342844 -0.08065043 -0.16880704 0.08879794 0.24450074
-0.32581967 -0.07830545 0.24319749 -0.058893427 0.13443968 0.009871827 -0.23675694 -0.08461736
-0.071215816 0.23711585 -0.12035187 -0.0051360317 0.18690956 -0.15291265 0.006109367 0.08805215
0.21653141 0.27939653 0.123131305 0.12813793 -0.09738441 -0.20244934 -0.13103348 0.16773404
0.15156879 0.126191 -0.1416442 -0.22288857 -0.07441218 -0.09299225 0.08785369 0.12922417
0.20522358 -0.16516587 0.19594347 0.36347923 -0.2164551 0.20622289 0.15471418 -0.21570176
-0.02966524 0.07812955 -0.18557025 0.11537267 0.2759354 -0.16605562 0.19641706 0.24928692
0.2634544 0.09547187 0.21881448 0.16457656 -0.112512596 -0.21285139 0.035154592 0.040358625
0.07940746 0.30174544 0.062011745 -0.36632738 -0.11667166 0.016390672 0.115408346 0.08788006
0.26172423 -0.32709667 0.17822641 0.2739652 -0.20128946 0.083809696 0.3048061 -0.098653026
00000000: ad2e a23d d03a 57be e04d 993d 4c0d 253e
00000010: bd35 9cba 227c 833e 8096 423e f187 91bd
00000020: 225f 2cbe 560b 833d 3eb7 33be 3811 60bc
00000030: ebca 673e 1e0c 1f3c 12a0 3e3e b39a e33d
00000040: 5e85 3e3e 448c f6bd f662 a63e 9789 d53d
00000050: 700b 9f3e fd1e 073e 1242 64be 0cab 1fbd
00000060: c034 87be 7ce1 873e 8408 bf3c aec8 89bd
00000070: 193e 1b3e 6a43 4b3d aa57 76be 79ab 0e3e
00000080: 68f0 89bd d6bc 8abd cd4d 933d e3eb 0cbe
00000090: 25b0 01bd 319f 683d 9ffa 873e 1473 b2bd
000000a0: 9989 6e3c 552a 2d3d c294 23be c16b 853e
000000b0: ba05 b13e 6201 1b3e 4956 ddbd 8966 a33e
000000c0: a90b 7b3e b9d1 42be cb7b 783e f06b 603e
000000d0: 83c6 363e 635f 563e 7f80 44be 9083 26be
000000e0: 66d1 61bd 113e 3f3e dc76 61be 688d fdbd
000000f0: 4c26 db3c 27cf 1cbd 8587 acbc dad9 693e
00000100: 7f88 be3c 8cca 4dbd d11f db3d 5ec8 44be
00000110: d9f9 a43c d78a 983e b529 1a3e e9c5 083e
00000120: 95e6 83be 43b2 533d dc69 3cbe 8c3f 463e
00000130: cb8a 873e c0fd 10bc fbff a93d cdad 913d
00000140: 1dc9 403e 9451 ce3c aa24 7a3e 57e7 3a3d
00000150: 1577 8b3e b2ae a93e 4e63 8ebe 9fcd 8bbe
00000160: 6de5 87be a412 0a3e 6bfe 21be 5ae2 e2bd
00000170: 99d6 5ebd 5cfd 843d 18fa 53bd 7c6d a73e
00000180: 6ae2 27be 2de7 4e3e 6f9e 203d dc6b 5cbb
00000190: 9d7f e2bb baa6 b73d c76d 8f3d 2b0e 8d3e
000001a0: 7117 123e 8ea3 4c3e c602 7c3e 9598 2c3e
000001b0: 6f74 86be 13c6 a1bc c822 55be 3262 973d
000001c0: ade2 9a3d 8c89 193e feaa 4dbe fe84 a7bd
000001d0: 0eb3 02be 08c3 1dbe fd7a 8b3e 2d3b be3d
000001e0: a615 ca3e 9726 a0be 65b7 603e 5f8a e53d
000001f0: bb18 41be 73c5 573d 19a7 883d b5b1 0bbc
00000200: 5664 e93d 9d84 6fbe 730c b83e f25c 053e
00000210: 4b6e 3d3e 4687 18be 71d9 60be 38b5 89be
00000220: 16c4 08bb 736c f6bd 8999 83be 5b72 87be
00000230: c2b8 a33d 04e0 a23e 093a 0d3e 5528 0c3d
00000240: 23fc a63c 8b71 cf3d 3ba7 013e eab3 d23e
00000250: 2556 4ebe 4654 d2bd cd82 33bd 393b e33c
00000260: 47ea b2bd d4a4 4dbe 643d babc 5e8b 5ebe
00000270: ffd6 da3e 820b 60bd 5356 eebd 61f3 ddbd
00000280: 842b ae3e 11cd 3dbe 313a 053e b5ae 383e
00000290: 7878 363d c531 93bd e23f 42be 0854 9e3c
000002a0: a8b8 4f3e f691 54be b760 1dbe 2bd7 6dbe
000002b0: f3ab 9b3d ebfb 693e d229 b53d df08 36be
000002c0: 544b abbc cb34 593e ad58 fb3d da81 093e
000002d0: 0d2c a5bd c1db 2cbe b2db b53d 675e 7a3e
000002e0: d6d1 a6be 9c5e a0bd c308 793e 3c3a 71bd
000002f0: 8eaa 093e 72bd 213c 6970 72be de4b adbd
00000300: 99d9 91bd 7fce 723e 0b7b f6bd 284c a8bb
00000310: 3865 3f3e 2295 1cbe 1631 c83b b054 b43d
00000320: 69ba 5d3e 100d 8f3e 442c fc3d 9736 033e
00000330: 7a71 c7bd e14e 4fbe a42d 06be 79c2 2b3e
00000340: d934 1b3e 3738 013e 2d0b 11be e73c 64be
00000350: 6a65 98bd b972 bebd a3ec b33d 5753 043e
00000360: 2126 523e 3e21 29be 68a5 483e f319 ba3e
00000370: 68a6 5dbe 182c 533e 656d 1e3e ece0 5cbe
00000380: 8404 f3bc 6302 a03d 2106 3ebe 8248 ec3d
00000390: 6847 8d3e 7c0a 2abe 8e21 493e 1245 7f3e
000003a0: 7fe3 863e c186 c33d e710 603e c286 283e
000003b0: 016d e6bd b7f5 59be 43fe 0f3d 164f 253d
000003c0: 61a0 a23d 617e 9a3e 0700 7e3d 438f bbbe
000003d0: 8df1 eebd bb45 863c 365b ec3d 76fa b33d
000003e0: b800 863e 3779 a7be fc80 363e 2b45 8c3e
000003f0: d31e 4ebe 6ba4 ab3d 8c0f 9c3e 990a cabd

network.2.bias f4 [16]
0.24889886 0.15225092 0.06226459 0.12256764 0.21216762 0.0153050665 0.21232714 0.07710453
0.17153828 0.094056524 0.31189746 -0.22789279 -0.048553426 0.19609258 0.23493548 0.1628586
00000000: 58df 7e3e aae7 1b3e 2809 7f3d be04 fb3d
00000010: 7842 593e 1ac2 7a3c 496c 593e fbe8 9d3d
00000020: bba7 2f3e b5a0 c03d 06b1 9f3e ba5c 69be
00000030: f5df 46bd 7ecc 483e ed92 703e 68c4 263e

network.4.weight f4 [3, 16]
0.48092404 0.30529258 0.42299956 -0.45418212 -0.57297385 -0.42905542 -0.43541718 -0.44052216
-0.10472193 -0.33304304 -0.0073325774 0.018054679 -0.20490958 0.26233885 -0.37934405 -0.42425057
-0.45132777 -0.3040607 -0.32159373 0.35334048 -0.6090412 -0.2473514 0.39043733 0.31440666
0.32951114 -0.363092 0.09148735 -0.121578254 -0.17520787 0.1995303 0.30295113 0.083215564
-0.054568242 -0.33500126 -0.101457946 -0.36466607 0.37239724 0.30758113 -0.38184887 -0.2122299
-0.4929224 0.4351324 -0.25791186 -0.06739493 -0.11012055 -0.45153347 -0.13393697 0.23532528
00000000: ad3b f63e 4f4f 9c3e 6693 d83e 8f8a e8be
00000010: 6aae 12bf 27ad dbbe 00ef debe 1f8c e1be
00000020: 7478 d6bd 9e84 aabe 1e46 f0bb 68e7 933c
00000030: d1d3 51be 4751 863e 6239 c2be 5f37 d9be
00000040: 6f14 e7be d8ad 9bbe efa7 a4be 0be9 b43e
00000050: 20ea 1bbf af49 7dbe 67e7 c73e e9f9 a03e
00000060: afb5 a83e 32e7 b9be b85d bb3d 05fe f8bd
00000070: b169 33be ac51 4c3e 691c 9b3e ec6c aa3d
00000080: f382 5fbd 4985 abbe 2fc9 cfbd 83b5 babe
00000090: daaa be3e 467b 9d3e b281 c3be cb52 59be
000000a0: 5360 fcbe adc9 de3e 060d 84be 5a06 8abd
000000b0: e286 e1bd 652f e7be c626 09be 1cf9 703e

network.4.bias f4 [3]
-0.013413073 0.16348118 0.012590818
00000000: 81c2 5bbc 9c67 273e b849 4e3c

exp_avg f4 [32, 13]
5.9958726e-05 2.7469649e-05 -9.445391e-05 7.901364e-06 1.44231e-05 1.7501172e-05 0.00023846878 4.1848976e-05
4.9105405e-05 -0.0001467254 0.00018062496 0.00011293864 -1.4024709e-05 0.00022711803 4.4216264e-05 4.4614764e-05
-0.00018144061 -5.8296402e-05 2.3057644e-05 5.6148096e-05 0.000112920636 -4.1502117e-05 7.5095384e-05 1.6250653e-05
7.320453e-05 0.00013874748 3.4383538e-05 -5.1620023e-06 -0.00013147203 2.572828e-06 -1.9575762e-05 -1.25638635e-05
0.00021297495 8.365711e-05 4.582793e-05 -0.0001404785 0.0001801684 8.103967e-05 -3.2892796e-05 4.6660585e-05
3.6643545e-05 -8.843695e-05 1.0113904e-06 -4.952577e-05 3.2715758e-05 0.00020678989 4.2867905e-05 0.00010102105
-6.9124115e-05 0.00012705056 0.000118359574 -3.1446903e-09 6.3647276e-05 8.5938555e-05 3.0793333e-05 -2.7357799e-05
-0.00011136086 -1.5757765e-05 6.772054e-05 3.5400358e-06 9.377542e-05 4.332399e-05 2.4885221e-05 8.55276e-05
1.3488908e-05 -0.00016998344 -0.00011433313 -6.675832e-05 0.00019305639 -2.7973429e-05 -2.4564733e-05 -0.00011389189
1.4169484e-05 -7.1688123e-06 4.222675e-05 -9.463394e-06 -0.00012655446 -0.00017100375 -4.10716e-05 0.00012373035
-4.990119e-05 6.9407775e-05 -9.7433585e-05 -7.493588e-05 -9.382667e-05 -3.2338656e-05 9.753324e-05 0.00010932585
-0.00016231122 -5.6049925e-05 -0.0001014053 0.00016450725 3.412157e-06 -3.666938e-05 -0.00016606678 -7.934331e-05
-5.0716088e-05 5.4340285e-06 0.00010661527 -6.219063e-05 5.073141e-05 1.3851609e-05 1.13032565e-05 0.00012215848
1.2950202e-05 -1.2489879e-05 -3.8960075e-05 -0.00010575142 -9.594991e-05 6.500172e-05 -4.9583286e-06 -0.00013478486
0.000109575725 0.00013212487 -3.0484705e-05 4.584843e-05 0.00017220413 0.00014050354 -0.000110561516 0.000120198514
-0.00016575716 0.00010941691 0.0001303184 -0.00013933012 -4.614574e-06 -0.00023568586 0.00012437605 4.3092397e-05
4.7226917e-05 0.00014775193 0.00020801758 9.24246e-05 -5.0872353e-05 -0.00024600027 -0.0001459556 2.900025e-06
7.6507546e-05 2.7954282e-05 -3.7092395e-05 9.778577e-05 -9.442263e-05 3.4318324e-05 0.00013570132 4.142786e-05
0.00014672095 3.9324255e-05 9.607772e-05 -0.00010547145 -6.180497e-05 7.909821e-05 -0.00022397633 0.00030187322
0.0001702313 -8.082586e-05 0.00011782725 3.5947753e-05 -0.00027484575 -0.00013149095 -0.00015843622 0.00025122214
-4.8419174e-06 -6.383483e-05 -0.00023844453 -5.610357e-05 1.2533231e-05 4.079165e-05 -4.283126e-05 -0.00022886092
-0.00025232087 5.7699668e-05 3.2665505e-06 -0.00011592824 -4.500287e-06 1.8674104e-05 3.891322e-06 0.0002437756
9.0544825e-05 2.6089949e-05 -0.00017922156 0.00019653914 8.9705274e-05 -2.6124222e-05 4.1954067e-05 -2.2453922e-05
-8.0005906e-05 6.5267895e-06 4.205611e-05 -2.0583444e-05 0.00016218382 7.418014e-05 -2.3431212e-05 -0.00015100953
0.00015554388 3.169838e-05 -3.4049743e-05 -4.5983015e-05 -6.600113e-05 -4.7697526e-05 5.5904005e-05 -4.8350612e-05
-6.35245e-05 -8.531137e-05 5.9716956e-05 -1.9654137e-05 5.247961e-05 -6.5455056e-06 -7.909817e-05 -5.8967165e-05
-6.018865e-05 -8.4220555e-05 -6.2787316e-05 6.527239e-05 -5.6824905e-05 -7.97533e-05 -0.00010519585 6.581701e-05
-2.3471503e-05 6.348629e-05 -6.844281e-06 -9.8912635e-05 -6.970921e-05 3.469864e-05 0.000118943804 -2.6413629e-05
-9.124017e-06 -7.9543446e-05 4.8927268e-05 5.2702104e-05 -0.0001309103 0.00019494398 7.978359e-05 -1.2523385e-05
0.00013294445 5.562985e-05 -0.0002384006 -0.00023542666 -0.000105891966 0.00019567179 4.4045806e-05 1.0256595e-05
-0.00021352846 9.959982e-05 -0.00015412486 -2.2717322e-05 -7.4859863e-06 -0.00024067795 -0.00023141867 -9.557791e-06
-0.00015962137 -0.00019126527 -8.085102e-05 -0.00016263782 -2.0508702e-05 9.490516e-05 0.00031983206 -4.3087875e-05
00000000: 317c 7b38 9f6e e637 8f15 c6b8 1a90 0437
00000010: befa 7137 7bcf 9237 7a0d 7a39 ff86 2f38
00000020: 87f6 4d38 4dda 19b9 2566 3d39 78d9 ec38
00000030: ab4b 6bb7 8826 6e39 da74 3938 bd20 3b38
00000040: 1841 3eb9 4983 74b8 ea6b c137 8f80 6b38
00000050: cecf ec38 8f12 2eb8 877c 9d38 0352 8837
00000060: 6285 9938 be7c 1139 0b37 1038 4335 adb6
00000070: c1db 09b9 d9a8 2c36 a136 a4b7 62c9 52b7
00000080: 0752 5f39 1271 af38 5d37 4038 694d 13b9
00000090: 96eb 3c39 d7f3 a938 5ff6 09b8 6cb5 4338
000000a0: b5b1 1938 3a77 b9b8 1cbf 8735 e4b9 4fb8
000000b0: 4738 0938 bdd5 5839 10cd 3338 43db d338
000000c0: baf6 90b8 e038 0539 d037 f838 fa19 58b1
000000d0: 5f7a 8538 e939 b438 1728 0138 6d7e e5b7
000000e0: 688a e9b8 8b2f 84b7 3005 8e38 5a91 6d36
000000f0: 4ca9 c438 c8b6 3538 9bc0 d037 485d b338
00000100: 6b4e 6237 953d 32b9 22c6 efb8 9a00 8cb8
00000110: 2e6f 4a39 7ba8 eab7 5d10 ceb7 3ed9 eeb8
00000120: 78b9 6d37 a18b f0b6 a11c 3138 f8c4 1eb7
00000130: b4b3 04b9 784f 33b9 4b44 2cb8 9dbd 0139
00000140: ff4c 51b8 048f 9138 4255 ccb8 e526 9db8
00000150: cfc4 c4b8 5ea3 07b8 c28a cc38 de45 e538
00000160: 1632 2ab9 2617 6bb8 8ea9 d4b8 947f 2c39
00000170: 69fc 6436 72cd 19b8 3622 2eb9 1d65 a6b8
00000180: fcb7 54b8 f355 b636 a396 df38 576c 82b8
00000190: 70c8 5438 3564 6837 1ea3 3d37 ab17 0039
000001a0: b244 5937 9f8b 51b7 1069 23b8 dcc6 ddb8
000001b0: b738 c9b8 8851 8838 b85f a6b6 0955 0db9
000001c0: 05cc e538 008b 0a39 68b9 ffb7 604d 4038
000001d0: b291 3439 2254 1339 43dd e7b8 1613 fc38
000001e0: 19cf 2db9 c276 e538 14a6 0839 2519 12b9
000001f0: e4d6 9ab6 7122 77b9 f16a 0239 1cbe 3438
00000200: 8415 4638 dbed 1a39 4b1f 5a39 14d4 c138
00000210: c65f 55b8 99f9 80b9 a80b 19b9 0d9e 4236
00000220: ad72 a038 5d7f ea37 a893 1bb8 5612 cd38
00000230: c304 c6b8 05f1 0f38 0c4b 0e39 d3c2 2d38
00000240: 1bd9 1939 19f0 2438 557d c938 8e30 ddb8
00000250: 4a9d 81b8 87e1 a538 30db 6ab9 bd44 9e39
00000260: 1e80 3239 0e81 a9b8 061a f738 9bc6 1638
00000270: 2c19 90b9 d5e0 09b9 e621 26b9 77b6 8339
00000280: c177 a2b6 10df 85b8 f706 7ab9 c050 6bb8
00000290: d145 5237 b317 2b38 b7a5 33b8 63fa 6fb9
000002a0: ef49 84b9 8c02 7238 e936 5b36 801e f3b8
000002b0: 2c01 97b6 55a6 9c37 3492 8236 049e 7f39
000002c0: e2e2 bd38 bddb da37 6ced 3bb9 1316 4e39
000002d0: 2720 bc38 5725 dbb7 d6f7 2f38 6e5b bcb7
000002e0: d8c8 a7b8 b200 db36 6765 3038 9caa acb7
000002f0: e30f 2a39 2991 9b38 258e c4b7 5058 1eb9
00000300: 7e19 2339 e0f3 0438 a2d0 0eb8 e3dd 40b8
00000310: 166a 8ab8 d40e 48b8 787a 6a38 13cc 4ab8
00000320: 7538 85b8 31e9 b2b8 9878 7a38 f0de a4b7
00000330: 8d1d 5c38 77a1 dbb6 82e1 a5b8 8353 77b8
00000340: 1273 7cb8 919f b0b8 afac 83b8 d9e2 8838
00000350: 4757 6eb8 3a41 a7b8 989c dcb8 3d07 8a38
00000360: abe4 c4b7 f123 8538 eda7 e5b6 516f cfb8
00000370: d930 92b8 6289 1138 7871 f938 d692 ddb7
00000380: 5b13 19b7 90d0 a6b8 4137 4d38 740c 5d38
00000390: f744 09b9 e069 4c39 7d51 a738 871b 52b7
000003a0: 0167 0b39 1954 6938 2cfb 79b9 dddc 76b9
000003b0: 5112 deb8 3f2d 4d39 d3bd 3838 bd13 2c37
000003c0: 9ce6 5fb9 3fe0 d038 949c 21b9 1491 beb7
000003d0: 2230 fbb6 7f5e 7cb9 faa8 72b9 665a 20b7
000003e0: 0960 27b9 618e 48b9 908e a9b8 c289 2ab9
000003f0: 1a0a acb7 d207 c738 22af a739 41b9 34b8

exp_avg_sq f4 [32, 13]
7.206803e-06 4.2735523e-05 1.0495891e-05 1.6112866e-05 1.51738805e-05 2.9861303e-05 5.7546495e-05 4.670668e-05
2.6572216e-05 5.10441e-05 4.590667e-05 6.5776796e-05 6.6884536e-06 2.1263615e-05 9.527727e-06 1.6286755e-05
2.347344e-05 2.2605163e-05 1.0436322e-05 9.0648855e-06 1.0645659e-05 8.252009e-06 1.6543014e-05 9.394727e-06
8.7017615e-06 1.30115095e-05 1.539149e-06 1.0515722e-05 2.1106287e-06 5.4650345e-06 7.305323e-06 7.265452e-06
1.090454e-05 2.0038457e-05 6.681233e-06 4.682087e-06 5.8627106e-06 1.3854779e-05 3.309306e-06 2.8816874e-06
2.108742e-05 5.132579e-06 1.1187961e-05 8.4995245e-06 1.9287127e-05 3.5678757e-05 2.6414451e-05 1.5298332e-05
2.4038187e-05 2.8745522e-05 3.908358e-05 5.458136e-06 1.0233568e-06 8.467729e-07 3.3883618e-06 3.9806127e-06
8.187752e-06 1.290065e-06 1.376948e-06 1.4936326e-06 2.6609027e-06 1.0156174e-06 1.2777382e-06 1.4727874e-06
5.351755e-07 8.682398e-06 4.6449777e-06 7.241054e-06 1.5163362e-05 8.164111e-06 8.229175e-06 1.1151047e-05
4.897883e-06 5.5545943e-06 1.9367549e-06 4.0023524e-06 8.732787e-06 1.3540339e-05 2.8118254e-06 3.3702402e-06
4.2697634e-06 4.6511964e-06 3.0305864e-06 6.1881105e-06 7.70826e-06 5.046944e-06 5.7864177e-06 1.0862993e-06
4.1555054e-06 8.04058e-06 5.013983e-06 2.244042e-05 8.178725e-06 1.0611237e-05 1.7044586e-05 1.8941735e-05
7.9983965e-06 5.9650897e-06 7.30186e-06 6.1360242e-06 1.5756625e-05 6.5805107e-06 7.307919e-06 1.5238321e-05
2.1935539e-05 1.3018086e-05 1.2603516e-05 1.1320352e-05 1.2283262e-05 9.758733e-06 8.437396e-06 2.003246e-05
1.4009878e-05 1.4468506e-05 9.0009635e-06 9.5519545e-06 2.8177767e-05 1.1783402e-05 1.8642546e-05 8.182552e-06
1.5638425e-05 1.6622982e-05 1.167219e-05 1.0273756e-05 2.6405763e-05 6.0790853e-06 1.4442912e-05 9.447445e-06
1.269711e-05 9.094425e-06 2.8403101e-05 1.38224e-05 1.513474e-05 2.7747352e-05 3.869216e-05 1.44777905e-05
7.281574e-06 1.8658287e-05 1.863445e-05 1.9679333e-05 1.5826892e-05 1.3999724e-05 1.9583871e-05 4.5218558e-06
1.0110634e-05 6.5322533e-06 6.0951593e-06 6.7119213e-06 7.7190925e-06 6.2640133e-06 1.03347975e-05 1.4270307e-05
7.1179234e-06 7.771066e-06 1.165732e-05 5.4101974e-06 3.9172188e-05 1.4886363e-05 3.6048703e-05 4.637928e-05
4.4772558e-05 2.9835024e-05 3.8591712e-05 2.1797365e-05 2.1733602e-05 9.973744e-06 1.3011439e-05 3.4305176e-05
4.5321394e-05 1.7558194e-06 1.3576754e-05 3.3936024e-06 6.5613985e-06 8.113897e-06 9.01566e-06 1.337182e-05
2.3935647e-05 8.562956e-06 5.5898336e-06 7.967239e-06 1.6042315e-05 3.8001465e-06 6.1117976e-06 1.7540106e-05
7.745584e-06 7.560942e-06 9.400294e-06 8.705127e-06 1.1651705e-05 2.7802767e-05 9.707564e-06 1.0278692e-05
7.370331e-06 1.4388599e-05 5.005724e-06 1.3932257e-06 1.3134811e-06 1.2442603e-06 1.0668907e-06 1.6492068e-06
2.7128485e-06 2.6471487e-06 1.9502404e-06 1.816436e-06 1.376353e-06 1.2361818e-06 2.6396785e-06 1.3280921e-06
3.5109642e-06 2.2610625e-06 2.3008015e-06 5.3954673e-06 1.8395716e-06 5.934205e-06 7.794014e-06 4.3302416e-06
3.4968743e-06 1.1676974e-06 2.5417626e-06 5.560262e-06 8.516629e-06 5.418181e-06 1.1373589e-05 5.6200233e-06
8.632835e-06 5.825384e-06 1.920498e-05 2.492065e-05 1.1391587e-05 1.6172802e-05 9.341724e-06 1.3971679e-05
2.6349704e-05 6.6345783e-06 6.75282e-05 1.8831246e-05 4.171417e-05 5.4702432e-05 5.007461e-05 3.0096335e-05
3.468572e-05 2.3438975e-05 2.4116363e-05 1.4330574e-05 1.4860697e-05 3.0261743e-05 5.2833166e-05 1.3610595e-06
1.1179323e-05 5.4751076e-06 6.6174657e-06 7.6264523e-06 6.4018823e-06 5.4623974e-06 1.9894718e-05 6.413573e-06
00000000: f7d1 f136 eb3e 3338 8217 3037 1e2a 8737
00000010: 5293 7e37 a97e fa37 145e 7138 eae6 4338
00000020: 66e7 de37 2f18 5638 e98b 4038 a6f1 8938
00000030: 616d e036 445f b237 47d9 1f37 8a9f 8837
00000040: d4e8 c437 38a0 bd37 a917 2f37 6315 1837
00000050: c29a 3237 1c72 0a37 dac5 8a37 0c9e 1d37
00000060: c8fd 1137 024c 5a37 c294 ce35 af6c 3037
00000070: 53a4 0d36 4a60 b736 3f20 f536 c2c9 f336
00000080: a5f2 3637 4218 a837 5b2f e036 d21a 9d36
00000090: 4db8 c436 d371 6837 7215 5e36 0363 4136
000000a0: e4e4 b037 8538 ac36 edb3 3b37 2e99 0e37
000000b0: caca a137 c6a5 1538 9a94 dd37 eb54 8037
000000c0: 9da5 c937 8a22 f137 aded 2338 0825 b736
000000d0: 465a 8935 ca4d 6335 9d63 6336 3491 8536
000000e0: 215e 0937 4c26 ad35 93cf b835 d378 c835
000000f0: f691 3236 5950 8835 c07e ab35 97ac c535
00000100: fba8 0f35 9eaa 1137 0edc 9b36 2ef8 f236
00000110: 2566 7e37 97f8 0837 0a10 0a37 6215 3b37
00000120: 7f58 a436 9a61 ba36 32f9 0136 f24b 8636
00000130: 0983 1237 502b 6337 cbb2 3c36 492c 6236
00000140: fd44 8f36 7911 9c36 1461 4b36 77a3 cf36
00000150: b952 0137 eb58 a936 f328 c236 f6cc 9135
00000160: 856f 8b36 07e6 0637 c93d a836 6f3e bc37
00000170: 5b37 0937 ea06 3237 f8fa 8e37 11e5 9e37
00000180: da30 0637 bb27 c836 8002 f536 0ce4 cd36
00000190: 182d 8437 28ce dc36 8c36 f536 17a8 7f37
000001a0: 3602 b837 4168 5a37 b073 5337 8bec 3d37
000001b0: 3514 4e37 70b9 2337 578e 0d37 610b a837
000001c0: f80b 6b37 c3bd 7237 d802 1737 5541 2037
000001d0: 4b5f ec37 54b1 4537 9062 9c37 cb47 0937
000001e0: 432f 8337 9571 8b37 add3 4337 725d 2c37
000001f0: f281 dd37 f2fa cb36 d64f 7237 7880 1e37
00000200: ac05 5537 4294 1837 3243 ee37 c2e6 6737
00000210: 37eb 7d37 fcc2 e837 6449 2238 a3e5 7237
00000220: 3f54 f436 5e84 9c37 2d51 9c37 0c15 a537
00000230: fec3 8437 5be0 6a37 0b48 a437 72ba 9736
00000240: d8a0 2937 a12f db36 0585 cc36 f736 e136
00000250: 4081 0137 772f d236 9e63 2d37 806a 6f37
00000260: 7fd6 ee36 7960 0237 cf93 4337 3e89 b536
00000270: d14c 2438 71c0 7937 0033 1738 5f87 4238
00000280: 2bca 3b38 3a46 fa37 89dd 2138 7cd9 b637
00000290: 8e50 b637 e854 2737 b44b 5a37 e7e2 0f38
000002a0: 7a17 3e38 7fa9 eb35 b7c7 6337 a5bd 6336
000002b0: fc29 dc36 ec20 0837 f741 1737 8857 6037
000002c0: 69c9 c837 9ea9 0f37 4e90 bb36 08ab 0537
000002d0: 9c92 8637 0506 7f36 f113 cd36 1723 9337
000002e0: 08f3 0137 ffb3 fd36 f5b5 1d37 3c0c 1237
000002f0: b17b 4337 fd39 e937 abdd 2237 a572 2c37
00000300: a94e f736 9066 7137 d7f6 a736 dffe ba35
00000310: de4a b035 7500 a735 1632 8f35 505a dd35
00000320: 620e 3636 aba5 3136 e0e0 0236 44cc f335
00000330: 21bb b835 e2ea a535 5525 3136 e640 b235
00000340: e89d 6b36 c2bc 1736 7867 1a36 b60a b536
00000350: 33e7 f635 6f1e c736 09c3 0237 7e4c 9136
00000360: d8ab 6a36 c7b9 9c35 2693 2a36 4992 ba36
00000370: a5e2 0e37 d2cd b536 31d1 3e37 a293 bc36
00000380: bed5 1037 ab77 c336 611a a137 b00c d137
00000390: 7e1e 3f37 d4aa 8737 66ba 1c37 e867 6a37
000003a0: 8f09 dd37 989e de36 ed9d 8d38 cbf7 9d37
000003b0: 40f6 2e38 4a70 6538 3407 5238 6377 fc37
000003c0: 827b 1138 d19e c437 7f4d ca37 596d 7037
000003d0: 3552 7937 99da fd37 2e99 5d38 a6ad b635
000003e0: d48e 3b37 d1b6 b736 990b de36 bae6 ff36
000003f0: c0cf d636 a349 b736 95e3 a637 2c34 d736

exp_avg f4 [32]
-1.0777817e-05 -1.8904138e-05 -3.13427e-05 -5.7471996e-05 -0.00012791461 -0.00020232609 -0.00015241613 -1.6253374e-05
-6.157762e-05 -0.00012526504 1.1372628e-06 -0.0003474061 -0.0003070282 1.9958266e-05 3.2475582e-05 -0.00015791913
-0.00019375769 -0.0001592239 -0.00018126935 2.9509843e-05 -0.00024006394 -0.00023161108 1.5775942e-05 -0.0001072593
-0.00027005782 -0.00024363605 -0.00015558174 -0.00021725381 3.1259773e-05 -6.069548e-05 -0.00018393435 -0.00017404485
00000000: 5fd2 34b7 5494 9eb7 f875 03b8 160e 71b8
00000010: d120 06b9 7f27 54b9 e5d1 1fb9 db57 88b7
00000020: 3c23 81b8 9459 03b9 0da4 9835 0f24 b6b9
00000030: a1f8 a0b9 0d6c a737 6436 0838 1897 25b9
00000040: 6f2b 4bb9 57f5 26b9 1f13 3eb9 e88b f737
00000050: acb9 7bb9 a0dc 72b9 9456 8437 66f0 e0b8
00000060: 8c96 8db9 8e78 7fb9 a823 23b9 a0ce 63b9
00000070: ed1c 0338 4793 7eb8 80de 40b9 cf7f 36b9

exp_avg_sq f4 [32]
3.188048e-05 1.3096649e-05 8.208975e-06 2.2448941e-05 2.0399968e-06 8.593949e-06 5.9724093e-06 1.0749801e-05
2.4216908e-05 1.8165267e-05 2.1612517e-05 2.7175363e-05 4.036257e-05 1.0558071e-05 1.0600154e-05 4.897935e-06
1.6521928e-05 2.6324504e-05 3.1452193e-05 8.590885e-06 4.10951e-05 1.1445224e-05 9.328674e-06 8.831491e-06
5.1751427e-05 8.479926e-06 1.4942918e-05 1.06045845e-05 3.0329875e-05 1.1415144e-06 2.3333905e-05 1.5454269e-05
00000000: 68b7 0538 aeb9 5b37 47b9 0937 bc50 bc37
00000010: e1e6 0836 bb2e 1037 9b66 c836 0b5a 3437
00000020: 6a25 cb37 9d61 9837 874c b537 a6f6 e337
00000030: fb4a 2938 9222 3137 51d7 3137 f158 a436
00000040: 9298 8a37 71d3 dc37 89eb 0338 9221 1037
00000050: 875d 2c38 dd04 4037 5a82 1c37 f72a 1437
00000060: ac0f 5938 0145 0e37 58b3 7a37 58ea 3137
00000070: e96c fe37 2336 9935 2ebd c337 caa3 8137

exp_avg f4 [16, 32]
-7.164214e-05 0.00013767928 -0.00010033862 -7.376957e-06 4.4179713e-05 -0.00045090166 -0.00017330697 -8.127286e-06
3.5210945e-05 7.43244e-05 8.69242e-05 -0.00013350672 -0.0003883308 -0.000110020395 -0.00010691388 -0.00031958034
-0.0002988859 -1.5763886e-06 -0.0004094683 -0.00015754529 -0.00033507246 -0.00037100218 0.0001863684 9.678111e-06
0.0001818961 -0.0004888136 4.2034248e-05 5.7176512e-05 -0.00012830897 1.7609394e-06 9.5231284e-05 -0.00040877404
1.7350781e-05 7.92703e-05 -8.701966e-06 4.066678e-05 3.498492e-05 -0.00034077239 -0.00018603401 -2.925172e-05
2.6455293e-05 7.740702e-06 4.7090296e-05 -0.00016305457 -0.00029176936 4.2397055e-06 -3.8962153e-05 -0.00025368744
-0.000236754 -7.210405e-07 -0.00030945102 -8.4294246e-05 -0.0002605913 -0.00027687513 0.00011839096 3.6176243e-05
0.00010206195 -0.00036375836 2.6012858e-05 1.1782327e-06 -4.4240107e-05 -2.0962272e-05 3.6252783e-05 -0.0003078673
7.010736e-06 0.000113186135 -2.054576e-05 1.086056e-05 2.604645e-05 -0.00037332156 -0.0002626794 -1.0085639e-05
1.176129e-06 2.103778e-05 6.670416e-05 -0.00022728374 -0.00032290103 -8.5862047e-07 -5.346984e-05 -0.00026628652
-0.0002458806 -2.019038e-05 -0.0003435037 -8.917646e-05 -0.00028504885 -0.00030711375 0.00015216837 9.204459e-06
0.00012801001 -0.0004040907 1.6104465e-05 5.42258e-06 -4.6504098e-05 -1.6133916e-05 2.3209426e-05 -0.00033991094
8.934034e-05 -0.00019871583 0.00010211112 3.7275513e-05 -5.915975e-05 0.00011312653 -9.3539806e-05 -0.00014789909
-0.00012539874 -0.00023941713 -0.00013977368 -0.00018511793 0.000109463384 0.00016416915 4.76466e-05 1.5176315e-06
-2.3181103e-05 -0.00012624625 0.00010384998 0.000105755265 5.2861604e-05 0.000109915796 -0.00019370636 -2.4899186e-05
-0.00023696774 0.00014359978 -0.00014152845 -0.00018119939 0.00010453065 -0.00012399387 -0.00018259561 0.000112799
-0.00029658573 3.192543e-05 -0.0003356629 -0.00026392395 -0.00010650498 2.270616e-06 0.00011366214 1.0376943e-05
-7.0556134e-06 0.00019209263 5.664942e-05 0.000121911406 4.097373e-06 -0.00035578298 -0.00028224452 1.3730474e-05
1.1550314e-05 -6.020594e-05 -4.141786e-06 -0.00018595166 4.1395224e-06 2.8279474e-34 8.473142e-06 -0.00017710667
9.627764e-05 -3.2188443e-06 -1.3475405e-05 0.00017608576 -0.0002631585 7.1758426e-05 0.00012282655 -4.1595945e-06
-0.00018098668 5.3655067e-06 -0.00020847408 -0.00015348154 -7.3969146e-05 4.6284595e-07 6.877877e-05 8.982821e-07
-4.6055084e-06 0.00010780311 1.2486669e-05 7.154157e-05 9.645975e-10 -0.00021274998 -0.00017756378 2.1894848e-09
1.3966308e-08 -4.1000196e-05 -4.52455e-06 -0.00011881429 2.9458088e-06 8.696255e-07 -1.3861988e-06 -0.000101635684
5.256167e-05 -1.6950454e-06 -1.6594806e-05 0.00010172922 -0.00016344874 3.6547055e-05 7.108184e-05 -2.7597105e-06
7.217112e-05 -0.00021372967 8.378398e-05 2.1935515e-05 -7.092847e-05 0.00010014043 -0.0001221316 -0.00015778003
-0.00014532704 -0.0002566423 -0.00015735452 -0.00022118211 0.000102522885 0.00015600387 1.938397e-05 -1.1326876e-05
-3.7452584e-05 -0.00015388215 9.120582e-05 9.8165016e-05 4.306823e-05 0.000101771955 -0.0001997547 -4.3766835e-05
-0.00024753524 0.00013651732 -0.00016059948 -0.0001927158 8.830141e-05 -0.00013500775 -0.00019267584 0.00010281921
6.8517285e-05 -0.00021662202 7.132853e-05 2.132821e-05 -0.00010619735 4.433207e-05 -8.697e-05 -0.00016204774
-0.00010124703 -0.00023159139 -0.00011064912 -0.00011274014 9.413166e-05 0.00012535352 4.158145e-05 -1.3905828e-05
-2.982402e-05 -0.00010064725 8.019309e-05 5.6746958e-05 5.873672e-06 7.7087454e-05 -0.00019053537 -2.4904048e-05
-0.00020451249 0.00011912001 -0.00011392606 -0.00014140445 8.5858184e-05 -0.00011281322 -0.00013977887 6.350033e-05
00000000: 953e 96b8 005e 1039 e36c d2b8 9487 f7b6
00000010: 9b4d 3938 ff66 ecb9 bcb9 35b9 6d5a 08b7
00000020: 77af 1338 9cde 9b38 134b b638 f0fd 0bb9
00000030: e198 cbb9 c0ba e6b8 f436 e0b8 598d a7b9
00000040: c9b3 9cb9 4d94 d3b5 e8ad d6b9 be32 25b9
00000050: aaac afb9 1283 c2b9 e36b 4339 2c5f 2237
00000060: 5dbb 3e39 ba23 00ba ee4d 3038 d0d0 6f38
00000070: ad8a 06b9 6b59 ec35 e8b6 c738 b950 d6b9
00000080: 858c 9137 eb3d a638 a9fe 11b7 9f91 2a38
00000090: c6bc 1238 b2a9 b2b9 2012 43b9 9761 f5b7
000000a0: 4fec dd37 10de 0137 d282 4538 a1f9 2ab9
000000b0: 9ff8 98b9 cb42 8e36 4b6b 23b8 5a01 85b9
000000c0: 2b41 78b9 878d 41b5 d03d a2b9 21c7 b0b8
000000d0: f99f 88b9 8d29 91b9 aa48 f838 f2bb 1738
000000e0: 180a d638 d2b6 beb9 3036 da37 c423 9e35
000000f0: 748e 39b8 23d8 afb7 210e 1838 4069 a1b9
00000100: c43d eb36 585e ed38 af59 acb7 c035 3637
00000110: 537e da37 5fba c3b9 3bb8 89b9 7d35 29b7
00000120: 7cdb 9d35 4a7a b037 86e3 8b38 0453 6eb9
00000130: 0b4b a9b9 f37b 66b5 ce44 60b8 5f9c 8bb9
00000140: 89e9 80b9 835e a9b7 4918 b4b9 3f04 bbb8
00000150: 9c72 95b9 1c04 a1b9 638f 1f39 da6c 1a37
00000160: 6d3a 0639 23dc d3b9 1318 8737 9cf3 b536
00000170: 650d 43b8 5257 87b7 ddb1 c237 1336 b2b9
00000180: 3b5c bb38 605e 50b9 7d24 d638 4758 1c38
00000190: 4c22 78b8 583e ed38 cd2a c4b8 5c15 1bb9
000001a0: 787d 03b9 0c0c 7bb9 3690 12b9 371c 42b9
000001b0: b58f e538 d224 2c39 26d8 4738 6cb1 cb35
000001c0: 0a75 c2b7 f860 04b9 09ca d938 edc8 dd38
000001d0: b7b7 5d38 9882 e638 a81d 4bb9 98de d0b7
000001e0: 8b7a 78b9 4693 1639 4167 14b9 5700 3eb9
000001f0: 7737 db38 5a04 02b9 2377 3fb9 818e ec38
00000200: 107f 9bb9 abe7 0538 e9fb afb9 465f 8ab9
00000210: 6d5b dfb8 e360 1836 e65d ee38 a118 2e37
00000220: 42bf ecb6 796c 4939 da9a 6d38 b0aa ff38
00000230: 2b7c 8936 6288 bab9 38fa 93b9 f05b 6637
00000240: 39c8 4137 a385 7cb8 acf9 8ab6 05fc 42b9
00000250: 3ae6 8a36 08f3 bb07 de27 0e37 b6b5 39b9
00000260: aae8 c938 5303 58b6 6c14 62b7 a9a3 3839
00000270: 89f8 89b9 037d 9638 00cb 0039 a592 8bb6
00000280: 3ec7 3db9 5a09 b436 d699 5ab9 e3ef 20b9
00000290: e21f 9bb8 107d f834 523d 9038 7a21 7135
000002a0: 0489 9ab6 5b14 e238 d67d 5137 9708 9638
000002b0: c292 8430 a315 5fb9 6a30 3ab9 d375 1631
000002c0: 79f0 6f32 a0f7 2bb8 97d1 97b6 f02b f9b8
000002d0: 9cb0 4536 3670 6935 6e0d bab5 3e25 d5b8
000002e0: aa75 5c38 5181 e3b5 1335 8bb7 7657 d538
000002f0: 7063 2bb9 1a4a 1938 c611 9538 7733 39b6
00000300: 935a 9738 9f1c 60b9 2fb5 af38 2902 b837
00000310: 6fbf 94b8 7c02 d238 7410 00b9 c171 25b9
00000320: ee62 18b9 f28d 86b9 88ff 24b9 1fed 67b9
00000330: 8e01 d738 f894 2339 c29a a237 9008 3eb7
00000340: 6816 1db8 6d5b 21b9 c045 bf38 f1dd cd38
00000350: 29a4 3438 676e d538 3e75 51b9 4892 37b8
00000360: 9ec7 81b9 1726 0f39 9866 28b9 c113 4ab9
00000370: 752e b938 de90 0db9 0709 4ab9 a5a0 d738
00000380: f0b0 8f38 0825 63b9 3796 9538 fbe9 b237
00000390: 45b6 deb8 33f1 3938 aa63 b6b8 5ceb 29b9
000003a0: 9654 d4b8 57d7 72b9 4b0c e8b8 e76e ecb8
000003b0: 8d68 c538 5471 0339 be67 2e38 144d 69b7
000003c0: 982e fab7 9512 d3b8 562d a838 9503 6e38
000003d0: 7516 c536 03aa a138 73ca 47b9 09e9 d0b7
000003e0: 6772 56b9 12d0 f938 96eb eeb8 f845 14b9
000003f0: c30e b438 2396 ecb8 9b91 12b9 7b2b 8538

exp_avg_sq f4 [16, 32]
7.3897686e-06 4.1025283e-05 6.461499e-06 4.4647436e-06 8.559959e-06 7.876135e-05 2.629831e-05 3.167618e-05
5.37927e-06 1.3956431e-05 1.5817908e-05 0.00012765818 4.720085e-05 1.350353e-05 6.0172647e-06 4.1468345e-05
6.015765e-05 8.48847e-06 8.9231726e-05 2.8139352e-06 0.000119619224 3.4374953e-05 1.6930804e-05 3.719032e-06
5.894699e-06 2.9336454e-05 8.486838e-06 1.6093132e-06 1.7315657e-05 1.1885591e-05 4.548574e-06 0.00012577462
6.2332842e-06 2.2342489e-05 5.0210983e-06 1.8106799e-06 3.833783e-06 6.4646614e-05 1.7705928e-05 2.6337742e-05
7.604847e-06 7.087853e-06 8.922329e-06 0.00010737502 4.021888e-05 1.1742074e-05 5.0164995e-06 3.334641e-05
4.136771e-05 1.8984605e-06 8.600943e-05 1.6609762e-06 0.00011340911 2.942339e-05 7.5635803e-06 6.444101e-07
4.7587178e-06 2.4508929e-05 4.2694137e-06 5.3518716e-07 1.8525674e-05 1.0541004e-05 4.04237e-06 0.000111652975
5.066806e-07 6.129881e-05 6.0893535e-06 1.2245506e-06 6.821313e-06 7.2610695e-05 2.327649e-05 3.3488177e-05
1.3953026e-05 1.5253754e-05 2.144603e-05 0.00012021959 4.6546593e-05 1.5977645e-05 4.444364e-06 3.815289e-05
6.2573075e-05 5.3760327e-06 9.2455986e-05 2.1850324e-06 0.000119179036 3.342972e-05 1.7495273e-05 6.333131e-07
1.025411e-05 2.7709113e-05 6.799552e-06 5.761051e-07 2.1571974e-05 1.0854497e-05 8.7290755e-06 0.00013493084
2.2871045e-05 8.765854e-05 1.1156675e-05 1.1435603e-05 5.733427e-06 2.4730716e-05 1.13520655e-05 3.9536055e-05
4.3529533e-05 4.0119638e-05 2.2071628e-05 5.1648927e-05 7.162833e-06 1.28144275e-05 9.428223e-06 1.6389247e-05
4.9530656e-05 3.5191875e-05 1.3512694e-05 2.7220094e-06 3.1789255e-05 6.651394e-06 2.736906e-05 1.4126506e-05
2.154174e-05 5.4147517e-06 2.3859619e-05 1.0134565e-05 4.5275615e-06 1.0200656e-05 1.3200252e-05 2.4208066e-05
3.3978733e-05 1.4012808e-07 1.2845905e-05 1.851655e-05 1.3008428e-06 3.9759122e-08 8.215547e-07 2.477213e-07
1.1752621e-05 5.094404e-06 5.404238e-07 8.6240794e-07 8.201754e-08 1.6976737e-05 1.7020358e-05 1.6599083e-07
1.5954679e-07 2.7586968e-05 2.6424942e-07 2.1919682e-06 4.3663782e-08 1.9483974e-08 8.837687e-08 1.6648384e-05
7.86357e-07 8.984642e-08 1.3849127e-05 6.043183e-06 7.998231e-06 4.031491e-06 1.7439335e-06 1.2064422e-07
0.00018057815 5.012377e-07 4.2935437e-05 6.444848e-05 2.374517e-06 1.3624864e-07 1.3295626e-06 8.1047955e-07
9.977179e-06 4.9548794e-06 5.8126443e-07 7.68122e-07 2.608714e-07 7.66757e-05 0.000104520805 4.6177763e-07
4.6236428e-07 4.7920534e-05 6.272058e-07 1.1011373e-05 8.6165414e-08 5.084989e-08 8.9420786e-07 2.5387704e-05
6.733831e-07 6.864266e-07 3.951168e-05 5.1018174e-06 3.9825816e-05 1.1037286e-05 1.3719566e-06 4.2986794e-06
3.5544184e-05 0.00018330294 1.4044645e-05 2.0284826e-05 1.15363355e-05 4.0845473e-05 2.7595246e-05 6.425473e-05
0.000112447175 8.256868e-05 6.5737295e-05 0.00011546658 1.75223e-05 1.7482964e-05 1.9511586e-05 2.9394569e-05
0.000103925035 6.6983666e-05 3.0828724e-05 2.918171e-06 5.877955e-05 1.4721619e-05 4.7383473e-05 2.176898e-05
4.174102e-05 1.2953091e-05 4.515476e-05 1.726629e-05 7.812079e-06 1.910414e-05 3.7693255e-05 4.467536e-05
7.3052497e-06 2.708424e-05 3.2389332e-06 5.0229214e-06 4.1467856e-06 1.11043555e-05 9.329265e-06 1.2344444e-05
2.475042e-05 1.3792885e-05 1.9633535e-05 3.6347392e-05 7.860296e-06 4.847669e-06 4.4842545e-06 9.764404e-06
2.0136598e-05 1.3842587e-05 1.5661555e-05 3.6155924e-07 2.0602714e-05 5.0718468e-06 7.3936712e-06 5.0590425e-06
9.243675e-06 2.8571187e-06 1.2341998e-05 3.7705954e-06 3.7013767e-06 4.66465e-06 1.0229379e-05 1.8752788e-05
00000000: a1f5 f736 9012 2c38 dbcf d836 dbcf 9536
00000010: be9c 0f37 ae2c a538 319b dc37 0adc 0438
00000020: 947f b436 6a26 6a37 b3b0 8437 fbdb 0539
00000030: 87f9 4538 388d 6237 e9e7 c936 4cee 2d38
00000040: c951 7c38 b369 0e37 eb21 bb38 0ad7 3c36
00000050: 15dc fa38 d32d 1038 a006 8e37 7c94 7936
00000060: 14cb c536 8e17 f637 b162 0e37 95ff d735
00000070: 1741 9137 3a68 4737 f49f 9836 5ee2 0339
00000080: 8127 d136 216c bb37 e87a a836 7d06 f335
00000090: f2a3 8036 e392 8738 3187 9437 dfef dc37
000000a0: 232d ff36 32d4 ed36 1cb1 1537 862e e138
000000b0: b2b0 2838 d3ff 4437 6753 a836 6fdd 0b38
000000c0: 3e82 2d38 9bce fe35 f65f b438 b5ee de35
000000d0: 0dd6 ed38 40d2 f637 a9ca fd36 86fb 2c35
000000e0: 13ad 9f36 8698 cd37 fc41 8f36 c8a9 0f35
000000f0: 9567 9b37 44d9 3037 b2a3 8736 3c27 ea38
00000100: d302 0835 8c8d 8038 2653 cc36 3d5b a435
00000110: a2e2 e436 9246 9838 e241 c337 a875 0c38
00000120: ca17 6a37 60ea 7f37 00e7 b337 671e fc38
00000130: 063b 4338 bb07 8637 cc20 9536 5b06 2038
00000140: aa39 8338 c563 b436 eee4 c138 92a2 1236
00000150: c2ef f938 e336 0c38 d0c2 9237 f200 2a35
00000160: 1109 2c37 de70 e837 b527 e436 a4a5 1a35
00000170: 76f5 b437 b61b 3637 1873 1237 397c 0d39
00000180: 32db bf37 52d5 b738 8e2d 3b37 8adb 3f37
00000190: c361 c036 cf74 cf37 c074 3e37 84d3 2538
000001a0: 7b93 3638 2246 2838 7626 b937 9da1 5838
000001b0: 4458 f036 8cfd 5637 e92d 1e37 a47b 8937
000001c0: 23bf 4f38 fd9a 1338 94b4 6237 c4ab 3636
000001d0: 7455 0538 0a2f df36 9c96 e537 e200 6d37
000001e0: 89b4 b437 5db0 b536 2426 c837 a007 2a37
000001f0: 75eb 9736 7c23 2b37 a776 5d37 6d12 cb37
00000200: 6384 0e38 1d76 1634 be84 5737 fd53 9b37
00000210: 9e98 ae35 9ec3 2a33 cf88 5c35 8efe 8434
00000220: 1f2d 4537 99f0 aa36 a411 1135 3980 6735
00000230: 9f21 b033 4469 8e37 f1c6 8e37 363b 3234
00000240: e34f 2b34 906a e737 2ade 8d34 ba19 1336
00000250: d688 3b33 b65d a732 b3c9 bd33 22a8 8b37
00000260: 0b16 5335 97f1 c033 8c59 6837 8cc6 ca36
00000270: 2430 0637 3e46 8736 1911 ea35 6e8a 0134
00000280: 9459 3d39 cb8c 0635 9315 3438 8428 8738
00000290: e459 1f36 be4b 1234 6c73 b235 bb8f 5935
000002a0: a863 2737 1742 a636 3008 1c35 f130 4e35
000002b0: e40d 8c34 f4cc a038 2e32 db38 3cea f734
000002c0: dd3a f834 48fe 4838 415d 2835 7dbd 3837
000002d0: f009 b933 0c66 5a33 7f09 7035 aef7 d437
000002e0: 89c2 3435 e042 3835 58b9 2538 4730 ab36
000002f0: a50a 2738 c82c 3937 1224 b835 603d 9036
00000300: 4715 1538 0235 4039 4aa1 6b37 5529 aa37
00000310: 2f8c 4137 7e51 2b38 577c e737 7fc0 8638
00000320: 9ed1 eb38 b928 ad38 71dc 8938 a626 f238
00000330: dafc 9237 61a8 9237 d0ac a337 5b94 f637
00000340: 54f2 d938 9579 8c38 174e 0138 ccd5 4336
00000350: 108a 7638 dffc 7637 9ebd 4638 879c b637
00000360: 1413 2f38 1a51 5937 8e64 3d38 13d7 9037
00000370: a010 0337 d441 a037 d318 1e38 cd61 3b38
00000380: 9e1f f536 f632 e337 735c 5936 918a a836
00000390: 9e24 8b36 d84c 3a37 e384 1c37 fc1a 4f37
000003a0: 1f9f cf37 fd67 6737 b2b2 a437 b773 1838
000003b0: b7df 0337 29a9 a236 7477 9636 ccd1 2337
000003c0: 04eb a837 753d 6837 ef60 8337 531c c234
000003d0: fed3 ac37 d52e aa36 2717 f836 d8c0 a936
000003e0: 4815 1b37 edbc 3f36 7a10 4f37 560a 7d36
000003f0: 2b65 7836 0a85 9c36 d99e 2b37 4e4f 9d37

exp_avg f4 [16]
-0.00028436238 -0.00021676345 -0.00025890474 -5.8547434e-05 -8.002081e-05 -5.4837696e-05 -8.8932335e-05 -7.1188886e-05
-7.4945056e-05 -3.4918252e-05 -4.501323e-05 7.2298465e-09 2.3e-43 -0.00020877684 -3.701401e-05 -7.528687e-05
00000000: 7916 95b9 ff4a 63b9 9bbd 87b9 d490 75b8
00000010: d8d0 a7b8 8701 66b8 2f81 bab8 3e4b 95b8
00000020: d22b 9db8 3075 12b8 96cc 3cb8 676a f831
00000030: a400 0000 1beb 5ab9 7e3f 1bb8 55e3 9db8

exp_avg_sq f4 [16]
8.480501e-05 5.9428454e-05 7.56362e-05 6.627432e-05 1.3189681e-05 7.791234e-05 0.00015927867 2.8721981e-05
3.834754e-05 0.00017700574 7.7737795e-06 3.4965972e-06 3.8229125e-08 7.0955364e-05 5.620785e-05 1.9893463e-05
00000000: 58d9 b138 d142 7938 e09e 9e38 c1fc 8a38
00000010: 4049 5d37 de64 a338 0b04 2739 fcef f037
00000020: 5cd7 2038 9e9a 3939 216c 0237 15a7 6a36
00000030: 5e31 2433 dfcd 9438 b8c0 6b38 e3e0 a637

exp_avg f4 [3, 16]
-0.0012200457 -0.0012513674 -0.0013188157 0.00046202375 0.00010640511 0.00012564956 0.00041477216 0.00043158178
0.0002912737 0.00013751103 -0.00031281146 2.5056295e-09 8.5e-44 -0.00062002236 0.00047198564 0.00056708866
0.0011265376 0.0008632469 0.0009598623 -0.0008136075 0.0006579838 0.00047514736 -0.0008700284 -0.000868961
-0.00078144914 0.0005166531 -0.00040819932 -3.211449e-09 -1.72e-43 -0.00016326935 -0.00080018403 -0.00031705943
9.350544e-05 0.00038811963 0.0003589527 0.0003515815 -0.00076439657 -0.0006008035 0.00045525367 0.00043737676
0.0004901726 -0.0006541713 0.00072100695 7.0213785e-10 8.5e-44 0.00078328844 0.0003281957 -0.0002500369
00000000: f1e9 9fba ec04 a4ba 1ddc acba c73b f239
00000010: cf25 df38 ccc0 0339 c775 d939 ed45 e239
00000020: 18b6 9839 d630 1039 d800 a4b9 802f 2c31
00000030: 3d00 0000 ff88 22ba d774 f739 ada8 143a
00000040: 54a8 933a 854b 623a 459f 7b3a 4648 55ba
00000050: 8c7c 2c3a 331d f939 9e12 64ba fcca 63ba
00000060: 2ada 4cba 0170 073a 9603 d6b9 69b0 5cb1
00000070: 7b00 0080 4833 2bb9 71c3 51ba ff3a a6b9
00000080: 5a18 c438 897c cb39 d131 bc39 7854 b839
00000090: c961 48ba 3e7f 1dba 1daf ee39 b74f e539
000000a0: ed7e 003a b17c 2bba f501 3d3a 8f00 4130
000000b0: 3d00 0000 9955 4d3a ae11 ac39 6217 83b9

exp_avg_sq f4 [3, 16]
0.00025157974 0.00060013257 0.00078982743 6.818328e-05 1.1391804e-06 5.5431887e-05 0.000115991475 4.5380326e-05
4.1469237e-05 8.490188e-05 0.00042021307 9.084763e-07 4.3073786e-08 0.0002303309 0.00025197378 6.820715e-05
0.00015519878 0.00023922799 0.00032060826 0.00017808929 2.032225e-05 0.00018610737 0.00042138746 0.00013175757
0.00010658765 0.00029133318 0.00063240906 2.3825198e-06 1.6294547e-07 0.00029800626 0.00028385842 0.00012578453
2.6191034e-05 0.00022639093 0.00019354597 3.9664927e-05 2.7026026e-05 0.00036913613 0.00012182749 4.9741648e-05
4.9496455e-05 0.00063282443 0.0004998253 6.3423875e-07 3.8511907e-08 0.00019359136 0.00011257418 0.00015973342
00000000: 76e6 8339 3752 1d3a 6c0c 4f3a 9ffd 8e38
00000010: f1e5 9835 897f 6838 7340 f338 c156 3e38
00000020: 41ef 2d38 5a0d b238 0b50 dc39 04de 7335
00000030: 2100 3933 fb84 7139 591b 8439 6f0a 8f38
00000040: dbbc 2239 46d9 7a39 5017 a839 7bbd 3a39
00000050: b379 aa37 d125 4339 abed dc39 6728 0a39
00000060: cf87 df38 14be 9839 41c8 253a 61e3 1f36
00000070: 1cf6 2e34 b93d 9c39 d5d2 9439 07e5 0339
00000080: d1b4 db37 5a63 6d39 9af2 4a39 e45d 2638
00000090: f3b5 e237 9d88 c139 a37d ff38 b0a1 5038
000000a0: 6a9a 4f38 21e4 253a b506 033a 8e40 2a35
000000b0: 4a68 2533 c9fe 4a39 cd15 ec38 1d7e 2739

exp_avg f4 [3]
-0.00028871876 0.00018348718 0.000105228435
00000000: 2d5f 97b9 7766 4039 16ae dc38

exp_avg_sq f4 [3]
0.0004225665 0.00039624228 0.0002962511
00000000: ea8b dd39 bdbe cf39 2652 9b39
