homework1/lightning_logs/version_14/checkpoints/epoch=99-step=900.ckpt (torch, 22040 bytes, 18 tensors)

network.0.weight f4 [32, 13]
00000000: aeab 31ba 1873 60be 64b1 343e 8912 acbe
00000010: 9526 8c3e 08b2 873e 1aea c7bd e087 6ebe
00000020: 9ad1 43be 8c1d afbd 7606 903e 5bad 04be
00000030: 67ee 963e ef51 c1be 494c cbbc c772 b53c
00000040: 0a17 16bd 452a 763e 2d1a 10be 5a2b 22be
00000050: c7bc dabd 3e9d 133e 57bf 9a3c c2e3 2ebe
00000060: d374 813e 0904 893e 9d0a 1cbe 5d7e 253d
00000070: 4b5f 323e 5260 673e 5e2c 873e bc59 7a3e
00000080: 93a4 ab3e 6cce 52be c828 0d3e 268a 79be
00000090: 7d8a bb3e fa8d 6a3e 7440 b83d 44d5 66bd
000000a0: ab18 acbe aa03 98be 58a8 753e e7a9 ad3d
000000b0: 7669 4bbe 74da 883e 51d2 39be d788 7b3e
000000c0: 159b d0be bf17 143d 15dd b2bd 493a d1be
000000d0: 644f e2be 8cfc 08be 5ce6 4cbe f3bb 18bd
000000e0: 0e6d bebd 4ca3 31be 8167 393e 4aa7 983e
000000f0: c989 643d 8d65 0cbf 0670 a33b b159 1d3d
00000100: 61f0 9abe b830 d83e 9f49 cabd 5c25 bfbd
00000110: 0201 99be f501 81be 53bc 1a3e a278 303c
00000120: 8d55 bebe 5fd6 03bd 45e9 97be c2e4 1b3e
00000130: efd7 793e 436d 3d3e c713 ab3e 381d 783e
00000140: 2f5f 693e 04c0 e8be a4ba 2e3e 2df0 9f3e
00000150: 1045 ed3d 8cdc 9abe 5c4a d33d a027 0ebe
00000160: a6ba fbba a96c fe3d e458 d43e 3d62 9b3e
00000170: 8565 a73d e136 7a3e 492d b9be 13df 373e
00000180: 89b4 673e 2923 813e e4ea 9e3d bddd 30bd
00000190: dd3e 2e3d d67c 923e fec4 c03d 6a60 0d3e
000001a0: a95d 903e 4fe0 7bbd c782 e03c aa40 b1be
000001b0: 76bd 5b3e 292d 873e 121e e83e 8f07 ea3d
000001c0: 3d0c 2a3e 287b 3f3c c672 433e 65f5 313e
000001d0: 9a98 ca3e 3702 eebe 145f 173e 229c a0bd
000001e0: 6456 cb3d e681 e2be ff13 80be a324 623e
000001f0: f7e3 77bd 36a2 1c3d 8dfe babe d0a5 e93e
00000200: cfce 403d db09 e4be 676f ac3e f81f 793e
00000210: 678f fc3a bdf0 b0be b6af 4c3e af2d 8e3e
00000220: d78e 6b3e 7185 53bd 7d90 c83d 91e4 653c
00000230: e02b 6e3c 36a7 7e3e 028d d23e dee1 d4be
00000240: d42a 5b3d f333 9fbe f5a9 933e 8f93 56be
00000250: a884 a0be 586a a53e bd82 cabd 47ed 533e
00000260: 43fd a8be dcdb 5f3e ba68 053d 4d70 f1be
00000270: 7e72 10be 4b72 31be e098 8f3e 5161 b13c
00000280: 0bc1 63be f7ca b63e e592 303e f5de 3bbd
00000290: 9225 afbe 1f65 91be f3a6 09bd 9702 803e
000002a0: 1ee0 06bd a6b5 563e 2c43 d7bd ea51 813e
000002b0: 0f71 143d 37fa c3bd 8115 99be f6b8 a8be
000002c0: 18a0 29be fbff 6abc 8d3c 853e 4bb0 eabe
000002d0: 8590 d5be 92e8 393e 2b0b d03d e835 2c3e
000002e0: 0c71 9f3c 4fc5 d9bd ca6e 5b3e 8a0d 5cbc
000002f0: 5b42 8bbd ac86 f4bd 0057 80bd 06f2 c23e
00000300: 6103 bbbe 384b 15be 2ab2 893e 22d9 a83e
00000310: 1e90 38be 4a29 d93e a95b dbbe 78ac eabd
00000320: 4f93 17bd bd10 493e f29e 22be 71af 623e
00000330: 20da 3abd ab10 83bd 9691 8a3e 4e6d 7c3e
00000340: 8362 e93e cc21 d2bd 7a42 cb3e 8809 92be
00000350: 2c97 cf3c 72e1 823e fbd0 843e 7b4e 3ebc
00000360: 1247 7e3e 203f 743e 5087 21bb 963b 8f3d
00000370: 9b44 303e 6129 c03e 91f2 efbb 80bd 233e
00000380: 01b4 65be 0fc1 053e df4f a23e ff64 783e
00000390: c080 6bbe f549 e93d a1da 2dbe 7e4e 333e
000003a0: 9d5b 76bd 87b4 6e3e 0608 413e 063c 773e
000003b0: bac5 783e a995 b53d 599d d8bd 5700 83be
000003c0: e29b 02be e002 f73c dd61 2ebe ccfe 663d
000003d0: 442a 95be 882a a5be 2c18 403e eb82 093e
000003e0: a76a 623e 4ed1 cd3e 5d56 f03d 5fe6 f23b
000003f0: 1a4a 8ebe c6a3 94be 16dd a2ba e904 36be
-0.00067775964 -0.21918905 0.17645794 -0.3360789 0.27373186 0.26503015 -0.09761448 -0.2329402
-0.19122925 -0.085505575 0.2812993 -0.12956755 0.29478762 -0.37757823 -0.024816649 0.022149457
-0.036643066 0.24039562 -0.14072485 -0.1583685 -0.10680538 0.14415452 0.018890066 -0.1707907
0.25284442 0.2676089 -0.15238424 0.040403713 0.17419164 0.22595337 0.26401037 0.24448293
0.33523998 -0.20586556 0.13785088 -0.24369106 0.36629096 0.22905722 0.089966685 -0.05635573
-0.3361257 -0.29690295 0.2399 0.08479672 -0.19864449 0.26729167 -0.18146636 0.24563919
-0.40743318 0.03615546 -0.08733574 -0.4086478 -0.44201195 -0.13377589 -0.2000975 -0.037288617
-0.09298144 -0.17347449 0.1810589 0.2981513 0.055795465 -0.54842454 0.0049877195 0.038415615
-0.3026152 0.4222467 -0.09877323 -0.093332976 -0.2988358 -0.25196806 0.15110902 0.010770949
-0.37174645 -0.032186862 -0.29670158 0.15223983 0.24398778 0.18498711 0.33413526 0.24229896
0.22790216 -0.45458996 0.17063385 0.31237927 0.11585438 -0.3024639 0.10316917 -0.13882303
-0.0019205406 0.12423069 0.41474068 0.30348387 0.0817366 0.24434997 -0.36167362 0.1795619
0.22627462 0.25222138 0.077596456 -0.043180216 0.04254042 0.28610867 0.09412573 0.1380631
0.28196457 -0.061493214 0.02740611 -0.34619647 0.21458992 0.26401642 0.45335442 0.11427223
0.16606231 0.011687078 0.19086751 0.17378767 0.3956955 -0.46486065 0.14782363 -0.0784228
0.09928587 -0.4423973 -0.25015256 0.22084288 -0.06052014 0.038240634 -0.36522332 0.45634317
0.047072228 -0.4453877 0.33678743 0.24328601 0.0019268811 -0.3455867 0.19988903 0.2776923
0.23003708 -0.05164093 0.09793184 0.014031545 0.014536828 0.24868473 0.41123205 -0.41578573
0.05350764 -0.31094322 0.28840604 -0.20954727 -0.3135121 0.32307696 -0.098882176 0.20695983
-0.33005723 0.21861213 0.03257058 -0.4715599 -0.14106175 -0.17328756 0.28046322 0.02165285
-0.22241609 0.35701725 0.17243536 -0.045866925 -0.3420835 -0.28397462 -0.03360648 0.25001976
-0.03292858 0.20967731 -0.10510859 0.25257808 0.036240634 -0.09569209 -0.2989922 -0.32953614
-0.16564977 -0.014343257 0.2602276 -0.45837626 -0.41711822 0.18155125 0.1015838 0.16817439
0.019463085 -0.10633337 0.21428981 -0.013430962 -0.06799766 -0.11939749 -0.06266594 0.38075274
-0.36526015 -0.14579475 0.2689374 0.3297816 -0.18023726 0.42414314 -0.4284337 -0.11458677
-0.03700572 0.19635291 -0.15880945 0.22137238 -0.045618176 -0.063996635 0.27064198 0.24651071
0.4558297 -0.102603525 0.39699155 -0.28522897 0.025340639 0.25562626 0.2594069 -0.011615391
0.24831799 0.23852205 -0.0024647303 0.06993787 0.17213671 0.3753157 -0.0073226173 0.15990257
-0.22431947 0.13061927 0.31701562 0.24257277 -0.22998333 0.11391059 -0.16977932 0.17510411
-0.060145963 0.23311053 0.18850717 0.24143991 0.24294177 0.08866436 -0.10576887 -0.25586197
-0.12754777 0.030152738 -0.1702952 0.056395337 -0.2913381 -0.3225901 0.18759221 0.13428847
0.22110997 0.4019875 0.117352225 0.0074127163 -0.2779091 -0.290312 -0.0012425508 -0.1777531

network.0.bias f4 [32]
00000000: 408b c53e dcf8 0fbe b613 7fbc 0462 d83d
00000010: 3186 763e b9ad c13e c734 9c3e 5a5b 3c3e
00000020: cb15 c2bc 9d9e 813e e17d a53e 38d4 d93e
00000030: cf5e 993e 7ee6 34bd 7439 b23e 104f 553e
00000040: 7dc2 9d3e 3995 c93d 84de b13d ab22 6ebd
00000050: 338c 5aba d6e3 2abd c835 003f d293 a63e
00000060: 089e a53b bda7 283e 1ec7 003f 37d8 203e
00000070: 15cf 3f3e c842 13be 51e9 d43e 1d0d 5e3e
0.38582802 -0.14059776 -0.015568664 0.1056557 0.24074627 0.37827852 0.30509016 0.18394223
-0.023692032 0.25316325 0.323226 0.42544723 0.29955146 -0.044165127 0.34809458 0.20830941
0.30812445 0.09842915 0.086850196 -0.05813853 -0.00083369314 -0.041721188 0.50082064 0.32534653
0.005054239 0.16470237 0.5030383 0.1570748 0.1873134 -0.14380944 0.41584256 0.2168469

network.2.weight f4 [16, 32]
00000000: f3cc ffbd b94d cbbd 685a 543c db8b 57be
00000010: c0d2 8dbe fdc3 003b 3905 9cbc 8782 babd
00000020: 2256 fc3d 77e4 b7be e872 1b3d 3492 ac3c
00000030: 1db7 8cbc 0b1d c63e 2664 b43e 8070 6f3d
00000040: 2adf 813d 9448 0f3e 1f1c 953e 5f7a af3e
00000050: 7fd0 b6bc 472f 283e 3b07 223e e3cb 8dbd
00000060: b7d4 01be 4005 073e 574a 563b 7158 af3e
00000070: 99f8 c33c f3b8 48bd 77e4 813e d5f0 46bd
00000080: 43ad 013e 037f 033e 2f7b 9a3e 5002 883e
00000090: 01cd 063e 773d 203e 0ed4 403c b34a 4e3e
000000a0: 1c43 1b3d ef38 cd3e 0ba1 ebbd f8fb d23e
000000b0: aa86 903d 08e1 f4bd 249a 23be 57c8 78be
000000c0: 366f 95bd 3379 5e3d 30e8 8abd 5b20 4fbe
000000d0: cc6d 343e ecad 1bbe 22fa 453e 6d00 eb3d
000000e0: 2882 633e 08f7 0dbc fa07 8f3e b6f0 cbbd
000000f0: 8f0c 873e 5fda 9d3e f21b 873d aab3 563e
00000100: 1050 72bc 7e21 00bd e658 9cbd 3210 8bbc
00000110: afef 1abe 10e2 173c 3399 22be 6e36 f2bd
00000120: 0197 20bd 3444 67be d3dc 3dbe f14a c4be
00000130: eeec 8b3c c910 ba3e adcb d43e 55e2 bbbd
00000140: 3e6e d73d bbde 58be e4d0 e83d 2434 b73e
00000150: 55e5 a3be 75a8 773e 8cf9 833e bf6e c63d
00000160: 1ce2 29be 1bc0 733e d960 573e afb2 f73d
00000170: 85e9 a0bd b776 27be 628f 1c3e 43f7 a1bd
00000180: 1171 cb3a a259 dd3d 5bff 4cbe 1ba6 9a3d
00000190: f171 b5be 5e2b 36be 635a 123d 40e1 21bd
000001a0: 31bb 31be 3e49 89be dce1 a73d 54fc bfbe
000001b0: 0977 70bc 8074 cc3e 7200 403d a8a7 e43d
000001c0: e4bd b4bd e597 6cbe 63f2 343d a864 bd3e
000001d0: be28 09be 869b e23d 7ec4 9b3d 89b7 7a3a
000001e0: b14f 92bd 04c4 873e 4fa1 953c b58d 973e
000001f0: ebfb f1bd d235 14be b7c9 b03d 610f 30bb
00000200: b7b7 893e 2fb0 f0bd 8d30 c43d 1eb8 6fbe
00000210: 2812 83be e6b7 a43e 026e 563e 078c a63e
00000220: 05e2 973d 8c86 37bd eb13 6c3e f585 6fbd
00000230: 1ef5 063e 5bf3 1b3d fda5 ee3d 3a06 9d3e
00000240: 662a 413e fb4c 663e b052 2cbe 15ce 203d
00000250: a90c 2fbd 8be5 273d 982d 873c d93a 2abe
00000260: 53a0 d2bd 2d7c 8fbc e1d9 dfbd 0cf5 edbd
00000270: f0a8 b2bb 5bea 3abe 8a4c 663e 7253 1a3d
00000280: ee4a 523d b798 433e e620 863e eeb2 263e
00000290: 7453 a83e 6dd1 15be eb29 f03c f8b7 45bd
000002a0: 8803 c1bd fd65 743e 223f 86be f884 3b3e
000002b0: 022e 753e ecfa 803e 75aa 363d 8886 5fbe
000002c0: 506e 61be db13 1fbe c258 1a3e 481e ed3d
000002d0: 3078 b53e 7427 8a3e 25af bb3e 3610 813e
000002e0: b4a7 bf3e e34d 9d3e c894 773e 9a91 9b3a
000002f0: a9e8 af3e 214d 5c3e 1213 b43d 443a 693c
00000300: 2b8c 833e eb3f 1bbe 0aca 093d 49e0 61be
00000310: d051 00bc dbd0 db3c 287d 503e 344c 0f3e
00000320: ac5d 873e 8773 bcbd 5d56 3b3e c8f2 1b3d
00000330: 3dd4 4dbd f557 dcbc 757a 303c 09ef b03e
00000340: 0560 b03e 0346 483e 4547 f33a 8b6d 703d
00000350: 1dff 42be 36c9 2dbe 45ae 76be d103 27be
00000360: 30c6 92be 366c 91be 3d47 31bd 6b37 063e
00000370: f946 53be f989 06be 3204 063e 5f1e 873c
00000380: 5f8a 893e dc82 0b3e 2c9c f53d bc73 803e
00000390: f074 9e3e b33f 6e3e 8b82 113d 1265 873e
000003a0: b6ed a93d 8c67 273e afea 443e b693 bc3e
000003b0: ebb3 8c3e 591c 64be 39ef 17be 2113 fabd
000003c0: ad57 0c3e 6e02 cd3c 9b6b 33bb 816e c6bd
000003d0: 507f a23e 9824 c3bd 1375 403e db89 c93e
000003e0: 5fb3 023f f794 eebd 5c87 9a3e 698f 12be
000003f0: 662b 0e3e a4f5 6a3e 13b9 73bd 2172 733e
-0.12490263 -0.09926934 0.012961008 -0.21049444 -0.27699852 0.0019648068 -0.01904546 -0.09106927
0.12321116 -0.35916492 0.03795138 0.021065809 -0.017177159 0.38694033 0.35232657 0.058456898
0.06341393 0.1399253 0.29123017 0.3427305 -0.022316216 0.16424285 0.1582307 -0.06923654
-0.126788 0.13185596 0.0032698119 0.34247163 0.023922252 -0.049004506 0.25369617 -0.04856952
0.1266375 0.1284142 0.30172107 0.26564264 0.1316414 0.15648447 0.011769308 0.20145683
0.037905797 0.400825 -0.11505326 0.41207862 0.07056935 -0.11956984 -0.15976769 -0.24295174
-0.072966024 0.054314803 -0.067825675 -0.20227186 0.17620009 -0.15203065 0.193337 0.114746906
0.2221762 -0.008664854 0.27935773 -0.09958021 0.2637677 0.30830666 0.06597127 0.20966974
-0.014789596 -0.03128194 -0.076341435 -0.016975496 -0.15130495 0.009270206 -0.15878753 -0.11826788
-0.03920651 -0.22584611 -0.18541269 -0.38338426 0.01708075 0.3634093 0.41561642 -0.09174029
0.10519074 -0.21178715 0.11367968 0.35781968 -0.32010904 0.24185355 0.25776327 0.09689092
-0.1659016 0.23803751 0.21033038 0.12094628 -0.0785704 -0.1635388 0.15289071 -0.079084896
0.0015521367 0.10808112 -0.20019285 0.07551213 -0.35438493 -0.17789981 0.03573073 -0.039521456
-0.17356564 -0.26813692 0.08197376 -0.374972 -0.014676818 0.39932632 0.046875425 0.111647904
-0.08825281 -0.23104818 0.04417647 0.36990857 -0.13394448 0.1106482 0.07605837 0.0009564092
-0.07144106 0.26516736 0.018265394 0.296003 -0.11815628 -0.14473656 0.08632224 -0.0026864635
0.26897976 -0.11752354 0.09579573 -0.23410079 -0.2559979 0.32171553 0.20940402 0.32528707
0.07416157 -0.04480605 0.23054473 -0.05847736 0.13179442 0.03807388 0.116527535 0.30668813
0.1886383 0.22490303 -0.16828418 0.039259035 -0.042736683 0.040990394 0.016501233 -0.16624011
-0.10284486 -0.017515266 -0.10930229 -0.116190046 -0.005452268 -0.18253462 0.22490135 0.037677236
0.05134099 0.19101225 0.26196975 0.16279194 0.3287617 -0.14630671 0.029316863 -0.04827115
-0.09424502 0.2386703 -0.26220042 0.18312442 0.23943332 0.25191438 0.044596154 -0.21828663
-0.22014737 -0.15534918 0.15072921 0.11578041 0.35443258 0.26983225 0.36657062 0.2520768
0.37432635 0.30723485 0.2417785 0.0011868954 0.34357193 0.21513797 0.087927 0.014235083
0.25692877 -0.15161102 0.033639945 -0.22058214 -0.007832006 0.026832988 0.20360243 0.13993913
0.26438653 -0.092017226 0.18294664 0.03807333 -0.050251234 -0.02689741 0.0107713835 0.3455737
0.34448257 0.19557957 0.0018560669 0.05869822 -0.1904263 -0.16971287 -0.24089916 -0.1631005
-0.2866683 -0.2840287 -0.04328083 0.13107078 -0.20632543 -0.1313857 0.13087538 0.016493974
0.2686338 0.13624138 0.11992678 0.25088298 0.3094859 0.23266487 0.035524886 0.26444298
0.08297293 0.16348094 0.1923015 0.36831445 0.27481017 -0.22276439 -0.1483735 -0.1221068
0.1370532 0.025025573 -0.002737737 -0.09689046 0.31737757 -0.09528464 0.1879466 0.39362988
0.5105495 -0.116495065 0.30181396 -0.14312519 0.13883743 0.22945267 -0.059502672 0.23774005

network.2.bias f4 [16]
00000000: 96ce 033e cc46 ab3e bc0e 8a3e 4ea0 833e
00000010: e779 b9bc ee4c 8a3d 2d60 7a3e c2d6 0a3e
00000020: df28 0cbd 8e7f 323e faea 16be 8da3 0e3e
00000030: f4bc d93d 4ba5 0cbe 457e 013d a2cd 923d
0.12871775 0.3345245 0.26964366 0.2570824 -0.022641135 0.067529544 0.2445075 0.13558486
-0.034218665 0.17431471 -0.14738074 0.13929577 0.10631743 -0.1373493 0.03161456 0.071681276

network.4.weight f4 [3, 16]
00000000: 88aa 35bd cfe1 1fbe 27b2 74bd 898f 83be
00000010: a67e 813d ffa9 23be 3b80 cb3e a956 96bc
00000020: 6c48 b03e 8245 cabe fea5 93be 6e74 783e
00000030: 6204 6cbe 2898 4c3e 46d6 5b3e 1a11 783e
00000040: 2dcd d3be c89b 763e dd09 4a3d 5751 b5be
00000050: 7f9e cebe 943b d93e 54c0 98be d7e2 c33e
00000060: ba9b 82be 2e0c 8c3e df98 c6be c97a 1cbe
00000070: 6f8c ff3e 9ce9 f6bd 0391 25be 9220 cebe
00000080: 1fce d53e 6080 c7be 64dc b33e 59a1 dd3e
00000090: 5ea0 d1be 178a 6c3e 49b4 473d bb8d f5be
000000a0: 126f 28be ccf0 973e e113 123f a008 c5be
000000b0: 1dae 0ebd bd56 823c c0e9 18be fa8c 683e
-0.044352084 -0.15613483 -0.05974021 -0.25695446 0.063229844 -0.15982817 0.3974627 -0.01835187
0.34430254 -0.39506155 -0.2883758 0.24263164 -0.23048547 0.19979918 0.21468458 0.24225274
-0.41367474 0.24082863 0.049325813 -0.3541362 -0.40355298 0.42428267 -0.29834235 0.38259003
-0.25509435 0.27353042 -0.38788506 -0.15281214 0.4991183 -0.12056276 -0.16168599 -0.40259224
0.4175882 -0.3896513 0.35129082 0.4328716 -0.40942663 0.23099552 0.048755918 -0.47959694
-0.1644862 0.296759 0.5706158 -0.38483143 -0.034834016 0.0159105 -0.14932919 0.22710028

network.4.bias f4 [3]
00000000: ee06 9cbc 4f51 5e3e 5916 16be
-0.019046273 0.21710704 -0.14656962

exp_avg f4 [32, 13]
00000000: a566 0c38 7e9a 8738 2e5c 8638 0f6d ce38
00000010: daff 0ab9 2db5 9a37 6705 9eb7 317a ccb8
00000020: 3f32 8639 6695 d838 c6fc 1ab9 cfd8 f337
00000030: 6110 4b38 1b60 5a38 b66c 2d37 1b00 0938
00000040: d589 41b8 25cc 18b8 2d1b 8635 2ae2 2c37
00000050: 5f56 f737 f11e 11b8 465c 0f38 4814 eeb7
00000060: 406d 5db7 db31 3cb7 894b 6338 a775 ecb7
00000070: 54a1 03b8 a9e6 64b8 13f5 92b8 a496 cdb7
00000080: e1bf 20b7 588a 8938 1f2a 01b8 792a 3538
00000090: 4fcf 6936 4e11 f3b7 bb36 f437 a7a4 8e39
000000a0: 7101 ff38 cff8 9737 c550 b6b9 1fea 6cb9
000000b0: 7f14 e0b6 d435 f438 6738 2eb9 8edf 9838
000000c0: a7e7 b238 816a 83b8 d1cd e938 5af2 8939
000000d0: 3806 9f37 a46b 91b9 1646 bd39 0554 ccb9
000000e0: 657e 3ab7 f503 c239 499a cab9 7316 08ba
000000f0: a99f 60b7 1e83 8e39 da24 8bb9 20ca 9a38
00000100: 1738 f339 1178 b5b7 12d4 1938 7074 df37
00000110: d8f5 0a39 5e9a c4b5 23d0 99b7 d975 82b8
00000120: 3465 cc37 adb1 ba37 935d 1138 09e1 32b7
00000130: 0160 2db8 c2a1 82b8 80a0 82b8 371c 38b7
00000140: c319 09b9 9768 3039 463a c837 213b 4137
00000150: 41d5 08b9 f378 6c37 3895 bf37 a0d9 3038
00000160: fa81 2cb8 62a0 eab8 fd51 02b9 a33b 87b8
00000170: 7ab7 4fb8 5243 e2b8 4b8e 2339 fd62 0938
00000180: 0e27 3eb7 b23e b3b8 7da6 ba36 188a 4738
00000190: 46dd 8a38 8b71 17b8 c883 bdb8 bbaa e2b8
000001a0: 0976 72b8 ccea 78b8 2caf 91b8 a158 0039
000001b0: 0f8c 0e38 8e58 59b6 96e3 acb8 1048 f937
000001c0: 41d2 1d37 27e5 3038 d958 eeb7 fcd1 b6b8
000001d0: 36d8 b1b8 63c3 cc38 d1ce a1b9 c9cf af39
000001e0: 2f9d f9b9 d70c 24b8 175c 033a 5ad2 26ba
000001f0: fbba 34b9 4413 a7b9 08f0 2139 4d43 58b9
00000200: 049e 56b8 562e ec39 67c9 beb8 812c 3db8
00000210: f6fe ceb8 4acb 3e39 3b08 5f38 84cc eb37
00000220: 026d a9b8 d99d 4bb7 38ec 6338 f2c8 4538
00000230: 2662 2ab8 0760 a5b8 cc0a f4b8 789a 5139
00000240: 39d3 bfb9 15d5 4f39 22d4 5cba 977b 8038
00000250: 70bf e339 e59f a6b9 78f0 3dba 4fa6 35b9
00000260: 9522 2f39 0f32 5bb9 1837 5338 6944 123a
00000270: 01fb f2b6 0d02 cbb6 2751 ac37 5c3b f937
00000280: 7fd0 0db9 f4ab 0ab8 74c7 c8b8 a9c3 b438
00000290: 4e36 e438 fc51 c538 9b6d cab8 4768 5bb8
000002a0: 4c97 2d38 e0e8 e137 0f47 1339 7800 b3b9
000002b0: 41c8 7c39 fe7f 0d38 42d7 9fb9 7d69 213a
000002c0: c59c a239 fa3d 4c39 f7b6 4db9 5e41 b439
000002d0: f84f 0439 a8ff 6cb9 ad61 dd36 cc44 0c39
000002e0: 6d77 89b9 b910 9b39 02e7 1238 365c 95b9
000002f0: 669d f439 78ec b439 065b 5d39 e00d d8b8
00000300: 4b4d 8739 8a91 8538 df22 8bb9 4312 26b9
00000310: fc62 b3b8 fa9e 1eb9 c830 a339 c8bd ae38
00000320: 3222 0d38 886b 05b9 5e10 f5b7 5892 ed38
00000330: a57b c338 9d15 83b8 c9ea 01b9 a790 41b9
00000340: 34b3 b9b8 d1c4 c1b8 9dd7 d1b8 f31c 4039
00000350: e6da 9438 1da5 c437 e812 f1b8 1dbe 1138
00000360: 73c0 c736 8f65 2d38 27f1 11b8 3081 ffb8
00000370: d3b0 02b9 0c2e 8eb8 9579 a1b8 e03c d2b8
00000380: 0824 1439 a810 3838 1a5b 6437 40de c7b8
00000390: 5d16 a037 08c6 a9b3 e2b7 1638 a229 dbb7
000003a0: 730b cab8 c574 d9b8 ba97 1736 fdb6 4b38
000003b0: 21e8 c5b8 c135 7f38 ccfb 5937 9179 aab8
000003c0: db39 4239 012e 7f38 067c 9d38 037e 5cb8
000003d0: fc70 c038 20af 5138 5ff9 60b8 c2ab 92b7
000003e0: fdb8 9839 b8a4 ceb9 514d 9539 4649 a1b8
000003f0: e262 afb9 1000 363a c312 1e39 5e61 d739
3.3474196e-05 6.466078e-05 6.406788e-05 9.843159e-05 -0.00013256018 1.8442597e-05 -1.8837583e-05 -9.750238e-05
0.00025595908 0.0001032751 -0.0001478075 2.9068817e-05 4.8414226e-05 5.2064755e-05 1.0336915e-05 3.2663444e-05
-4.6143152e-05 -3.642975e-05 9.991687e-07 1.0304657e-05 2.9484914e-05 -3.459951e-05 3.4179793e-05 -2.8381255e-05
-1.3198063e-05 -1.1217281e-05 5.4191365e-05 -2.8188178e-05 -3.1383082e-05 -5.4574255e-05 -7.007471e-05 -2.4508052e-05
-9.581418e-06 6.5584376e-05 -3.0795225e-05 4.319332e-05 3.4840375e-06 -2.8975915e-05 2.9112553e-05 0.00027207026
0.00012159616 1.8116463e-05 -0.00034773923 -0.00022593931 -6.6781063e-06 0.00011644853 -0.00016614945 7.289565e-05
8.53085e-05 -6.266405e-05 0.00011148642 0.00026311242 1.8957173e-05 -0.00027736754 0.00036101107 -0.00038972512
-1.1115892e-05 0.00037005512 -0.00038643394 -0.00051913335 -1.3388614e-05 0.0002718204 -0.00026539603 7.380941e-05
0.00046390362 -2.1632792e-05 3.667555e-05 2.6637892e-05 0.0001325229 -1.4648065e-06 -1.8335943e-05 -6.220834e-05
2.4365821e-05 2.2255665e-05 3.465784e-05 -1.0662022e-05 -4.1335825e-05 -6.229013e-05 -6.2287785e-05 -1.0973824e-05
-0.00013074935 0.0001682363 2.3868994e-05 1.15174635e-05 -0.00013049414 1.4094857e-05 2.283846e-05 4.216435e-05
-4.1129046e-05 -0.00011187863 -0.00012428309 -6.44841e-05 -4.952352e-05 -0.00010789059 0.000155979 3.2755535e-05
-1.1333976e-05 -8.547063e-05 5.5626138e-06 4.7573907e-05 6.621568e-05 -3.610695e-05 -9.0367685e-05 -0.00010808321
-5.7807225e-05 -5.934648e-05 -6.946767e-05 0.00012240048 3.3985878e-05 -3.2387065e-06 -8.24399e-05 2.971667e-05
9.406883e-06 4.2175085e-05 -2.8413184e-05 -8.717549e-05 -8.48029e-05 9.763872e-05 -0.00030862403 0.00033533413
-0.00047610092 -3.9112605e-05 0.0005010976 -0.0006363742 -0.00017235793 -0.00031867076 0.00015443575 -0.00020624437
-5.116874e-05 0.0004504795 -9.09742e-05 -4.510256e-05 -9.8703356e-05 0.00018195543 5.317501e-05 2.8109418e-05
-8.078852e-05 -1.2136495e-05 5.4341013e-05 4.7155605e-05 -4.0622566e-05 -7.8856996e-05 -0.00011636838 0.00019989337
-0.00036587732 0.00019820438 -0.0008423944 6.126536e-05 0.00043439446 -0.00031781118 -0.00072456105 -0.0001732346
0.00016702183 -0.00020904116 5.035763e-05 0.0005579652 -7.2413827e-06 -6.05011e-06 2.0541787e-05 2.9710754e-05
-0.00013524479 -3.3061908e-05 -9.573894e-05 8.6195134e-05 0.00010882002 9.408963e-05 -9.652526e-05 -5.2310785e-05
4.138732e-05 2.6930531e-05 0.00014045484 -0.0003414189 0.00024107193 3.373622e-05 -0.00030487223 0.00061573816
0.0003101585 0.00019478044 -0.00019618483 0.00034380978 0.00012618292 -0.00022601953 6.597684e-06 0.00013377069
-0.00026219655 0.00029576363 3.5024255e-05 -0.00028488197 0.00046656578 0.00034508458 0.00021110111 -0.00010302267
0.00025806794 6.369043e-05 -0.00026538127 -0.00015837797 -8.5538224e-05 -0.00015127278 0.00031126128 8.332316e-05
3.3648867e-05 -0.00012723927 -2.9213898e-05 0.00011328299 9.321355e-05 -6.2505926e-05 -0.00012389863 -0.00018459802
-8.8548666e-05 -9.239617e-05 -0.00010006058 0.00018321331 7.097963e-05 2.3441908e-05 -0.00011495297 3.474775e-05
5.953066e-06 4.1340998e-05 -3.4795285e-05 -0.000121834106 -0.00012463638 -6.7796645e-05 -7.699725e-05 -0.00010024919
0.00014127803 4.388453e-05 1.361107e-05 -9.530457e-05 1.90839e-05 -7.9056974e-08 3.593404e-05 -2.6126221e-05
-9.634243e-05 -0.00010369116 2.258907e-06 4.8569393e-05 -9.4369294e-05 6.08468e-05 1.2992834e-05 -8.128875e-05
0.00018522835 6.0839582e-05 7.5094445e-05 -5.2569445e-05 9.1763184e-05 4.999258e-05 -5.3638007e-05 -1.7484537e-05
0.00029129526 -0.00039414107 0.000284771 -7.6907265e-05 -0.00033452275 0.00069427583 0.00015075043 0.0004108054

exp_avg_sq f4 [32, 13]
00000000: f677 4636 e24e f836 c780 c936 7303 0137
00000010: 371c b036 d74d 1137 6e3b 3c37 0bc0 2337
00000020: cbae 0437 86a5 f636 c2a7 4937 ac4b 8237
00000030: f8a0 b336 d6ac ea34 3670 fe35 35d8 5735
00000040: c80e b335 c0be b435 818e 4336 e0fe 4236
00000050: e808 a735 7bac e935 3bfd 4c36 6ecd 5a36
00000060: 5638 9236 0b0f ef34 e644 0437 c712 d035
00000070: 07af 7336 8d71 cb36 f634 6f36 6f46 4736
00000080: 93c3 5a36 0007 1b36 a440 0a36 59f7 5636
00000090: af20 1e36 f89f 5836 c245 1237 bb3e 0538
000000a0: 016c bf37 6615 e537 08d1 8d38 89a8 9f38
000000b0: 79f7 e037 3464 5937 200a cc37 7053 f937
000000c0: dda2 1d38 9ca1 0c38 ee9c c437 c988 0d38
000000d0: 89a2 2238 fcc1 9838 3cf4 3538 8fe4 5938
000000e0: deef 8b38 87e8 3d38 6ada 1938 3707 1739
000000f0: 010f 3a38 da10 0d38 6174 c937 6836 7c38
00000100: b032 4238 6948 3535 24a5 ba35 c0c9 6e35
00000110: d7a4 fc35 fbb8 cd35 46a3 9635 3b6e a135
00000120: 7054 8435 37b0 4d35 de6e 3935 6a36 5035
00000130: 112a e635 14f2 b335 dfe2 3037 a5dc 0237
00000140: 3f9b bd37 a2d6 cc37 893b d737 7035 3a37
00000150: 56fa 5637 794a 1637 0191 4f37 0e06 9f36
00000160: 0a6d 0137 13f0 7b37 c865 8e37 f2ac 9b36
00000170: c0e1 af36 3be5 7a37 980f 8b37 1cb8 8037
00000180: 4d4f e436 b210 2237 0905 e736 5113 f536
00000190: b29e 5e36 b313 c836 8710 3737 a298 2d37
000001a0: 9aa2 0537 30db 6436 bfb9 1637 dc9b 8a37
000001b0: 6fef 5837 b349 b236 43fc d136 7caf 9e36
000001c0: e7ca bd36 9e72 fc35 b0b1 5f36 b941 e236
000001d0: c4f0 2637 8363 be37 20c6 7f38 6d26 a737
000001e0: 150d 2038 aad4 1e38 dfa8 1938 ff22 1038
000001f0: 10f5 e038 a158 d637 78ea a337 3bab 8a37
00000200: e735 5238 9848 0e38 83e2 2737 2fa0 f936
00000210: e38d c737 b4a9 f637 5e36 ed37 94d5 2937
00000220: c547 2837 def7 1137 7a6a 3337 d8c5 9936
00000230: 8a23 fd36 93ba 4a37 4149 7837 645d 1438
00000240: 3ae7 6438 63d6 d437 b3de 8038 2c71 6638
00000250: 8f32 0a38 6185 c237 e278 c538 35fe d837
00000260: 4de8 0838 8ba4 db37 58e4 3438 7060 2d38
00000270: 8fef a236 ace6 2436 96e3 2436 ff4b 8936
00000280: 1bc4 6236 e17b d835 9f4c 1a36 fe0b 3136
00000290: 0fd6 0936 b0f2 ad36 0b8d 0236 5489 6036
000002a0: 7bc0 ba36 7c41 0937 beff 8e38 c521 5737
000002b0: d1c2 e237 9067 1938 20a8 3938 15dc 8538
000002c0: 6543 f438 cc8b 2a38 823a ff37 fa96 3b38
000002d0: a8aa ae38 a915 8b37 f22d e036 d398 ce37
000002e0: d06c c336 9b56 4d37 4109 8937 b6cc 7637
000002f0: 2254 8b37 5db0 4838 9e73 5d37 2abd e536
00000300: 24a3 1f37 17a2 c437 3dd5 2037 457c f236
00000310: ea52 c036 9764 d137 aaef 3f37 3b65 9437
00000320: 7356 cb36 e980 f936 3519 c836 8777 0137
00000330: ec5f 6336 bd86 b936 9c59 2137 4b5f 5637
00000340: f52a 3a37 4ba1 0237 d716 a837 c9ab 0e38
00000350: 4a0d e737 df32 3537 e937 4e37 8960 3137
00000360: 5070 5137 45b5 8d36 7d36 f236 4168 7437
00000370: 9e02 9737 8da9 b637 165c 3237 a553 0c38
00000380: c00d 1e38 e309 1638 2b8b 7737 1b12 8d37
00000390: 2d6b 5037 1cbc 8137 ecd8 f936 dd9b 3337
000003a0: df51 aa37 36b4 1138 ac46 2736 7e07 4b37
000003b0: 51d4 8636 4829 ca36 0d23 f936 466d 0e37
000003c0: af03 7a37 c89d 9f37 15be 1037 d3d2 3637
000003d0: fbd5 1c37 1952 a137 7d68 6f36 be35 8637
000003e0: fb0f b638 8e25 7f37 ca14 2338 7877 2d38
000003f0: 64d2 7338 8785 d738 9773 0439 b2ad 5238
2.9574126e-06 7.400159e-06 6.0052585e-06 7.689802e-06 5.2484934e-06 8.660797e-06 1.121951e-05 9.760271e-06
7.90851e-06 7.3506408e-06 1.2019593e-05 1.5532445e-05 5.353355e-06 4.371165e-07 1.8957132e-06 8.0408364e-07
1.3340841e-06 1.3466561e-06 2.9140213e-06 2.905661e-06 1.2445062e-06 1.7410051e-06 3.0545768e-06 3.2604107e-06
4.3576974e-06 4.4528164e-07 7.883855e-06 1.5502673e-06 3.63117e-06 6.0630905e-06 3.5644603e-06 2.9694309e-06
3.259837e-06 2.3100874e-06 2.0601228e-06 3.203246e-06 2.356286e-06 3.2279622e-06 8.71852e-06 3.1768093e-05
2.2819268e-05 2.7308892e-05 6.762339e-05 7.613103e-05 2.681812e-05 1.2957538e-05 2.432341e-05 2.9721967e-05
3.7583395e-05 3.352911e-05 2.3438097e-05 3.374441e-05 3.8775182e-05 7.284057e-05 4.3381224e-05 5.1949693e-05
6.672715e-05 4.527767e-05 3.6681457e-05 0.0001440317 4.435983e-05 3.3632714e-05 2.401526e-05 6.013215e-05
4.630041e-05 6.7533125e-07 1.3906142e-06 8.8955494e-07 1.8823438e-06 1.5327527e-06 1.122339e-06 1.2027516e-06
9.859341e-07 7.662488e-07 6.9079204e-07 7.756522e-07 1.7148578e-06 1.3406993e-06 1.054324e-05 7.799977e-06
2.2602848e-05 2.4418641e-05 2.565772e-05 1.1098906e-05 1.281368e-05 8.958036e-06 1.2371923e-05 4.739274e-06
7.714387e-06 1.50166625e-05 1.6975115e-05 4.6394935e-06 5.241687e-06 1.4954533e-05 1.6577353e-05 1.5344522e-05
6.8041613e-06 9.65984e-06 6.8849226e-06 7.3038177e-06 3.317295e-06 5.9627578e-06 1.0911498e-05 1.0347141e-05
7.965276e-06 3.4102231e-06 8.983944e-06 1.652346e-05 1.2930351e-05 5.313393e-06 6.2580525e-06 4.729196e-06
5.65626e-06 1.8808821e-06 3.3333017e-06 6.742976e-06 9.950429e-06 2.2696104e-05 6.0981256e-05 1.9925845e-05
3.8159156e-05 3.7868194e-05 3.6635316e-05 3.4364868e-05 0.00010726799 2.5552059e-05 1.9540297e-05 1.6530617e-05
5.0118102e-05 3.3923046e-05 1.0006715e-05 7.439426e-06 2.378872e-05 2.940451e-05 2.8277918e-05 1.01229125e-05
1.00302905e-05 8.700385e-06 1.0694022e-05 4.5827874e-06 7.544125e-06 1.2083578e-05 1.4799008e-05 3.5372927e-05
5.4574783e-05 2.5372201e-05 6.1449966e-05 5.4941673e-05 3.294885e-05 2.3188712e-05 9.416208e-05 2.5867581e-05
3.2641274e-05 2.6183456e-05 4.3128006e-05 4.133623e-05 4.8558645e-06 2.4572173e-06 2.4570377e-06 4.0917653e-06
3.3790773e-06 1.6129308e-06 2.2992388e-06 2.6382036e-06 2.053919e-06 5.1840543e-06 1.9453607e-06 3.3458537e-06
5.5656396e-06 8.181083e-06 6.818723e-05 1.2822861e-05 2.7032018e-05 3.6574493e-05 4.4264016e-05 6.382928e-05
0.0001164738 4.0661354e-05 3.0425614e-05 4.4724882e-05 8.328754e-05 1.6580178e-05 6.681069e-06 2.4628278e-05
5.8241203e-06 1.2239117e-05 1.6335982e-05 1.4710406e-05 1.6609269e-05 4.7847967e-05 1.3199546e-05 6.8467534e-06
9.515123e-06 2.34405e-05 9.586392e-06 7.226629e-06 5.7316984e-06 2.4961582e-05 1.1440288e-05 1.7690114e-05
6.0599355e-06 7.4357854e-06 5.963399e-06 7.716829e-06 3.388147e-06 5.5291152e-06 9.617212e-06 1.2777581e-05
1.1096466e-05 7.786158e-06 2.0037796e-05 3.4015426e-05 2.7543534e-05 1.0800285e-05 1.2291574e-05 1.05724985e-05
1.2483521e-05 4.22323e-06 7.2185053e-06 1.4567807e-05 1.8001821e-05 2.1775044e-05 1.0631067e-05 3.34565e-05
3.768294e-05 3.5771995e-05 1.475475e-05 1.681694e-05 1.242272e-05 1.5465594e-05 7.4460313e-06 1.0705521e-05
2.0303703e-05 3.473853e-05 2.4926076e-06 1.2101487e-05 4.018228e-06 6.024875e-06 7.4248587e-06 8.489302e-06
1.4902019e-05 1.902775e-05 8.627326e-06 1.0897132e-05 9.348146e-06 1.9230925e-05 3.5674595e-06 1.599907e-05
8.681413e-05 1.5207928e-05 3.888159e-05 4.1357678e-05 5.8131656e-05 0.0001027687 0.00012631562 5.0229668e-05

exp_avg f4 [32]
00000000: ce05 71b9 8629 cfb6 e9ef 83b8 1933 72b9
00000010: 6f06 8ab9 9f88 aeb8 40ad 1eb9 37be 3eb9
00000020: 9b5e 0fb9 3f81 19b9 78b7 21b9 eba7 e1b9
00000030: 7d21 c9b8 40ea f738 29c2 47b8 d8d3 90b9
00000040: 9b67 2cb9 a5a8 0db9 f750 0138 3e73 d2b7
00000050: 6984 3538 b331 7b38 ccbc 56b9 b920 53b8
00000060: 0a8c 4037 f84a 17b6 0b0c 04b9 cbe8 a738
00000070: 08a3 6fb6 2ea5 0e35 3b54 3fb9 23cb 9235
-0.00022985713 -6.1739147e-06 -6.2912535e-05 -0.00023097954 -0.00026326205 -8.322414e-05 -0.00015132595 -0.00018190673
-0.00013672786 -0.00014639365 -0.00015422504 -0.00043040453 -9.5906646e-05 0.0001182151 -4.7626123e-05 -0.00027623656
-0.00016441794 -0.00013509633 3.08314e-05 -2.5087615e-05 4.327708e-05 5.988935e-05 -0.00020478963 -5.0336796e-05
1.1476697e-05 -2.254439e-06 -0.00012592987 8.0065416e-05 -3.5708672e-06 5.313949e-07 -0.00018246558 1.0936968e-06

exp_avg_sq f4 [32]
00000000: 3f78 2037 0abb dd35 6d5a bc36 162a 3938
00000010: 6ad7 9738 1c58 4936 ccc3 6f37 dbd3 4037
00000020: fad0 f836 52f0 5a38 5661 7937 8e14 8538
00000030: 078a c836 2f15 6638 f545 b037 702f 6b37
00000040: 7ecc 7f37 90dc a037 6dc5 0437 d80f 7a38
00000050: 86b5 3a37 d673 5337 beae 2238 de2d 7737
00000060: f3b4 3137 cf53 5437 e99e c637 171d 2d38
00000070: fc85 2637 eef3 2236 bbbe 0d37 eadf 9236
9.56474e-06 1.6520219e-06 5.6133636e-06 4.4146633e-05 7.240365e-05 3.000262e-06 1.4291098e-05 1.1493418e-05
7.415304e-06 5.2199066e-05 1.4864219e-05 6.345763e-05 5.976533e-06 5.4856002e-05 2.1013411e-05 1.4018136e-05
1.52467965e-05 1.9176194e-05 7.91378e-06 5.96194e-05 1.1128728e-05 1.260355e-05 3.878655e-05 1.4733027e-05
1.0592153e-05 1.2655698e-05 2.3677438e-05 4.1273506e-05 9.925567e-06 2.4281867e-06 8.448663e-06 4.377206e-06

exp_avg f4 [16, 32]
00000000: ea89 ff38 18c1 4438 055a 0eb8 07d8 7938
00000010: 90eb a539 7698 4db8 0f30 a0b8 7602 27b7
00000020: 5390 86b8 0cf5 c239 83be a0b8 578d 043a
00000030: a648 84b7 3494 afb9 b183 4eb9 81e3 8cb8
00000040: cb95 84b8 8e0d 5cb8 e371 00b9 7ecb 63b9
00000050: 3a25 31b7 c1c0 9eb9 61eb f138 09a6 7339
00000060: 7c24 9938 0e79 60b9 8787 7239 8890 52b9
00000070: 4fe6 f338 11cc 3939 6776 acb8 8798 1038
00000080: 1fb3 14b9 3e89 83b8 8580 8bb8 84b7 0eb9
00000090: 4aeb afb9 09bc 4537 9597 8538 d236 0037
000000a0: 62ee 2a38 5b1a ceb9 73f2 8138 8b04 06ba
000000b0: 0f8f 8bb8 12ab 7039 8a99 1539 6888 9b38
000000c0: 591a 6838 ee37 b137 033c 4738 0b40 0639
000000d0: 3095 b0b8 61e9 4639 de54 40b9 fce7 85b9
000000e0: 3387 0eb9 fa8b ff38 8afb 8cb9 6d87 0239
000000f0: 93c0 56b9 54b5 4cb9 cae6 7938 9fa4 17b8
00000100: d910 5638 46e5 a137 dc30 4e37 f498 e237
00000110: c607 e738 1128 e236 0046 1e36 da1e 4e37
00000120: 52bb b035 766c 1339 a550 07b2 25a4 4539
00000130: d860 8e36 3a80 0db9 1796 a5b8 b04b aab3
00000140: 4b18 11b5 a539 3e36 0b8a 90b8 4fe7 c5b8
00000150: 7e19 2a35 1de8 0db9 b1d9 5d37 6676 a238
00000160: d37e ea37 3935 dbb8 d739 8c38 131c beb8
00000170: 3da7 3438 461a 5938 fa29 43b7 3566 e937
00000180: 6149 2d39 4d36 5138 4d1a f937 7c63 9138
00000190: 7315 9b39 7791 d937 324c d336 2bcd 3538
000001a0: c4ba a936 22b1 bd39 c56b 49b2 6c5b 003a
000001b0: 83dc cf37 ee86 adb9 e711 47b9 631e 14b4
000001c0: 9402 82b5 6cb0 3637 d25f 15b9 eab8 66b9
000001d0: 4f68 0216 cbba a4b9 d247 9438 adb1 6139
000001e0: 0208 9538 113b 74b9 6766 5339 f68a 5ab9
000001f0: 623f 0939 b577 2839 112f f9b7 5201 9938
00000200: c47c 56b8 30c5 7437 488c d0b7 add4 4c38
00000210: 71af ac37 78ad 01b9 ae0a 33b9 0548 e9b8
00000220: 529b e1b8 2304 83b6 8f11 24b9 839e 8137
00000230: cea3 34b8 641a 0d36 05a5 13b8 dfac 1ab9
00000240: 88d8 06b9 1c6d c4b8 07ae c236 1038 3ab7
00000250: a42b 3438 7436 0437 bfab e237 aeb9 ab37
00000260: 8fb9 6238 44a0 ee37 b606 e137 ba70 a3b6
00000270: 03c6 7538 f167 7238 aae7 d6b8 32b8 8cb8
00000280: 2925 5eb8 55f5 2db8 7dea 79b8 ec42 d9b8
00000290: 0c2f 2ab9 d898 0738 b144 7638 faaa 1438
000002a0: a742 5438 6a92 35b9 c73c 6138 69fb 76b9
000002b0: e7a7 42b8 0842 4f38 7bd6 ce37 2280 b938
000002c0: 79c4 7f38 0126 c837 8604 04b8 1857 9f37
000002d0: 7b94 e5b8 d613 5c37 e30d 19b9 dafc 0cb9
000002e0: 01c0 ddb8 eb5b 9fb7 9376 1eb9 e6f5 aa36
000002f0: f4e0 18b9 ba44 03b9 8c55 1f38 b72d 4137
00000300: d717 12b9 8247 a237 6dc2 ebb7 3303 6238
00000310: 43eb 0fb7 bdde 59b9 f718 6cb9 abff 2eb9
00000320: 1b6f 13b9 b191 d3b7 d9b9 54b9 c7ad 9836
00000330: 0fdc d6b8 8d49 9c34 4c44 45b8 8a70 51b9
00000340: 0fc9 2bb9 de66 08b9 fabd 21b6 5d76 82b7
00000350: 1a79 7438 a560 ac34 f5fe f736 4a5c 2a37
00000360: a169 8238 0860 d836 4100 77b7 4d03 32b7
00000370: a60d 2438 0dcd dc37 4613 17b9 6ef7 cdb8
00000380: cf17 5bb9 3ae6 a8b8 49d4 cab8 5e03 31b9
00000390: 57dc e7b9 41d7 a6b7 a553 1738 bd6c bfb7
000003a0: dea3 c237 f068 0aba 7497 1f38 e0ad 33ba
000003b0: 7a08 d1b8 36a3 a439 fa91 4039 1a52 6e38
000003c0: 2669 1938 9de8 2835 ddca 9838 b1a3 3839
000003d0: a748 cfb8 7d7d 8b39 1b11 70b9 a62a afb9
000003e0: cff7 2eb9 81f3 3a39 1a28 b8b9 08f5 3039
000003f0: 30ad 87b9 46d7 81b9 3b4c 5238 07c4 8fb8
0.00012185036 4.6909874e-05 -3.3939275e-05 5.9567417e-05 0.0003164676 -4.90178e-05 -7.638346e-05 -9.954549e-06
-6.4165004e-05 0.00037185138 -7.66488e-05 0.00050564617 -1.5769456e-05 -0.0003348902 -0.0001969475 -6.718096e-05
-6.3221516e-05 -5.246471e-05 -0.00012249457 -0.00021724214 -1.055869e-05 -0.0003027972 0.00011535618 0.00023236139
7.302404e-05 -0.00021407401 0.00023129406 -0.00020081003 0.00011630041 0.00017718996 -8.223653e-05 3.4474328e-05
-0.00014181108 -6.27213e-05 -6.651975e-05 -0.0001361054 -0.00033553905 1.1785895e-05 6.3701686e-05 7.642158e-06
4.075317e-05 -0.00039311018 6.196359e-05 -0.0005112371 -6.654683e-05 0.00022951912 0.00014266945 7.4163836e-05
5.533765e-05 2.1126089e-05 4.7501188e-05 0.00012803094 -8.420122e-05 0.00018969692 -0.00018342162 -0.0002554058
-0.00013592541 0.0001218542 -0.00026890292 0.00012448216 -0.0002048037 -0.00019522506 5.9581165e-05 -3.615452e-05
5.1037267e-05 1.929946e-05 1.2289933e-05 2.7012524e-05 0.00011016386 6.739989e-06 2.358458e-06 1.228574e-05
1.3167539e-06 0.00014059417 -7.876371e-09 0.00018848533 4.243204e-06 -0.00013494576 -7.8957695e-05 -7.9300094e-08
-5.405206e-07 2.834576e-06 -6.8921676e-05 -9.4367766e-05 6.336703e-07 -0.00013533277 1.3223312e-05 7.7468154e-05
2.795403e-05 -0.00010452647 6.686494e-05 -9.065135e-05 4.3071097e-05 5.17613e-05 -1.1632679e-05 2.7823358e-05
0.00016525901 4.9880055e-05 2.969536e-05 6.932669e-05 0.00029579885 2.5936153e-05 6.2971603e-06 4.334484e-05
5.058335e-06 0.00036180863 -1.1724244e-08 0.00048964354 2.4779007e-05 -0.00033097662 -0.00018984788 -1.3794629e-07
-9.686505e-07 1.0889122e-05 -0.00014245443 -0.00022003395 1.053423e-25 -0.0003141969 7.0705675e-05 0.00021523862
7.106365e-05 -0.00023291657 0.00020160676 -0.00020841867 0.0001308895 0.00016066323 -2.970503e-05 7.2958544e-05
-5.1137773e-05 1.4589445e-05 -2.4860856e-05 4.883546e-05 2.0585694e-05 -0.00012367021 -0.00017074749 -0.000111237205
-0.00010757767 -3.904586e-06 -0.000156468 1.5451811e-05 -4.30679e-05 2.1025999e-06 -3.5201218e-05 -0.00014750984
-0.000128599 -9.3663315e-05 5.80191e-06 -1.1099517e-05 4.2955988e-05 7.8804915e-06 2.7021275e-05 2.0471252e-05
5.4055414e-05 2.844644e-05 2.6825215e-05 -4.8709016e-06 5.8596965e-05 5.77941e-05 -0.00010247466 -6.710029e-05
-5.2963533e-05 -4.1474897e-05 -5.958461e-05 -0.000103598315 -0.0001622999 3.2328855e-05 5.8714944e-05 3.5445184e-05
5.0606814e-05 -0.00017316049 5.3700784e-05 -0.00023554046 -4.6409576e-05 4.9414142e-05 2.4656989e-05 8.845354e-05
6.0979717e-05 2.3859555e-05 -3.1475465e-05 1.8994833e-05 -0.000109472276 1.311764e-05 -0.0001459639 -0.00013445635
-0.00010573865 -1.899708e-05 -0.00015112227 5.095021e-06 -0.00014579651 -0.00012518736 3.7988226e-05 1.151434e-05
-0.00013932526 1.9345203e-05 -2.810472e-05 5.388558e-05 -8.57824e-06 -0.00020777709 -0.00022516014 -0.00016689177
-0.00014060402 -2.5221003e-05 -0.00020287129 4.5501833e-06 -0.00010245304 2.911078e-07 -4.7032067e-05 -0.00019973717
-0.00016382731 -0.00013008292 -2.410145e-06 -1.5552325e-05 5.8286918e-05 3.2107815e-07 7.3908545e-06 1.0154277e-05
6.218558e-05 6.448481e-06 -1.4722406e-05 -1.0610395e-05 3.9113358e-05 2.6321528e-05 -0.00014407662 -9.821249e-05
-0.00020894337 -8.053747e-05 -9.671652e-05 -0.0001688129 -0.0004422392 -1.9888977e-05 3.6079105e-05 -2.281961e-05
2.3202909e-05 -0.0005279919 3.8049606e-05 -0.00068542175 -9.9674755e-05 0.0003140212 0.00018364927 5.6820085e-05
3.657597e-05 6.2923374e-07 7.285711e-05 0.00017608587 -9.884062e-05 0.00026605642 -0.00022894556 -0.00033410377
-0.00016686249 0.00017829055 -0.00035125093 0.00016875949 -0.0002587824 -0.0002476519 5.0138897e-05 -6.855284e-05

exp_avg_sq f4 [16, 32]
00000000: 70a1 8c37 41d0 9836 4450 0338 ebc4 6037
00000010: f770 2438 36de 5037 bcd9 c736 342b 5736
00000020: 5df8 9e36 37b8 7b38 7745 db36 5d44 f238
00000030: 132e de37 79fd 8b38 3513 dc37 9311 fc35
00000040: ef70 7537 df66 0337 7099 c838 e119 af38
00000050: 3337 1237 e21b 3839 9ef6 0c39 8ec8 2038
00000060: 6653 8336 64c4 8b38 bbbf 8538 e75d f138
00000070: 2030 8037 6abf 9f36 6e30 5537 d1e1 e736
00000080: 3d91 1137 c2ec dd35 7e3b 8837 7b7d 8a37
00000090: 834e 3038 28b5 da36 1e4e a636 8351 0136
000000a0: 47ac 7d36 db00 8038 c241 b036 7be8 9738
000000b0: 1a83 3c37 1a78 8237 0b72 9f36 bcbd 8835
000000c0: 363f 6636 ec4f b536 52ae cf37 aee6 8e37
000000d0: 882a 2637 0cec 2c38 a2b5 5738 55a4 c837
000000e0: 22bb 7636 dfae a137 8143 0438 95ab bd37
000000f0: cca1 8037 6b17 d935 40ad 3b36 a149 4336
00000100: 5f34 5335 12a7 8334 aae7 ee34 2d0d c934
00000110: 5617 0136 4c9c 7a34 f04f 5834 9759 0134
00000120: f9cd ee33 d403 0336 a460 4134 8f20 2136
00000130: 389a f434 6e82 d436 c067 0d36 2a11 c833
00000140: f704 3435 af49 2d34 6279 2437 01e9 0d37
00000150: 21aa 8233 216c 8d37 e125 5f37 1ce8 5336
00000160: 7f9a e333 4ff4 db36 779f b036 ac59 3437
00000170: e8d1 f134 98a0 7e34 dc73 6035 6ab5 a934
00000180: cd06 1b37 c846 6236 0411 8e35 ec99 8836
00000190: 1863 8537 2130 7536 1cc8 b636 966f 8b35
000001a0: 0e8d 4536 f563 8a37 c9b8 b736 808c 8f37
000001b0: 0fb7 4a36 3344 6a38 a77b 9a37 c957 6d35
000001c0: 5e95 b136 3fe8 3336 74f3 b338 77df 9e38
000001d0: c7b0 f734 d1b9 2339 1c99 0539 17c0 fb37
000001e0: 4ce7 6b35 d56c 7038 e95f 5d38 1785 d238
000001f0: 3c1d 2e36 c3f6 2736 4fbf e636 a8c1 8136
00000200: 1378 f136 d5d8 2235 6c59 4437 a7b9 e735
00000210: d830 9d35 c28f 0537 b685 ba37 29e5 b936
00000220: cf47 7737 0efc cb35 d13d b137 c138 0b36
00000230: 64fb 5e36 4160 f234 f04f 0e36 8d04 7d36
00000240: 7d0b 7437 44e0 4537 127e e034 de0c 4835
00000250: ce61 a235 e3cb e835 c654 1836 f54c b035
00000260: 3daa 2f35 cd84 a135 4839 1d36 f2c4 4235
00000270: 7df6 1f37 4f41 1e35 57dc a736 816c 0436
00000280: 86f2 f036 e374 6735 ebfb 9637 05ce e436
00000290: 7c1f 2937 d44c 8e36 9d89 2b37 d1b8 7736
000002a0: eae8 c736 034e 5f37 a3e3 1837 1de4 8d37
000002b0: 2f48 b436 960d cf35 4693 b235 0b86 1436
000002c0: 8372 db36 997b e936 bc89 8836 6f2e 3436
000002d0: 5f9d 8c36 fc01 af36 8778 7237 4787 dc36
000002e0: 6a62 f535 4f2e 5736 07fc 1137 5b0e 3a36
000002f0: 6a74 8b37 17e1 6635 c2a5 3536 f84d d535
00000300: 5912 b237 a143 e735 c9be 2838 d2a8 c336
00000310: dac2 ba36 f5dc 9d37 4b08 4a38 dc32 4a37
00000320: c726 0138 6ec6 0137 6874 3838 691b 2137
00000330: fcc8 3837 b611 1035 da87 d536 70ab 1337
00000340: 8ffc 0d38 f594 dc37 350d 5135 ad14 bd34
00000350: fb8b 7c36 2845 f433 e736 1836 0a3b 6d36
00000360: 85bb f435 c4c4 0736 61db b836 fcae 5535
00000370: cfb8 0738 d87a f135 a20f 6537 ea0e b136
00000380: fad2 8537 f7be ee35 d025 ba37 c969 0238
00000390: ae50 a338 8fc2 4937 588c f736 1718 4c36
000003a0: 7a69 ae36 b6d3 e738 1eed f936 1eff 0639
000003b0: 4fac 9d37 a22b b437 8057 d236 09aa 9835
000003c0: 1d85 9236 486b 0537 ccc9 1d38 a6b1 a837
000003d0: eb7e 9837 c2e8 5f38 8ebb d838 a600 4d38
000003e0: e9bc c236 17ef 0a38 b4ff 8738 ab28 d337
000003f0: 38e2 be37 2faf fc35 041b ab36 c417 bd36
1.6764476e-05 4.554197e-06 3.1307587e-05 1.3397289e-05 3.9205854e-05 1.2449504e-05 5.9560098e-06 3.2062644e-06
4.7376802e-06 6.0014627e-05 6.5347954e-06 0.00011552193 2.6485917e-05 6.6752495e-05 2.6234988e-05 1.8780578e-06
1.4629432e-05 7.83216e-06 9.565323e-05 8.3494706e-05 8.71513e-06 0.00017557995 0.00013443312 3.8333754e-05
3.913813e-06 6.664617e-05 6.377647e-05 0.00011509266 1.5281199e-05 4.760853e-06 1.2707065e-05 6.910625e-06
8.676489e-06 1.6534689e-06 1.6240167e-05 1.6509313e-05 4.203479e-05 6.5179956e-06 4.9562796e-06 1.9269944e-06
3.7800216e-06 6.103675e-05 5.252864e-06 7.243544e-05 1.1236198e-05 1.5553134e-05 4.7518456e-06 1.018801e-06
3.4309464e-06 5.4035245e-06 2.4757497e-05 1.7035138e-05 9.904274e-06 4.122783e-05 5.1429153e-05 2.3918381e-05
3.6765782e-06 1.9274126e-05 3.153412e-05 2.2610455e-05 1.5334132e-05 1.6174575e-06 2.7966016e-06 2.9100122e-06
7.8679835e-07 2.452221e-07 4.4499512e-07 3.7448754e-07 1.9236081e-06 2.3339925e-07 2.0145649e-07 1.2046654e-07
1.1120205e-07 1.952275e-06 1.8009683e-07 2.400982e-06 4.556075e-07 6.3332764e-06 2.1071028e-06 9.316348e-08
6.706245e-07 1.6138686e-07 9.803423e-06 8.458505e-06 6.084543e-08 1.6858861e-05 1.3300655e-05 3.1576556e-06
1.0598614e-07 6.55515e-06 5.263773e-06 1.0749714e-05 4.5042475e-07 2.3714017e-07 8.36151e-07 3.16107e-07
9.240303e-06 3.3717824e-06 1.0584777e-06 4.0710347e-06 1.590098e-05 3.653586e-06 5.4473185e-06 1.0388783e-06
2.9437392e-06 1.6497428e-05 5.475337e-06 1.7112354e-05 3.02069e-06 5.5853463e-05 1.841581e-05 8.8417124e-07
5.2923997e-06 2.6808264e-06 8.580732e-05 7.575651e-05 4.6135958e-07 0.00015614113 0.00012740906 3.001098e-05
8.7880903e-07 5.7321817e-05 5.277983e-05 0.0001003837 2.5945037e-06 2.5028573e-06 6.8768054e-06 3.867044e-06
7.196338e-06 6.0665235e-07 1.17033305e-05 1.7264873e-06 1.1711627e-06 7.960889e-06 2.2235192e-05 5.5401074e-06
1.47390665e-05 1.5198036e-06 2.112883e-05 2.074565e-06 3.3226906e-06 4.5146047e-07 2.1206179e-06 3.7702587e-06
1.4546208e-05 1.1794331e-05 4.181498e-07 7.452453e-07 1.2098405e-06 1.7344686e-06 2.269911e-06 1.3135419e-06
6.544031e-07 1.2034085e-06 2.3428165e-06 7.2557225e-07 9.5345285e-06 5.8954623e-07 5.0026388e-06 1.973269e-06
7.180791e-06 8.62243e-07 1.7998702e-05 6.8189133e-06 1.00805155e-05 4.2408737e-06 1.0224435e-05 3.6913445e-06
5.957777e-06 1.3309999e-05 9.112907e-06 1.6914733e-05 5.3728213e-06 1.5426656e-06 1.3304896e-06 2.2131742e-06
6.5400395e-06 6.95833e-06 4.0691502e-06 2.6849118e-06 4.1906455e-06 5.2156374e-06 1.44523865e-05 6.5722593e-06
1.8282565e-06 3.2064452e-06 8.701353e-06 2.7724516e-06 1.66243e-05 8.6009226e-07 2.7067586e-06 1.5892429e-06
2.1227797e-05 1.7230524e-06 4.0232004e-05 5.831106e-06 5.5659157e-06 1.881875e-05 4.8168276e-05 1.205198e-05
3.079211e-05 7.7352e-06 4.397743e-05 9.60273e-06 1.101405e-05 5.3669953e-07 6.36371e-06 8.801799e-06
3.3852233e-05 2.6295407e-05 7.7877786e-07 3.5219037e-07 3.7632406e-06 1.1374715e-07 2.2681722e-06 3.5350117e-06
1.8233992e-06 2.02311e-06 5.5091664e-06 7.960332e-07 3.2358625e-05 1.7991651e-06 1.3653103e-05 5.2767473e-06
1.595308e-05 1.778796e-06 2.2190536e-05 3.1092935e-05 7.7874734e-05 1.2025833e-05 7.377512e-06 3.041239e-06
5.197883e-06 0.000110543726 7.4483823e-06 0.00012874274 1.8796096e-05 2.147799e-05 6.268674e-06 1.1374369e-06
4.3666355e-06 7.952396e-06 3.7619655e-05 2.0109885e-05 1.8178913e-05 5.3384116e-05 0.000103346174 4.8876413e-05
5.8036426e-06 3.3124434e-05 6.48493e-05 2.5172098e-05 2.2755106e-05 1.8826448e-06 5.099342e-06 5.6354056e-06

exp_avg f4 [16]
00000000: b9fe 2238 b26b ffb8 0ee3 4e37 bb59 9138
00000010: d35d b2b8 0240 b4b8 d774 28b9 9156 3fb9
00000020: 3722 0bb9 149f a4b8 4201 8ab8 f25d fcb8
00000030: 2a52 1ab9 377d 4300 63c3 88b8 72c1 e435
3.886104e-05 -0.00012179407 1.2331422e-05 6.9308524e-05 -8.5051775e-05 -8.594991e-05 -0.00016065255 -0.00018247428
-0.00013268819 -7.84976e-05 -6.580587e-05 -0.00012033795 -0.00014717193 6.197897e-39 -6.521379e-05 1.7043624e-06

exp_avg_sq f4 [16]
00000000: b73c ec38 f9ee 6238 521c 1c37 ab5a af38
00000010: 4b2d 2737 d1a2 c137 60ce f837 7dd1 0d39
00000020: 1160 be37 8729 e038 b553 0436 c5de 2038
00000030: c308 0039 ae77 c336 16bb 9f36 1cfd a838
0.00011264666 5.410516e-05 9.304918e-06 8.3615385e-05 9.964521e-06 2.308321e-05 2.9660005e-05 0.00013524848
2.26945e-05 0.000106888874 1.9718257e-06 3.8354443e-05 0.00012210295 5.8253854e-06 4.760349e-06 8.0580096e-05

exp_avg f4 [3, 16]
00000000: 9f86 cdb7 1516 7e39 1890 4b39 de6d ca38
00000010: ba33 3eba 7a64 403a 5568 40ba 7702 9738
00000020: 6a33 33ba 83c4 023a e7d2 8b38 4fd4 2bba
00000030: ed52 0d3a 8c39 0300 71fb 68ba eb0c 00ba
00000040: 377c 703a bbd0 d8ba 15b3 473a c9c3 723a
00000050: e814 023a 107b a1ba 7a84 133a fe57 d1ba
00000060: 6b0d 063a 9250 48ba 37ea 6a3a 2050 b439
00000070: bf40 d0ba 1b33 0880 e754 243a 5677 8c3a
00000080: 3710 6aba dc0d b93a 4e97 7aba d508 86ba
00000090: ce7a 7039 3391 023a d18e 3339 b3e7 c73a
000000a0: a897 3439 6a17 8b39 ad64 7cba 6658 a339
000000b0: 2297 893a 8ff9 0400 dd4c 8939 f6e1 18ba
-2.4500592e-05 0.00024231554 0.00019413268 9.652575e-05 -0.00072556327 0.0007339191 -0.00073397654 7.2007e-05
-0.00068359694 0.0004988389 6.66732e-05 -0.0006554769 0.000539108 2.9615e-40 -0.00088875653 -0.00048847374
0.0009173783 -0.0016541699 0.0007617933 0.00092607416 0.0004962222 -0.0012320001 0.00056273455 -0.0015971658
0.0005113694 -0.00076414004 0.00089612923 0.00034391973 -0.0015888436 -7.53017e-40 0.0006268755 0.0010716717
-0.0008928808 0.001411851 -0.00095592893 -0.0010226021 0.00022933932 0.0004980743 0.00017123974 0.0015251547
0.00017222634 0.0002652959 -0.0009628039 0.00031155645 0.0010497312 4.56867e-40 0.00026187944 -0.00058320106

exp_avg_sq f4 [3, 16]
00000000: dff2 bd38 809f 8539 3464 8d39 40cf 2638
00000010: fbc8 6339 4515 8d39 7d54 9e39 440e 4239
00000020: 3d42 7139 c931 7e39 909d bc32 4f84 1a3a
00000030: b88d c839 4703 1735 0a07 f139 0815 1d39
00000040: 686f c039 90d8 743a 11ba b539 a2c5 3439
00000050: 9fae f138 6374 283a 8225 d038 cc9b 2c3a
00000060: 23ea c738 7924 f439 492f 0636 4ab4 8139
00000070: ccf2 643a 66f3 0336 98e6 5739 a4ee 8239
00000080: eb4d 243a 97fe ff39 3d42 1c3a 0eb7 a539
00000090: 284c 4138 1775 eb39 c8ef 9838 ce50 cd39
000000a0: 2007 8038 03e3 c439 2a56 0e36 7244 9439
000000b0: b453 9339 9fc8 e634 bcdd 1f39 2e5d 1d39
9.0574606e-05 0.00025486574 0.00026968273 3.97705e-05 0.00021723278 0.00026909463 0.00030199057 0.00018506596
0.00023008227 0.00024241874 2.1957732e-08 0.00058943493 0.0003825256 5.625665e-07 0.00045972347 0.00014980522
0.00036704098 0.00093401317 0.0003466164 0.00017239762 0.00011524301 0.00064260344 9.925199e-05 0.0006584495
9.532671e-05 0.0004656648 1.999508e-06 0.00024739123 0.00087336893 1.9662198e-06 0.000205899 0.00024973333
0.0006267714 0.00048827074 0.0005960798 0.0003160764 4.608571e-05 0.00044909932 7.2925875e-05 0.0003916085
6.104843e-05 0.0003755317 2.1209803e-06 0.00028279755 0.0002810039 4.298681e-07 0.00015246024 0.00015007399

exp_avg f4 [3]
00000000: 2624 a4b8 25cc 18b9 81dd 6a39
-7.8268626e-05 -0.000145719 0.00022398496

exp_avg_sq f4 [3]
00000000: e30d ec39 48b0 813a 08aa 193a
0.00045023774 0.0009894455 0.00058618234
