homework1/lightning_logs/version_0/checkpoints/epoch=99-step=900.ckpt (torch, 22168 bytes, 18 tensors)

network.0.weight f4 [32, 13]
00000000: 613b d43e 10fa 8fbd 5277 a13e dc01 3bbe
00000010: 70cf dc3b 28b9 3f3e c163 00be 6157 f2bc
00000020: 3d90 9abd 6d9d 3b3d 752c bebe 3ae6 40be
00000030: d063 f23e 5a34 66bc 6aa5 183e cd36 aabd
00000040: 2882 07be 8172 923e f5c2 e53e 63b0 633e
00000050: 2ab6 ccbe 1c26 873e 748e 973d a1f5 ea3d
00000060: 0e84 963e 7575 c63e 296e d83e 9c7b 303e
00000070: 7749 353e d03c 09bf dadf a83c 4775 333e
00000080: f800 db3e 9e89 46be b55f 0d3e 8acc 24be
00000090: a4b8 dd3c 3acc 903d 222e ab3e 4332 753e
000000a0: 95d5 073e 499c c3bd 6670 71be faf6 85bd
000000b0: 387c af3e 6c9f 7d3e 2b76 90bb 3b10 9e3e
000000c0: ad6e 583e 2dd2 623e 8529 0f3d 10fd 9b3e
000000d0: a997 5bbe 2d98 61be 60ec 4fbe 732f 8cbd
000000e0: 7a5f 213d fd71 b33e 8d93 eebc a39f 95bb
000000f0: 71d5 6a3e 7eeb c2be 05a9 c73e 9a7a 3bba
00000100: 4127 c7be 5ea1 5e3e 587e 443d 1418 533d
00000110: 0c31 983e b7c3 b73c 8f1d 043d b89d debe
00000120: 958f d63d d88b d7be 4387 fb3e 4c86 b9be
00000130: d6fb c9be 6bf4 8fbd a5dd e23e 99cc 85bc
00000140: 57b9 613e df43 0d3d 3d57 cc3d 5021 a5bd
00000150: 3039 be3e a6c6 43be a41c 583d 2cfb 45bd
00000160: c400 4ebe 34e1 13be 924d a33e 0432 05bf
00000170: a4e2 bfbe 7fd3 90be 5341 ca3e d010 633e
00000180: a822 253e 4a42 38be ab2a 83be 1d06 af3d
00000190: ef9d 41be a5f6 21bd d60a 983e 149a 04be
000001a0: b012 36be 2045 063e a5cf 53be 88d1 ed3d
000001b0: b70b abbe e36a 9bbe 6cae 7e3c 70e5 aa3d
000001c0: 5443 bc3e d5ce d3be 403d 173c 6b7b b43e
000001d0: 7958 aabe eabd ad3e e5d7 2e3e cf2a a13e
000001e0: 7467 a2be e4df 01be 34af bf3e f9b3 c03e
000001f0: 26c9 b2be 04f0 34bc 824b 32be eaa1 a23d
00000200: e31b e43e 9e97 6b3e 99a9 9b3c 13db 99be
00000210: 2fe0 833d 92d4 6c3e 5dd7 823d 3b3f e83d
00000220: ef6b a03e f37f adbd 72cf 923e 08d0 1c3e
00000230: 2af8 953d c206 bbbd 7382 aabe 88eb 69be
00000240: bf8b 86be 48bc 2fbe b700 15be e5bc a23e
00000250: fd2f 263d 7811 c43d 563f 413e 14e5 16bd
00000260: 5b4a c6be 5a61 933e 2fab eb3d 6e85 a1be
00000270: b480 b93e 3f68 64be 7c9e 943e 2589 9bbe
00000280: 6f2b f93b 7470 663e d3d2 cb3e 1ca4 37bd
00000290: f5ec fbbd 307f c8bd 963c c63d 1c1e 873e
000002a0: fefb 9d3d ff2c 863c 128c 0c3e 3d00 833e
000002b0: 2960 b9be cb38 3d3e c3ad dfbd d21c 9cbd
000002c0: 1525 d8bd b816 333e 49e0 be3e a395 09be
000002d0: 742a 0ebe 153b ad3e e359 f8be aa77 5dbe
000002e0: e828 ffbd d2b7 40bd e8ee d2bd 99ec 7a3d
000002f0: a279 883e 6271 06be d4c9 c83e 72a9 03bf
00000300: 59f3 f33d 8a53 05be ee9e 6dbc a957 913d
00000310: b45c 05be 510b 07be 0787 973d 1ec5 b0be
00000320: b067 01bd 199a e03e 3eb8 9c3e 3adb bbbe
00000330: 8ec4 a0be 6015 f93e 832d a53d f988 08bf
00000340: c47b 473d a06d 69be 317f ba3e 9866 dcbe
00000350: 971f 5a3e 56fb 8e3e 8703 223e 07c9 fcbd
00000360: a1c6 1a3e 918e db3d 5891 c83e b91a 613d
00000370: a053 5a3e d437 95bd 06b1 b43e 4498 90bc
00000380: 8b43 293e 35f5 8d3d 3457 8abe ea68 e2be
00000390: bf78 773e 6a3a f8bd aaba d03e f7bf a2be
000003a0: eeeb 77be 2647 b63d 8c64 98be 9bf4 26be
000003b0: d8ae 9bbe 4e34 ab3e 29f4 85be c8b4 c5bd
000003c0: 1090 b43e 47ff 8c3e fdb5 2dbe 969f c5bd
000003d0: 10f2 8d3e c449 913d 43bf eabe 6721 8bbe
000003e0: 0c0b b43e 6be0 2bbe e63c 4a3e 5181 403e
000003f0: b157 85bd fb37 6cbe e4f5 ac3e dbb3 433e
0.41451553 -0.070301175 0.31536347 -0.18262428 0.0067385957 0.18722975 -0.12538053 -0.029582681
-0.075470425 0.04580443 -0.37143293 -0.18837824 0.47341776 -0.0140505675 0.1490685 -0.08311234
-0.13233244 0.28602985 0.44875303 0.22235255 -0.3998273 0.26396263 0.07400218 0.11472631
0.29397625 0.38761488 0.42271546 0.17234653 0.17703806 -0.5360842 0.020614553 0.17525207
0.42774177 -0.19388434 0.1380604 -0.1609365 0.027065583 0.07070203 0.33433634 0.23944955
0.13265069 -0.095512934 -0.23578033 -0.06541248 0.3427446 0.24767846 -0.004408618 0.30871758
0.2113597 0.22150488 0.034951705 0.3046651 -0.21444573 -0.22030707 -0.20305014 -0.06844988
0.039397694 0.35047904 -0.029123092 -0.0045661493 0.22932984 -0.3807029 0.3899614 -0.0007151753
-0.38897136 0.21741244 0.047972053 0.051536635 0.2972492 0.022432191 0.03225475 -0.43479705
0.10476605 -0.4209888 0.49126634 -0.36235273 -0.39449948 -0.07029041 0.44309726 -0.016332911
0.22043358 0.034488555 0.09977577 -0.080629945 0.37153006 -0.19118747 0.05276169 -0.04833524
-0.2011748 -0.14441377 0.3189512 -0.5202944 -0.374776 -0.2828636 0.39502963 0.22174382
0.16126502 -0.17994037 -0.2561849 0.08546088 -0.18907903 -0.03954186 0.29695767 -0.12949401
-0.17780566 0.13112307 -0.20684679 0.116122305 -0.33407375 -0.30354986 0.015544515 0.08344543
0.36770117 -0.41368738 0.009230912 0.3525041 -0.33270624 0.33933955 0.17074545 0.31477973
-0.31719553 -0.12683064 0.37438357 0.37637308 -0.3491909 -0.011043552 -0.17411616 0.07941039
0.44552526 0.23007056 0.019001769 -0.30049953 0.06439244 0.23127964 0.063887335 0.11340185
0.31332347 -0.0847167 0.28673893 0.15313733 0.07322724 -0.09132148 -0.3330265 -0.22843754
-0.26278493 -0.17161667 -0.14551054 0.3178474 0.04057311 0.095736444 0.18871817 -0.03683956
-0.38728604 0.2878521 0.1150726 -0.3154711 0.36231005 -0.22305392 0.29027164 -0.3037807
0.0076040546 0.22503835 0.39809284 -0.04483424 -0.12301055 -0.09789884 0.096795246 0.2639016
0.07714079 0.016378878 0.13725308 0.2558612 -0.36206177 0.18478696 -0.10921814 -0.076226845
-0.10553948 0.17489135 0.3728049 -0.13435988 -0.13883382 0.3383414 -0.48506078 -0.2162768
-0.12458974 -0.047050305 -0.10299474 0.061260793 0.26655298 -0.1312919 0.39216483 -0.5143043
0.11911649 -0.13020149 -0.014503224 0.07096798 -0.13023645 -0.1318791 0.07398801 -0.34525388
-0.031593025 0.43867567 0.30609316 -0.36690694 -0.3139996 0.4864912 0.08065321 -0.53334004
0.048702016 -0.22795725 0.36425164 -0.43047023 0.21301113 0.2792613 0.15821658 -0.123430304
0.15114833 0.10720552 0.39173388 0.054957125 0.21320963 -0.07286039 0.35291308 -0.01765073
0.16529672 0.06931535 -0.27019656 -0.44220668 0.24167155 -0.121205166 0.40767413 -0.31787083
-0.24211094 0.08900289 -0.2976421 -0.16304247 -0.30406833 0.33438343 -0.26162842 -0.09653622
0.3526616 0.2753851 -0.16963954 -0.09649579 0.27723742 0.07094148 -0.45849046 -0.2717392
0.35164678 -0.16784827 0.19749793 0.1879933 -0.065108664 -0.2306823 0.3378135 0.19111578

network.0.bias f4 [32]
00000000: 4c27 f43e 9d32 093e f3a2 573e c862 d83e
00000010: 07d1 153e 1e30 07be 76f5 8f3e 1ad8 2a3d
00000020: 8ba5 073e 60b2 6b3e f2f8 413e 5bde 973d
00000030: 0b8e 1d3e 2899 083f e07b 8b3d d04f 4f3c
00000040: b08f c53e b70e 77bd 9959 9b3e 4496 ae3d
00000050: 8a6a 983e a9e7 ff3e 5cd2 553e 83bd a23e
00000060: bb41 b93e d139 36be 267b 1b3d dd1e f3bc
00000070: 59ff e03e 149e ee3e e8a1 023e 071f fa3c
0.4768623 0.13398214 0.21058254 0.42262864 0.14630519 -0.13201949 0.2811696 0.041709997
0.13246743 0.23017263 0.18942621 0.07415458 0.15386216 0.533587 0.06810737 0.012653306
0.38586187 -0.060316768 0.30341795 0.08524755 0.29768783 0.4998143 0.20881027 0.3178521
0.3618296 -0.17795493 0.03795924 -0.029677803 0.43944815 0.4660498 0.12757075 0.030532373

network.2.weight f4 [16, 32]
00000000: ad64 843e fe30 093e fc3b 853d 4c01 e2bc
00000010: b13e 91be 0d00 aa3e c6fc 823d 6599 783d
00000020: 8081 f1be 76f7 b8bd 7e3d d73d 4b0e 8fbe
00000030: e091 8abe 0b1e 9f3e 5cc1 3cbe ba09 b1be
00000040: 9a2b 09be 00fb 9e3e d346 8ebe 345b 253e
00000050: a831 a6bc 820a aabd 04fc 213e 7a64 293e
00000060: 4eb4 96bc 4a0a f6bd cb15 36be 0004 e6bd
00000070: a203 ed3d d434 4d3e 3595 1cbe 08be b43e
00000080: 2a6f d43c 028c ca3d 2a35 7fbd 31db 02be
00000090: 1966 cdbd 89ad 5f3c eac3 2cbc c865 813e
000000a0: 27eb e8bd edf1 ad3d 2862 173e 9315 42be
000000b0: 6c98 b23d 2d5d 80be fc78 01bd 90e3 bd3d
000000c0: 8901 bf3d ca1f a83d 6b44 0abd e3af b4bd
000000d0: 8d86 553d 59fb 873c 780c 97bd 64c8 95bd
000000e0: d45e 2d3d 069e b2bd 92e9 8dbd 3089 ae3d
000000f0: 06a4 fb3d 97dd 87bd 8a45 56be 49a3 23be
00000100: 7121 693e a37b 033e 085e 253c 4c84 1dbe
00000110: 5a10 883e 9186 af3e 71ac dbbc a069 a93e
00000120: 8d91 13bd 2882 87be ced2 10bc 3a76 eebb
00000130: b1f5 cc3d c44b ff3d b539 683e 4f29 e93d
00000140: b603 cfbd 57de a53c cac1 943c a1db 9c3e
00000150: 270d 2d3e bdf2 893d a177 033e 832b 803e
00000160: f925 883e bbda bbbd 3d8b a2be 132b 353d
00000170: b6e3 c73d 4b93 8f3e 2347 b9bd 28a9 903e
00000180: 0401 42be e3f5 883d ef68 cbbd 57cd 9fbd
00000190: 9fd9 543e 27ef 03be c1f2 63be 52c3 bb3e
000001a0: 3310 9a3e 4e21 003b 7e2f 023e ee81 853e
000001b0: 71eb 44be 2fa7 92bb e16e 6b3e 2098 a93e
000001c0: 5610 6f3d ab6b 2fbe 5e54 8f3e 79a3 8b3e
000001d0: d695 ac3e 4dca ccbd bea3 8abe f16d 893d
000001e0: 0e7e 473e 0b91 463e 629a 64bc 3be8 553e
000001f0: 147d ae3e 0c9d 2c3e d872 88bd 401c 5b3d
00000200: 3640 853d 03cc e33d 3c02 0ebe b2b6 10be
00000210: 1d6d abbc b69d 873e 2e35 423e 796f 67be
00000220: 3a39 aebe a26c b5bd 4a3c a7bd f95d 4cbe
00000230: db6c 41be 63d8 463e 4029 d13b 5406 c5be
00000240: dc30 6fbe 51b8 763e 98bc b9bd 3755 0f3e
00000250: b1a0 923d d281 59be b7f7 903e d75b 853e
00000260: 220b 403e 3cef 95bb e78b ea3d 29ce 79be
00000270: 67c7 6b3d f6b7 0b3d d1fd 003d 2c24 a63e
00000280: e158 18be 3ce0 0b3e 260c 7cbe e2d2 6d3d
00000290: 5875 403e fc63 f6bc 3589 75be a4d3 9a3e
000002a0: 82b0 af3e 8069 0abd 7356 113e 03f1 173e
000002b0: 93a2 c63d 25e9 05be 3c8c e03d f1b5 3b3e
000002c0: fe0e a0bd 55e8 13be 9863 a83e b78d 65bd
000002d0: 4eed 7d3d 7bb6 e13c 4280 543c 04b3 86be
000002e0: 8c2d 1c3e a555 a73d f910 4bbe 4445 123e
000002f0: 401a 973e 436f 3f3e f773 84bd bc3d ed3c
00000300: c75c bf3e af47 c73e 0208 d83e b6a5 a43e
00000310: 4186 88bd cdc9 6abe c92d 3c3e 8b5c b4bd
00000320: d7df 6b3d 3145 803e 78cb aabd 0e8b cfbd
00000330: 4250 9c3e ab16 473e 8a33 1f3e 2718 e1bd
00000340: c13c d73e 8078 24be 95cf a9be 8d5c 88be
00000350: 4b61 e83a bb7a 943e 53ff 9a3d bbe7 883d
00000360: fc51 46be eb94 8abb 4446 9a3e 38a9 3abe
00000370: 4bb9 ecbc ec1c a4bd 45ab 953e 6884 6cbe
00000380: f950 92be 4a07 cbbc 5dc7 a2bd bab1 12be
00000390: 1774 a33e 8340 07be 87fd 993d 4571 433e
000003a0: 16fe a73e ed83 823c 52f3 9c3c 280f 893e
000003b0: 52e8 8d3d cd86 7ebd a218 9c3e 1bf4 7f3e
000003c0: 7595 7a3d 55e7 b43d 91fa a13e 0c7a 863e
000003d0: 9db5 bc3e a60c 2fbe 7c63 e03d 7a9a b5bd
000003e0: d4ae 7b3e d3df 683c 5cde 80be 6961 703e
000003f0: e58a 4d3e b47b b03d 7452 f6bd f23a ed3d
0.2585806 0.13397595 0.06505582 -0.027588509 -0.28368142 0.33203164 0.06395869 0.060693163
-0.47169113 -0.090315744 0.105097756 -0.27940592 -0.2706442 0.31077608 -0.18433136 -0.34577733
-0.13395539 0.31050873 -0.2778841 0.16148072 -0.02028735 -0.083027855 0.15818793 0.16542235
-0.018396523 -0.12013681 -0.17781751 -0.11231232 0.115729585 0.20039684 -0.15291293 0.35301232
0.025931913 0.098899856 -0.06230656 -0.12778927 -0.10029239 0.013652214 -0.010544756 0.25272965
-0.11372977 0.08493409 0.14783537 -0.18953542 0.087204784 -0.25071087 -0.03160952 0.0927192
0.09326465 0.08209188 -0.033756655 -0.0882261 0.05213027 0.016599344 -0.07375425 -0.07313612
0.042326763 -0.08721547 -0.069293156 0.0852226 0.12287144 -0.06634062 -0.20924965 -0.15980257
0.22766663 0.12840132 0.01009322 -0.15382499 0.26574975 0.34282354 -0.026815625 0.33088398
-0.03602748 -0.2646649 -0.008839322 -0.0072772773 0.100077994 0.12465623 0.22678263 0.11384832
-0.1010813 0.020247621 0.018158812 0.30636314 0.16899548 0.06735752 0.12838604 0.25033197
0.2659147 -0.09172579 -0.31746855 0.044230532 0.09760229 0.28042063 -0.090467714 0.28254056
-0.189457 0.06687524 -0.09932124 -0.07802837 0.20786141 -0.12884198 -0.22260572 0.36672455
0.30090484 0.00195511 0.1271343 0.2607569 -0.19230439 -0.0044754962 0.22991516 0.33123875
0.05836519 -0.17130916 0.27994055 0.27273157 0.33708066 -0.09999523 -0.2707805 0.06710423
0.1948168 0.19391267 -0.013952823 0.2088937 0.34079802 0.16856784 -0.0666253 0.05349374
0.06506388 0.111228965 -0.1386804 -0.14132193 -0.020926053 0.2648751 0.18965599 -0.22601117
-0.34028035 -0.08858611 -0.08165796 -0.19957723 -0.18889181 0.19418482 0.006383091 -0.3848139
-0.23358482 0.24093749 -0.090691745 0.1399735 0.07159556 -0.21240929 0.2831399 0.2604663
0.18754247 -0.004575638 0.114524655 -0.2439505 0.05756321 0.034110986 0.03149206 0.32449472
-0.14877655 0.13659757 -0.2461401 0.05806244 0.18794763 -0.030076973 -0.23978122 0.30239594
0.34314352 -0.03379202 0.14193134 0.14838032 0.09698977 -0.13077219 0.109642476 0.18331124
-0.078153595 -0.14444096 0.32888484 -0.056043353 0.06199389 0.027552834 0.012970032 -0.26308453
0.1525175 0.08170632 -0.19830693 0.14284235 0.29512215 0.18694787 -0.06467431 0.028960101
0.3737547 0.38921878 0.4219361 0.32157677 -0.06666232 -0.22928543 0.1837684 -0.08806714
0.057586517 0.2505279 -0.0833959 -0.101339445 0.30529982 0.19442241 0.15547004 -0.10990935
0.4203854 -0.16061592 -0.33166185 -0.2663311 0.0017729191 0.28999886 0.075682305 0.06684824
-0.19367212 -0.004229178 0.30131733 -0.18228614 -0.028896948 -0.08013329 0.2923223 -0.23097384
-0.28577402 -0.02478375 -0.07948182 -0.1432561 0.31924507 -0.13208203 0.0751906 0.19086178
0.3281104 0.015932048 0.019158993 0.26769376 0.06929077 -0.062140275 0.30487543 0.24995463
0.06117769 0.088331856 0.3163648 0.2626499 0.3685731 -0.17094669 0.10956475 -0.08867355
0.2457841 0.01421352 -0.25169647 0.23474659 0.20072515 0.086173445 -0.120274454 0.115835086

network.2.bias f4 [16]
00000000: d6e7 813d 1c09 99bd c20a 7abb f09a 323c
00000010: 1226 27bb 75d2 d33d f40a 513e 1536 0d3e
00000020: 5520 1c3e 688b 42be 5d7d 5a3e d0a0 983e
00000030: 9b71 4e3e bcbd 883d 420f 103e 79f6 4c3e
0.06343047 -0.074724406 -0.0038153385 0.010901198 -0.002550487 0.10342876 0.20414335 0.13790162
0.15246709 -0.18998492 0.21336885 0.2981019 0.20160525 0.06676814 0.1406832 0.20015897

network.4.weight f4 [3, 16]
00000000: ac44 b0be 9d92 4cbe 618f 8dbe c4ba b6be
00000010: b3d7 2a3d 97eb ddbe 6215 fc3e cbdf 9ebe
00000020: 7b26 b5be 55c8 073a fdad 7b3e b3bb cabc
00000030: 8a76 283e 0bef 8f3d 38c2 aebe c3bb eabe
00000040: 53e4 91be 2d22 453e 12c1 933d 1673 e93e
00000050: dc32 ccbe c24d eb3e d297 b2bd b6b5 ba3e
00000060: cc50 35bc ba73 ff3c e95a 2c3d 4b0b 4e3e
00000070: b949 00bf 2315 debd 3192 95be 292e 063e
00000080: 1495 c83e 0c9b 8bbe 3fb7 573e 1446 51be
00000090: 5b5a ce3e 006a 79be dea5 633c f94c 5cbc
000000a0: df83 613e a095 aebc 262d ebbe aea0 e2be
000000b0: bdaf 94be c698 e33e 6a28 9a3d 3bfb b3bd
-0.34427392 -0.19977804 -0.27648452 -0.35689366 0.041709613 -0.43343803 0.49235064 -0.31030115
-0.3538092 0.0005179693 0.2457809 -0.024747705 0.16451469 0.07028016 -0.34132552 -0.45846376
-0.2849451 0.19251318 0.072145596 0.45595616 -0.39882553 0.45957762 -0.08720364 0.3646676
-0.011066627 0.031183112 0.042078886 0.20121495 -0.5011249 -0.10843875 -0.29213098 0.13103546
0.39176238 -0.2726673 0.21065997 -0.20436889 0.4030331 -0.24356842 0.013894526 -0.013446086
0.22022961 -0.021311581 -0.45932883 -0.44263214 -0.29040328 0.44452494 0.075272396 -0.08788153

network.4.bias f4 [3]
00000000: c481 533d 2527 293e 7ae6 99be
0.051637426 0.16518839 -0.30058652

exp_avg f4 [32, 13]
00000000: ef71 df35 c1a5 fbb7 cc3e 5ab9 61bb d439
00000010: 88dd 4739 af05 3bb9 3c23 013a 81c5 5139
00000020: 9bdc 3739 72f4 3db9 63ad c039 a06a 4939
00000030: 7383 feb8 ac69 91b8 bb9e a9b8 3008 3cb8
00000040: 9822 f138 f4e7 23b8 fb69 8fb8 bbd7 dcb8
00000050: c507 9b38 3655 2a36 a654 8f38 7232 b3b7
00000060: 1f4f ebb8 72dc c3b8 6b36 e3b8 c550 81b8
00000070: 3f57 0ab9 5446 5a39 313d 3fb8 b76a c3b2
00000080: 0d1d b5b8 65da c7b7 0ed1 9138 1f49 4938
00000090: 8e1f 3db7 3a19 d6b8 c17f 30b9 ad19 03b9
000000a0: 48e4 c3b8 503c d4b8 cc60 5539 7dde 44b8
000000b0: 7e8c a5b7 cb08 9fb8 3876 7e37 9882 3f38
000000c0: 3a01 8f38 fe98 29b7 7872 f0b8 38ac 23b9
000000d0: 5666 03b9 d5ea 1338 09d4 dd37 b1e4 1bb9
000000e0: ecc3 13ba 5b86 94b9 a817 a9b9 5bc4 8e39
000000f0: 1c48 bd39 5d5d 8339 6089 cfb9 da00 48b9
00000100: 5dc4 1439 84ba ad38 b72e d338 d159 48b9
00000110: 3998 af39 66bb 5c39 25be 55b8 1407 683a
00000120: 58fd 8f38 ae9a b639 1d2e 97b9 423c 0c3a
00000130: 9be0 033a 4497 6638 7910 00b9 8b95 a7b8
00000140: f504 87b8 fd8f 4f39 b825 37b8 11a1 0839
00000150: 5ce8 2d37 17c2 aa38 d413 e938 8a6c 0e38
00000160: 156e 5c38 b73c c937 0906 01b9 0628 8239
00000170: 0c6d 0c38 5a10 de38 c60c b5b9 bdea 3438
00000180: 00d2 eb36 26a2 5cb6 2efb 3e38 7c85 43b9
00000190: 7c7b c938 f8ec 84b8 a043 36b8 b685 d638
000001a0: a9d2 2739 baa5 edb9 3fd0 09b8 48cd 80ba
000001b0: c686 f4b8 0e6c 073a fc9f 81ba 1537 0039
000001c0: f9f1 56ba 634c cb39 4789 a2b9 3d46 fab9
000001d0: f6e4 ac38 690e dbb8 9ed4 9ab8 2573 97b8
000001e0: 961c 4539 a124 a1b8 1ca4 98b7 cd3d 8fb8
000001f0: 1541 9637 7586 8a37 3b5e 9138 d763 93b7
00000200: cfa5 c7b8 da31 17b9 0750 3938 594e 0338
00000210: 357d 1e38 fdde 30b8 126e b4b6 1171 13b8
00000220: 5eb1 0ab8 537b 7938 85ad afb7 02ff c737
00000230: de00 16b8 06aa 71b7 c4d1 9e37 77a4 efb8
00000240: b65d 77b8 df36 f4b5 a101 70b9 9c1e 0eba
00000250: 08b5 29b9 bbfd c2b9 f12d 9f39 3cbe 6439
00000260: f244 9639 94fe 03ba 770b b9b9 7d48 f1b6
00000270: 5089 d4b8 857e 6cb8 3fcd 3ab8 71f4 3239
00000280: 3951 21b8 83a3 2ab8 e152 78b8 e822 a336
00000290: a314 9638 6086 a138 d454 3eb7 0c21 9bb8
000002a0: 44ce e7b8 c2c4 90b7 bc85 a0b6 ed63 3bb9
000002b0: 063b 8239 cf94 fc38 8602 11b9 9622 b439
000002c0: 46ca 0b39 b6f5 2a39 eea2 fcb8 dcaa 8839
000002d0: 2ca6 fe38 1ebe a4b8 b155 4939 999b 30b7
000002e0: 479b ee37 f12b 55b9 bd9c 7738 65dd 5e38
000002f0: ad87 4435 eea9 e6b7 ea25 16b9 9e76 eb38
00000300: 3f1f 8cb8 1b4e a7b8 fceb 13b7 ad17 32b9
00000310: f1ab 0fb9 edb9 5f39 cde9 d2b9 72eb ccb9
00000320: 1646 a7b8 e0ef 94ba f53e 48b8 2ed1 d6b8
00000330: 5aad 9e39 af98 04ba ae6a d5b9 3f3d 9839
00000340: 8682 0bb9 0f52 a1b8 a061 b8b8 1c9b 6439
00000350: 9d98 96b8 4ac6 b2b8 6df1 c0b8 f26c c4b1
00000360: 42f6 ce38 eaf8 0339 1a6e 0cb8 2c5b 05b9
00000370: 6214 1fb9 702b e1b7 ce66 8939 2d03 f1b8
00000380: 6a82 bc39 e34b c838 fe5c dbb8 45f5 453a
00000390: 87a0 38b9 bce4 113a d100 00b9 cd16 bf39
000003a0: 71d1 043a f667 e737 f6b2 6e37 4db5 2238
000003b0: 0f14 1538 f96f 21ba 0142 01ba 76a8 9937
000003c0: 1400 57ba d6c7 37b8 3fb4 c8b8 09bb e439
000003d0: 86d5 e7b9 2dd4 8cb9 f7c3 4e39 20bf 8637
000003e0: 9c84 acb7 12cc ceb6 409e 0d36 1adc 52b8
000003f0: 0e51 1138 4a59 9938 21ee a6b7 8b1d 0538
1.6647954e-06 -2.9998717e-05 -0.00020813494 0.000405754 0.00019060646 -0.00017835827 0.000492621 0.00020005369
0.00017534422 -0.00018115508 0.00036750277 0.00019208575 -0.00012136148 -6.933822e-05 -8.088114e-05 -4.4830318e-05
0.00011498219 -3.907825e-05 -6.838512e-05 -0.000105306004 7.392423e-05 2.5381573e-06 6.834538e-05 -2.1361953e-05
-0.00011220411 -9.339386e-05 -0.000108343396 -6.166244e-05 -0.00013193207 0.000208163 -4.5594938e-05 -2.2749516e-08
-8.636164e-05 -2.3824346e-05 6.953078e-05 4.7990234e-05 -1.1272625e-05 -0.00010209014 -0.0001683226 -0.00012502699
-9.340845e-05 -0.00010120182 0.00020349323 -4.693725e-05 -1.9734955e-05 -7.5833486e-05 1.5167105e-05 4.5659574e-05
6.819e-05 -1.0108806e-05 -0.00011465413 -0.00015609048 -0.00012531257 3.5266235e-05 2.644399e-05 -0.00014867146
-0.00056367996 -0.00028328862 -0.00032251817 0.00027230647 0.00036102615 0.00025055828 -0.0003958447 -0.00019073804
0.00014187531 8.284024e-05 0.00010069965 -0.00019106946 0.00033492016 0.00021050646 -5.0960243e-05 0.00088511524
6.86596e-05 0.0003482899 -0.0002883532 0.0005349555 0.0005030722 5.497715e-05 -0.00012213168 -7.991035e-05
-6.438225e-05 0.00019794698 -4.366573e-05 0.00013029973 1.0365704e-05 8.142384e-05 0.00011113999 3.3956523e-05
5.255461e-05 2.398934e-05 -0.00012304647 0.00024825352 3.348016e-05 0.000105888306 -0.00034532527 4.313396e-05
7.027993e-06 -3.2876937e-06 4.553346e-05 -0.00018646376 9.607428e-05 -6.338389e-05 -4.3455162e-05 0.00010229221
0.00016004838 -0.00045327639 -3.285729e-05 -0.0009826804 -0.0001165993 0.0005165943 -0.0009889598 0.00012227551
-0.0008199509 0.0003877609 -0.00031001327 -0.00047736047 8.2442464e-05 -0.00010445418 -7.382895e-05 -7.2216884e-05
0.00018798033 -7.683901e-05 -1.8196231e-05 -6.830283e-05 1.79117e-05 1.6513493e-05 6.9316906e-05 -1.7570257e-05
-9.519944e-05 -0.00014419053 4.418197e-05 3.13058e-05 3.7786744e-05 -4.2169344e-05 -5.377232e-06 -3.5152832e-05
-3.306695e-05 5.948108e-05 -2.0942427e-05 2.3841396e-05 -3.5763594e-05 -1.4404306e-05 1.8932747e-05 -0.00011427042
-5.8976664e-05 -1.8195386e-06 -0.0002288879 -0.0005421431 -0.00016184535 -0.00037191607 0.00030361072 0.00021814642
0.00028661598 -0.00050351885 -0.00035294492 -7.1907984e-06 -0.00010134524 -5.6384615e-05 -4.4537006e-05 0.00017066464
-3.8461036e-05 -4.068344e-05 -5.9204995e-05 4.861842e-06 7.156401e-05 7.7021075e-05 -1.1344633e-05 -7.3971314e-05
-0.00011053358 -1.725776e-05 -4.7839403e-06 -0.00017870935 0.00024839508 0.00012044014 -0.00013829218 0.00034358044
0.00013331426 0.00016303998 -0.000120466444 0.00026067242 0.00012142616 -7.8555415e-05 0.00019200776 -1.0526645e-05
2.8444118e-05 -0.00020329632 5.9035363e-05 5.3135114e-05 7.3213124e-07 -2.7497266e-05 -0.00014319239 0.000112277674
-6.68154e-05 -7.977729e-05 -8.816827e-06 -0.00016984223 -0.00013701596 0.000213362 -0.00040228516 -0.00039085333
-7.976235e-05 -0.0011362992 -4.774235e-05 -0.00010243278 0.00030265265 -0.0005058152 -0.00040706008 0.0002903733
-0.00013304697 -7.692363e-05 -8.791988e-05 0.00021801557 -7.180984e-05 -8.5246356e-05 -9.2002425e-05 -5.7167364e-09
9.8687146e-05 0.00012585861 -3.348114e-05 -0.00012717833 -0.00015171015 -2.6842317e-05 0.00026207272 -0.00011492367
0.0003595532 9.550878e-05 -0.00010460055 0.00075515016 -0.00017607409 0.0005565395 -0.00012207335 0.00036447347
0.00050666096 2.7585756e-05 1.4227573e-05 3.879266e-05 3.554305e-05 -0.0006158348 -0.0004930795 1.8317467e-05
-0.0008201611 -4.381671e-05 -9.5703166e-05 0.000436269 -0.0004421884 -0.00026860964 0.00019718694 1.6063044e-05
-2.0565749e-05 -6.1630353e-06 2.110275e-06 -5.0272887e-05 3.4646182e-05 7.31224e-05 -1.989963e-05 3.1737185e-05

exp_avg_sq f4 [32, 13]
00000000: c122 8937 3de0 d937 ecfe 9b37 b563 bc37
00000010: 7fbf b237 29fb 9437 cc4c 9737 4778 3e38
00000020: cb5a a737 6059 8f37 505b 6037 3799 e037
00000030: f6ea 8c37 8ffc d836 235b 1d36 68fa 8e36
00000040: 6aa0 d636 d77e 5e36 3df6 8136 d41e bf36
00000050: c25c 3736 a8bb 0736 5a38 7d35 1c18 f935
00000060: 2940 ca36 e9b8 2937 ae6f 4336 ebfe 2e36
00000070: cb80 d636 971a b936 4ba2 9836 f451 2036
00000080: 82d2 3336 8ade fc35 2408 df35 dc96 8235
00000090: f405 fb35 69bf 5c36 a1f9 cf36 fb9f 9a37
000000a0: e290 3437 6183 5537 b00b 0938 8ecd 7837
000000b0: 5320 7137 6e99 be37 555a 4437 55e7 0137
000000c0: e248 df36 9294 3937 0f88 b637 431d 1738
000000d0: 1134 0e37 ec13 5c37 69c6 6937 3e64 4737
000000e0: 671f 9237 6203 be36 c1c2 2837 beab 9337
000000f0: aff1 8137 a1fe fd36 525c 1d37 2feb 6037
00000100: de62 1137 eee5 d236 65d4 3238 6fda 2737
00000110: 0957 9e37 7822 c137 f7b5 f337 6cc6 2338
00000120: 4eff 9b38 ac03 e337 e55d bf37 b5da ed37
00000130: cd02 5438 b536 3937 43be 0237 6a2a 8936
00000140: 8fb6 1c37 2168 7137 a32a 1d37 546a c336
00000150: c913 ac36 f553 a036 ac28 9736 e88b 9236
00000160: 5e81 6236 91f9 b636 2e05 1e37 d378 d237
00000170: 56fd 1e37 c8a0 0b38 cfe6 0c38 6846 f937
00000180: 8832 9437 b758 4f37 3362 4137 dceb 3737
00000190: 6c18 a737 ab17 7437 0333 6a37 ab52 7037
000001a0: 3c48 3738 ee51 8d38 658d dc37 27af 2a38
000001b0: 8b12 7638 24f8 6638 0937 fc37 ef01 ff38
000001c0: 6a44 6737 f271 3438 629d d837 1335 3c38
000001d0: f32c 3838 24da b036 e0f3 8836 51b1 2c37
000001e0: d414 1937 e0ec b336 3a9a 9736 8b7c da36
000001f0: a8e2 6436 50d4 0236 7d75 fb35 8e9a 5436
00000200: 7b6f f136 45cd 2337 c4f1 0b37 bb28 5d36
00000210: 1ffe a636 c386 b936 48e1 9f36 d463 8836
00000220: c9f8 ce36 49e5 8936 17f4 4536 a402 ed37
00000230: 7d62 8037 4f7b 3a37 3e7e 3f36 620b 6436
00000240: bb70 b736 1eef c236 5eb8 9236 1ad5 e236
00000250: 6ae8 8636 d144 e436 2bd7 3b37 7da6 1437
00000260: 6fe5 4336 51ee 5c36 e08f 1037 d2bc 3836
00000270: 44c0 0d36 66e4 c635 ac90 6936 8da4 8136
00000280: 2079 1336 dd5d ac35 1b02 0736 f1cd b335
00000290: bef6 a235 6247 af35 1303 d335 f4a6 1e36
000002a0: b0ea 8436 46a2 9736 8698 8a36 e563 a736
000002b0: 0d92 6936 58f9 9836 d414 7d36 0312 9436
000002c0: 3507 0037 bc99 6c36 5a64 9536 c9a1 6536
000002d0: 7869 bd36 a94b 7636 eb74 4137 9dd0 fc36
000002e0: bdba 0237 90cc d336 8cda 2d37 b01b 2437
000002f0: a613 c436 b4d4 a536 0846 b436 0994 2237
00000300: 1e92 b536 e226 cb36 cfb8 ca36 ff43 6437
00000310: a7eb 4438 f2ea 5237 28e7 c737 f808 f337
00000320: 885a aa37 421a f837 0d7f c638 9f3d f137
00000330: d86b 4237 96f0 8037 2fab 1838 f357 ac37
00000340: 252d 3b37 ae16 9536 beed 5337 ce88 8337
00000350: cb36 2f37 cfaf 0c37 11e7 5537 886b c736
00000360: fbb3 ab36 7d33 9d36 2e5c 0b37 ee2a 5c37
00000370: 8c44 bf37 ef4d f836 f278 da37 2514 d836
00000380: 6820 3337 3c65 6a37 6bab 9c37 f2e9 da37
00000390: edd7 3038 5e10 7a37 eb86 a737 0e8b ad37
000003a0: 13df 0a38 6597 e036 e986 bd37 2bd4 1738
000003b0: 1f00 a037 a480 b637 e67d e337 afe8 c037
000003c0: 3b8f e937 6ab9 7c38 687e b937 9666 cd37
000003d0: 1467 b437 778c f337 6775 dd37 ef78 f435
000003e0: db18 2537 e006 0836 8789 7836 2427 2037
000003f0: 8f4d b336 6b07 3237 5d06 0137 f281 ef36
1.6347856e-05 2.5972835e-05 1.8596147e-05 2.2457776e-05 2.1308426e-05 1.775993e-05 1.8036364e-05 4.5411547e-05
1.995023e-05 1.7088547e-05 1.3372701e-05 2.6774227e-05 1.6798713e-05 6.4667033e-06 2.3447872e-06 4.261081e-06
6.3963716e-06 3.3154408e-06 3.8731655e-06 5.6958324e-06 2.7323117e-06 2.0225798e-06 9.4331847e-07 1.8558962e-06
6.0275383e-06 1.0116238e-05 2.912227e-06 2.6076402e-06 6.3926905e-06 5.516525e-06 4.5488464e-06 2.388956e-06
2.679561e-06 1.884023e-06 1.6617164e-06 9.729661e-07 1.870269e-06 3.289397e-06 6.1981414e-06 1.8432727e-05
1.0762569e-05 1.2726378e-05 3.267423e-05 1.4829811e-05 1.43722455e-05 2.2721211e-05 1.1703542e-05 7.74286e-06
6.6544026e-06 1.1061451e-05 2.1759448e-05 3.6028458e-05 8.475982e-06 1.311766e-05 1.3934078e-05 1.1884664e-05
1.741918e-05 5.662835e-06 1.0058925e-05 1.760374e-05 1.5490541e-05 7.5696303e-06 9.379424e-06 1.3406198e-05
8.665693e-06 6.285255e-06 4.2636315e-05 1.0004834e-05 1.8875597e-05 2.3023444e-05 2.9052591e-05 3.9047023e-05
7.43853e-05 2.7062219e-05 2.2812697e-05 2.8354445e-05 5.0547347e-05 1.1039597e-05 7.792903e-06 4.087856e-06
9.34083e-06 1.4388964e-05 9.367856e-06 5.823831e-06 5.1283027e-06 4.7781455e-06 4.5048855e-06 4.3674263e-06
3.3751926e-06 5.453076e-06 9.41874e-06 2.5090214e-05 9.476518e-06 3.328992e-05 3.359356e-05 2.9715899e-05
1.7666505e-05 1.2358817e-05 1.152656e-05 1.0962565e-05 1.9919324e-05 1.4549044e-05 1.3959364e-05 1.4324362e-05
4.3697873e-05 6.7386645e-05 2.6291886e-05 4.069428e-05 5.866824e-05 5.5067372e-05 3.0066369e-05 0.00012159708
1.3784602e-05 4.3021464e-05 2.5822494e-05 4.4872122e-05 4.391088e-05 5.2706037e-06 4.0815066e-06 1.0293284e-05
9.12436e-06 5.3621916e-06 4.518105e-06 6.511405e-06 3.4106579e-06 1.9495092e-06 1.8735151e-06 3.1680424e-06
7.1953377e-06 9.76335e-06 8.341336e-06 3.2955274e-06 4.976769e-06 5.529118e-06 4.7647954e-06 4.0647374e-06
6.168241e-06 4.1096105e-06 2.9497367e-06 2.8253831e-05 1.5304651e-05 1.1115174e-05 2.85347e-06 3.3981273e-06
5.4669486e-06 5.8094874e-06 4.3726022e-06 6.760133e-06 4.0205678e-06 6.802941e-06 1.1196166e-05 8.860251e-06
2.9190812e-06 3.2921273e-06 8.616567e-06 2.7528044e-06 2.112255e-06 1.4818622e-06 3.4803916e-06 3.863656e-06
2.197521e-06 1.2842316e-06 2.0117793e-06 1.3396476e-06 1.2141752e-06 1.3059291e-06 1.572162e-06 2.3641014e-06
3.961228e-06 4.519042e-06 4.1304766e-06 4.988617e-06 3.4804718e-06 4.5589804e-06 3.7712061e-06 4.4128406e-06
7.631073e-06 3.5256226e-06 4.4522285e-06 3.421783e-06 5.644917e-06 3.6700897e-06 1.15309185e-05 7.534471e-06
7.792082e-06 6.3121042e-06 1.0362488e-05 9.781608e-06 5.8435426e-06 4.942145e-06 5.3725707e-06 9.69042e-06
5.4112306e-06 6.054398e-06 6.0415837e-06 1.3605691e-05 4.694951e-05 1.2571678e-05 2.383029e-05 2.8972034e-05
2.0307736e-05 2.9576131e-05 9.465041e-05 2.8758133e-05 1.158841e-05 1.537082e-05 3.639905e-05 2.0544952e-05
1.115658e-05 4.4431863e-06 1.2631934e-05 1.5680122e-05 1.044357e-05 8.385584e-06 1.2749589e-05 5.9431804e-06
5.1171496e-06 4.6849586e-06 8.306508e-06 1.3123017e-05 2.2800894e-05 7.4000486e-06 2.6043945e-05 6.4396468e-06
1.0676777e-05 1.3971057e-05 1.8676472e-05 2.6096564e-05 4.2162766e-05 1.4904972e-05 1.9970777e-05 2.068796e-05
3.3109518e-05 6.693345e-06 2.2593378e-05 3.6198802e-05 1.9073543e-05 2.1755994e-05 2.7119135e-05 2.2996535e-05
2.7842461e-05 6.0254162e-05 2.2112581e-05 2.4485675e-05 2.1505672e-05 2.9033266e-05 2.6399923e-05 1.8214613e-06
9.8405535e-06 2.026958e-06 3.7034931e-06 9.545856e-06 5.3436447e-06 1.0611354e-05 7.690481e-06 7.1378827e-06

exp_avg f4 [32]
00000000: 28df 02ba a2f3 51b9 c381 46b9 eee2 5cb9
00000010: 30bc 2bb8 6eb2 2eb9 4402 51b9 ce1f 48b8
00000020: 0c57 09b9 f156 4db9 3b46 d3b7 d707 8f38
00000030: 3005 51b9 83c1 a6b9 9a34 d4b8 5e8c b138
00000040: 1065 9cb9 c78d 83b9 5f6e 2bb9 73fc b1b8
00000050: c3c0 4638 2796 35b9 540f ccb8 ff3a 70b9
00000060: c9ea 20b9 3f4d 33b7 70b7 b6b8 30bb 34b9
00000070: 58f4 02b9 a9ca 08b9 0b60 d0b8 75e0 3db9
-0.00049923593 -0.00020022554 -0.00018931091 -0.00021065373 -4.094484e-05 -0.00016660403 -0.00019932637 -4.7713336e-05
-0.00013097766 -0.00019582712 -2.5185864e-05 6.820232e-05 -0.00019933726 -0.00031806165 -0.000101187456 8.466163e-05
-0.00029829936 -0.000250919 -0.00016348947 -8.48704e-05 4.7386402e-05 -0.00017317441 -9.730333e-05 -0.00022910161
-0.00015346253 -1.0687217e-05 -8.712604e-05 -0.0001723587 -0.00012488791 -0.00013045467 -9.936102e-05 -0.00018108061

exp_avg_sq f4 [32]
00000000: d44b 4038 5692 0837 5be1 8736 2955 8e37
00000010: 6c7e 7437 6d1f 0c38 148f 0737 9889 b237
00000020: 524a 9c38 6b5e 5837 f8aa 9636 5d7d d236
00000030: 79da 6536 1188 3837 e8aa 8437 bbe8 2e38
00000040: 88ec 8437 fd09 9e37 3ca0 5738 6538 5d37
00000050: efdd 9837 f450 0637 f898 f537 504e 7537
00000060: 3812 a937 8094 3b36 8e05 c636 034b 3d37
00000070: e8e3 c437 de5d e036 9a9e 0e37 8461 9737
4.5846988e-05 8.140303e-06 4.0495484e-06 1.6967375e-05 1.4572968e-05 3.340787e-05 8.07994e-06 2.1283326e-05
7.452503e-05 1.2896587e-05 4.4902517e-06 6.273082e-06 3.4250827e-06 1.0998935e-05 1.581521e-05 4.170158e-05
1.584577e-05 1.8839719e-05 5.1409224e-05 1.3185757e-05 1.8223158e-05 8.005871e-06 2.9277508e-05 1.46213715e-05
2.0154854e-05 2.795161e-06 5.9015065e-06 1.1282743e-05 2.3471148e-05 6.686648e-06 8.500787e-06 1.8046012e-05

exp_avg f4 [16, 32]
00000000: 46fd fab9 eda4 ff35 7db3 8796 2f59 8ab5
00000010: edf8 2d38 ad81 2bba 2828 60b8 38d4 1f38
00000020: b330 9d39 b0f4 9494 c4ea 89b4 c118 7d38
00000030: 3ab4 9d35 7b4e 87b9 fa31 8438 86db 3539
00000040: 6b4b e136 5872 e1b9 27f6 3839 f5ee c2b8
00000050: 2c82 3636 21d3 af96 aed3 d2b9 c049 d0b9
00000060: 63b9 c3b9 cd78 cc38 c0bd 0626 f9e6 5738
00000070: d2d0 7cb9 3e1b 23b9 cbaa 9ab6 be81 09ba
00000080: 2cee 2238 6898 c6b7 93d2 ba37 f042 0ab7
00000090: 8352 6cb8 835d 60b5 1199 a437 7d65 86b8
000000a0: 2fb3 dbb7 6e1b 7536 0a4a 2db8 9bc0 b9b7
000000b0: 1ded 5037 69b1 f137 7457 62b8 876a 48b8
000000c0: 94e1 4837 a214 f8b0 956a 8cb8 2e9c 34b3
000000d0: 5eaf 69b8 a3dc 05b7 dc83 bab4 43c0 91b6
000000e0: 0653 ceb5 b66d 2f34 94d7 ec37 65a1 0eb8
000000f0: ffb3 c1b7 f3fc 74b8 9e31 bb37 4da5 6eb5
00000100: b57d adb8 0760 42b8 5223 2436 a65b cab7
00000110: ba10 54b8 dadd 29b9 bb1a cbb6 c65e 81b8
00000120: 3d5a 0638 c45c 86b7 fb5e 26b8 2daf 9bb7
00000130: 247d ab35 fdd4 52b8 5d30 45b8 cd48 0bb7
00000140: fdbf ffb6 67ca eeb8 3ae2 d3b7 bd0d 2ab8
00000150: f49c 69b8 a244 00b8 3052 e8b8 4e3b d9b8
00000160: 6357 e6b8 ffac 8a37 6d15 2537 448f 00b8
00000170: b2c7 b4b8 64d9 d3b8 a36c 5437 ba61 0db9
00000180: 27ff 9b39 fdbf 69b8 e932 d338 9c0a d237
00000190: 1333 75b9 2052 c839 614a 9138 8a88 69b9
000001a0: 9cf6 cfb9 3ba6 a837 164c 08b9 ec6a abb9
000001b0: 5310 94b8 b85c 8339 477d 21b9 5a7d f1b9
000001c0: abf0 b4b8 8668 a939 4922 dfb9 cb09 1537
000001d0: 6136 73b9 51bb ba37 481d 8f39 4a43 9e39
000001e0: 8f4e 5d38 1273 4cb9 8688 f638 7546 4fb9
000001f0: 8ce8 1cb9 7758 fdb8 1a46 53b8 c2f0 5439
00000200: 771c afb9 37d2 1e36 6222 0a00 8818 2fb5
00000210: 73fc 0b39 2b57 17ba bf16 69b8 89d9 5438
00000220: de49 bd39 49f0 9601 a974 7935 2cc0 9439
00000230: 220e fb38 160d 91b9 15ea 9f38 4489 d239
00000240: 564d f938 2dee f6b9 f122 9f39 2524 bab8
00000250: 75f9 7438 fe7f c200 a706 dcb9 d946 e9b9
00000260: faeb 61b9 808e 5039 ca86 4d33 8166 8438
00000270: 2417 5738 7694 d4b8 9923 a938 60b4 c6b9
00000280: ed01 aa39 0f77 62b8 898c f238 3ab4 0038
00000290: 1e6b 83b9 83e1 d239 4f84 b338 142f 7bb9
000002a0: f0bf deb9 cbfd 0f38 28a1 0ab9 2a7c b5b9
000002b0: b2d1 81b8 9801 8f39 0ba0 2db9 3d96 01ba
000002c0: c727 9cb8 58eb b239 432b f0b9 6438 fa36
000002d0: a681 82b9 6b46 2b38 fed7 9639 c94c a739
000002e0: 93f3 5538 3490 5ab9 8a2a 0d39 e2f3 55b9
000002f0: f2c7 2bb9 079c 0cb9 e326 2db8 ef74 5d39
00000300: 93dd 35b9 fe21 78b9 bdb5 c8b9 a52f 88b9
00000310: 73a1 7238 f122 6238 3dcb 60b9 7359 c838
00000320: 6e70 1db7 eed6 cdb9 2d35 0e38 a6b4 6438
00000330: aa4d 6bb9 1095 5db9 b6d8 9a37 9420 b438
00000340: 84b2 77b9 4d06 4235 4017 d238 e1ff 6f37
00000350: d713 7e37 a0df d6b9 21be 45b7 3f2a 22b8
00000360: f9fe 8f38 e447 c137 3fe1 8bb9 003d f237
00000370: a345 9438 694e db38 2792 3fb9 1a21 9038
00000380: 29b0 3639 c3ac 9fb8 51fe 8038 04de dbb6
00000390: c2e3 38b9 9d05 5539 1d24 5e38 5f66 40b9
000003a0: 6908 83b9 fd0d 6836 ec23 d4b8 2410 62b9
000003b0: 1872 25b8 3fa2 1f39 0743 01b9 13a1 9bb9
000003c0: e72e 43b8 71ba 3e39 043a 95b9 01fe 5db6
000003d0: 846c 2fb9 c471 cf36 d32d 2039 bd4f 3139
000003e0: e3f1 4f36 7919 fcb8 c653 b338 7273 0cb9
000003f0: 25cf f7b8 3a63 e8b8 dfa1 8ab7 bf13 c438
-0.0004787242 1.904698e-06 -2.19237e-25 -1.0307757e-06 4.1478244e-05 -0.00065424555 -5.344316e-05 3.81062e-05
0.00029981657 -1.5040693e-26 -2.5689053e-07 6.0342954e-05 1.1749864e-06 -0.0002580768 6.303559e-05 0.00017343284
6.7143023e-06 -0.00043000537 0.00017639306 -9.29515e-05 2.7195883e-06 -2.8406016e-25 -0.00040212035 -0.000397278
-0.00037331422 9.749979e-05 4.674775e-16 5.1475105e-05 -0.00024110384 -0.0001555504 -4.6094406e-06 -0.00052454683
3.8845625e-05 -2.3674409e-05 2.2270984e-05 -8.241026e-06 -5.634363e-05 -8.358258e-07 1.96216e-05 -6.4085216e-05
-2.6190273e-05 3.652381e-06 -4.131537e-05 -2.2143407e-05 1.2452973e-05 2.8812052e-05 -5.3964046e-05 -4.7782927e-05
1.19734505e-05 -1.8050239e-09 -6.695573e-05 -4.205156e-08 -5.5714852e-05 -7.978789e-06 -3.474114e-07 -4.343719e-06
-1.5372359e-06 1.6338058e-07 2.8233779e-05 -3.400575e-05 -2.309121e-05 -5.840971e-05 2.2315242e-05 -8.8902453e-07
-8.2726976e-05 -4.6342637e-05 2.4458463e-06 -2.4122954e-05 -5.0560317e-05 -0.00016199742 -6.0529833e-06 -6.168852e-05
3.203213e-05 -1.6017242e-05 -3.966594e-05 -1.8559012e-05 1.2776914e-06 -5.0266262e-05 -4.7013502e-05 -8.301996e-06
-7.6219426e-06 -0.00011386425 -2.5258505e-05 -4.0543953e-05 -5.5697703e-05 -3.0581497e-05 -0.00011077931 -0.00010358413
-0.00010983532 1.653144e-05 9.839755e-06 -3.0651005e-05 -8.620265e-05 -0.00010101756 1.2661479e-05 -0.00013483214
0.00029754007 -5.5730332e-05 0.00010070747 2.5038891e-05 -0.00023384047 0.0003820816 6.927993e-05 -0.00022271476
-0.00039665855 2.0104568e-05 -0.00012998315 -0.00032695325 -7.0602306e-05 0.00025055348 -0.00015400826 -0.00046060496
-8.627897e-05 0.00032312068 -0.0004255942 8.883372e-06 -0.00023194544 2.2260154e-05 0.00027296902 0.00030186243
5.276367e-05 -0.00019497823 0.000117556236 -0.00019767306 -0.0001496395 -0.00012080458 -5.0371607e-05 0.00020307585
-0.0003339981 2.3666196e-06 9.30689e-40 -6.522828e-07 0.00013350118 -0.0005773182 -5.5572713e-05 5.0747334e-05
0.00036103925 5.544609e-38 9.292949e-07 0.0002837194 0.00011971245 -0.00027666305 7.625312e-05 0.00040156592
0.0001188765 -0.0004709823 0.00030352877 -8.8759036e-05 5.840646e-05 1.7862001e-38 -0.00041966626 -0.0004449401
-0.0002154558 0.00019889511 4.7852872e-08 6.313343e-05 5.1281546e-05 -0.00010136601 8.0651786e-05 -0.00037899893
0.00032426362 -5.399348e-05 0.00011565636 3.0685427e-05 -0.00025066076 0.0004022234 8.5600295e-05 -0.00023954763
-0.00042486144 3.433022e-05 -0.00013220741 -0.0003461552 -6.190258e-05 0.00027276273 -0.00016558186 -0.0004943347
-7.446069e-05 0.0003412615 -0.000458086 7.4571453e-06 -0.00024892128 4.083516e-05 0.00028771156 0.00031909932
5.1010004e-05 -0.0002084382 0.00013462655 -0.00020404116 -0.00016382316 -0.00013409565 -4.128263e-05 0.00021119764
-0.00017344048 -0.00023663786 -0.00038282378 -0.0002597544 5.7847657e-05 5.391514e-05 -0.00021438017 9.5534044e-05
-9.384106e-06 -0.00039260782 3.3904962e-05 5.4527678e-05 -0.00022440279 -0.00021131733 1.8459144e-05 8.589137e-05
-0.00023622258 7.22798e-07 0.00010017911 1.4305087e-05 1.5144199e-05 -0.00040983874 -1.1786383e-05 -3.8663155e-05
6.866264e-05 2.304087e-05 -0.00026679967 2.8877053e-05 7.070161e-05 0.00010457339 -0.00018269625 6.872621e-05
0.00017422497 -7.61389e-05 6.150886e-05 -6.5525546e-06 -0.00017632454 0.00020315354 5.2962558e-05 -0.00018348683
-0.00024992533 3.4578836e-06 -0.00010115639 -0.00021559052 -3.9445324e-05 0.00015223863 -0.00012327368 -0.00029683913
-4.6535304e-05 0.00018189267 -0.0002846272 -3.3079416e-06 -0.00016729726 6.182325e-06 0.0001527586 0.0001690974
3.09862e-06 -0.00012021041 8.550989e-05 -0.00013394447 -0.000118164615 -0.000110811045 -1.6526259e-05 9.349686e-05

exp_avg_sq f4 [16, 32]
00000000: d287 8936 c81a 1234 ac4d 9133 575b b133
00000010: 159e 0634 7b3a 8537 27c6 b634 49c9 0435
00000020: 383d 3f36 f0e1 9133 7de0 8334 1726 8835
00000030: 50ea be33 ce61 b935 efee 6b34 4e60 6c36
00000040: dd13 5534 cd4a 8b37 518a fa36 42d5 2137
00000050: 0573 b735 18d1 2834 9105 7637 cbd2 9636
00000060: 4643 9837 bb00 cf35 8a1d 5333 7570 ab34
00000070: 2d63 9837 5033 de36 1e98 6334 5d6d 3237
00000080: c771 5a37 c12f ff36 a6e1 1f37 df21 b837
00000090: 44c6 a735 63ca 4935 234a 1c37 7fdb b036
000000a0: 2e49 1e34 e73e ef37 237b 8e37 7552 0e36
000000b0: 32f3 a236 8341 4a37 0146 f635 cc21 bd35
000000c0: 7603 7437 6690 6134 da64 3635 5ab8 ac32
000000d0: 630c 7136 c67e 7d38 7a9f 1136 a39a d535
000000e0: e176 8534 b11a 0f34 9a69 0637 d8e3 0637
000000f0: e52e c935 1d82 1236 1ee7 1836 5048 9b34
00000100: 7619 ab36 4926 1936 ef83 d635 ce71 0e36
00000110: 00e5 7735 48c7 a737 e402 0a36 a578 fa35
00000120: f477 3635 bd0a 7c36 76d1 8936 55ba e434
00000130: 3457 5735 ab7a 4f36 9f42 a435 c637 2435
00000140: c2b3 3536 e759 a337 0b89 6536 6228 d736
00000150: 6fcf 3236 ae71 c436 7e4f fd37 f61e be36
00000160: 7eb0 4e37 d8cc 3835 d437 3935 22c7 3536
00000170: 57dd c036 9b68 fa36 a596 9135 a72e 1f37
00000180: 2a13 a837 d2ee dd37 706f a837 e8f1 f437
00000190: 2f4a f637 ac4c d637 6a47 0937 6cd1 2238
000001a0: 8bf6 1838 5c06 3638 d034 d537 4ae8 8437
000001b0: 0819 0e37 6f48 bd37 c6cf f137 a326 1538
000001c0: f767 e537 c90a dc37 f44f a038 eb7c a337
000001d0: 9c7b 4138 1265 9638 47a5 b837 6dc2 7f37
000001e0: 65b8 1d38 e670 fc36 91ee 5437 312c 1c38
000001f0: b2fd a538 0456 3f38 17ec 8737 d07c 8f37
00000200: bf41 3138 ba34 0a37 dcfa e635 4df8 9936
00000210: d402 1c37 4d8b 2e39 a0a3 be36 a827 0f37
00000220: 84bb b037 5375 8934 1247 3337 1ede 8637
00000230: bc72 6d35 413d c737 cf26 1137 189a d437
00000240: d263 c936 a95e 1d39 e589 6738 ed57 5b38
00000250: 983b 8737 bc26 b436 c30b 5f39 ffd1 1638
00000260: 0b1f c838 c1f9 6637 836e 1436 b2a5 5a37
00000270: b919 de38 f938 4338 2488 8437 d354 9838
00000280: 7981 3337 f183 ee36 d7dd 5736 016c a636
00000290: 3fe1 0337 0c85 f437 c843 2c36 0ac0 5a37
000002a0: 3173 8137 965d da36 6cef 0c37 fdf0 cd36
000002b0: a565 4436 316f a036 33d2 0f37 3c78 ad37
000002c0: 46fb 0137 1a11 0838 e978 2938 835e 8a37
000002d0: d173 4a37 82ed 6837 0fd3 1738 c0dd de36
000002e0: d105 0c38 4bd9 9c36 97bd 4f36 56bc 1b37
000002f0: 2342 7e38 7981 b937 f102 6236 3bb1 8d37
00000300: 08bf 9537 dc34 ab37 09f6 df37 ce68 2438
00000310: 693d 7136 d353 a434 d5d0 7637 6dac ca36
00000320: 3701 0b36 86d8 5d38 f829 1837 770c 1c36
00000330: 7196 2c37 f41e 9a37 0c28 8e36 54e8 0a36
00000340: a203 0938 68c8 4834 bac2 9a36 3708 3d35
00000350: bded a636 89cc d138 b9b0 5235 d2dd 0c36
00000360: cb94 9735 bf3e ea34 2e33 c337 8403 e636
00000370: 36af 5c36 1010 9c36 86bc e236 2775 c034
00000380: f1f9 0237 f6f3 9337 99d4 6237 8e53 9f37
00000390: dad7 6137 3dfa b536 0841 f436 8209 a137
000003a0: 1d87 5137 3e10 1438 508a 8d37 9e8c de36
000003b0: 62ce d936 9062 4f37 936c 7237 a0f0 5d37
000003c0: 6453 a837 f847 f536 4b2e 0438 309d fd36
000003d0: 29a7 a837 7a4c 6838 38c0 e336 dc2e 1037
000003e0: 7a3e 7937 9313 4036 be2c 0637 d5eb 9937
000003f0: 5562 ff37 7924 c237 1642 0b37 e8d2 a336
4.0987297e-06 1.3607053e-07 6.766217e-08 8.2588194e-08 1.2537232e-07 1.5882068e-05 3.4044317e-07 4.946674e-07
2.8496852e-06 6.7931865e-08 2.4563988e-07 1.0143875e-06 8.890186e-08 1.3812039e-06 2.1973004e-07 3.5222797e-06
1.9844397e-07 1.6604923e-05 7.4666827e-06 9.646001e-06 1.3668038e-06 1.5722287e-07 1.4664039e-05 4.494888e-06
1.8151139e-05 1.5422914e-06 4.915413e-08 3.1933055e-07 1.8165994e-05 6.622089e-06 2.1196362e-07 1.063509e-05
1.3020303e-05 7.6051515e-06 9.529676e-06 2.1950282e-05 1.2500172e-06 7.5172846e-07 9.315586e-06 5.2707614e-06
1.474152e-07 2.8520311e-05 1.698506e-05 2.1207645e-06 4.856288e-06 1.2055391e-05 1.8348802e-06 1.4091434e-06
1.4544339e-05 2.100729e-07 6.794704e-07 2.0107269e-08 3.5919008e-06 6.0437967e-05 2.1699511e-06 1.5914742e-06
2.4859676e-07 1.3327623e-07 8.01161e-06 8.040071e-06 1.4989315e-06 2.1831431e-06 2.2784293e-06 2.8923614e-07
5.099161e-06 2.2821062e-06 1.598264e-06 2.1225892e-06 9.234791e-07 2.0000749e-05 2.0565285e-06 1.8661564e-06
6.797484e-07 3.7557177e-06 4.1073026e-06 4.2603884e-07 8.022064e-07 3.0916806e-06 1.2238341e-06 6.117592e-07
2.7075735e-06 1.9472978e-05 3.4203429e-06 6.4122005e-06 2.664481e-06 5.8544892e-06 3.0196967e-05 5.6660456e-06
1.231965e-05 6.884343e-07 6.899911e-07 2.7087012e-06 5.7478132e-06 7.4627583e-06 1.0847185e-06 9.488001e-06
2.0036085e-05 2.6456462e-05 2.0079053e-05 2.9199713e-05 2.936003e-05 2.5546491e-05 8.182464e-06 3.881885e-05
3.6469235e-05 4.3398104e-05 2.5416171e-05 1.5843794e-05 8.469688e-06 2.2564285e-05 2.882619e-05 3.556035e-05
2.734734e-05 2.6231066e-05 7.644287e-05 1.9489284e-05 4.6129906e-05 7.171383e-05 2.2011473e-05 1.5244453e-05
3.7603448e-05 7.5233283e-06 1.269173e-05 3.7234455e-05 7.9150675e-05 4.5618057e-05 1.6203192e-05 1.7105049e-05
4.226132e-05 8.237717e-06 1.7209345e-06 4.5886613e-06 9.298983e-06 0.00016645827 5.6814897e-06 8.532697e-06
2.1068154e-05 2.5603603e-07 1.0685779e-05 1.6077476e-05 8.845634e-07 2.3751172e-05 8.651709e-06 2.5344125e-05
6.0018874e-06 0.0001500795 5.5203116e-05 5.2295556e-05 1.6121005e-05 5.3689273e-06 0.00021271319 3.595836e-05
9.5425254e-05 1.3767219e-05 2.2118045e-06 1.30323915e-05 0.00010590576 4.6544683e-05 1.5799022e-05 7.2637245e-05
1.0699377e-05 7.1083127e-06 3.2166624e-06 4.959759e-06 7.860653e-06 2.9149021e-05 2.566945e-06 1.3038525e-05
1.5431639e-05 6.507801e-06 8.400395e-06 6.137531e-06 2.926544e-06 4.781316e-06 8.572405e-06 2.0679196e-05
7.747503e-06 3.2440854e-05 4.0405346e-05 1.6494892e-05 1.2067104e-05 1.3883577e-05 3.619777e-05 6.6419307e-06
3.3384018e-05 4.6744585e-06 3.095576e-06 9.28257e-06 6.0619914e-05 2.2114009e-05 3.3678336e-06 1.689104e-05
1.785114e-05 2.0409403e-05 2.669824e-05 3.9198254e-05 3.5947544e-06 3.060837e-07 1.4711365e-05 6.040142e-06
2.0713321e-06 5.289216e-05 9.069678e-06 2.3253067e-06 1.0287026e-05 1.8372644e-05 4.236592e-06 2.0698835e-06
3.266673e-05 1.8699359e-07 4.612227e-06 7.041994e-07 4.974862e-06 0.00010003994 7.848826e-07 2.0990742e-06
1.1293681e-06 4.363155e-07 2.3269644e-05 6.8549434e-06 3.288454e-06 4.651032e-06 6.757272e-06 3.5848026e-07
7.806798e-06 1.7637369e-05 1.3520149e-05 1.8993185e-05 1.3461302e-05 5.423352e-06 7.2793373e-06 1.9197123e-05
1.2488829e-05 3.5301076e-05 1.6872917e-05 6.6324856e-06 6.49113e-06 1.236111e-05 1.4449603e-05 1.3228651e-05
2.0065992e-05 7.3099473e-06 3.1514366e-05 7.5582866e-06 2.0105e-05 5.5384335e-05 6.7875044e-06 8.593979e-06
1.4856103e-05 2.8621623e-06 7.99744e-06 1.834884e-05 3.0444158e-05 2.3143586e-05 8.3004325e-06 4.8823313e-06

exp_avg f4 [16]
00000000: 2304 63b9 2b93 fbb6 5d01 a9b8 a365 5ab8
00000010: da2a 5bb8 1b60 4eb8 3e7a 45b9 c701 60b8
00000020: 863a beb8 5175 7233 6bf2 edb8 b5d0 ccb6
00000030: 33b9 77b9 1807 7cb8 a44e 6bb8 cbc0 93b8
-0.00021649948 -7.4975155e-06 -8.058802e-05 -5.2069907e-05 -5.2253577e-05 -4.9203732e-05 -0.00018832923 -5.3407417e-05
-9.070807e-05 5.6451714e-08 -0.000113461945 -6.1039705e-06 -0.00023624748 -6.008809e-05 -5.6101606e-05 -7.045417e-05

exp_avg_sq f4 [16]
00000000: 0a65 1137 000d 0e38 e3a8 8737 d9f4 cb38
00000010: 2515 a638 8013 3b38 bc4b dc37 3703 4138
00000020: afb7 2238 e927 2035 94a3 a538 6eee 4438
00000030: 2cd7 4238 47ed 9537 61ea 1037 0b32 ef37
8.6661985e-06 3.3867545e-05 1.6171898e-05 9.725401e-05 7.919435e-05 4.4602435e-05 2.626131e-05 4.601778e-05
3.879488e-05 5.966272e-07 7.898282e-05 4.6952096e-05 4.64536e-05 1.7872675e-05 8.637639e-06 2.8514323e-05

exp_avg f4 [3, 16]
00000000: 3a6d 0a39 3b33 8638 f50a 0b3a 3994 173a
00000010: 46fc 0d39 d5c0 003a b913 09bb b0b9 1b3a
00000020: ad12 ba39 a6f1 be32 bc85 9aba 6f23 1b39
00000030: ad09 e7ba d2d7 3636 0433 1239 ce58 233a
00000040: 8514 e13a b68f 8eb8 af32 a339 c449 c9ba
00000050: 12b2 bb3a 8aa0 adba a57c d53a c6ce a4ba
00000060: 7afe fb39 f516 1a33 17ae 04b7 749f aaba
00000070: 2c8a 0a3b 4684 c43a d6e0 be3a c860 71ba
00000080: 5462 f2ba 90cf 8536 4ea4 5cba a7ff 7a3a
00000090: b971 cdba 9380 5a3a 1fac f239 2ee4 2d3a
000000a0: b208 5bba 8f82 79b3 6c8f 9b3a 3f3b 973a
000000b0: 742a b8b9 dfdf c4ba 5327 d1ba 6f10 9c39
0.00013201396 6.39916e-05 0.0005304062 0.000578228 0.00013540787 0.0004911547 -0.0020916297 0.00059404504
0.000354906 2.22288e-08 -0.0011789124 0.00014795152 -0.0017626785 2.7245737e-06 0.0001394265 0.00062311895
0.0017172253 -6.797856e-05 0.00031127545 -0.0015357067 0.0014320037 -0.0013246697 0.0016287757 -0.001257383
0.0004806405 3.58768e-08 -7.908347e-06 -0.0013017491 0.0021139486 0.0014993034 0.0014562856 -0.0009207842
-0.0018492439 3.9878723e-06 -0.0008416817 0.00095748383 -0.0015674151 0.0008335199 0.00046286077 0.00066334277
-0.0008355483 -5.8093573e-08 0.0011868305 0.0011538042 -0.00035126845 -0.0015020332 -0.0015957154 0.00029766883

exp_avg_sq f4 [3, 16]
00000000: d3b4 5636 8a11 1038 8ac6 3a39 dda6 1d39
00000010: 2ed4 3039 18d8 9b37 fe78 d23a 0ad8 5039
00000020: e8f1 1139 0675 0d34 ed58 4a3a baab 6639
00000030: ea3d ba3a 7932 1c38 1d6e b438 7148 4439
00000040: cb4e 9138 9e1e 9037 9efb ae39 a253 1a3a
00000050: 387f b639 8983 b838 f8e7 363a 7215 0a3a
00000060: eb5b 9d39 9d26 d834 2c6f ce39 d01c f239
00000070: 8ad2 563a 478c 7939 e735 9639 d9c5 173a
00000080: 448f ad38 bcc4 b236 d7ef e539 f0a7 7839
00000090: 53bd 4c3a 70c5 ae38 647f b439 ffc1 9939
000000a0: 1386 f939 6bdc 7f35 b489 f539 9ae8 e339
000000b0: 3e10 0a39 5167 c939 3a23 0d3a 60b1 a039
3.1993739e-06 3.434861e-05 0.00017812304 0.00015034848 0.00016863711 1.8578066e-05 0.0016057787 0.00019916907
0.00013918395 1.3174221e-07 0.00077189395 0.00021998482 0.0014209126 3.7240305e-05 8.603579e-05 0.00018719003
6.928815e-05 1.7180395e-05 0.00033375336 0.0005887096 0.0003480853 8.798304e-05 0.0006977315 0.0005267478
0.00030013858 4.026123e-07 0.0003937421 0.00046179304 0.0008194825 0.00023798748 0.0002865039 0.00057896745
8.275968e-05 5.3277163e-06 0.00043856978 0.00023713685 0.0007810194 8.333742e-05 0.0003442719 0.00029326972
0.00047592874 9.5315653e-07 0.00046832638 0.00043470116 0.00013166756 0.00038414684 0.00053839723 0.00030649733

exp_avg f4 [3]
00000000: 85d1 a0b9 770b 9939 00c3 7837
-0.00030673682 0.00029190976 1.4827354e-05

exp_avg_sq f4 [3]
00000000: e20e 173a a0e3 193a 3022 fc39
0.00057624106 0.00058704056 0.00048090657
