homework1/lightning_logs/version_17/checkpoints/epoch=99-step=900.ckpt (torch, 22040 bytes, 18 tensors)

network.0.weight f4 [32, 13]
-0.16572948 0.07071534 -0.41191244 0.4227882 -0.024506725 -0.37752923 -0.018415643 0.21517782
0.37744868 -0.32338986 0.2293823 0.20282634 -0.3700614 -0.33741266 -0.27188903 -0.15714654
0.06524463 0.05819981 -0.02192953 0.00056061795 0.2022775 -0.003376218 -0.2839515 0.29552355
-0.0438175 -0.34511572 -0.031951066 -0.4515526 -0.15137185 0.09019813 0.24101274 0.23261759
-0.039062537 0.008292666 -0.14250924 -0.10050217 0.31869224 -0.03755501 -0.39554837 0.30639875
0.117480345 0.2945171 -0.42830393 0.17600793 0.2849119 0.16334721 -0.20166494 0.16903982
-0.08843255 0.36141986 0.009547432 0.2259696 0.26768607 0.27869633 0.07099957 0.17709099
0.2436458 0.04787732 -0.34595513 -0.005451782 -0.25142446 0.17514592 -0.31900918 -0.27880946
0.244404 -0.35234174 0.14963743 0.21838579 0.14981446 0.29223946 0.12255138 0.08742948
-0.45013574 0.4186593 -0.11790046 0.38633332 0.10426674 -0.13140671 0.3651779 -0.113983564
0.26950425 -0.3875995 -0.06344896 0.123871 0.18554065 -0.027775802 0.123570584 -0.12613186
-0.0076149036 0.28995234 0.17046063 -0.073493704 0.10480841 -0.040554866 -0.28069517 0.25672606
0.1404139 -0.041957542 -0.25666144 0.37601256 -0.22726245 0.02364042 -0.008841235 0.28467777
-0.09538026 0.20611422 0.39666185 0.040147882 -0.07315257 -0.2024964 -0.10097024 -0.08680085
-0.1948988 0.13599126 -0.44698966 -0.45456988 0.013163143 0.2851224 0.10622911 0.19314423
-0.22770856 0.26082203 -0.026130533 0.42639112 0.055953167 0.16548602 0.03351956 0.045481853
0.20714702 0.108748145 -0.25690344 0.24567942 0.07411838 0.06994998 -0.11454699 -0.30319005
-0.013012897 0.42682236 0.058178093 0.23673907 -0.116920725 -0.13891925 -0.22134307 -0.23323399
-0.25712872 -0.40286952 0.36372367 -0.330835 -0.19015568 -0.14864457 0.07272807 0.2574346
-0.17773202 0.13975123 0.19553852 -0.2646333 -0.40372673 0.44782045 0.20053951 -0.06467058
-0.0818164 -0.2836953 0.089420006 0.16482511 -0.23119108 -0.23183395 -0.32245815 0.18033221
-0.37556309 -0.38297355 0.005311449 -0.09501737 0.44495142 -0.37098327 -0.31680718 0.18704118
-0.19083813 0.01768288 -0.1080559 0.35126027 -0.064627245 -0.40018007 0.08879675 -0.2865687
-0.09080609 -0.42812797 0.07722777 0.30527052 0.21178615 0.04428196 0.18850237 -0.083727784
-0.09203776 0.4076159 -0.0674627 0.22853436 -0.05092083 0.22941783 0.027375117 0.055711593
-0.21306765 -0.29065144 0.09583465 -0.3677417 0.013521498 -0.15360236 0.023416549 0.29200652
-0.033554543 0.17340054 0.17506307 0.048397444 -0.018297682 -0.09981483 -0.15930516 -0.105939865
-0.25141805 0.4005732 -0.4612525 -0.3799915 0.1071171 0.22245337 0.17285672 0.26267323
-0.42461967 -0.10899881 0.38833165 0.15767142 -0.03780145 0.07182506 0.14446786 0.3981804
0.22808835 0.40585062 0.04874655 -0.05071907 0.16587825 0.19047499 0.14404659 -0.20928314
-0.41975933 0.024971195 -0.119205005 0.4814539 -0.22165373 -0.36155227 -0.17737576 0.13843815
0.28438133 0.07571793 -0.015313205 -0.04255623 -0.24048741 -0.2254032 -0.11598323 -0.19303735
00000000: fdb4 29be 34d3 903d 30e6 d2be b277 d83e
00000010: 54c2 c8bc 834b c1be 67dc 96bc 9357 5c3e
00000020: f440 c13e 5b93 a5be 32e3 6a3e b5b1 4f3e
00000030: b078 bdbe 5ac1 acbe 0a35 8bbe 06eb 20be
00000040: fa9e 853d ed62 6e3d 8fa5 b3bc 6ff6 123a
00000050: d521 4f3e 8a43 5dbb 1762 91be dd4e 973e
00000060: fb79 33bd 02b3 b0be 1fdf 02bd e731 e7be
00000070: 3901 1bbe ccb9 b83d 0bcc 763e 4e33 6e3e
00000080: 0a00 20bd f6dd 073c f1ed 11be 15d4 cdbd
00000090: a12b a33e 48d3 19bd 5185 cabe 4ce0 9c3e
000000a0: 8999 f03d f2ca 963e a74a dbbe 6c3b 343e
000000b0: f9df 913e 7e44 273e 4181 4ebe c618 2d3e
000000c0: 201c b5bd 060c b93e d56c 1c3c 9364 673e
000000d0: 260e 893e 49b1 8e3e 3968 913d 5757 353e
000000e0: 497e 793e 021b 443d 0821 b1be dda4 b2bb
000000f0: b5ba 80be 7459 333e 2c55 a3be 1dc0 8ebe
00000100: 0b45 7a3e 2366 b4be 8e3a 193e 86a0 5f3e
00000110: f668 193e 69a0 953e 38fc fa3d 3a0e b33d
00000120: 3178 e6be 835a d63e cc75 f1bd 7bcd c53e
00000130: cd89 d53d 7b8f 06be 99f8 ba3e 3770 e9bd
00000140: 76fc 893e 7173 c6be 87f1 81bd 14b0 fd3d
00000150: 5efe 3d3e 148a e3bc 9312 fd3d b628 01be
00000160: 7186 f9bb a274 943e 3b8d 2e3e de83 96bd
00000170: cba5 d63d dc1c 26bd 47b7 8fbe 9971 833e
00000180: a9c8 0f3e acdb 2bbd 2169 83be b884 c03e
00000190: 7db7 68be 8ea9 c13c d4da 10bc 49c1 913e
000001a0: ba56 c3bd 9b0f 533e 4317 cb3e 1b72 243d
000001b0: 04d1 95bd 375b 4fbe 7cc9 cebd a5c4 b1bd
000001c0: 8d93 47be 4b41 0b3e d4db e4be 62bd e8be
000001d0: 39aa 573c 90fb 913e a68e d93d 9ac7 453e
000001e0: 6f2c 69be 778a 853e b30f d6bc f04f da3e
000001f0: 262f 653d 2b75 293e ce4b 093d 2e4b 3a3d
00000200: 591e 543e 59b7 de3d d988 83be 6393 7b3e
00000210: 61cb 973d ef41 8f3d 9d97 eabd ba3b 9bbe
00000220: 0c34 55bc 7688 da3e 274c 6e3d ba6b 723e
00000230: 2274 efbd d940 0ebe c2a7 62be e4d4 6ebe
00000240: 60a6 83be ea44 cebe fd39 ba3e 3563 a9be
00000250: 2cb8 42be 4836 18be 74f2 943d 78ce 833e
00000260: 62ff 35be f21a 0f3e 403b 483e 047e 87be
00000270: 45b5 cebe b948 e53e 3b5a 4d3e 0272 84bd
00000280: 5b8f a7bd 8340 91be d621 b73d eac7 283e
00000290: 5bbd 6cbe e165 6dbe 3c19 a5be 02a9 383e
000002a0: ce49 c0be 1c15 c4be aa0b ae3b 7898 c2bd
000002b0: acd0 e33e 85f1 bdbe 8d34 a2be b987 3f3e
000002c0: 126b 43be b0db 903c 694c ddbd 63d8 b33e
000002d0: 4a5b 84bd 67e4 ccbe 12db b53d 22b9 92be
000002e0: 8bf8 b9bd 9733 dbbe 9829 9e3d 6b4c 9c3e
000002f0: 78de 583e 0061 353d c406 413e 7979 abbd
00000300: 4b7e bcbd 08b3 d03e e229 8abd e904 6a3e
00000310: 5c92 50bd 82ec 6a3e c841 e03c d731 643d
00000320: 682e 5abe 44d0 94be f544 c43d a448 bcbe
00000330: 4689 5d3c f049 1dbe 10d4 bf3c e181 953e
00000340: 7d70 09bd e98f 313e bc43 333e 663c 463d
00000350: 05e5 95bc b86b ccbd e420 23be 00f7 d8bd
00000360: deb9 80be ee17 cd3e 4a29 ecbe 3f8e c2be
00000370: 3660 db3d d1ca 633e 5a01 313e 1b7d 863e
00000380: c067 d9be c53a dfbd 68d3 c63e 9e74 213e
00000390: b1d5 1abd 0419 933d 62ef 133e 4dde cb3e
000003a0: fe8f 693e a7cb cf3e 76aa 473d cdbe 4fbd
000003b0: fddb 293e e00b 433e f380 133e 524e 56be
000003c0: b2ea d6be 6490 cc3c c121 f4bd 2081 f63e
000003d0: 32f9 62be 611d b9be fea1 35be bbc2 0d3e
000003e0: 6e9a 913e 0112 9b3d 3de4 7abc 714f 2ebd
000003f0: 5542 76be 19d0 66be 9e88 edbd 95ab 45be

network.0.bias f4 [32]
0.036838345 0.2339182 -0.14138064 0.40007073 0.3925828 0.03524939 -0.00792605 0.41452944
0.03096831 0.29955703 0.15629359 0.08435189 0.03916067 0.20847577 0.397718 0.3023812
-0.058432695 -0.01416648 0.056982186 0.28920949 0.031180894 0.2458601 0.47606006 0.23514639
0.15323381 0.12884858 0.32911727 -0.07206589 0.2168627 0.098959126 0.04963927 0.077849306
00000000: cee3 163d 4188 6f3e 16c6 10be 12d6 cc3e
00000010: 9d00 c93e aa61 103d 43dc 01bc 343d d43e
00000020: 41b1 fd3c 8a5f 993e 6d0b 203e afc0 ac3d
00000030: f066 203d ac7a 553e b2a1 cb3e b5d1 9a3e
00000040: 1f57 6fbd 861a 68bc 2766 693d 4413 943e
00000050: 136f ff3c c0c2 7b3e 25be f33e 37ca 703e
00000060: 53e9 1c3e e2f0 033e 0f82 a83e 4897 93bd
00000070: 4111 5e3e 15ab ca3d 8c52 4b3d 756f 9f3d

network.2.weight f4 [16, 32]
0.16751003 0.3413324 0.40130907 -0.107401274 0.033851847 0.3148686 -0.13623005 0.1316975
-0.06380012 -0.024403568 0.24558443 0.29437402 -0.013183518 0.13642955 0.040509533 -0.15073115
-0.42301962 -0.22055516 -0.023150224 -0.0630317 -0.1060311 -0.2257042 0.15159705 -0.008260606
0.24536696 0.35630897 -0.030864239 0.139689 -0.16619541 0.2719949 0.083715685 0.26028097
0.14073172 0.009572735 0.08305007 -0.0974441 0.13923241 0.19505893 -0.2668423 0.1330038
0.23343207 -0.0062394696 0.14848323 0.27207914 0.13274692 0.29592824 -0.059443682 0.19298244
0.24136145 -0.29689628 0.3150213 0.22446482 0.104010485 -0.1762946 0.2992801 -0.05810084
0.2667132 0.28914845 0.3079035 0.22728686 -0.0030158581 0.111938864 0.14764442 0.08250141
0.52533484 0.35894018 0.5239874 0.0439976 -0.19921419 0.18926585 -0.31740847 0.15554896
-0.06325109 -0.13771853 0.10717882 0.40626353 0.13911302 0.2693119 0.1912035 0.07256993
-0.22552 -0.32673958 -0.07353868 -0.12899832 -0.07624572 -0.009920779 0.36999288 -0.2968424
0.08825974 0.15516227 -0.0073116524 -0.028415656 -0.17722775 0.30659685 0.06077505 0.15975061
0.36850524 0.30840433 0.22725825 0.25847206 -0.20776401 0.25395024 0.00896292 0.15170038
0.015804576 0.22307862 -0.06896217 0.17559114 0.27795386 0.10707265 0.29366812 0.071962535
-0.16504112 0.22964057 -0.08666985 -0.07979322 0.31888476 0.19248421 0.06508248 0.161095
0.028353363 0.33861074 -0.08188748 0.10064748 -0.18023582 0.30264875 -0.00593626 0.02331148
0.40181568 0.24695969 0.42835486 -0.03507859 -0.042752035 0.08704498 -0.21382314 0.1629277
0.0010422346 0.0002478003 0.016289538 0.35294762 0.055254243 0.3009037 0.11817683 -0.16219689
-0.33786044 -0.29561508 -0.23896155 0.0844888 0.21376401 -0.13273741 0.09741594 -0.28052592
0.23498467 0.3448114 0.08281278 0.25729522 -0.2009127 0.27779397 0.04657567 0.19892082
0.23848343 0.015506373 0.29195955 -0.021025635 -0.13744317 0.15118934 -0.34573147 0.19575925
0.05138991 -0.018426185 -0.061168484 0.16671187 0.22024566 0.25350016 0.19665141 0.047284782
-0.24020095 -0.21457732 -0.15205374 -0.10387539 0.1228363 -0.08925055 0.2858684 -0.16615807
0.080874965 0.1865638 0.13565117 -0.06374253 0.023406325 0.032291535 0.11558274 0.098985866
0.16416119 0.15762918 0.04762258 -0.07687606 0.2864547 -0.030301984 -0.2202688 -0.053945284
0.31199786 0.12474768 0.3237665 0.21139902 0.27943435 0.1659335 -0.07450036 0.26065445
0.15124711 -0.12708874 0.3735126 0.3388103 -0.06377089 -0.11429351 0.13384311 -0.081355505
0.17789222 -0.047451284 0.27382436 0.1745856 0.049968712 0.13832572 0.3471316 0.12030596
-0.15774322 -0.2959419 -0.121573776 0.24359648 -0.0078031933 0.12131153 0.3443765 0.33924955
0.0053186673 0.18053447 -0.24028005 -0.19875672 0.14396675 -0.27188647 0.077170335 0.12393017
0.0015402962 0.20411657 -0.27801844 0.14675006 0.18395598 0.15960614 0.023354469 0.42179486
-0.061095946 -0.17794175 -0.019556686 0.001228488 0.16639322 0.0057679988 0.048519474 -0.20193642
00000000: c087 2b3e 1fc3 ae3e 6278 cd3e 33f5 dbbd
00000010: 3ca8 0a3d 7536 a13e e47f 0bbe b6db 063e
00000020: a3a9 82bd fee9 c7bc 7c7a 7b3e 31b8 963e
00000030: afff 57bc 30b4 0b3e 53ed 253d 4459 1abe
00000040: 0796 d8be 36d9 61be 8aa5 bdbc c416 81bd
00000050: d526 d9bd 001f 67be 423c 1b3e 7e57 07bc
00000060: 7a41 7b3e 216e b63e 00d7 fcbc a20a 0f3e
00000070: 212f 2abe ea42 8b3e 2173 ab3d 8c43 853e
00000080: fa1b 103e f6d6 1c3c 2816 aa3d c690 c7bd
00000090: f192 0e3e 87bd 473e 8e9f 88be 2632 083e
000000a0: d108 6f3e 7774 ccbb fd0b 183e f54d 8b3e
000000b0: cfee 073e e883 973e 387b 73bd 309d 453e
000000c0: 7527 773e ca02 98be 794a a13e 1bda 653e
000000d0: 7303 d53d 9286 34be 3e3b 993e 25fb 6dbd
000000e0: a28e 883e 440b 943e 87a5 9d3e e3bd 683e
000000f0: b4a5 45bb 3440 e53d 1930 173e 80f6 a83d
00000100: 587c 063f 02c7 b73e 0a24 063f d436 343d
00000110: cefe 4bbe e8ce 413e 5d83 a2be 3a48 1f3e
00000120: ca89 81bd 1606 0dbe 9280 db3d c601 d03e
00000130: a573 0e3e 40e3 893e daca 433e 8b9f 943d
00000140: b7ee 66be 694a a7be 739b 96bd 2318 04be
00000150: b726 9cbd c38a 22bc b56f bd3e bafb 97be
00000160: 86c1 b43d dce2 1e3e 9696 efbb f3c7 e8bc
00000170: 317b 35be 43fa 9c3e 42ef 783d aa95 233e
00000180: b8ac bc3e 2ce7 9d3e 63b6 683e 7356 843e
00000190: 17c0 54be c405 823e 36d9 123c 5857 1b3e
000001a0: 9978 813c b96e 643e 0a3c 8dbd 2ace 333e
000001b0: f84f 8e3e e848 db3d ab5b 963e 1861 933d
000001c0: 8a00 29be e626 6b3e f67f b1bd a16a a3bd
000001d0: dd44 a33e 951a 453e f749 853d 16f6 243e
000001e0: 5045 e83c 635e ad3e a0b4 a7bd 4420 ce3d
000001f0: bd8f 38be c7f4 9a3e f584 c2bb b8f7 be3c
00000200: c9ba cd3e 00e3 7c3e 5451 db3e 91ae 0fbd
00000210: c21c 2fbd a344 b23d 74f4 5abe 85d6 263e
00000220: 979b 883a 31eb 8139 a371 853c 8db5 b43e
00000230: 4652 623d 0d10 9a3e b206 f23d f116 26be
00000240: 0bfc acbe dc5a 97be 56b2 74be 7708 ad3d
00000250: f4e4 5a3e 51ec 07be 0282 c73d 18a1 8fbe
00000260: d29f 703e 1f8b b03e bf99 a93d 33bc 833e
00000270: 0fbc 4dbe 033b 8e3e 21c6 3e3d e6b1 4b3e
00000280: 0035 743e 710e 7e3c b97b 953e f43d acbc
00000290: e7bd 0cbe 61d1 1a3e b703 b1be 1d75 483e
000002a0: 3a7e 523d 83f2 96bc ce8b 7abd 84b6 2a3e
000002b0: 1488 613e c6ca 813e fd5e 493e b0ad 413d
000002c0: 3df7 75be 28ba 5bbe fab3 1bbe 9fbc d4bd
000002d0: 9991 fb3d fec8 b6bd 585d 923e 5725 2abe
000002e0: c6a1 a53d 950a 3f3e 24e8 0a3e 728b 82bd
000002f0: 9fbe bf3c 2144 043d a5b6 ec3d 1ab9 ca3d
00000300: df19 283e 8b69 213e e50f 433d 3271 9dbd
00000310: 31aa 923e de3b f8bc 258e 61be bbf5 5cbd
00000320: 2fbe 9f3e b67b ff3d b9c4 a53e fc78 583e
00000330: 0512 8f3e 79ea 293e a593 98bd 8074 853e
00000340: 86e0 1a3e 8d23 02be 0b3d bf3e 8b78 ad3e
00000350: 509a 82bd b712 eabd 2b0e 093e b79d a6bd
00000360: 6129 363e 475c 42bd b532 8c3e 91c6 323e
00000370: feab 4c3d 42a5 0d3e 3cbb b13e f962 f63d
00000380: 7087 21be b285 97be acfb f8bd 5b71 793e
00000390: eeb1 ffbb 2e72 f83d 1e52 b03e 1eb2 ad3e
000003a0: 3748 ae3b 07de 383e f90b 76be e286 4bbe
000003b0: 056c 133e b434 8bbe 7b0b 9e3d 1acf fd3d
000003c0: c4e3 c93a ef03 513e 6f58 8ebe a645 163e
000003d0: f55e 3c3e cb6f 233e df51 bf3c 7ff5 d73e
000003e0: be3f 7abd 5d36 36be 5835 a0bc 3805 a13a
000003f0: fc62 2a3e 7b01 bd3b 5bbc 463d 6cc8 4ebe

network.2.bias f4 [16]
-0.010907745 0.045537688 0.121790424 0.3116102 0.05180469 -0.07652874 0.04170088 0.11202367
0.08737308 0.17565392 0.27637845 0.032612175 0.23106708 0.18930575 0.011919988 0.04468712
00000000: 66b6 32bc ba85 3a3d 426d f93d 5f8b 9f3e
00000010: 2831 543d 1abb 9cbd 8bce 2a3d aa6c e53d
00000020: a8f0 b23d 9fde 333e 7a81 8d3e 5894 053d
00000030: d99c 6c3e 5ed9 413e 0e4c 433c d709 373d

network.4.weight f4 [3, 16]
-0.27235 -0.4324469 -0.41851273 0.22442701 -0.21029131 -0.09883034 -0.24463575 0.275325
-0.20703728 0.3356845 -0.30924064 0.34820646 0.21817985 0.4042107 0.0743978 -0.2936463
0.3297856 0.17769839 0.041608263 0.1432242 0.23730871 0.53872275 0.011028991 -0.38968837
0.24523143 0.10669379 -0.10212207 -0.4086569 0.30870673 -0.16412938 -0.51418805 0.5342595
-0.13519248 0.25434056 -0.449171 -0.2660442 -0.35823947 -0.5783803 0.3587466 -0.35982296
-0.38357273 -0.4428006 0.2670194 -0.42775667 -0.27659377 -0.364239 0.38136888 -0.18189666
00000000: 7671 8bbe ae69 ddbe 4d47 d6be 32d0 653e
00000010: 9b56 57be 9067 cabd cb81 7abe 66f7 8c3e
00000020: 9501 54be d7de ab3e ca54 9ebe 1e48 b23e
00000030: 8a6a 5f3e b4f4 ce3e e05d 983d cf58 96be
00000040: a8d9 a83e 91f6 353e 6d6d 2a3d 5da9 123e
00000050: 0e01 733e bce9 093f f1b2 343c 3c85 c7be
00000060: f31d 7b3e 4682 da3d 6025 d1bd 7a3b d1be
00000070: cf0e 9e3e 8811 28be d4a1 03bf 3bc5 083f
00000080: e66f 0abe ed38 823e bef9 e5be f236 88be
00000090: 2a6b b7be bb10 14bf a2ad b73e b73a b8be
000000a0: a563 c4be c3b6 e2be c4b6 883e ec02 dbbe
000000b0: b39d 8dbe 897d babe c842 c33e 1e43 3abe

network.4.bias f4 [3]
-0.019030834 0.11792133 -0.096360944
00000000: 8de6 9bbc bd80 f13d e358 c5bd

exp_avg f4 [32, 13]
0.00031666606 0.00024270777 0.00030309448 -0.00012482757 -6.2551935e-06 0.0005384757 8.344219e-05 -0.00036204275
1.2916812e-05 0.00024316664 -1.7662182e-05 0.0004138745 0.00023660735 4.2034913e-05 -3.189486e-05 0.00016574857
-0.00016747437 -0.00012292567 7.90873e-05 -4.6056677e-05 -0.00011680246 0.00010212326 0.00016592041 -6.7335015e-05
9.280058e-05 0.00024332272 0.0001954477 0.00039285904 0.00023924687 7.5554795e-05 -0.00015651819 -0.00017381324
0.00021183291 -0.0004364071 0.0004782593 0.000102024685 -4.240367e-05 0.00032047462 0.0004415494 -9.299163e-05
-0.00015252503 -5.288143e-05 0.00014475551 -2.1121314e-05 -5.6459967e-06 -0.00013959156 0.00012419936 -2.116368e-05
6.0780036e-05 -3.7207596e-05 -0.00014645909 -0.00019115882 -1.9310613e-05 -1.6640892e-05 -0.00017943974 5.287465e-05
8.928624e-05 -8.1865735e-05 0.00022234741 6.061379e-05 9.987319e-07 -0.00019518723 0.00024013332 0.000115370334
-4.2370775e-05 6.4347405e-05 -1.1090095e-05 -3.7106827e-05 -4.0639785e-05 -6.78139e-05 -2.0295427e-05 -6.403641e-06
8.957483e-05 -4.0346975e-05 3.5984598e-05 1.8606648e-05 -1.2333732e-05 4.582454e-05 -0.00014261434 -9.762108e-05
-6.1671e-05 0.00021417717 -4.611609e-05 4.9441554e-05 -8.315275e-05 2.8263717e-05 0.00010913144 9.37678e-05
-8.5585474e-05 -9.261947e-05 -0.0002467954 3.382942e-05 -3.1929787e-05 -3.0269985e-05 1.9590636e-05 -3.5640925e-05
2.4452822e-05 -3.0187342e-05 5.279253e-05 -2.3496532e-05 0.0001107337 -3.575231e-05 -6.846671e-05 -0.00010314637
-4.4142733e-05 -3.6116253e-05 -0.00010612144 4.3704484e-05 5.8821475e-05 -2.2949267e-05 0.00028259883 2.1473477e-05
0.000105143845 -0.0001815733 0.00025107968 0.00020033125 1.21640105e-05 -0.0001046719 -4.854832e-05 -3.60996e-05
0.00017076614 -4.5242658e-05 -4.9103848e-05 -0.00011284604 7.44356e-05 6.698226e-05 9.8549746e-05 -6.538601e-05
-0.00010338585 -0.00020076009 -1.6427368e-06 -2.7407585e-05 -4.1099996e-05 -1.5842132e-05 2.6444e-05 2.0722178e-05
0.00011227396 -6.957025e-05 6.8104884e-05 -5.6006855e-05 8.420353e-05 9.758118e-05 2.898839e-05 4.150223e-05
-0.00018029855 0.00018086843 -0.00025288656 1.6324682e-05 0.00014133082 -0.00024718378 4.3797983e-05 -3.6956935e-05
0.00016428447 -0.000170373 -1.4103625e-05 0.0001718907 3.0257323e-05 -7.9274716e-05 6.411719e-05 -6.615463e-05
-3.4474255e-05 0.0001414189 -3.2353633e-05 -2.9941875e-06 1.0084712e-05 4.9059516e-05 -2.5867042e-05 3.8910668e-05
6.118122e-05 0.00022630225 0.00013609555 0.00020665735 -0.00014011694 0.00013586428 0.0002007163 -7.1148286e-05
-0.00021827468 -4.060316e-05 0.00013784658 -5.6756457e-05 0.00015413594 0.0001799211 -6.1034094e-05 -1.2748122e-05
-2.7519238e-05 8.2720595e-05 -5.330767e-05 -6.282731e-05 -3.5719804e-05 -1.943087e-05 8.972123e-05 7.687764e-05
-8.938552e-06 -2.5194626e-05 -5.6719073e-05 -4.260662e-05 2.3978324e-05 -7.1828385e-05 8.271396e-05 4.0356463e-05
-3.053014e-05 0.00011124358 9.563292e-05 6.049321e-05 -7.859134e-05 8.3158484e-05 9.6207834e-05 -0.00010764835
-2.9517323e-05 -5.3184547e-05 -0.00021121839 0.000110551424 0.00020789434 -0.00021200848 0.00032241576 0.00016760221
-7.232975e-05 -0.00035480707 0.00037614323 8.854073e-05 -6.204665e-05 -0.00017001007 -0.00010100911 -7.295393e-05
0.0002725282 -6.796105e-05 6.476097e-06 -0.00011745164 3.7996164e-05 0.0001479771 0.00014369954 -9.039487e-05
-0.000121998906 -0.000285147 -5.2997242e-05 -2.343178e-05 -0.00014596611 7.4048345e-05 7.460452e-05 -5.696246e-05
0.0003581285 2.9615687e-05 0.00014226582 -0.00022582215 0.00031889012 0.00024649492 3.5389223e-06 -1.6027272e-05
1.9554402e-05 -9.981058e-05 7.2707953e-06 3.778119e-05 -1.0224032e-05 0.00021665882 2.2459886e-05 7.572448e-05
00000000: 3306 a639 5f7f 7e39 a7e8 9e39 25e4 02b9
00000010: b4e3 d1b6 7e28 0d3a affd ae38 8ed0 bdb9
00000020: 49b5 5837 8cfa 7e39 3f29 94b7 4cfd d839
00000030: cd19 7839 a54e 3038 d8c6 05b8 cbcc 2d39
00000040: 0f9c 2fb9 9ce5 00b9 acdb a538 fb2c 41b8
00000050: d8f3 f4b8 022b d638 ecfa 2d39 3636 8db8
00000060: ef9d c238 7224 7f39 18f1 4c39 a6f8 cd39
00000070: 58de 7a39 2c73 9e38 081f 24b9 a341 36b9
00000080: 771f 5e39 92cd e4b9 e0be fa39 16f6 d538
00000090: 98da 31b8 6005 a839 c27f e739 8004 c3b8
000000a0: 20ef 1fb9 01cd 5db8 83c9 1739 ad2d b1b7
000000b0: be72 bdb6 535f 12b9 833b 0239 a888 b1b7
000000c0: 11ee 7e38 5a0f 1cb8 d092 19b9 ce71 48b9
000000d0: 3afd a1b7 0b98 8bb7 fd27 3cb9 b9c5 5d38
000000e0: 2f3f bb38 55af abb8 ee25 6939 903b 7e38
000000f0: 2b0c 8635 2cab 4cb9 4ccc 7b39 faf2 f138
00000100: 46b7 31b8 40f2 8638 980f 3ab7 27a3 1bb8
00000110: a374 2ab8 4f37 8eb8 1940 aab7 dbde d6b6
00000120: 1fda bb38 3c3a 29b8 2bee 1638 7915 9c37
00000130: faec 4eb7 ba33 4038 bf8a 15b9 ebb9 ccb8
00000140: 5e55 81b8 bf94 6039 c66c 41b8 775f 4f38
00000150: 4b62 aeb8 df17 ed37 7fdd e438 34a5 c438
00000160: 5a7c b3b8 b33c c2b8 5164 81b9 10e4 0d38
00000170: 59ec 05b8 4cec fdb7 9256 a437 277d 15b8
00000180: 0920 cd37 d33a fdb7 8c6d 5d38 6b1a c5b7
00000190: b439 e838 c0f4 15b8 c995 8fb8 4950 d8b8
000001a0: e625 39b8 887b 17b8 848d deb8 554f 3738
000001b0: 14b7 7638 2d83 c0b7 c629 9439 f121 b437
000001c0: ac80 dc38 b664 3eb9 58a3 8339 0310 5239
000001d0: 0714 4c37 4c83 dbb8 5da0 4bb8 a669 17b8
000001e0: b00f 3339 efc2 3db8 dbf4 4db8 c2a7 ecb8
000001f0: 4f1a 9c38 d478 8c38 7eac ce38 d91f 89b8
00000200: dbd0 d8b8 2083 52b9 027c dcb5 57e9 e5b7
00000210: c962 2cb8 b8e4 84b7 0fd4 dd37 8ad4 ad37
00000220: a074 eb38 3ee6 91b8 88d3 8e38 e7e8 6ab8
00000230: 6d96 b038 7fa4 cc38 182c f337 ae12 2e38
00000240: 860e 3db9 80a7 3d39 dc95 84b9 fdf0 8837
00000250: 3432 1439 7298 81b9 bab3 3738 3502 1bb8
00000260: c743 2c39 27a6 32b9 9c9e 6cb7 8f3d 3439
00000270: 1bd1 fd37 4a40 a6b8 a776 8638 7fbc 8ab8
00000280: 7398 10b8 d949 1439 73b3 07b8 c0ef 48b6
00000290: 8231 2937 41c5 4d38 0dfd d8b7 0334 2338
000002a0: 6b4e 8038 8c4b 6d39 dfb4 0e39 29b2 5839
000002b0: 5bec 12b9 ca76 0e39 5f77 5239 7235 95b8
000002c0: aae0 64b9 504d 2ab8 e98a 1039 c80d 6eb8
000002d0: 8d9f 2139 34a9 3c39 dcfe 7fb8 c4e0 55b7
000002e0: 1dd9 e6b7 487a ad38 ad96 5fb8 28c2 83b8
000002f0: d9d1 15b8 7aff a2b7 b828 bc38 5e39 a138
00000300: caf6 15b7 0c59 d3b7 a4e5 6db8 83b4 32b8
00000310: 0f25 c937 92a2 96b8 b876 ad38 6c44 2938
00000320: 7d0d 00b8 714b e938 888e c838 17ba 7d38
00000330: 68d1 a4b8 5f65 ae38 30c3 c938 45c1 e1b8
00000340: f89b f7b7 7912 5fb8 817a 5db9 d8d7 e738
00000350: 36fe 5939 984e 5eb9 e909 a939 60be 2f39
00000360: bdaf 97b8 6605 bab9 1735 c539 f1ae b938
00000370: 0b1f 82b8 bb44 32b9 dad4 d3b8 d8fe 98b8
00000380: 1ee2 8e39 5086 8eb8 404d d936 5e50 f6b8
00000390: 125e 1f38 4d2a 1b39 0dae 1639 6092 bdb8
000003a0: aad9 ffb8 c87f 95b9 5b49 5eb8 5d8f c4b7
000003b0: 7b0e 19b9 674a 9b38 ff74 9c38 faea 6eb8
000003c0: 32c3 bb39 346f f837 312d 1539 acca 6cb9
000003d0: b530 a739 fd3b 8139 397e 6d36 4e72 86b7
000003e0: c208 a437 6651 d1b8 a8f7 f336 3e77 1e38
000003f0: e287 2bb7 e92e 6339 3d68 bc37 45ce 9e38

exp_avg_sq f4 [32, 13]
1.21896655e-05 2.233643e-05 7.4801706e-06 2.3871053e-05 3.096318e-05 1.916616e-05 7.3579363e-06 3.8351096e-05
1.221463e-05 2.112961e-05 1.33443855e-05 1.3299794e-05 1.3164126e-05 8.620982e-06 1.2452196e-05 1.1426289e-05
1.347943e-05 1.7877284e-05 8.223846e-06 1.1986623e-05 2.8083872e-05 1.4776387e-05 8.899754e-06 9.488267e-06
1.3924922e-05 1.06921625e-05 2.7406209e-06 1.0388627e-05 9.699452e-06 9.360964e-06 1.4421602e-05 4.1544395e-06
9.4018915e-06 2.0223037e-05 1.8518587e-05 4.5250713e-06 7.794309e-06 1.2565625e-05 4.500018e-06 1.8397574e-05
1.1217872e-05 2.1555228e-05 3.4815304e-05 1.9862788e-05 1.50294845e-05 2.487455e-05 1.4142911e-05 1.3034003e-05
8.243766e-06 1.284195e-05 1.9653784e-05 4.7790105e-05 5.591832e-06 1.60639e-05 5.8449564e-06 7.725981e-06
1.3514983e-05 1.31185025e-05 2.1584821e-05 3.8752467e-05 1.233241e-05 1.5330306e-05 1.395071e-05 2.819591e-05
4.747319e-06 1.182955e-06 1.0067606e-06 3.2216738e-06 1.7186194e-06 3.2240187e-06 2.0163927e-06 2.0276307e-06
1.7124876e-06 1.878879e-06 1.6172625e-06 2.0170758e-06 2.3370899e-06 1.1245653e-06 3.5062178e-06 6.236548e-06
1.0998042e-05 1.0782787e-05 5.4290354e-06 3.8312214e-06 7.869311e-06 7.495411e-06 6.417904e-06 3.3120855e-06
5.045223e-06 5.849929e-06 1.2412069e-05 5.0708654e-06 7.067797e-06 3.2301873e-06 2.4492006e-06 7.0444776e-06
9.692634e-06 8.232053e-06 5.920104e-06 8.008425e-06 1.0906857e-05 8.223912e-06 1.2407289e-05 3.4961076e-06
3.1216316e-06 1.3669335e-05 3.826666e-06 7.541912e-06 5.5131104e-06 1.1852873e-05 2.1917944e-05 1.9076508e-05
9.445405e-06 1.9134153e-05 1.8339784e-05 2.5418647e-05 3.449309e-06 1.6554724e-05 4.5560314e-06 8.536025e-06
1.4788178e-05 7.385594e-06 1.187523e-05 1.8135905e-05 6.2491868e-06 7.208253e-06 6.153448e-06 7.2235634e-06
1.3639965e-05 2.6730775e-05 2.818419e-06 5.8442747e-06 6.1127243e-06 7.2412827e-06 2.7387196e-06 5.5734117e-06
1.2452077e-05 9.027942e-06 4.650048e-06 1.2081073e-05 1.0382595e-05 1.0097083e-05 3.0925446e-06 2.585028e-05
2.350125e-05 1.8516026e-05 2.2651415e-05 2.1468455e-05 1.8260904e-05 2.0852995e-05 4.473986e-05 1.4427984e-05
2.0939662e-05 2.0506488e-05 2.434378e-05 4.3132244e-05 1.6469537e-06 4.96119e-06 2.003864e-06 2.5074964e-06
2.6355815e-06 3.3661831e-06 4.69595e-06 7.0084434e-06 2.5712945e-06 8.6961495e-07 2.565872e-06 4.7128265e-06
1.7109784e-06 7.1511636e-06 7.980842e-06 7.6186557e-06 1.455113e-05 1.0839812e-05 8.634562e-06 5.5989763e-06
1.5527725e-05 3.6347221e-06 5.2518403e-06 4.480403e-06 7.3056667e-06 9.186087e-06 4.4694016e-06 4.47961e-06
5.039343e-06 1.0342501e-05 3.4605034e-06 6.036814e-06 1.21087805e-05 8.768992e-06 5.868251e-06 1.2641515e-05
7.60114e-06 1.3320403e-05 1.1194337e-05 3.966206e-06 1.1941418e-05 3.2686123e-06 4.1813296e-06 5.287902e-06
8.3452005e-06 1.3983509e-05 1.4130626e-05 8.129568e-06 1.1218705e-05 1.1459801e-05 1.749425e-05 3.5505134e-06
9.89686e-06 3.6322002e-05 1.0458345e-05 1.6670856e-05 3.0900494e-05 2.824224e-05 4.724081e-05 8.967668e-05
2.3269535e-05 2.1985963e-05 2.5163066e-05 5.8770685e-05 9.902931e-06 1.6451246e-05 1.4332187e-05 2.4149727e-05
4.703629e-05 1.7557692e-05 1.1242953e-05 2.0074547e-05 1.5789605e-05 7.926246e-06 7.32757e-06 1.4032197e-05
1.780715e-05 4.4061628e-05 8.036013e-06 3.7346977e-05 7.312542e-06 1.4106723e-05 1.9858579e-05 3.6019523e-05
6.157484e-05 5.5352917e-05 2.8047194e-05 4.1570052e-05 4.552842e-05 7.308339e-05 8.04493e-06 6.7457077e-06
1.8383158e-05 4.52009e-06 1.5834954e-05 9.523488e-06 2.3650786e-05 3.7480262e-05 2.7551217e-05 1.7089089e-05
00000000: 3782 4c37 1e5f bb37 2dfe fa36 b23e c837
00000010: 76de 0138 04c7 a037 31e4 f636 2ddb 2038
00000020: 70ed 4c37 7e3f b137 b3e1 5f37 2e22 5f37
00000030: 7edb 5c37 d6a2 1037 c6e9 5037 8ab3 3f37
00000040: b625 6237 2df7 9537 26f9 0937 271a 4937
00000050: a895 eb37 19e8 7737 2750 1537 cc2f 1f37
00000060: 169f 6937 7d62 3337 82eb 3736 d04a 2e37
00000070: d4ba 2237 090d 1d37 4ff4 7137 5d66 8b36
00000080: d1bc 1d37 a4a4 a937 5d58 9b37 11d6 9736
00000090: 4dc4 0237 f3d0 5237 dcfe 9636 7d54 9a37
000000a0: 6534 3c37 80d1 b437 a606 1238 039f a637
000000b0: 2527 7c37 b0a9 d037 5747 6d37 9eac 5a37
000000c0: b54e 0a37 c173 5737 2ede a437 3c72 4838
000000d0: 79a1 bb36 f6c0 8637 cb1f c436 d69e 0137
000000e0: 69be 6237 8a17 5c37 0d11 b537 258a 2238
000000f0: 4ce7 4e37 9599 8037 d80d 6a37 4186 ec37
00000100: 294b 9f36 06c6 9e35 0820 8735 ef33 5836
00000110: 50ab e635 385c 5836 5d51 0736 6e12 0836
00000120: a0d8 e535 ca2d fc35 b710 d935 195d 0736
00000130: e6d6 1c36 c5ef 9635 5d4c 6b36 8a43 d136
00000140: 3b84 3837 b8e7 3437 0f2b b636 f18d 8036
00000150: 6f06 0437 1781 fb36 6059 d736 3245 5e36
00000160: 234a a936 824a c436 6e3d 5037 6726 aa36
00000170: ea27 ed36 32c6 5836 f25c 2436 9a5f ec36
00000180: 8c9d 2237 661c 0a37 4ea5 c636 ec5b 0637
00000190: 98fc 3637 6ff9 0937 e728 5037 ac9e 6a36
000001a0: 397d 5136 5955 6537 d066 8036 8810 fd36
000001b0: 42fd b836 b4db 4637 6ddc b737 7d06 a037
000001c0: b577 1e37 4882 a037 63d8 9937 213a d537
000001d0: ad7a 6736 00df 8a37 03e0 9836 f335 0f37
000001e0: be1a 7837 c5d1 f736 b93b 4737 8f22 9837
000001f0: 1bb0 d136 6cde f136 b779 ce36 f061 f236
00000200: 34d7 6437 e73b e037 1224 3d36 f019 c436
00000210: e71b cd36 25fa f236 d8ca 3736 3e03 bb36
00000220: 43e9 5037 b776 1737 9c07 9c36 d0af 4a37
00000230: e830 2e37 a466 2937 8389 4f36 0ed9 d837
00000240: 8d24 c537 dd52 9b37 8b03 be37 2817 b437
00000250: fe2e 9937 77ed ae37 0fa7 3b38 b80f 7237
00000260: 95a7 af37 5905 ac37 df35 cc37 e5e8 3438
00000270: e60c dd35 4c78 a636 1f7a 0636 7646 2836
00000280: f2de 3036 96e6 6136 e791 9d36 122a eb36
00000290: 818e 2c36 7c6f 6935 5831 2c36 df22 9e36
000002a0: c5a4 e535 07f4 ef36 75e5 0537 c1a3 ff36
000002b0: a120 7437 a3dc 3537 29dd 1037 d7de bb36
000002c0: 8941 8237 0dec 7336 f738 b036 5e56 9636
000002d0: 3323 f536 f11d 1a37 def7 9536 8f4f 9636
000002e0: a017 a936 b484 2d37 ff3a 6836 d68f ca36
000002f0: d126 4b37 891e 1337 e4e7 c436 e516 5437
00000300: 4c0d ff36 b27a 5f37 50cf 3b37 7315 8536
00000310: 0058 4837 555a 5b36 594d 8c36 bb6e b136
00000320: 5d02 0c37 b79a 6a37 9412 6d37 3b64 0837
00000330: f937 3c37 7843 4037 9ec0 9237 5b45 6e36
00000340: b10a 2637 7458 1838 4076 2f37 64d8 8b37
00000350: 279b 0138 c0e9 ec37 6f24 4638 cd10 bc38
00000360: f232 c337 7f6e b837 4615 d337 8b80 7638
00000370: c424 2637 c800 8a37 4674 7037 2595 ca37
00000380: d548 4538 db48 9337 1ea0 3c37 c365 a837
00000390: eb73 8437 f8fa 0437 59df f536 d46b 6b37
000003a0: 9060 9537 d0ce 3838 6ad2 0637 03a5 1c38
000003b0: 425e f536 eaab 6c37 f995 a637 ab13 1738
000003c0: be21 8138 be2a 6838 e446 eb37 815b 2e38
000003d0: c5f5 3e38 5944 9938 b6f8 0637 3059 e236
000003e0: 8835 9a37 47ab 9736 4ed5 8437 12c7 1f37
000003f0: ad65 c637 2034 1d38 ca1d e737 8a5a 8f37

exp_avg f4 [32]
-0.0005823028 -0.00013003187 -0.00021552345 -0.0001941779 -1.6889897e-05 -6.241881e-05 -0.00021243539 -0.00018414306
-5.5436274e-05 -0.00025729934 -8.356969e-05 -0.00025157453 -9.115329e-05 -0.00034768658 -0.00016566104 -0.0001680275
0.00016045487 -0.0003238696 -5.8278558e-05 -8.165624e-07 -0.0001110927 -0.00015375814 -0.00021539279 -0.00035938266
-0.000113597984 -0.0002472813 -0.00017408413 -8.541402e-05 -0.00013923341 -9.621344e-05 -0.000112614405 -2.5335006e-05
00000000: aea5 18ba 2a59 08b9 23fe 61b9 3c9c 4bb9
00000010: c7ae 8db7 d8e6 82b8 31c1 5eb9 8716 41b9
00000020: 3f84 68b8 22e6 86b9 2342 afb8 c3e5 83b9
00000030: 8d29 bfb8 b449 b6b9 4cb5 2db9 8a30 30b9
00000040: c73f 2839 0bcd a9b9 2070 74b8 be31 5bb5
00000050: 70fa e8b8 233a 21b9 10db 61b9 866b bcb9
00000060: 743b eeb8 89a5 81b9 5a8a 36b9 4e20 b3b8
00000070: 2fff 11b9 33c6 c9b8 662b ecb8 8386 d4b7

exp_avg_sq f4 [32]
3.118715e-05 1.7399678e-05 1.1124125e-05 3.10646e-05 1.744953e-05 3.8280914e-06 9.6180165e-06 8.6320315e-06
1.3608366e-05 2.6472177e-05 1.2442596e-05 3.9252798e-05 4.2711117e-06 1.49174475e-05 1.4649527e-05 8.255554e-06
3.5077377e-05 3.1155323e-05 4.5488767e-05 1.48609615e-05 6.9154873e-07 7.3935344e-06 5.1608935e-05 3.2162443e-05
2.3425868e-05 2.2079073e-05 1.4582432e-05 6.0548823e-06 1.178865e-05 2.2351362e-05 8.778717e-06 1.0585681e-05
00000000: f3ce 0238 86f5 9137 c1a1 3a37 5c4b 0238
00000010: 9560 9237 0e73 8036 115d 2137 4bd2 1037
00000020: 7d4f 6437 9110 de37 8bc0 5037 5fa3 2438
00000030: 9250 8f36 f345 7a37 3dc7 7537 5681 0a37
00000040: 0c20 1338 c6ac 0238 31cb 3e38 5853 7937
00000050: dea2 3935 fa15 f836 ac76 5838 29e6 0638
00000060: ab82 c437 7336 b937 12a7 7437 0b2b cb36
00000070: dec7 4537 2f7f bb37 4d48 1337 2799 3137

exp_avg f4 [16, 32]
-0.00016971135 -0.00012328514 -0.0001346882 6.367986e-05 6.377126e-06 -8.6420434e-05 6.23838e-05 2.4291294e-05
6.434795e-05 5.9283433e-05 -3.8841932e-05 -0.00010294667 -6.8661415e-05 -0.00019333465 3.466259e-06 -9.775764e-06
9.587729e-05 7.888668e-05 5.6319026e-05 -1.0784495e-06 3.2913726e-05 5.7436006e-05 -0.00015750562 7.0541886e-05
-9.7347634e-05 -0.00010757064 -5.805849e-05 -1.8918805e-05 4.5145993e-05 -0.00010684599 1.3971923e-05 -0.00010806361
-1.9617519e-05 -9.638607e-05 -8.623613e-05 4.1606505e-05 -8.621146e-05 -2.8735707e-05 3.7222286e-05 7.972836e-06
-9.161872e-05 7.853354e-05 -5.1643423e-05 -4.3572574e-05 1.8816374e-05 -5.9230206e-05 -2.3247827e-05 -0.00010177118
-8.16444e-05 3.6166974e-05 -0.00011621423 -2.6936352e-05 -1.3316972e-05 3.305117e-05 -8.003563e-05 4.043879e-05
-4.7813042e-05 -3.100586e-05 -0.000109498425 -4.5954628e-05 -4.4421457e-05 -9.89244e-05 -8.216174e-05 -0.00011105938
-0.00016807196 -0.00011007388 -0.00012080464 3.619003e-05 2.6800126e-05 -7.960782e-05 4.204051e-05 7.4733384e-06
8.134902e-05 3.8232192e-05 -3.3386452e-05 -9.323983e-05 -6.518664e-05 -0.00018065966 -1.3637299e-05 7.5366393e-06
0.000110944005 5.45879e-05 7.818609e-05 1.2243927e-05 1.3972362e-05 3.6350673e-05 -0.00015793972 4.4962726e-05
-9.29134e-05 -9.77818e-05 -3.7336322e-05 -2.106434e-05 4.5429668e-05 -0.00010469234 2.9426905e-05 -9.1371876e-05
-0.000110192275 -5.925646e-05 -6.310164e-05 -7.0840106e-05 2.0383034e-06 -3.851679e-05 -3.317037e-05 -7.197637e-05
3.509247e-05 -4.4110933e-05 -7.79053e-06 -4.0978986e-05 -4.7687226e-05 -9.7252e-05 -4.909277e-05 -1.8454715e-06
5.729798e-05 -4.2103202e-05 3.6328638e-05 -2.0860782e-05 -4.4792807e-05 -4.1126434e-05 -0.00013389747 -4.8031165e-05
-5.48265e-05 -4.7934762e-05 -1.4654618e-05 -1.5951751e-05 3.1044176e-05 -6.639501e-05 -2.3151288e-05 -5.2060248e-05
-0.00018849174 -0.00015377827 -0.00015853958 3.7896443e-05 4.2056304e-06 -8.387236e-05 4.5793324e-05 -1.7391118e-05
4.9371032e-05 4.3321113e-05 -1.23450245e-05 -0.00010587501 -4.2376363e-05 -0.00020368134 -5.226668e-06 -2.37283e-05
8.808799e-05 5.8012338e-05 2.653207e-05 2.678358e-06 1.0061596e-05 4.1773812e-05 -0.00020190113 5.2069627e-05
-8.5664404e-05 -0.000105576815 -6.815528e-05 -1.4244063e-05 6.1803075e-05 -0.00012606599 -4.7250614e-05 -0.00015018314
-0.0003606089 -0.00023715191 -0.00022920778 3.5522864e-06 1.2347952e-05 -0.00017795045 4.1802145e-05 -8.502496e-06
0.00015200599 2.0085716e-05 -0.00012370542 -0.00018154764 -0.00018054812 -0.00037352627 -4.1044554e-05 -2.8223e-05
0.00022159696 5.9183425e-05 0.00013480442 1.9067216e-06 -3.2482592e-05 2.2241673e-05 -0.00033513195 4.8843365e-05
-0.0002558145 -0.00018481068 -0.000104607054 -2.994166e-05 7.709949e-05 -0.00025328994 4.3791333e-05 -0.000151998
7.390647e-05 -5.3139734e-06 4.2472566e-06 3.6292262e-05 -0.00020289529 1.40872635e-05 1.947337e-05 1.4740682e-05
-0.00020634488 4.054332e-05 -8.8396744e-05 1.5502415e-05 -1.3992111e-05 4.0586263e-05 6.4921887e-06 -0.00014896058
-0.00021016756 1.9568437e-05 -0.00023199244 -0.00013263426 1.1273321e-05 1.7540073e-05 4.1870844e-05 2.3377563e-05
-4.6313457e-05 1.8258543e-05 -0.00013592101 -1.590382e-05 -7.823789e-05 6.59813e-06 -0.0001555207 -3.553688e-05
3.252169e-05 4.9826605e-05 6.9947e-05 -0.00028313923 -1.709023e-05 -1.495871e-05 -0.00017383901 -0.00019839065
8.74994e-06 -0.00021384994 6.8295185e-06 4.3601896e-05 -5.6835754e-05 6.1802275e-05 -0.00016624034 -1.3957537e-06
3.1444627e-06 -0.00022134147 2.3808605e-05 -4.8113652e-05 -0.00013045463 -0.00020467881 -2.8318518e-05 -0.00024128589
1.1813736e-05 2.8613247e-05 4.8126545e-05 -5.8995884e-05 -4.3134958e-05 -7.829694e-06 8.520636e-06 7.063121e-05
00000000: 8bf4 31b9 1a46 01b9 173b 0db9 dd8b 8538
00000010: 18fb d536 9e3c b5b8 0cd4 8238 28c5 cb37
00000020: 8bf2 8638 1aa7 7838 35ea 22b8 13e5 d7b8
00000030: 51fe 8fb8 e0b9 4ab9 e09d 6836 9602 24b7
00000040: ba11 c938 f76f a538 1838 6c38 3ebf 90b5
00000050: d80c 0a38 71e7 7038 1828 25b9 e3ef 9338
00000060: 1d27 ccb8 8c97 e1b8 d483 73b8 d3b3 9eb7
00000070: 245b 3d38 8112 e0b8 f468 6a37 35a0 e2b8
00000080: 4d90 a4b7 e122 cab8 abd9 b4b8 a582 2e38
00000090: 6dcc b4b8 760d f1b7 201f 1c38 12c3 0537
000000a0: 6d23 c0b8 60b2 a438 b49b 58b8 b2c1 36b8
000000b0: dbd7 9d37 f36d 78b8 5404 c3b7 fc6d d5b8
000000c0: 8138 abb8 feb1 1738 0ab8 f3b8 60f5 e1b7
000000d0: f66b 5fb7 6ca0 0a38 cdd8 a7b8 d29c 2938
000000e0: dd8a 48b8 4a0c 02b8 85a2 e5b8 68bf 40b8
000000f0: 2d51 3ab8 a275 cfb8 404e acb8 8de8 e8b8
00000100: 793c 30b9 77d7 e6b8 7f58 fdb8 c0ca 1738
00000110: d5d0 e037 1ff3 a6b8 a754 3038 7dc3 fa36
00000120: ec99 aa38 815b 2038 6e08 0cb8 c189 c3b8
00000130: d0b4 88b8 756f 3db9 c1cb 64b7 3de3 fc36
00000140: 9caa e838 50f5 6438 d6f7 a338 446b 4d37
00000150: d66a 6a37 3d77 1838 9f9c 25b9 5c96 3c38
00000160: 80da c2b8 3410 cdb8 9299 1cb8 53b3 b0b7
00000170: bc8b 3e38 468e dbb8 ccd9 f637 e79e bfb8
00000180: 0717 e7b8 248a 78b8 6f55 84b8 fe8f 94b8
00000190: c9c9 0836 178d 21b8 6a20 0bb8 05f2 96b8
000001a0: 4130 1338 c103 39b8 12b4 02b7 dae0 2bb8
000001b0: c503 48b8 c5f3 cbb8 f6e8 4db8 ebb1 f7b5
000001c0: 3d53 7038 f897 30b8 945f 1838 30fe aeb7
000001d0: e9df 3bb8 2c7f 2cb8 d466 0cb9 1275 49b8
000001e0: 82f5 65b8 8f0d 49b8 1bdd 75b7 20d0 85b7
000001f0: 6e35 0238 8d3d 8bb8 0335 c2b7 445b 5ab8
00000200: dea5 45b9 8a3f 21b9 a53d 26b9 fff2 1e38
00000210: 171e 8d36 a1e4 afb8 3512 4038 24e3 91b7
00000220: be13 4f38 b1b3 3538 7a1d 4fb7 3709 deb8
00000230: 46bd 31b8 4b93 55b9 bc60 afb6 230c c7b7
00000240: e1bb b838 4652 7338 3091 de37 d7bd 3336
00000250: 3ace 2837 4a36 2f38 6cb5 53b9 5665 5a38
00000260: baa6 b3b8 1f69 ddb8 96ee 8eb8 c9f9 6eb7
00000270: 469c 8138 9530 04b9 f62e 46b8 7b7a 1db9
00000280: 1b10 bdb9 fbab 78b9 7f57 70b9 d163 6e36
00000290: 0d2a 4f37 3698 3ab9 b654 2f38 f1a5 0eb7
000002a0: cc63 1f39 bf7d a837 ecb6 01b9 d35d 3eb9
000002b0: 8451 3db9 d9d5 c3b9 4127 2cb8 6ec0 ecb7
000002c0: 7b5c 6839 b83b 7838 495a 0d39 75ea ff35
000002d0: eb3d 08b8 a193 ba37 a6b4 afb9 2add 4c38
000002e0: d71e 86b9 bdc9 41b9 7c60 dbb8 3a2b fbb7
000002f0: 79b0 a138 00cc 84b9 96ac 3738 a761 1fb9
00000300: 3cfe 9a38 af4e b2b6 a883 8e36 8538 1838
00000310: 4ac0 54b9 5658 6c37 be5a a337 bf4e 7737
00000320: 485e 58b9 0f0d 2a38 a461 b9b8 2f0b 8237
00000330: a9bf 6ab7 2b3b 2a38 7ad7 d936 4d32 1cb9
00000340: 6d60 5cb9 e626 a437 ff42 73b9 bd13 0bb9
00000350: 8c22 3d37 0523 9337 7a9e 2f38 ef1a c437
00000360: b240 42b8 ec29 9937 0586 0eb9 3269 85b7
00000370: a613 a4b8 8165 dd36 4513 23b9 6f0d 15b8
00000380: e667 0838 e9fc 5038 82b0 9238 4e72 94b9
00000390: fd5c 8fb7 2cf7 7ab7 8e48 36b9 1607 50b9
000003a0: b5cc 1237 e83c 60b9 1e29 e536 2ee1 3638
000003b0: ed62 6eb8 d89b 8138 cd50 2eb9 bb55 bbb5
000003c0: 7505 5336 e617 68b9 97b8 c737 a4cd 49b8
000003d0: a6ca 08b9 0d9f 56b9 8e8d edb7 b001 7db9
000003e0: 9c33 4637 7b06 f037 7cdb 4938 5972 77b8
000003f0: cfeb 34b8 485c 03b7 daf3 0e37 d81f 9438

exp_avg_sq f4 [16, 32]
6.8960685e-06 1.17674135e-05 9.365289e-07 1.356652e-05 6.5856534e-06 1.6731925e-05 1.4969206e-06 1.1628603e-05
3.1774534e-06 5.1442157e-06 8.090591e-06 1.27616395e-05 6.661111e-06 1.3934942e-05 1.3800241e-05 4.055067e-06
3.3675258e-06 4.490034e-06 5.9599156e-06 5.93314e-06 8.530236e-07 7.6856595e-06 2.2883887e-05 8.124216e-06
9.906806e-06 3.865156e-06 1.0304509e-05 4.4335675e-06 1.7455084e-06 8.352848e-06 3.7090906e-06 1.2761461e-05
1.1398247e-05 2.5716723e-05 8.9418114e-07 3.4493773e-05 1.7633618e-05 3.590247e-05 2.4642013e-06 2.7454278e-05
5.3358963e-06 1.216394e-05 1.8237683e-05 2.8130287e-05 1.4924947e-05 3.3865253e-05 3.2088497e-05 7.029294e-06
6.4414166e-06 9.870142e-06 1.4783674e-05 2.3346309e-05 1.9513293e-06 1.6889648e-05 4.883533e-05 1.7192266e-05
3.1836804e-05 8.208313e-06 1.9793164e-05 9.784318e-06 5.766188e-06 1.2383244e-05 1.2969121e-05 3.06828e-05
3.83264e-06 4.9825153e-06 5.92474e-07 3.2664916e-06 3.8656235e-06 5.317994e-06 3.578677e-07 2.9070345e-06
2.8055745e-06 1.2100027e-06 7.767071e-06 4.659485e-06 4.230139e-06 5.2695573e-06 2.9337186e-06 3.2785952e-06
2.226298e-06 1.1162473e-06 4.998721e-06 3.685088e-06 2.809653e-07 1.7084642e-06 7.4847662e-06 1.5031603e-06
7.4554655e-06 1.4226956e-06 9.231448e-06 1.2021511e-06 1.2039142e-06 3.7099046e-06 3.079554e-06 3.842957e-06
4.339441e-06 6.322813e-06 2.2040716e-07 5.931463e-06 5.5846353e-06 3.4921115e-06 6.138118e-07 3.5257563e-06
4.138752e-06 1.6896064e-06 9.644517e-06 6.7512588e-06 6.6332946e-06 5.645275e-06 7.937342e-06 4.2620586e-06
4.0555515e-06 1.3590326e-06 9.916529e-06 6.2736226e-06 2.7910883e-07 3.4273785e-06 1.2908498e-05 1.6537582e-06
1.071089e-05 1.4636342e-06 1.1607169e-05 1.2228076e-06 1.7152214e-06 3.987771e-06 4.788279e-06 3.1214336e-06
6.417621e-06 8.332709e-06 7.7400523e-07 3.5313199e-06 8.2924835e-06 6.2424665e-06 4.7723285e-07 2.9939622e-06
5.2024266e-06 1.5388474e-06 1.4395672e-05 8.498881e-06 8.127359e-06 8.927077e-06 3.7772413e-06 5.4888005e-06
4.2797087e-06 1.770327e-06 8.60955e-06 8.783623e-06 3.3244834e-07 2.193231e-06 1.3787464e-05 2.1432081e-06
1.4316959e-05 2.3729506e-06 1.6500968e-05 1.1813988e-06 2.4084268e-06 5.586264e-06 5.42269e-06 5.4000852e-06
5.989889e-06 9.380594e-06 7.3097897e-07 1.7620644e-06 9.013347e-06 4.1261383e-06 1.312561e-07 4.555495e-06
8.604085e-06 6.3476426e-07 2.3215169e-05 7.649141e-06 7.852365e-06 3.8335606e-06 2.5816303e-06 8.028874e-06
5.460042e-06 3.0688327e-07 1.575027e-05 9.3165845e-06 3.3357517e-07 3.8753421e-07 6.091767e-06 6.031907e-07
1.9417408e-05 1.21989e-06 3.0085996e-05 3.5508535e-07 3.6306892e-06 3.0711794e-06 1.1313844e-05 6.756916e-06
2.1727058e-06 3.2178386e-06 1.4297406e-07 4.8960233e-06 4.0497594e-05 3.8852013e-06 3.341919e-07 4.9468435e-06
1.6009148e-05 2.8524594e-06 1.8924415e-05 2.3282635e-06 6.2851345e-06 2.9104194e-06 3.2363373e-06 9.047469e-06
2.5140667e-05 1.0096554e-06 4.570199e-05 2.7261258e-05 1.7706274e-07 2.936422e-06 4.283407e-06 1.5291231e-06
1.831793e-05 1.3190088e-06 1.4352149e-05 1.1441958e-06 7.0030387e-06 1.6560455e-06 1.8363384e-05 3.89198e-06
4.2979573e-07 7.4819127e-07 2.7128226e-07 3.986338e-05 1.8911644e-06 5.789e-06 5.0335952e-06 1.3283765e-05
1.3592505e-07 1.2846971e-05 1.8179836e-07 2.8617072e-07 1.1179739e-06 1.2328193e-06 2.1729415e-05 1.2357197e-06
1.427177e-07 2.0084459e-05 2.7886233e-07 1.5961946e-06 7.795488e-07 2.3553986e-05 2.7403173e-06 2.2466362e-05
4.6207836e-07 4.013424e-07 2.1802933e-07 5.109386e-06 1.8556821e-06 2.298906e-06 9.647694e-07 3.2353098e-06
00000000: c764 e736 a86c 4537 c765 7b35 c29b 6337
00000010: 55fa dc36 895b 8c37 cde9 c835 7818 4337
00000020: 3c3c 5536 7a9c ac36 d3bc 0737 d31a 5637
00000030: 8282 df36 1fca 6937 9587 6737 c310 8836
00000040: a7fd 6136 19a9 9636 49fb c736 4915 c736
00000050: 56fb 6435 a8f1 0037 c6f6 bf37 3e4d 0837
00000060: 6835 2637 70b1 8136 87e1 2c37 0ec4 9436
00000070: 3647 ea35 3623 0c37 b1e9 7836 0f1a 5637
00000080: 193b 3f37 3eba d737 a907 7035 68ad 1038
00000090: e8eb 9337 fc95 1638 a85e 2536 9d4d e637
000000a0: 000b b336 b913 4c37 20fd 9837 55f9 eb37
000000b0: 2966 7a37 8a0a 0e38 c396 0638 2ddd eb36
000000c0: 5923 d836 f097 2537 6507 7837 d1d7 c337
000000d0: 95f3 0236 3eae 8d37 89d4 4c38 1c38 9037
000000e0: 8288 0538 70b6 0937 7f09 a637 5327 2437
000000f0: 2e7b c136 a1c1 4f37 f395 5937 68b1 0038
00000100: 209a 8036 7b2f a736 810a 1f35 e635 5b36
00000110: 74b5 8136 3871 b236 f620 c034 7916 4336
00000120: 6747 3c36 6067 a235 514f 0237 ac58 9c36
00000130: 9ef0 8d36 27d1 b036 e7e0 4436 d605 5c36
00000140: 8267 1536 f7d1 9535 b0ba a736 544d 7736
00000150: 94d7 9634 624e e535 a725 fb36 32c0 c935
00000160: f629 fa36 73f3 be35 c4e0 1a37 9959 a135
00000170: 2d96 a135 adf7 7836 56aa 4e36 c0f2 8036
00000180: 849b 9136 8d28 d436 0fa9 6c34 e106 c736
00000190: a763 bb36 055a 6a36 d3c4 2435 089c 6c36
000001a0: 9cdf 8a36 6fc6 e235 e3ce 2137 df88 e236
000001b0: 9193 de36 8b6c bd36 a02a 0537 ce02 8f36
000001c0: ec14 8836 0168 b635 2b5f 2637 0282 d236
000001d0: 6dd8 9534 ea01 6636 9491 5837 b3f6 dd35
000001e0: ecb2 3337 1772 c435 69bc 4237 591f a435
000001f0: 8f36 e635 b1ce 8536 01ab a036 d279 5136
00000200: f256 d736 b6cc 0b37 3cc5 4f35 9dfb 6c36
00000210: f21f 0b37 6176 d136 311b 0035 e1eb 4836
00000220: 8190 ae36 658a ce35 f184 7137 6a96 0e37
00000230: be5a 0837 81c5 1537 837c 7d36 702c b836
00000240: 6b9a 8f36 f99b ed35 bc71 1037 605d 1337
00000250: 5a7b b234 6c2f 1336 b550 6737 09d4 0f36
00000260: df32 7037 fb3e 1f36 8f6b 8a37 8e90 9e35
00000270: 75a0 2136 a471 bb36 8df4 b536 6132 b536
00000280: c1fc c836 5861 1d37 7e38 4435 1280 ec35
00000290: 0838 1737 4273 8a36 67ef 0c34 67db 9836
000002a0: 445a 1037 ab64 2a35 32be c237 cf54 0037
000002b0: a7bd 0337 09a2 8036 1240 2d36 c0b3 0637
000002c0: 6735 b736 b7c1 a434 731f 8437 6d4e 1c37
000002d0: 3916 b334 4c0e d034 e167 cc36 f3ea 2135
000002e0: 91e2 a237 1abb a335 2f61 fc37 8fa2 be34
000002f0: c4a6 7336 761a 4e36 97d0 3d37 77b9 e236
00000300: cdce 1136 0cf2 5736 6984 1934 8548 a436
00000310: f6db 2938 a05d 8236 fc6a b334 10fd a536
00000320: 624b 8637 e16c 3f36 dfbf 9e37 433f 1c36
00000330: e5e4 d236 a050 4336 da2f 5936 95ca 1737
00000340: 2ce5 d237 7f83 8735 23b0 3f38 1baf e437
00000350: a31e 3e34 590f 4536 30ba 8f36 453c cd35
00000360: 75a9 9937 cc08 b135 03ca 7037 4592 9935
00000370: a5fb ea36 4a45 de35 110b 9a37 db97 8236
00000380: adbe e634 50d7 4835 c0a4 9134 fa32 2738
00000390: ead3 fd35 223f c236 41e6 a836 56dd 5e37
000003a0: cbf2 1134 5289 5737 5a34 4334 01a3 9934
000003b0: 4a0d 9635 5977 a535 9047 b637 01db a535
000003c0: f13d 1934 0c7b a837 8cb6 9534 d43c d635
000003d0: 3042 5135 cd95 c537 4be6 3736 2576 bc37
000003e0: 9113 f834 1478 d734 721b 6a34 4b71 ab36
000003f0: c010 f935 e846 1a36 397d 8135 331e 5936

exp_avg f4 [16]
-3.7467536e-05 -5.1070576e-05 -3.963826e-05 -8.950458e-05 -7.054231e-05 -0.00014262543 -6.317177e-05 -0.0001692746
-6.481356e-05 -0.00021884176 -6.019999e-05 -0.00020259302 -5.9861053e-05 -0.00016824678 -0.000235047 -7.2554314e-05
00000000: 7626 1db8 9d34 56b8 4241 26b8 68b4 bbb8
00000010: 1df0 93b8 b98d 15b9 167b 84b8 4e7f 31b9
00000020: 84ec 87b8 e378 65b9 3f7f 7cb8 266f 54b9
00000030: 5113 7bb8 676b 30b9 f376 76b9 4d28 98b8

exp_avg_sq f4 [16]
2.0181542e-05 9.3348346e-05 7.91461e-06 2.2867964e-05 1.4612459e-05 1.616415e-05 4.5322962e-05 2.0302412e-05
2.5020068e-05 0.000101678685 3.3697466e-05 0.00010067979 3.4776982e-05 9.551777e-05 7.888296e-05 3.7940277e-05
00000000: 884b a937 03c4 c338 fec8 0437 94d4 bf37
00000010: 0928 7537 3f98 8737 2919 3e38 194f aa37
00000020: 30e2 d137 543c d538 6156 0d38 0d24 d338
00000030: 80dd 1138 b650 c838 f76d a538 1022 1f38

exp_avg f4 [3, 16]
0.00033469722 0.00045287274 0.0003881237 -0.00052477507 0.00032840474 0.00022056185 0.0004037075 -0.0008731202
0.00025272006 -0.0004705111 0.0002950729 -0.00076688896 -6.713303e-05 -0.0007534312 -0.00040505105 0.00027488766
-0.0008885576 0.00015868216 -0.0011188689 -0.00010203091 -0.0009891962 -0.00065730704 0.00060510664 0.00077419746
-0.0007626397 -6.612166e-05 0.00063758035 0.00066229067 -0.00059497927 0.0006366334 0.0015980708 -0.0008220823
0.0005538621 -0.00061155506 0.0007307489 0.0006268043 0.0006607943 0.00043674698 -0.0010088157 9.891702e-05
0.00050992216 0.00053663156 -0.0009326549 0.000104592626 0.0006621141 0.00011679325 -0.001193028 0.00054719794
00000000: 4d7a af39 8d6f ed39 157d cb39 0f91 09ba
00000010: bd2d ac39 9f46 6739 b4a8 d339 1be2 64ba
00000020: 837f 8439 eeae f6b9 04b4 9a39 0c09 49ba
00000030: c5c9 8cb8 e981 45ba 085d d4b9 cc1e 9039
00000040: 17ee 68ba eb63 2639 03a7 92ba 6df9 d5b8
00000050: eba7 81ba 214f 2cba 05a0 1e3a 83f3 4a3a
00000060: e2eb 47ba ccaa 8ab8 4b23 273a 939d 2d3a
00000070: 62f8 1bba bfe3 263a 5c76 d13a 0281 57ba
00000080: 0e31 113a c450 20ba bb8f 3f3a 2050 243a
00000090: 2839 2d3a 30fb e439 3d3a 84ba ac71 cf38
000000a0: 4cac 053a bcac 0c3a 697d 74ba bd58 db38
000000b0: ba91 2d3a e6ee f438 605f 9cba d571 0f3a

exp_avg_sq f4 [3, 16]
0.00010679187 0.00039176948 8.926708e-05 0.00033623038 5.5515942e-05 2.5700342e-06 0.00030178856 0.00012302445
2.504069e-05 0.0003224896 0.00022298736 0.00028809343 0.00011273615 0.0005707532 2.8648594e-05 1.6942982e-05
0.00020641314 0.00048620423 0.00030887328 0.00025681502 0.00021967996 6.5940853e-06 0.0005951186 9.39199e-05
9.907605e-05 0.00021918063 0.00042455795 0.00020485817 0.00026429666 0.00034409645 0.0003464896 9.205209e-05
6.287723e-05 0.00063088245 0.00010720417 0.00019768557 9.059987e-05 2.7142646e-06 0.0010137432 3.666843e-06
4.901177e-05 0.00018743213 0.0006644439 9.600111e-06 0.0001574133 4.8209386e-05 0.00048456085 4.3302935e-05
00000000: 73f5 df38 6966 cd39 e634 bb38 1448 b039
00000010: cad9 6838 da78 2c36 6039 9e39 2000 0139
00000020: 790e d237 d213 a939 b7d1 6939 3f0b 9739
00000030: c26c ec38 999e 153a 6352 f037 c720 8e37
00000040: 9b70 5839 3ae9 fe39 45f0 a139 21a5 8639
00000050: e459 6639 c342 dd36 bc01 1c3a ddf6 c438
00000060: 0dc7 cf38 dad3 6539 3497 de39 32cf 5639
00000070: 4c91 8a39 d867 b439 0ca9 b539 170c c138
00000080: f5dc 8338 ce61 253a cdd2 e038 d149 4f39
00000090: 6f00 be38 b626 3636 94df 843a e213 7636
000000a0: fd91 4d38 6e89 4439 132e 2e3a 2a10 2137
000000b0: 500f 2539 6f34 4a38 a80c fe39 2ca0 3538

exp_avg f4 [3]
-0.00019264875 0.00030463946 -0.00011199167
00000000: c101 4ab9 04b8 9f39 12dd eab8

exp_avg_sq f4 [3]
0.00034142222 0.00056814804 0.00040644806
00000000: ea00 b339 c5ef 143a 8918 d539
