homework1/lightning_logs/version_7/checkpoints/epoch=99-step=900.ckpt (torch, 22040 bytes, 18 tensors)

network.0.weight f4 [32, 13]
-0.17364068 -0.010563015 0.14316154 0.1320067 0.1917487 -0.328868 -0.31004694 -0.07743339
0.06897753 -0.03923545 -0.1351843 -0.4523602 0.1459169 0.20590508 0.15716848 0.2623371
-0.12683223 0.095357776 0.22362317 0.35255656 -0.13515392 0.11690293 -0.04862895 -0.01969048
0.19368225 0.30912262 -0.5217277 -0.16398923 -0.44520015 0.10426252 0.29547197 0.17034248
-0.18089548 -0.13684282 0.29839864 -0.1455525 0.16243036 0.023970587 -0.36648387 0.3021144
0.035338607 0.05970607 -0.16597311 0.08251843 0.15302132 0.33326328 -0.27642554 0.04390521
0.020016076 0.05916544 -0.036371436 0.50445235 0.30681714 -0.30222538 0.14771605 -0.21161306
0.0147289205 0.34415695 0.3626049 -0.2656041 0.16501251 0.042812694 0.15344861 0.19583091
-0.063632734 0.46292466 0.17230381 0.39071938 -0.4760131 0.21036956 0.091834426 0.39840734
-0.0559985 0.20734182 -0.2521967 -0.05951196 0.024478989 0.08406522 0.018329395 -0.23406073
0.10926476 0.21417266 -0.12710388 0.14784302 -0.0012853967 -0.0032820308 -0.28523618 -0.28386682
-0.20108175 -0.03462185 0.20664859 0.20712622 -0.29726213 -0.4051634 -0.050399616 -0.18899034
0.027008625 0.3175112 -0.030564 0.03901488 -0.5266039 0.428866 -0.1325924 0.29635417
-0.18762882 -0.16991626 -0.15038316 0.33481812 0.28187916 0.006040006 -0.4339731 0.1305592
-0.0031825178 0.3101761 -0.29469237 -0.0033291436 -0.26213723 0.05781339 0.042220797 -0.030308904
0.084960476 0.2200622 0.23706242 0.18972588 -0.26055887 0.3140268 0.058453068 0.23851718
-0.017615253 0.029458154 0.35669458 0.25221753 0.23284452 -0.03481672 -0.062236354 0.2584662
0.20986085 -0.27276602 0.15488167 0.2614297 0.08060458 -0.086355954 0.06001985 0.26724076
0.09347179 -0.14082418 -0.22539468 -0.18057375 0.14413033 0.32254216 -0.19411053 0.17787798
0.16068274 0.070567824 0.119356334 0.35278025 -0.14935504 -0.11688668 -0.10882974 -0.37746108
-0.10328352 0.22809285 0.043325875 -0.29894543 -0.068763204 -0.012889924 0.19522774 0.4067005
0.2450681 0.23312384 0.19604564 0.033877168 0.21412069 0.2580291 -0.25315672 -0.2997159
-0.28119135 -0.23212023 0.12149887 -0.22233887 -0.19046497 0.06163499 -0.057283178 0.003522687
0.10854545 0.18861862 0.09408671 -0.019007456 -0.105871595 0.13651146 -0.29570696 0.49009606
-0.14505298 -0.31584567 0.24427983 -0.21669841 0.1114878 -0.043553077 0.20861834 -0.15625098
-0.19734864 0.17896792 0.11519107 -0.2737197 -0.51393795 0.36771473 0.22257431 -0.32508832
0.22417477 -0.027919913 0.19354491 0.18851185 -0.3833204 -0.3310851 -0.3855097 0.12129428
-0.25371516 -0.10026242 -0.08174667 -0.06487685 -0.3234124 -0.14390525 -0.2918521 -0.03718154
0.3563032 -0.31196925 0.3480999 0.108921416 0.16126317 0.056876693 -0.3518897 0.009262836
-0.119476534 -0.3744801 -0.08078031 0.23475407 0.32773644 0.1758676 0.09905215 -0.007291977
-0.5139366 0.1741409 -0.20880646 0.4704066 -0.11125783 0.023446672 0.062757455 -0.2670263
0.28007826 -0.2808515 0.30276516 -0.4670791 -0.076927155 0.197082 -0.004364584 0.3462544
00000000: ddce 31be 7f10 2dbc f098 123e c42c 073e
00000010: c559 443e 6361 a8be 79be 9ebe 6695 9ebd
00000020: 1744 8d3d 5ab5 20bd c16d 0abe c29b e7be
00000030: 3d6b 153e c8d8 523e c6f0 203e 0c51 863e
00000040: 4fe0 01be f04a c33d 79fd 643e 4b82 b43e
00000050: ca65 0abe ce6a ef3d 262f 47bd ee4d a1bc
00000060: a454 463e 5245 9e3e f28f 05bf cbec 27be
00000070: 46f1 e3be 9787 d53d 1a48 973e 426e 2e3e
00000080: aa3c 39be 8620 0cbe b5c7 983e b70b 15be
00000090: 2554 263e f75d c43c c6a3 bbbe bdae 9a3e
000000a0: 37bf 103d 5a8e 743d dbf4 29be 6cff a83d
000000b0: 9fb1 1c3e 7ca1 aa3e a687 8dbe f3d5 333d
000000c0: c1f8 a33c 7657 723d 37fa 14bd ca23 013f
000000d0: 2317 9d3e 49bd 9abe e042 173e 18b1 58be
000000e0: 9251 713c 5735 b03e 59a7 b93e 43fd 87be
000000f0: 0af9 283e 5d5c 2f3d a221 1d3e e687 483e
00000100: e151 82bd 7604 ed3e 6970 303e 5f0c c83e
00000110: fdb7 f3be 1e6b 573e b013 bc3d 0cfc cb3e
00000120: af5e 65bd 6a51 543e ed1f 81be d0c2 73bd
00000130: 2988 c83c 632a ac3d 8727 963c 9ead 6fbe
00000140: 34c6 df3d 1450 5b3e 8527 02be 2964 173e
00000150: c27a a8ba 5717 57bb 7a0a 92be fe56 91be
00000160: 60e8 4dbe a4cf 0dbd b09b 533e e518 543e
00000170: be32 98be 9471 cfbe d46f 4ebd af86 41be
00000180: 3141 dd3c d490 a23e 5b61 fabc 11ce 1f3d
00000190: 83cf 06bf 5394 db3e 4dc6 07be bcbb 973e
000001a0: c521 40be 87fe 2dbe 0bfe 19be 486d ab3e
000001b0: 7752 903e 3eeb c53b b931 debe 50b1 053e
000001c0: ca91 50bb 67cf 9e3e ebe1 96be c32d 5abb
000001d0: da36 86be bccd 6c3d b7ef 2c3d 614a f8bc
000001e0: c2ff ad3d fc57 613e 7ec0 723e 8047 423e
000001f0: f967 85be 1fc8 a03e 7c6c 6f3d d93d 743e
00000200: dd4d 90bc 3a52 f13c aca0 b63e a822 813e
00000210: cb6e 6e3e fa9b 0ebd 8ceb 7ebd af55 843e
00000220: c3e5 563e fda7 8bbe 4d99 1e3e 1dda 853e
00000230: 0414 a53d 64db b0bd 60d7 753d c8d3 883e
00000240: 236e bf3d 3734 10be ddcd 66be 53e8 38be
00000250: e796 133e 3f24 a53e e9c4 46be a525 363e
00000260: 048a 243e dd85 903d 1871 f43d 9d9f b43e
00000270: 87f0 18be 4962 efbd 20e2 debd 9442 c1be
00000280: 4f86 d3bd 2c91 693e 7976 313d 600f 99be
00000290: b9d3 8cbd 4330 53bc c8e9 473e 0c3b d03e
000002a0: 22f3 7a3e 04b8 6e3e 30c0 483e c9c2 0a3d
000002b0: 7442 5b3e 641c 843e c29d 81be 5d74 99be
000002c0: 50f8 8fbe edb0 6dbe 66d4 f83d cdac 63be
000002d0: 4009 43be f974 7c3d c4a1 6abd e1dc 663b
000002e0: 144d de3d 3d25 413e 88b0 c03d 86b5 9bbc
000002f0: 35d3 d8bd a9c9 0b3e e766 97be dfed fa3e
00000300: c588 14be 86b6 a1be 7e24 7a3e 30e6 5dbe
00000310: b753 e43d b664 32bd 0ca0 553e 4200 20be
00000320: c315 4abe 5e43 373e 4ce9 eb3d fd24 8cbe
00000330: 7091 03bf 1b45 bc3e 85ea 633e fa71 a6be
00000340: 128e 653e 4db8 e4bc a330 463e 4009 413e
00000350: 9242 c4be fc83 a9be 8761 c5be 2369 f83d
00000360: f4e6 81be 6256 cdbd cc6a a7bd 27de 84bd
00000370: 4f96 a5be e65b 13be a36d 95be ac4b 18bd
00000380: 5f6d b63e 6fba 9fbe 263a b23e 3112 df3d
00000390: 2c22 253e 89f7 683d e32a b4be 26c3 173c
000003a0: 1db0 f4bd dbbb bfbe 2670 a5bd 5f63 703e
000003b0: 12cd a73e a316 343e dbdb ca3d 89f1 eebb
000003c0: 5991 03bf fe51 323e 5cd1 55be 22d9 f03e
000003d0: 25db e3bd 3c13 c03c fb86 803d acb7 88be
000003e0: 6b66 8f3e c5cb 8fbe 0904 9b3e fe24 efbe
000003f0: fc8b 9dbd ddcf 493e c904 8fbb 4248 b13e

network.0.bias f4 [32]
0.21385087 0.17808071 0.083885945 0.3359167 0.33909938 0.23281857 0.3773475 0.32893783
0.13073055 0.42836955 0.29974824 0.042144258 0.44530874 -0.07848112 0.0554461 0.37775466
0.30000767 0.11618185 -0.1336525 0.08423462 0.36010754 0.19351333 -0.06754516 0.30887502
0.1838278 0.2318256 0.376617 0.1251684 0.061278872 0.033396102 0.4008078 0.23142238
00000000: b9fb 5a3e ca5a 363e 65cc ab3d 46fd ab3e
00000010: 6f9e ad3e fe67 6e3e b133 c13e 8a6a a83e
00000020: 3bde 053e 4153 db3e 9a78 993e 759f 2c3d
00000030: 82ff e33e b6ba a0bd 731b 633d 0f69 c13e
00000040: 9b9a 993e c0f0 ed3d 33dc 08be 3383 ac3d
00000050: 0460 b83e 5c28 463e 1e55 8abd de24 9e3e
00000060: 5b3d 3c3e b163 6d3e f2d3 c03e 252c 003e
00000070: 8eff 7a3d 5aca 083d ae36 cd3e fdf9 6c3e

network.2.weight f4 [16, 32]
0.0123312725 -0.16743518 0.35702538 -0.28058803 -0.06967505 -0.1340058 0.17465669 0.19950595
-0.023843667 0.041329373 -0.059433617 -0.2969365 0.09744981 -0.3048272 -0.12414843 0.18465516
0.19879895 0.37619177 -0.11648452 0.19558947 0.1960664 0.510905 -0.03647103 0.23144719
-0.0075559025 0.31231737 0.31558523 0.15597296 0.110421814 0.30033562 0.09793523 -0.21793124
0.16781235 0.24078442 -0.2187235 0.12533988 0.27739173 0.33282676 0.15564366 0.0052456567
0.027002603 -0.0040264055 0.3024044 0.20795563 0.16788208 0.11411863 -0.0012054384 -0.0009620352
-0.055539824 -0.15680611 0.4174158 -0.3033397 -0.21885382 -0.42445844 0.13570821 0.18503788
0.35051173 -0.13009384 0.015592971 -0.094088085 -0.05069621 -0.35828328 0.23596673 0.19535375
0.11025041 -0.06858577 0.23014508 -0.20154646 -0.10099615 -0.15611246 0.2311826 -0.0007585208
0.33575737 -0.045319326 0.21393318 -0.02237578 0.07499628 0.2832579 0.2080427 0.19820112
0.2781263 0.23405156 0.32449788 0.2583087 0.056876667 0.19318095 0.18025759 0.3722503
-0.06615399 0.28315976 0.37843445 0.081229635 -0.026477573 0.035424154 0.29182026 0.28671607
0.17211641 -0.14629848 -0.023314144 0.0044217217 0.026358237 -0.11396541 -0.021440214 -0.16562678
0.09080526 0.13627581 0.11639193 0.008339321 -0.07278522 0.34866935 0.24264297 -0.23446374
0.27223763 -0.020900102 0.34351975 -0.2997359 -0.1947479 -0.18997772 0.19154282 0.025808824
-0.07126886 -0.16005273 0.16441432 -0.2050699 -0.020224223 -0.25115874 0.30935594 0.23087104
-0.023077585 0.2990824 -0.16247025 0.30467358 0.07439004 0.0599731 0.19936252 -0.049279414
-0.25622073 0.2444835 0.18406844 0.324106 0.25614697 -0.053863883 -0.123240486 0.062351715
-0.12874688 0.019306697 -0.0096668275 -0.16116284 -0.30980366 -0.16724005 -0.037027974 -0.008157908
0.04433284 -0.121040106 0.14930259 -0.006787817 -0.12554519 -0.22775449 0.013177643 0.05169947
-0.0813582 0.03501578 0.115784645 -0.23357873 0.14736868 -0.2863452 0.0045732916 0.03897247
0.014277411 0.08422975 -0.0031711876 -0.17314382 0.050406195 -0.2241261 -0.042603187 0.43116087
0.16301486 0.3335489 -0.11705685 0.17835374 0.41108248 0.49508396 -0.08130082 -0.04826173
-0.043608144 0.12952958 0.31375235 0.16705321 0.35461992 0.4212799 0.09242777 -0.19097324
0.1373847 -0.15519136 0.37951866 0.08701074 -0.10574599 -0.1496224 0.17265934 0.008077676
0.074469276 0.061125882 0.07369451 -0.1640678 -0.130702 0.34352803 0.25567204 -0.017519683
0.19790299 0.18748884 0.15929684 -0.04885167 0.16012955 0.16983399 0.30087858 0.31041372
-0.02584345 0.16501828 0.285277 0.067512065 0.10429761 -0.08490182 0.36917472 0.047905833
0.016868915 0.19221172 -0.104013614 0.30189347 0.16207501 0.27505794 0.05382973 -0.14875361
0.24448328 -0.06306673 0.0055445097 0.23610187 0.054773606 0.34566337 0.03015133 -0.18698125
0.18046902 0.016828058 0.39001006 -0.02772442 -0.2708379 -0.36607352 0.042795137 -0.0036349301
0.32518002 -0.13255742 0.121652134 -0.19507699 0.031999003 -0.04641048 0.031605273 0.2358547
00000000: 1b09 4a3c 2174 2bbe 08cc b63e 3ca9 8fbe
00000010: cbb1 8ebd d138 09be 34d9 323e 4a4b 4c3e
00000020: cb53 c3bc fd48 293d aa70 73bd 1008 98be
00000030: c493 c73d 5012 9cbe 8841 febd 3e16 3d3e
00000040: f491 4b3e 359c c03e 708f eebd 9b48 483e
00000050: a1c5 483e acca 023f a662 15bd 7e00 6d3e
00000060: 8197 f7bb 10e8 9f3e 6394 a13e 60b7 1f3e
00000070: d524 e23d 97c5 993e 4492 c83d 5e29 5fbe
00000080: 00d7 2b3e 3190 763e 0ef9 5fbe 1959 003e
00000090: 4a06 8e3e 4568 aa3e 0d61 1f3e c2e3 ab3b
000000a0: 9034 dd3c f0ef 83bb c0d4 9a3e 52f2 543e
000000b0: 48e9 2b3e 07b7 e93d cdff 9dba 1731 7cba
000000c0: ba7d 63bd c891 20be 86b7 d53e 574f 9bbe
000000d0: 371b 60be 9e52 d9be 18f7 0a3e 927a 3d3e
000000e0: 4676 b33e 5237 05be a979 7f3c 41b1 c0bd
000000f0: d4a6 4fbd e870 b7be 43a1 713e d00a 483e
00000100: f8ca e13d b276 8cbd 27ab 6b3e 3262 4ebe
00000110: 12d7 cebd f2db 1fbe 22bb 6c3e 78d7 46ba
00000120: 64e8 ab3e c2a0 39bd 4d11 5b3e 694d b7bc
00000130: a697 993d 2e07 913e 2509 553e 3cf5 4a3e
00000140: 9266 8e3e 36ab 6f3e 9624 a63e 0a41 843e
00000150: 82f7 683d 3ad1 453e 7295 383e 9797 be3e
00000160: be7b 87bd 51fa 903e 29c2 c13e b95b a63d
00000170: 7fe7 d8bc eb18 113d 7769 953e 73cc 923e
00000180: 493f 303e 45cf 15be 4efd bebc 17e4 903b
00000190: 3bed d73c b266 e9bd 63a3 afbc 119a 29be
000001a0: 1cf8 b93d e38b 0b3e e45e ee3d a6a1 083c
000001b0: 6b10 95bd ca84 b23e 6677 783e 4317 70be
000001c0: bb62 8b3e b136 abbc d2e1 af3e fc76 99be
000001d0: fe6b 47be 8589 42be cd23 443e 076d d33c
000001e0: 68f5 91bd dde4 23be 3a5c 283e d8fd 51be
000001f0: 45ad a5bc e197 80be e763 9e3e 7569 6c3e
00000200: 340d bdbc 5421 993e 9a5e 26be 2dfe 9b3e
00000210: ce59 983d 5aa6 753d b025 4c3e 36d9 49bd
00000220: 5d2f 83be e259 7a3e 707c 3c3e 39f1 a53e
00000230: b225 833e 60a0 5cbd 8265 fcbd 8364 7f3d
00000240: 39d6 03be 1429 9e3c 9d61 1ebc df07 25be
00000250: 969e 9ebe fa40 2bbe a5aa 17bd bfa8 05bc
00000260: 5a96 353d e0e3 f7bd c7e2 183e 566c debb
00000270: eb8e 00be 7938 69be 0ae7 573c d3c2 533d
00000280: 219f a6bd b56c 0f3d 8020 ed3d 432f 6fbe
00000290: d1e7 163e d79b 92be 8ddb 953b 99a1 1f3d
000002a0: cdeb 693c a680 ac3d b3d3 4fbb 9d4c 31be
000002b0: ba76 4e3d 5081 65be ae80 2ebd 1ec1 dc3e
000002c0: 5eed 263e ecc6 aa3e 80bb efbd 5da2 363e
000002d0: 6779 d23e a57b fd3e 0b81 a6bd 17ae 45bd
000002e0: 749e 32bd 67a3 043e 26a4 a03e ff0f 2b3e
000002f0: be90 b53e 00b2 d73e c54a bd3d 7d8e 43be
00000300: 93ae 0c3e 7cea 1ebe 4550 c23e b032 b23d
00000310: 5b91 d8bd 9d36 19be 9ccd 303e 3b58 043c
00000320: 5983 983d 225f 7a3d 26ed 963d 6401 28be
00000330: bfd6 05be e8e2 af3e 72e7 823e 7085 8fbc
00000340: 15a7 4a3e 13fd 3f3e b61e 233e b018 48bd
00000350: 00f9 233e f6e8 2d3e c20c 9a3e 8cee 9e3e
00000360: a5b5 d3bc 8dfa 283e d40f 923e c443 8a3d
00000370: fc99 d53d 01e1 adbd 7804 bd3e e838 443d
00000380: ae30 8a3c 26d3 443e 1705 d5bd c891 9a3e
00000390: fef6 253e 65d4 8c3e 907c 5c3d de52 18be
000003a0: d359 7a3e 2129 81bd b8ae b53b b0c4 713e
000003b0: 4a5a 603d cafa b03e ecff f63c 0378 3fbe
000003c0: dfcc 383e ffda 893c 66af c73e 531e e3bc
000003d0: 44ab 8abe fd6d bbbe f449 2f3d 0238 6ebb
000003e0: ff7d a63e 22bd 07be c124 f93d 43c2 47be
000003f0: 6311 033d ea18 3ebd 8874 013d e583 713e

network.2.bias f4 [16]
0.25770572 0.047625218 0.0060910583 0.057293132 0.19143897 0.2233845 0.1697667 0.19468229
0.21445373 -0.02946832 0.039603684 0.0748872 0.061809666 -0.014242826 0.25815186 -0.0018064355
00000000: 01f2 833e a912 433d 8097 c73b 34ac 6a3d
00000010: 9408 443e e8be 643e 52d7 2d3e cb5a 473e
00000020: c299 5b3e 8c67 f1bc 7937 223d 765e 993d
00000030: 222c 7d3d be5a 69bc 7b2c 843e ebc5 ecba

network.4.weight f4 [3, 16]
-0.4536006 0.3633098 -0.3097941 -0.40158617 0.28230143 -0.06113071 -0.18616813 0.06786131
0.20502032 0.28222293 0.35489717 0.31595814 0.091503724 -0.46073544 0.089697115 0.3891119
0.16019702 -0.227767 0.066412225 -0.33843994 -0.17066744 0.38700685 0.18111065 -0.48746318
-0.046981487 0.20780177 -0.26945204 -0.21274199 0.11224512 0.3590078 0.24782388 -0.4545822
-0.32947153 0.35318184 0.15829703 0.38727805 -0.24327 -0.12947217 0.32382512 0.22674036
-0.30262583 -0.48985016 -0.3356471 0.38952258 -0.530087 0.19285232 -0.41544235 0.2204177
00000000: 563e e8be be03 ba3e 559d 9ebe b49c cdbe
00000010: d089 903e 3264 7abd dca2 3ebe dffa 8a3d
00000020: d9f0 513e 867f 903e 15b5 b53e 44c5 a13e
00000030: 4e66 bb3d 84e5 ebbe 1fb3 b73d ad39 c73e
00000040: b00a 243e c13b 69be 2203 883d 0048 adbe
00000050: 72c3 2ebe c325 c63e 1275 393e c694 f9be
00000060: a96f 40bd fdc9 543e 9ef5 89be 09d9 59be
00000070: c5e0 e53d dfcf b73e 8bc5 7d3e 00bf e8be
00000080: 7eb0 a8be 40d4 b43e 9e18 223e 4f49 c63e
00000090: c51b 79be 5a94 04be 68cc a53e a02e 683e
000000a0: c6f1 9abe a4cd fabe f0d9 abbe 816f c73e
000000b0: c8b3 07bf 147b 453e dcb4 d4be 2db5 613e

network.4.bias f4 [3]
-0.03782183 0.17121357 -0.017740393
00000000: 10eb 1abd 9c52 2f3e 4d54 91bc

exp_avg f4 [32, 13]
4.3420246e-06 5.8597598e-06 -1.989125e-05 6.462568e-05 4.9850285e-05 9.422194e-06 0.00018193577 2.3286688e-05
6.551202e-05 -4.6046793e-05 0.00012638305 0.00012004577 -1.3514221e-05 -0.00012686243 -2.012778e-05 -0.0003154815
0.00025796163 -1.8870353e-05 1.2629248e-05 -0.00010047784 -7.869514e-05 4.1023435e-05 0.00013188791 -9.948366e-05
-0.00012136379 -0.0001811718 0.00015908452 -5.123653e-05 -0.00015922586 -0.00055798306 -0.00040677874 -0.00018184993
-0.00025505785 0.00010205766 -8.081984e-05 7.742104e-05 -0.00029971194 -0.00029184748 0.0001662709 -0.00010051092
3.2118744e-06 -0.0003149558 0.000295246 -7.3024894e-05 9.464671e-05 -7.5253876e-05 2.0242867e-05 5.1663603e-05
0.00013579962 -3.7020003e-05 -3.7492893e-05 -0.00017606726 -4.639796e-05 -3.7315724e-05 -0.00018358037 9.9279314e-05
-9.9260915e-06 -1.8656985e-05 -0.000105246276 4.490581e-06 -3.8615293e-05 6.504764e-05 -5.023953e-05 -0.00010894846
-8.381115e-05 -0.00011813506 -0.0002287859 -0.00029203758 0.00020479657 0.000124057 6.0712748e-05 -0.0001542734
6.153849e-05 -0.00017413589 3.826786e-05 -7.212797e-05 -0.00021323682 -0.00017598196 2.6131629e-05 -1.5049978e-05
-8.501507e-05 1.4373601e-05 2.1930716e-06 -4.6032375e-07 1.9248497e-05 1.3633209e-05 2.456649e-05 2.3809334e-05
2.6594778e-05 1.32096575e-05 -1.152833e-05 -1.8277518e-05 7.223328e-05 0.0001261032 5.9061273e-05 -6.4640764e-05
-3.4532917e-05 -2.3153614e-05 -0.00019117894 0.00025363805 7.817946e-05 -0.00016928946 8.852483e-06 3.3693515e-05
5.6456895e-05 3.5483474e-05 -2.8310971e-05 2.7900438e-05 1.846381e-05 -2.6587191e-05 0.000210474 0.000110032546
4.8981412e-05 -6.146138e-05 0.00017506877 0.00012778192 -2.8254079e-05 1.7301673e-07 -1.8804567e-05 -8.832498e-05
-5.131745e-06 -6.683835e-05 -1.2784239e-05 -2.5398173e-05 2.8847355e-05 -9.4717225e-06 4.6383055e-05 -1.6159878e-05
-3.7021917e-05 -1.56382e-05 -9.109503e-05 -9.9660756e-05 -0.00019838783 0.00013072547 -3.6014194e-06 -6.4398296e-06
-5.2214036e-05 -4.991068e-05 4.8609083e-05 8.864395e-05 -5.1779214e-05 -5.8816568e-05 -7.769578e-05 -5.705073e-05
-1.568887e-05 7.5796896e-05 0.00031442638 0.0001016708 7.0171354e-06 -9.55523e-05 8.595097e-05 7.955668e-05
5.5480414e-05 -4.5870318e-05 -8.1944556e-05 -0.00017033545 -2.5766592e-05 -6.167061e-05 -3.0893982e-06 0.00021826319
6.8496454e-05 1.675655e-05 -6.5241584e-05 5.8655532e-05 1.4421939e-05 3.32942e-05 8.312718e-06 -5.2422947e-05
-6.0864153e-05 -0.00016081147 5.7407506e-05 -0.00010178203 0.00038884924 -0.00034129308 -0.00019992351 0.0002795535
0.0006025248 0.0005350012 -0.00016415899 0.00012057338 0.00016895133 -2.1715136e-05 2.2376124e-05 8.741269e-05
-0.00013653746 9.896181e-05 6.0733033e-05 -6.879559e-05 0.00029369106 0.000109938985 4.315722e-05 -0.00011978698
0.00025102627 0.00015909743 -6.519665e-05 5.216342e-05 -2.5098949e-05 0.00023551835 -0.00031127973 -0.0003501267
0.0002173367 -0.00035075858 -0.00014340821 0.00021487633 0.00025503465 -0.00027585364 4.5408095e-05 0.00029759447
3.7115265e-06 8.926124e-05 -1.623472e-05 4.2908727e-05 -1.5662414e-05 2.5492025e-05 0.00011768224 -9.757982e-05
0.00019330822 5.937166e-05 -9.604956e-07 0.00011965514 4.0030096e-05 -3.9423703e-05 -5.6875884e-05 0.0005100664
-0.00014269937 -4.1479132e-05 -2.4709752e-05 -0.00021353026 -6.819799e-05 0.00039013455 0.00016529369 -0.0002576681
8.3313986e-05 0.00023118492 7.575275e-05 1.33744e-05 -0.00044658556 -1.4966481e-05 0.00020435922 -0.00014882656
0.00048339771 6.67331e-05 -0.00018449743 -0.00017616284 0.00031671723 4.222529e-05 -0.00023238044 0.00018410529
2.313426e-05 3.0595103e-05 -0.00034285054 0.0002585025 0.00032046915 -0.00010116997 -0.00051065517 -0.00016476671
00000000: b5b1 9136 f49e c436 22dc a6b7 a687 8738
00000010: 5616 5138 0414 1e37 03c6 3e39 c857 c337
00000020: 7f63 8938 5e22 41b8 b185 0439 15c1 fb38
00000030: 23bb 62b7 6006 05b9 14d8 a8b7 3667 a5b9
00000040: 063f 8739 c64b 9eb7 35e2 5337 a1b7 d2b8
00000050: 2209 a5b8 9410 2c38 644b 0a39 e2a1 d0b8
00000060: b084 feb8 eff8 3db9 edcf 2639 cee6 56b8
00000070: def5 26b9 9c45 12ba eb44 d5b9 f8ae 3eb9
00000080: 49b9 85b9 ca07 d638 d27d a9b8 1b5d a238
00000090: a822 9db9 1b03 99b9 0159 2e39 64c9 d2b8
000000a0: 958b 5736 a720 a5b9 3fcb 9a39 f124 99b8
000000b0: 117d c638 9ed1 9db8 3acf a937 5fb1 5838
000000c0: 6f65 0e39 ed45 1bb8 b041 1db8 b29e 38b9
000000d0: 6e9b 42b8 7483 1cb8 7b7f 40b9 2d34 d038
000000e0: 3d88 26b7 9281 9cb7 aab7 dcb8 ccad 9636
000000f0: dbf6 21b8 306a 8838 49b8 52b8 427b e4b8
00000100: c5c3 afb8 47bf f7b8 3fe6 6fb9 9f1c 99b9
00000110: a9be 5639 4c15 0239 d1a5 7e38 73c4 21b9
00000120: 3a0e 8138 3f98 36b9 cd81 2038 6943 97b8
00000130: 5398 5fb9 cc87 38b9 3f35 db37 2a7f 7cb7
00000140: 1e4a b2b8 2526 7137 af2c 1336 6a22 f7b4
00000150: d577 a137 30ba 6437 2314 ce37 28ba c737
00000160: da17 df37 0c9f 5d37 cd69 41b7 ac52 99b7
00000170: f27b 9738 923a 0439 8fb8 7738 bf8f 87b8
00000180: 70d7 10b8 023a c2b7 3577 48b9 b9fa 8439
00000190: 47f4 a338 4b83 31b9 2085 1437 2352 0d38
000001a0: 21cc 6c38 17d4 1438 597d edb7 bc0b ea37
000001b0: bbe2 9a37 8f07 dfb7 afb2 5c39 46c1 e638
000001c0: 6471 4d38 d4e4 80b8 aa92 3739 33fd 0539
000001d0: 2c03 edb7 7ac6 3934 80be 9db7 1d3b b9b8
000001e0: 5b31 acb6 912b 8cb8 e37b 56b7 290e d5b7
000001f0: 39fd f137 bde8 1eb7 6d8b 4238 138f 87b7
00000200: fb47 1bb8 c72e 83b7 460a bfb8 f600 d1b8
00000210: 5406 50b9 5a13 0939 eaaf 71b6 b715 d8b6
00000220: 6500 5bb8 2f57 51b8 9be1 4b38 5ce6 b938
00000230: 822d 59b8 cfb1 76b8 9bf0 a2b8 c149 6fb8
00000240: 979b 83b7 26f5 9e38 98d9 a439 1838 d538
00000250: bc74 eb36 4063 c8b8 9340 b438 abd7 a638
00000260: a4b3 6838 e164 40b8 a6d9 abb8 139c 32b9
00000270: 5625 d8b7 2855 81b8 7553 4fb6 94dd 6439
00000280: c1a5 8f38 6b90 8c37 4fd2 88b8 e604 7638
00000290: c2f5 7137 60a5 0b38 da76 0b37 b6e0 5bb8
000002a0: 6348 7fb8 809f 28b9 d7c8 7038 d073 d5b8
000002b0: 76de cb39 95ef b2b9 8fa2 51b9 0991 9239
000002c0: c1f2 1d3a 533f 0c3a 1822 2cb9 57dc fc38
000002d0: 8728 3139 e628 b6b7 5cb4 bb37 5551 b738
000002e0: 7f2b 0fb9 b889 cf38 99bb 7e38 5a46 90b8
000002f0: 8cfa 9939 0b8f e638 b603 3538 2536 fbb8
00000300: 2d9c 8339 64d3 2639 2fba 88b8 0cca 5a38
00000310: 958b d2b7 7af5 7639 4233 a3b9 3691 b7b9
00000320: e0e4 6339 05e6 b7b9 d95f 16b9 6d50 6139
00000330: 2cb6 8539 73a0 90b9 9274 3e38 7406 9c39
00000340: 8a13 7936 c331 bb38 cc2f 88b7 e5f8 3338
00000350: c762 83b7 b5d7 d537 2ccc f638 c4a3 ccb8
00000360: c8b2 4a39 d605 7938 61ea 80b5 5def fa38
00000370: fde5 2738 e15a 25b8 048e 6eb8 fab5 053a
00000380: 92a1 15b9 e1f9 2db8 ca47 cfb7 18e7 5fb9
00000390: 8405 8fb8 f98a cc39 b052 2d39 a117 87b9
000003a0: dbb8 ae38 3b6a 7239 73dd 9e38 9c62 6037
000003b0: b323 eab9 8c18 7bb7 4349 5639 530e 1cb9
000003c0: 8b70 fd39 0ff3 8b38 a775 41b9 5ab8 38b9
000003d0: 110d a639 0f1b 3138 26ab 73b9 630c 4139
000003e0: 7210 c237 3e53 0038 9fc0 b3b9 9e87 8739
000003f0: a404 a839 372b d4b8 7ddd 05ba 3ac5 2cb9

exp_avg_sq f4 [32, 13]
8.6083116e-07 1.801636e-06 3.7801385e-06 4.2506504e-06 6.2903164e-06 2.3838104e-06 2.8732159e-06 3.1038126e-06
2.063784e-06 1.2758885e-06 2.3651612e-06 3.3298809e-06 1.8986402e-06 2.8124801e-05 1.0812779e-05 5.4141132e-05
7.82195e-05 5.593663e-05 2.224055e-05 2.6045182e-05 1.6144826e-05 1.693029e-05 8.91459e-06 1.9698187e-05
2.648721e-05 5.197876e-05 4.565285e-06 6.0545394e-06 6.656486e-06 1.8486193e-05 2.0049245e-05 8.433738e-06
4.9582895e-06 8.256135e-06 9.1071515e-06 5.723278e-06 8.351372e-06 8.788634e-06 5.009361e-06 1.5307463e-05
8.842687e-06 5.212987e-05 6.4526546e-05 4.984975e-05 1.6609478e-05 1.6267859e-05 1.2822533e-05 1.28905895e-05
7.313899e-06 1.5630641e-05 2.0103604e-05 2.9410296e-05 7.064834e-06 4.363726e-06 1.4313639e-05 1.7692679e-05
1.286207e-05 9.371925e-06 1.2486018e-05 7.229514e-06 5.2631544e-06 4.7134404e-06 8.163213e-06 1.2983632e-05
1.4282671e-05 1.22499e-05 9.288842e-06 4.032756e-05 4.9145627e-05 3.893823e-05 1.4488304e-05 1.725001e-05
1.3038456e-05 1.23709815e-05 6.3000343e-06 1.3637763e-05 1.913365e-05 2.4325462e-05 3.7615712e-06 1.7333269e-06
1.952473e-06 4.104745e-06 1.7021168e-06 4.4587905e-06 6.4394026e-06 3.1218688e-06 2.6902587e-06 1.2902324e-06
2.613333e-06 6.155004e-06 7.0124734e-06 3.4949128e-06 7.4141403e-06 3.8715425e-06 3.7433501e-06 5.2999367e-06
5.912684e-06 8.305145e-06 1.2588921e-05 9.340598e-06 3.2076452e-06 4.463997e-06 1.1921558e-05 4.220111e-06
1.9422814e-06 6.692963e-06 6.0951675e-06 7.550864e-06 6.8412446e-06 6.8361105e-06 1.188187e-05 1.1918251e-05
5.9522145e-06 7.116787e-06 9.335636e-06 1.3029304e-05 2.9101182e-06 1.0062194e-05 5.8127207e-06 8.600025e-06
1.4708048e-05 5.721333e-06 1.329537e-05 1.9980413e-05 7.4628033e-06 7.010422e-06 8.628408e-06 1.3705623e-05
2.0410773e-05 2.2326325e-05 6.4684004e-06 2.6770429e-06 1.1080652e-05 1.3315074e-05 1.1375306e-05 4.5964075e-06
4.907975e-06 3.3269282e-06 3.5537569e-06 4.5752117e-06 4.3981063e-06 4.736145e-06 8.4249195e-06 1.8041736e-06
1.8064067e-06 1.3830127e-06 5.5987416e-06 4.2294705e-06 2.2006398e-06 2.0426976e-06 1.6499846e-06 1.8079581e-06
1.0576532e-06 1.8935546e-06 2.0414382e-06 4.5040606e-06 4.617345e-06 3.666161e-06 3.781213e-06 1.2768636e-05
8.411143e-06 5.4588154e-06 6.891116e-06 4.1584844e-06 3.3956846e-06 2.7998094e-06 5.5360424e-06 7.643184e-06
9.982802e-06 1.1249921e-05 7.9708894e-05 1.9813373e-05 3.3826174e-05 3.8833583e-05 6.901003e-05 6.7644534e-05
0.00010770658 5.2315958e-05 5.332273e-05 5.4563676e-05 9.4588046e-05 2.1308611e-05 2.2099846e-06 9.80899e-06
3.3889226e-06 5.062242e-06 7.117556e-06 6.6728167e-06 1.0337437e-05 2.2726053e-05 6.9175253e-06 2.8281727e-06
6.466444e-06 1.347315e-05 3.3372055e-06 2.2205244e-05 3.8488382e-05 2.4024555e-05 3.1651358e-05 3.218806e-05
2.410811e-05 2.7378495e-05 7.700088e-05 2.7087508e-05 2.3628312e-05 1.9715093e-05 3.911536e-05 2.6012387e-05
2.1134529e-06 1.0180067e-05 1.5085679e-05 8.365804e-06 7.646018e-06 1.2197977e-05 2.143009e-05 1.0129084e-05
1.2366105e-05 1.4116854e-05 1.8474177e-05 2.6024643e-05 6.033823e-06 1.4120091e-05 2.0045563e-05 6.918697e-05
6.9359616e-05 5.8625817e-05 2.5881065e-05 2.5452206e-05 4.727373e-05 2.1523589e-05 1.4822288e-05 2.439893e-05
2.8792883e-05 1.7369439e-05 8.3443965e-06 3.954631e-05 1.6497224e-05 1.8994448e-05 2.3386592e-05 2.3634937e-05
4.6879162e-05 8.329694e-05 3.0259187e-05 2.1992239e-05 2.8161414e-05 5.3018604e-05 1.1225182e-05 2.7393098e-06
1.3171512e-05 1.8849476e-06 8.521284e-06 9.766854e-06 9.405331e-06 6.233381e-06 2.7994385e-05 2.4063095e-06
00000000: de13 6735 becf f135 49ae 7d36 cfa0 8e36
00000010: 6811 d336 8df9 1f36 79d1 4036 184b 5036
00000020: 8a7f 0a36 323f ab35 29b9 1e36 eb76 5f36
00000030: c8d4 fe35 8ded eb37 8868 3537 9915 6338
00000040: c609 a438 809d 6a38 3891 ba37 9a7b da37
00000050: c06e 8737 8505 8e37 df8f 1537 893d a537
00000060: da30 de37 c503 5a38 802f 9936 1928 cb36
00000070: c85a df36 cc12 9b37 6d2f a837 a17e 0d37
00000080: 625f a636 d483 0a37 ebca 1837 950a c036
00000090: df1c 0c37 e572 1337 1516 a836 8768 8037
000000a0: 0d5b 1437 06a6 5a38 6d52 8738 c315 5138
000000b0: 9554 8b37 f676 8837 5c20 5737 a944 5837
000000c0: ea69 f536 8c1e 8337 29a4 a837 21b6 f637
000000d0: 760e ed36 1f6c 9236 9d24 7037 bd6a 9437
000000e0: 2cca 5737 1d3c 1d37 0a7b 5137 0d95 f236
000000f0: 279a b036 2528 9e36 bcf4 0837 46d4 5937
00000100: 9b9f 6f37 eb84 4d37 46d7 1b37 6325 2938
00000110: b721 4e38 9b51 2338 cb12 7337 1db4 9037
00000120: bebf 5a37 f68c 4f37 e264 d336 bfcd 6437
00000130: 3381 a037 880e cc37 4d6f 7c36 a9a4 e835
00000140: 3b07 0336 7ebb 8936 4a74 e435 b89c 9536
00000150: 0c12 d836 4c81 5136 4b8a 3436 0c2c ad35
00000160: b860 2f36 1587 ce36 b04c eb36 258a 6a36
00000170: fbc6 f836 4ce8 8136 4436 7b36 1cd6 b136
00000180: 9265 c636 5356 0b37 0135 5337 90b5 1c37
00000190: ed42 5736 71c9 9536 b402 4837 7a9a 8d36
000001a0: 2458 0236 1d94 e036 1785 cc36 6e5d fd36
000001b0: d88d e536 be61 e536 3e58 4737 80f4 4737
000001c0: 22b9 c736 bccc ee36 40a0 1c37 6f98 5a37
000001d0: 734b 4336 cbd0 2837 e40a c336 d348 1037
000001e0: 96c2 7637 e0f9 bf36 2e0f 5f37 9c9b a737
000001f0: fe68 fa36 113b eb36 bbc2 1037 34f1 6537
00000200: cd37 ab37 6b49 bb37 230b d936 3fa7 3336
00000210: 0ae7 3937 cf63 5f37 91d8 3e37 d73a 9a36
00000220: 2faf a436 3144 5f36 147d 6e36 c584 9936
00000230: 7293 9336 2deb 9e36 c158 0d37 ef26 f235
00000240: a973 f235 f49f b935 d3dc bb36 e0ea 8d36
00000250: b4ae 1336 4715 0936 0a75 dd35 f8a8 f235
00000260: b0f4 8d35 0a26 fe35 a4ff 0836 9621 9736
00000270: b1ee 9a36 2b08 7636 bfc0 7d36 e038 5637
00000280: 961d 0d37 de2a b736 3c3a e736 1c89 8b36
00000290: 6be1 6336 5ce4 3b36 3ec2 b936 3a3b 0037
000002a0: cf7b 2737 0bbe 3c37 6329 a738 e534 a637
000002b0: 94e0 0d38 3ee1 2238 7ab9 9038 62dc 8d38
000002c0: 88e0 e138 d56d 5b38 d8a6 5f38 4ddb 6438
000002d0: 925d c638 e5bf b237 3f4f 1436 4b91 2437
000002e0: 3f6d 6336 54dc a936 57d3 ee36 0fe7 df36
000002f0: f46e 2d37 d4a3 be37 171d e836 a3cb 3d36
00000300: 55fa d836 bd0a 6237 c1f4 5f36 6645 ba37
00000310: 966e 2138 5788 c937 63c1 0438 ab01 0738
00000320: c63b ca37 dfaa e537 887b a138 fb39 e337
00000330: 6a35 c637 d761 a537 cc0f 2438 2d35 da37
00000340: d8d4 0d36 0ecb 2a37 7f18 7d37 db5a 0c37
00000350: 6647 0037 eaa5 4c37 c5c4 b337 16f0 2937
00000360: 0478 4f37 6dd7 6c37 fef8 9a37 7f4f da37
00000370: 2576 ca36 54e5 6c37 8527 a837 7918 9138
00000380: 2975 9138 fee4 7538 2a1b d937 3282 d537
00000390: c847 4638 8e8d b437 3ead 7837 4eac cc37
000003a0: 3f88 f137 96b4 9137 e9fe 0b37 87de 2538
000003b0: 8563 8a37 4456 9f37 532e c437 a443 c637
000003c0: 1ea0 4438 b4af ae38 1cd5 fd37 f97b b837
000003d0: 2d3c ec37 4b60 5e38 ca53 3c37 fcd4 3736
000003e0: 37fb 5c37 4efe fc35 a3f6 0e37 52dc 2337
000003f0: 97cb 1d37 5628 d136 7cd5 ea37 157c 2136

exp_avg f4 [32]
-3.533037e-05 -0.00028781834 -6.081407e-05 -0.00031783298 -0.0001693371 -0.00019936202 -0.0001350652 -0.00013567912
-5.303448e-05 -8.785953e-05 -0.00025805167 -0.00017911287 -0.00013138645 0.00013486837 -1.1347207e-05 -0.00023518594
-0.00016508446 -0.00025935704 5.2292507e-06 -0.00026918596 0.00012112826 -0.0006484436 -5.4834436e-05 -6.960396e-05
-0.00028843118 -4.8412945e-05 -0.00016249638 2.4792802e-05 -4.321461e-05 -0.00022278604 -0.0001449465 -1.5246862e-05
00000000: b22f 14b8 53e6 96b9 9c12 7fb8 d2a2 a6b9
00000010: 1590 31b9 d60b 51b9 4aa0 0db9 1645 0eb9
00000020: 5771 5eb8 3a41 b8b8 1c4b 87b9 3fd0 3bb9
00000030: c8c4 09b9 746b 0d39 e25f 3eb7 3f9c 76b9
00000040: 861a 2db9 50fa 87b9 ec76 af36 8721 8db9
00000050: 3d06 fe38 50fc 29ba 07fe 65b8 57f8 91b8
00000060: 9438 97b9 010f 4bb8 ca63 2ab9 23fa cf37
00000070: 5641 35b8 ac9b 69b9 c8fc 17b9 c6cc 7fb7

exp_avg_sq f4 [32]
2.5211605e-06 3.4668108e-05 1.0831275e-05 2.3619272e-05 2.1200714e-05 2.0730635e-05 4.36232e-06 1.3783757e-05
1.1106936e-05 1.3486853e-05 1.0809216e-05 3.1685556e-06 1.6555265e-05 5.7381592e-05 8.56399e-06 4.659256e-05
1.7217659e-05 3.929814e-05 3.5264497e-05 9.534983e-06 6.245555e-05 6.931221e-05 3.972276e-06 7.0115825e-06
2.428918e-05 4.6182173e-05 7.2174453e-06 7.796918e-06 1.0027384e-05 3.7055506e-05 2.5762743e-05 4.74717e-05
00000000: 3531 2936 9968 1138 f9b7 3537 0022 c637
00000010: 30d8 b137 b3e6 ad37 0b60 9236 c940 6737
00000020: ed57 3a37 9845 6237 3b59 3537 5fa3 5436
00000030: 29e0 8a37 04ad 7038 0fae 0f37 616c 4338
00000040: a46e 9037 0ed4 2438 f7e8 1338 71f8 1f37
00000050: 91fa 8238 b65b 9138 9749 8536 0945 eb36
00000060: 9ec0 cb37 bbb3 4138 622d f236 82cf 0237
00000070: 493b 2837 0c6c 1b38 121d d837 5a1c 4738

exp_avg f4 [16, 32]
5.4607706e-05 3.53579e-05 -0.00018814125 7.174475e-05 1.0447994e-05 9.757467e-05 -2.5002755e-05 -0.000121231045
1.3963508e-05 -7.058457e-05 1.758201e-05 6.333535e-05 3.400376e-05 9.732082e-05 4.8585105e-05 -0.00030524973
-5.886582e-05 -0.0001521977 0.00013461069 -0.00022163043 -0.0003035087 -0.0002481336 4.7231508e-05 -6.945169e-05
5.167835e-05 -0.00012261247 -9.601964e-05 -0.00031302669 -0.00012636962 -0.00030643525 -2.1584559e-07 6.145544e-05
-0.00014633805 -0.0001214883 0.0001289265 -0.00015515686 -0.00012628973 -0.00018322434 -5.9039645e-05 3.129539e-05
-6.1887855e-05 -2.4348412e-05 -9.627209e-05 -0.00011716136 -0.00014943207 -0.00014272677 -9.424886e-05 0.00018022543
-4.7228015e-05 8.1928876e-05 -0.00018623879 0.00017420949 0.00019457283 0.00018929475 -0.00012229139 -2.2002283e-05
-0.000122978 3.6951846e-05 1.1954914e-05 0.00023307311 4.9879214e-05 0.00023765342 -7.4166346e-05 -0.00011199065
-5.9891347e-05 5.0229784e-05 -6.701834e-05 5.4479755e-05 2.2080234e-05 0.00010300806 -3.0586085e-05 1.879626e-05
-7.850008e-05 -1.2801371e-05 1.3920293e-05 4.5664758e-05 3.986089e-05 -5.7535228e-05 -6.8643094e-05 2.2849532e-07
-0.00010269072 -6.226311e-05 -3.8673446e-05 -2.4410756e-06 -6.120447e-05 -4.961243e-05 -6.325213e-05 -9.951542e-05
5.5061835e-05 -2.8894678e-05 -7.7758115e-05 -4.8147747e-05 -5.2190662e-05 -2.4019313e-05 -8.493841e-05 -5.398028e-05
-0.00023692344 -2.3302837e-07 8.971581e-05 -9.598934e-06 -1.2382101e-06 1.3463443e-06 -0.00016921698 8.767431e-05
-0.00019929024 1.9293451e-05 -3.8738217e-05 -2.7300234e-07 1.5861212e-06 -0.00022232562 -0.0002521828 0.00019845908
-0.00024500347 -1.4554777e-05 -0.00025927392 0.00022117782 0.00018481485 0.00018063805 -0.00020020209 -0.00023111382
-6.8340444e-07 5.5620756e-05 -0.00014087462 8.244037e-05 3.4645363e-05 0.00020152902 -0.0002095333 -0.00020183671
-8.950885e-06 -0.00013757394 7.175048e-05 -0.00013848266 -0.00010858071 -0.00020806788 -2.7736853e-05 -4.812225e-05
2.990512e-05 -5.183344e-05 -8.928859e-05 -9.319543e-05 -0.00011601691 2.8034058e-06 9.3951e-06 -2.5485218e-05
2.706644e-05 5.360964e-05 -3.2536635e-05 1.2488776e-05 6.210948e-05 6.779728e-05 1.0140897e-07 2.2052174e-05
-0.00013562576 1.24247845e-05 3.8481674e-05 2.8848868e-05 2.6876369e-05 3.967631e-05 2.8323479e-05 -1.6532644e-05
6.6892804e-05 6.5281594e-05 -0.00015887553 8.7058565e-05 4.1635853e-05 0.00011599226 -6.450839e-06 -0.00012138812
3.518785e-05 -2.4406192e-05 5.4492168e-05 6.394575e-05 4.920947e-05 0.00010834184 6.338523e-05 -0.0002786623
-2.8997927e-05 -0.000121916804 0.00013699559 -0.00020777152 -0.00026256585 -0.00022223117 6.0832233e-05 -4.3042444e-05
7.622741e-05 -0.00010322356 -6.225958e-05 -0.0002798399 -8.265122e-05 -0.00029110827 2.5023553e-05 7.8100806e-05
-7.1026014e-05 1.2798635e-05 -5.9105576e-05 -3.4787768e-06 -2.379376e-05 5.7166584e-05 -5.2726744e-05 -3.4405264e-05
-8.828864e-05 -4.18931e-05 -1.3730741e-05 3.1042264e-06 -3.1827865e-05 -7.196477e-05 -8.021029e-05 -5.4370034e-06
-0.00010914749 -5.643291e-05 -5.4064516e-05 8.202452e-06 -5.3087664e-05 -3.257449e-05 -7.415999e-05 -0.000105762534
1.3408923e-05 -2.7692608e-05 -8.8697256e-05 -5.845142e-05 -7.773514e-05 -1.0913988e-05 -9.5384414e-05 -8.0475336e-05
-0.00027375013 -0.00012025318 8.4349915e-05 -0.00013797378 -0.0001298214 -0.00016436643 -0.00010170602 5.7399026e-05
-0.00014156652 -4.9414433e-05 -0.000101647965 -0.00010442615 -0.00012966747 -0.00023461215 -0.0001410449 0.00018235004
-0.00010157828 6.122134e-05 -0.00024082515 0.00021085031 0.0001398474 0.00017831575 -0.00016333723 -9.513321e-05
-0.000103847 3.122217e-05 -4.60003e-05 0.00020305761 1.5954503e-05 0.0002604426 -0.00016044722 -0.00014575005
00000000: 940a 6538 424d 1438 c847 45b9 ab75 9638
00000010: cb49 2f37 01a1 cc38 02bd d1b7 6c3d feb8
00000020: cf44 6a37 cd06 94b8 147d 9337 e8d2 8438
00000030: 429f 0e38 b818 cc38 dcc7 4b38 ed09 a0b9
00000040: b1e6 76b8 4297 1fb9 4826 0d39 7765 68b9
00000050: 4020 9fb9 ee17 82b9 721a 4638 98a6 91b8
00000060: 35c1 5838 8991 00b9 275e c9b8 bb1d a4b9
00000070: 1682 04b9 0ba9 a0b9 2fc3 67b4 a3e1 8038
00000080: 5272 19b9 89c7 feb8 7230 0739 9ab1 22b9
00000090: a46c 04b9 e91f 40b9 56a1 77b8 2b43 0338
000000a0: cac9 81b8 d13f ccb7 afe5 c9b8 87b4 f5b8
000000b0: deb0 1cb9 eda8 15b9 79a7 c5b8 e5fa 3c39
000000c0: b216 46b8 3bd1 ab38 1849 43b9 01ac 3639
000000d0: 3f06 4c39 6c7d 4639 583b 00b9 8b91 b8b7
000000e0: a8f3 00b9 befc 1a38 f791 4837 1665 7439
000000f0: 6635 5138 9b32 7939 c189 9bb8 86dc eab8
00000100: d833 7bb8 d2ad 5238 338c 8cb8 3181 6438
00000110: f138 b937 0806 d838 8f49 00b8 a9ac 9d37
00000120: 69a0 a4b8 78c5 56b7 348b 6937 2988 3f38
00000130: 4e30 2738 fb51 71b8 7bf4 8fb8 5158 7534
00000140: a95b d7b8 4193 82b8 4c35 22b8 5cd1 23b6
00000150: e65a 80b8 f116 50b8 3ba6 84b8 efb2 d0b8
00000160: 32f2 6638 d962 f2b7 1212 a3b8 40f2 49b8
00000170: 4ce7 5ab8 157d c9b7 f620 b2b8 e268 62b8
00000180: a76e 78b9 5a36 7ab4 cf25 bc38 1c0b 21b7
00000190: 9330 a6b5 0ab4 b435 d66f 31b9 c9dd b738
000001a0: 91f8 50b9 5fd8 a137 d87a 22b8 2891 92b4
000001b0: b6e2 d435 1420 69b9 6737 84b9 7419 5039
000001c0: cf73 80b9 4b30 74b7 28ef 87b9 f8eb 6739
000001d0: dcca 4139 a869 3d39 57ed 51b9 2557 72b9
000001e0: 3273 37b5 554a 6938 beb7 13b9 d6e3 ac38
000001f0: 2d50 1138 8951 5339 2bb6 5bb9 21a4 53b9
00000200: c22b 16b7 b941 10b9 bf78 9638 a835 11b9
00000210: d3b5 e3b8 cc2c 5ab9 70ac e8b7 dfd6 49b8
00000220: c2dc fa37 bb67 59b8 7240 bbb8 ea71 c3b8
00000230: 1b4e f3b8 2522 3c36 a69f 1d37 17c9 d5b7
00000240: bd0c e337 eada 6038 f277 08b8 e286 5137
00000250: c640 8238 632e 8e38 2cc6 d933 affc b837
00000260: c336 0eb9 0b74 5037 6267 2138 7900 f237
00000270: 9074 e137 1d6a 2638 3598 ed37 95af 8ab7
00000280: cd48 8c38 cae7 8838 d397 26b9 3693 b638
00000290: 28a2 2e38 df40 f338 4974 d8b6 c091 feb8
000002a0: ab96 1338 e6bb ccb7 858e 6438 9d1a 8638
000002b0: 4466 4e38 9535 e338 b0ed 8438 6c19 92b9
000002c0: 9340 f3b7 96ad ffb8 79a6 0f39 3edd 59b9
000002d0: fea8 89b9 ba06 69b9 1d26 7f38 7988 34b8
000002e0: 47dc 9f38 ba79 d8b8 5c91 82b8 7ab7 92b9
000002f0: 0955 adb8 e49f 98b9 ace9 d137 0dca a338
00000300: cdf3 94b8 b8b9 5637 21e8 77b8 ee74 69b6
00000310: b698 c7b7 27c6 6f38 e926 5db8 5f4e 10b8
00000320: 9a27 b9b8 60b6 2fb8 155d 66b7 3452 5036
00000330: e97e 05b8 cbeb 96b8 9236 a8b8 816f b6b6
00000340: 1de6 e4b8 60b2 6cb8 55c3 62b8 439d 0937
00000350: 72aa 5eb8 98a0 08b8 5786 9bb8 d4cc ddb8
00000360: e3f6 6037 6c4d e8b7 fa02 bab8 bc29 75b8
00000370: bc05 a3b8 391b 37b7 1e09 c8b8 dec4 a8b8
00000380: 1f86 8fb9 6f30 fcb8 04e5 b038 0ead 10b9
00000390: ab20 08b9 c759 2cb9 014b d5b8 bcbf 7038
000003a0: 7971 14b9 5842 4fb8 d62b d5b8 5dff dab8
000003b0: 59f7 07b9 3802 76b9 74e5 13b9 3735 3f39
000003c0: 6c06 d5b8 f563 8038 0286 7cb9 b317 5d39
000003d0: 00a4 1239 45fa 3a39 8145 2bb9 4182 c7b8
000003e0: 6fc8 d9b8 8df4 0238 72f0 40b8 ddeb 5439
000003f0: 09d6 8537 048c 8839 b93d 28b9 7bd4 18b9

exp_avg_sq f4 [16, 32]
5.200783e-06 5.7153584e-06 4.6817245e-06 4.76953e-06 6.787171e-06 4.210826e-06 4.571991e-06 6.487992e-06
4.4895683e-06 1.01712285e-05 1.7314592e-06 2.600943e-07 5.977491e-06 1.6064355e-06 2.5393947e-06 1.562657e-05
1.4070869e-05 6.743746e-06 2.175326e-06 4.0289306e-06 2.10367e-05 5.345522e-06 6.0067773e-06 1.3207742e-05
2.8641643e-06 6.567255e-06 4.5301067e-06 1.0310347e-05 7.5616695e-06 7.3064175e-06 6.1683468e-06 5.8871797e-06
8.481665e-06 1.3844519e-05 4.460791e-06 1.6059712e-05 1.9225248e-05 1.35039845e-05 6.5904474e-06 9.355692e-06
6.873313e-06 2.0069398e-05 5.6960935e-06 9.997207e-07 1.4174821e-05 3.6189529e-06 4.7097874e-06 9.055401e-06
1.8330897e-05 4.9343894e-06 4.2029283e-06 3.6835302e-06 1.6835544e-05 3.1151974e-06 8.670503e-06 1.8944442e-05
1.0724265e-05 3.1594411e-06 4.7742615e-06 1.3837112e-05 1.0280654e-05 4.6819605e-06 8.293753e-06 1.4086079e-05
6.419498e-06 4.8309007e-06 2.2579445e-06 3.7588231e-06 5.4261727e-06 4.156307e-06 2.2425916e-06 3.4979528e-06
7.2824005e-06 6.9936236e-06 2.6133641e-06 3.5674282e-07 4.356798e-06 5.804966e-06 1.9958584e-06 4.697499e-06
1.2664095e-05 2.894412e-06 4.5392935e-06 1.3116677e-06 7.2039925e-06 1.4961577e-06 6.0315315e-06 1.2511496e-05
2.5690388e-06 2.1424587e-06 1.8298264e-06 5.1387797e-06 4.096991e-06 1.1678369e-06 9.450232e-06 1.2010458e-05
5.290456e-05 5.769164e-07 2.6787693e-06 4.1935087e-07 2.0968855e-06 7.8397755e-07 8.210867e-06 2.5149513e-06
5.158468e-05 2.5131926e-06 1.0210636e-05 1.0262038e-06 2.5741357e-07 4.585119e-05 1.786344e-05 2.2251765e-05
0.000100213634 1.4526103e-05 3.908953e-05 4.7449425e-06 8.653226e-06 1.7536578e-06 5.1360814e-05 9.7768e-05
2.6038897e-06 7.693849e-06 1.0081513e-05 2.892867e-06 7.051511e-07 1.047251e-05 5.7466845e-05 0.00011824537
6.0659086e-06 2.121831e-05 3.3130927e-06 3.284713e-05 3.415923e-05 2.5106308e-05 7.430412e-06 1.7442026e-05
6.9972834e-06 1.9603172e-05 5.513862e-06 1.2952488e-06 2.290805e-05 4.8772017e-06 1.9039545e-06 5.3241897e-06
1.1143464e-05 3.6631368e-06 3.3595732e-06 2.8920656e-06 1.0244785e-05 1.8234307e-06 1.0576928e-05 1.1491444e-05
1.5951759e-05 1.8362691e-06 2.7333308e-06 9.594921e-06 1.3442618e-05 1.2774208e-06 8.303787e-06 1.0994133e-05
9.495559e-06 5.9123286e-06 7.580951e-06 5.4934526e-06 7.760513e-06 4.5385113e-06 6.0515317e-06 1.0344536e-05
7.740553e-06 1.2420664e-05 2.469559e-06 4.2206486e-07 8.714604e-06 4.1743297e-06 4.099012e-06 3.0799103e-05
2.4704581e-05 1.1178718e-05 4.5393613e-06 7.956741e-06 4.374099e-05 7.917302e-06 1.0377547e-05 2.1615566e-05
3.5819812e-06 1.24336675e-05 7.421263e-06 1.27238645e-05 1.2533435e-05 1.2084215e-05 1.1117252e-05 1.2624472e-05
4.7989924e-06 2.6736452e-06 1.0516424e-06 2.0551324e-06 2.767478e-06 2.0781968e-06 1.4226321e-06 1.5735828e-06
4.4594794e-06 4.60086e-06 1.2462311e-06 1.2313721e-07 1.7314171e-06 4.3576e-06 1.3859201e-06 1.8574297e-06
7.6788465e-06 1.3259923e-06 3.2649205e-06 3.2140582e-07 2.918505e-06 6.881295e-07 3.7935893e-06 8.263907e-06
1.2724586e-06 6.321159e-07 1.0727086e-06 3.0648123e-06 2.311722e-06 5.199009e-07 5.4355364e-06 8.419072e-06
3.0562307e-05 1.2197928e-05 7.0328942e-06 1.245499e-05 1.6811835e-05 9.793624e-06 1.1386561e-05 1.0192909e-05
2.4917275e-05 2.0765407e-05 1.01171245e-05 1.574419e-06 1.2757358e-05 2.3126806e-05 1.2529633e-05 3.1914857e-05
6.4649685e-05 1.5480155e-05 2.1122345e-05 1.0616473e-05 3.0649335e-05 4.9530904e-06 3.5608868e-05 6.1670275e-05
9.538551e-06 8.455002e-06 1.1765197e-05 1.3324911e-05 1.4772809e-05 1.5484966e-05 2.8737348e-05 6.827141e-05
00000000: 6382 ae36 8ec6 bf36 b517 9d36 f309 a036
00000010: 5bbd e336 b84a 8d36 1b69 9936 6db3 d936
00000020: 19a5 9636 18a5 2a37 7c64 e835 17a3 8b34
00000030: 4292 c836 b49c d735 786a 2a36 ce15 8337
00000040: ec11 6c37 5648 e236 d1fb 1136 4030 8736
00000050: f877 b037 af5d b336 d38d c936 d296 5d37
00000060: f835 4036 4a5c dc36 5201 9836 9afa 2c37
00000070: 3fba fd36 a629 f536 b2f9 ce36 7d8a c536
00000080: 794c 0e37 c245 6837 e7ad 9536 f8b7 8637
00000090: e845 a137 2c8f 6237 8323 dd36 64f6 1c37
000000a0: 4fa1 e636 b45a a837 1221 bf36 242e 8635
000000b0: 65d0 6d37 23dd 7236 c408 9e36 a7ec 1737
000000c0: 4dc5 9937 1592 a536 e106 8d36 9132 7736
000000d0: 0e3a 8d37 af0e 5136 8777 1137 e1ea 9e37
000000e0: 5eec 3337 c906 5436 9832 a036 f225 6837
000000f0: 137b 2c37 bc19 9d36 6625 0b37 4053 6c37
00000100: 1167 d736 1f19 a236 3187 1736 1740 7c36
00000110: 7812 b636 6876 8b36 6e7f 1636 5fbe 6a36
00000120: 585b f436 c5aa ea36 4161 2f36 5c86 bf34
00000130: 9c30 9236 47c8 c236 96f0 0536 369f 9d36
00000140: e077 5437 9f3d 4236 3c50 9836 8f0c b035
00000150: d3b9 f136 96cf c835 7662 ca36 77e8 5137
00000160: c067 2c36 29c7 0f36 5b98 f535 c86d ac36
00000170: e278 8936 92be 9c35 708c 1e37 8680 4937
00000180: d7e5 5d38 65dd 1a35 e8c4 3336 2523 e134
00000190: 38b8 0c36 8772 5235 68c1 0937 89c6 2836
000001a0: a15c 5838 52a8 2836 594e 2b37 18bc 8935
000001b0: a732 8a34 5750 4038 72d9 9537 4da9 ba37
000001c0: c929 d238 23b5 7337 10f4 2338 bf36 9f36
000001d0: 532d 1137 395f eb35 416c 5738 cc08 cd38
000001e0: 7cbe 2e36 d414 0137 c523 2937 1423 4236
000001f0: 9d49 3d35 17b3 2f37 8e08 7138 80fa f738
00000200: c289 cb36 f9fd b137 8056 5e36 56c5 0938
00000210: 3246 0f38 639b d237 c152 f936 7750 9237
00000220: 35ca ea36 7e71 a437 b703 b936 69d8 ad35
00000230: aa2a c037 d8a6 a336 618b ff35 71a6 b236
00000240: d0f4 3a37 36d4 7536 0775 6136 4f15 4236
00000250: 04e1 2b37 9abc f435 8f73 3137 60cb 4037
00000260: 24d0 8537 ba75 f635 446e 3736 dff9 2037
00000270: 9b87 6137 d873 ab35 7e50 0b37 7173 3837
00000280: 1e4f 1f37 8462 c636 e05f fe36 6654 b836
00000290: 2633 0237 8449 9836 430e cb36 728d 2d37
000002a0: 6cdd 0137 5862 5037 b3ba 2536 2798 e234
000002b0: f034 1237 3811 8c36 3f8a 8936 492e 0138
000002c0: af3c cf37 3a8c 3b37 d150 9836 f17d 0537
000002d0: 8876 3738 8ed4 0437 3a1b 2e37 1353 b537
000002e0: f861 7036 329a 5037 2a04 f936 9578 5537
000002f0: b246 5237 4fbd 4a37 3c84 3a37 b2cd 5337
00000300: 0807 a136 e06c 3336 2826 8d35 e8ea 0936
00000310: e9b8 3936 2677 0b36 44f1 be35 e533 d335
00000320: a3a2 9536 1661 9a36 2d44 a735 b337 0434
00000330: 0a63 e835 8037 9236 da03 ba35 cc4c f935
00000340: 65d4 0037 c0f8 b135 e81a 5b36 ae8d ac34
00000350: 89db 4336 e6b7 3835 5e95 7e36 36a5 0a37
00000360: 58c9 aa35 adae 2935 fdf9 8f35 13ad 4d36
00000370: 1523 1b36 518f 0b35 e762 b636 a43f 0d37
00000380: 0730 0038 b4a5 4c37 1afc eb36 c6f5 5037
00000390: 2407 8d37 4b4f 2437 e808 3f37 3602 2b37
000003a0: 7105 d137 5f31 ae37 b8bc 2937 a050 d335
000003b0: 6f08 5637 7000 c237 5d36 5237 51dc 0538
000003c0: 8994 8738 61db 8137 e42f b137 681d 3237
000003d0: 798d 0038 b932 a636 bb5a 1538 fa54 8138
000003e0: c407 2037 f5d9 0d37 2363 4537 0f8e 5f37
000003f0: bbd8 7737 b6e5 8137 fc10 f137 ef2c 8f38

exp_avg f4 [16]
-7.364211e-05 -9.2968985e-05 -1.1812714e-05 -0.00010124699 -0.000105203115 -3.2338325e-05 -5.950127e-05 -0.00013263422
-9.353911e-05 -0.000196101 -0.0001589415 -7.9395e-05 -0.000110461806 -4.0524046e-05 -9.519673e-05 -0.0001623357
00000000: 4f70 9ab8 58f8 c2b8 382f 46b7 9054 d4b8
00000010: 7ea0 dcb8 03a3 07b8 0191 79b8 ba13 0bb9
00000020: 6d2a c4b8 76a0 4db9 89a9 26b9 de80 a6b8
00000030: bba7 e7b8 5df8 29b8 5ba4 c7b8 a838 2ab9

exp_avg_sq f4 [16]
1.5368307e-05 2.637193e-05 2.016403e-05 9.6282456e-05 2.0295201e-05 2.7179278e-05 8.382466e-06 5.7778525e-05
1.9583373e-05 0.00010723254 1.808293e-05 2.6820131e-05 3.799389e-05 0.00016400119 9.915967e-05 6.698145e-05
00000000: 30eb 8037 4a39 dd37 ed25 a937 40eb c938
00000010: 9d3f aa37 0eff e337 6ba2 0c37 3857 7238
00000020: f946 a437 08e2 e038 ccb0 9737 cbfb e037
00000030: a15b 1f38 bcf7 2b39 f1f3 cf38 6478 8c38

exp_avg f4 [3, 16]
0.00071488245 -0.0006503251 0.00076612225 0.00018291101 -0.00060792733 0.00065626355 0.00067200273 -0.00043430467
-0.0004827898 -0.00015447436 -0.000712124 -0.00045228173 -8.856824e-05 0.0007400789 2.0296773e-05 -0.00048342586
-0.0015233217 0.0013452346 -0.0004639127 0.0009208861 0.0004355547 -0.0016452443 -0.000282476 0.0011156918
0.00011458704 -0.00061611604 0.0005383607 0.001235533 -0.00084711827 -0.0008810919 -0.0010592381 0.0011370638
0.00080842926 -0.00069489935 -0.00030221007 -0.0011037926 0.00017237825 0.0009889696 -0.00038952735 -0.0006813785
0.00036820673 0.0007705887 0.00017376976 -0.0007832416 0.00093568396 0.00014100793 0.0010389363 -0.00065362925
00000000: f366 3b3a 947a 2aba 98d5 483a cdcb 3f39
00000010: 505d 1fba 1a09 2c3a 5729 303a 63b3 e3b9
00000020: f31e fdb9 65fa 21b9 d5ad 3aba 3a20 edb9
00000030: b6bd b9b8 db01 423a fd42 aa37 5274 fdb9
00000040: 32aa c7ba 9552 b03a 4f39 f3b9 9f67 713a
00000050: 2a5b e439 3da5 d7ba 4919 94b9 683c 923a
00000060: 734e f038 d982 21ba c620 0d3a 9cf1 a13a
00000070: 2511 5eba 14f9 66ba 22d6 8aba 8809 953a
00000080: c5ec 533a e829 36ba f371 9eb9 22ad 90ba
00000090: 6fc0 3439 50a0 813a 7a39 ccb9 899e 32ba
000000a0: df0b c139 5501 4a3a f735 3639 7452 4dba
000000b0: b048 753a 87db 1339 eb2c 883a 5158 2bba

exp_avg_sq f4 [3, 16]
9.234531e-05 0.00019050034 0.00038971857 5.9167072e-05 0.00020362652 0.00044679618 9.757848e-05 7.2161696e-05
0.0003076703 0.00029185507 0.000100517624 4.990684e-05 0.00014463137 0.00051466085 0.00065519486 6.531692e-05
0.00033087828 0.00022592564 0.0006473595 0.000155809 0.00012757824 0.0012326855 0.0002612011 0.00024504805
0.00023369656 0.00031628527 6.5234955e-05 0.00021341458 0.00019030775 0.0008997726 0.0010566737 0.00011079771
0.00014106008 3.707746e-05 0.0008724866 0.0003311759 3.097533e-05 0.00032986008 0.000301158 0.00017462567
0.0001224329 0.000110375615 7.0816736e-06 0.000150904 7.1496615e-05 0.00037412834 0.00043509147 3.499855e-05
00000000: 83a9 c138 0cc1 4739 2453 cc39 292a 7838
00000010: 9484 5539 f83f ea39 0ca3 cc38 8455 9738
00000020: cf4e a139 2004 9939 fdcc d238 1053 5138
00000030: 30a8 1739 4eea 063a 62c1 2b3a c1fa 8838
00000040: bb79 ad39 74e6 6c39 90b3 293a a960 2339
00000050: 86c6 0539 1092 a13a d1f1 8839 cb79 8039
00000060: 710c 7539 17d3 a539 c0ce 8838 0ac8 5f39
00000070: 598d 4739 b8de 6b3a 1680 8a3a 115c e838
00000080: 87e9 1339 9f83 1b38 96b7 643a ada1 ad39
00000090: 82eb 0138 12f1 ac39 bee4 9d39 b91b 3739
000000a0: 5561 0039 7579 e738 1d9f ed36 fc3b 1e39
000000b0: 74f0 9538 a826 c439 fd1c e439 68cb 1238

exp_avg f4 [3]
-7.8549514e-05 -3.0655538e-05 0.00010920589
00000000: f3ba a4b8 2294 00b8 7705 e538

exp_avg_sq f4 [3]
0.0005121607 0.0007854311 0.00038770857
00000000: 8642 063a 64e5 4d3a 5d45 cb39
