homework1/lightning_logs/version_2/checkpoints/epoch=99-step=900.ckpt (torch, 22168 bytes, 18 tensors)

network.0.weight f4 [32, 13]
00000000: a6bf 533e e342 d43b 24f7 6fbd 787f cbbe
00000010: db93 cf3e b21c cc3e 3c0d 44bd 135a 283e
00000020: e413 903d 6f1c a1bd 40db 2f3e 4844 8dbd
00000030: bac8 9d3e 73ed 863c 455d 3fbe c24f d8bc
00000040: b657 643d 8bc6 ce3d 86cc 8b3d db3b bf3e
00000050: 4a32 223e f2c5 1bbd fe38 14bd 4bea c73e
00000060: 4804 cf3e f61d 0d3c 0312 d9bd 306e 4a3e
00000070: 44b2 893e 184b 0dbd a239 8c3e 7c77 dabc
00000080: 571e 27be baac d53d 467f 30be 16fe db3e
00000090: 029d 83be b132 dabe 45b2 f4bd 85ff 743e
000000a0: f457 593e 14a6 243d 9702 743e 23ff babd
000000b0: bc4a 25be 246f a8bd 8e5a 5cbe 4cc9 7abe
000000c0: 6cce aa3e 27be 84be 3eda ccbe 6110 803d
000000d0: 9eb4 e7be 844b 123e d6b5 ebbe 318f 073e
000000e0: d80b b13d eece cebe 9625 acbe 52df ff3d
000000f0: 79e3 603e 48cb 07bd 62ae f53d 5988 b6bb
00000100: 3083 e2be 5e9c 81be 21e1 14b8 5c87 5bbe
00000110: 6f00 bf3e 431d 643d a9b0 12be 085b bcbd
00000120: 8f93 8bbe 7d7c ba3d 1218 d23d 619c 953e
00000130: 06b7 c6bd 573c a9be 4ce4 a93e c1f9 52be
00000140: 492f 5e3c 7ca1 9ebe 058e 9a3e e016 853e
00000150: 7b24 3c3e c251 cc3d e282 debc 0cec 193e
00000160: 3687 203e ef04 d43d f59f 80bd 7d3a 473c
00000170: 3e6e 7f3e a523 5fbe 82a3 663d 5b35 943c
00000180: 3ffa bf3d 2c01 77be 81ae f4bb 23b4 9dbe
00000190: 89fb 3f3e 2b2a bfbe 557d fcbe 2cd3 66bd
000001a0: 248b fd3e 628b ba3c 70b2 873e e471 f5be
000001b0: d6f7 e13c ed54 a63d 7b28 a83e 3f8e 2ebe
000001c0: b057 e03d 054d a4bc 8cbe 8bbd fde8 993e
000001d0: 29f2 c13e 0363 02bf 8509 07be 6789 86be
000001e0: 4c58 963e 2834 d6bd 78e3 273e a888 f6bd
000001f0: 2a72 62be b61d 9b3e 9956 f2be c5b8 a93e
00000200: 6079 a5bd 6ef9 13be 0dd9 e63c 5675 b7bd
00000210: 6eb5 3a3e 2f96 5abd 6132 c5bd 941f 623e
00000220: dabb bb3e 867b 7fbe 881e 283e 2a90 1e3d
00000230: db02 c93e 0976 abbd f13e d43e 3c50 a53e
00000240: 9634 7abe e1b8 713e de5e b1be c16d c2bc
00000250: 23be 5c3d ca05 e73e 5ee1 e2bd a22d ddbd
00000260: cad0 bfbd ab1f 3e3e 8cf1 443e e64c 693e
00000270: fd3e 303e a5a4 a8be 279f b83c 8ec4 a2be
00000280: a6c5 d43e 14c1 ce3e 6f4c 10bd cbd2 e3bd
00000290: 7f07 3a3e 052f fd3c 1446 623e d1d0 ba3e
000002a0: 870c a03e 1ce3 f2be 9245 cbbe b5ae c5be
000002b0: a9b0 b13e b52f c9bb 2ac9 8cbe 7d37 b1bd
000002c0: 73aa a6bd 4e30 f73d d9cc 20be 78e4 fe3e
000002d0: eb44 843e 7b43 96be e0d5 cdbd e08b 87bd
000002e0: 82af 35be c3c1 5d3e bb40 18be ecf1 b8be
000002f0: 78a1 90be e18c c83e 66f4 2c3e 48f6 d73d
00000300: 60f1 7a3d f973 f33d 58a5 903d 3252 eb3e
00000310: 0d01 513e 8ea7 943e 1c4f 6bbe d5ca 753d
00000320: 0aff 1ebd f4fd 953e 2cf3 cebd 0a79 113e
00000330: 9458 ddbd be5c 973d 388b 913d 978a d53e
00000340: 60fa a1bd d38e 6d3e a8c8 673e e64e cf3d
00000350: 6baa 3a3e 1a3d 85be fb92 b8be 3cec 2b3c
00000360: 39be 85be e908 813e 81ba 7dbd 3f84 c6be
00000370: cde6 c3bd dff6 8f3e c4d8 6f3e 534c 21be
00000380: 9ce2 b8be 803d 163c 9b7a a43d 2452 e8bd
00000390: 858a cebe 9f1b 8d3e 5dfc 42bd 3808 df3d
000003a0: 6ba4 de3e a137 8abd f188 a0bd b57a 44bd
000003b0: 8e14 203c df42 f1bd fb44 2e3e 8440 92be
000003c0: 2e04 19bd 3e97 573e 33c1 9b3d dd94 d83e
000003d0: 93d4 a9be a7a7 7b3d 311d d63d a366 c6be
000003e0: a93f d13d 21d5 13be 7d18 863e 960e cbbe
000003f0: 65d7 a9be 294b 4b3e c589 1bbd 351e 9a3e
0.20678577 0.0064777 -0.0585853 -0.39745688 0.40542492 0.39865643 -0.047864184 0.1644061
0.07035044 -0.078667514 0.17173481 -0.06897789 0.30817205 0.016470646 -0.18687923 -0.026405219
0.05574771 0.10096463 0.06826119 0.37350354 0.15839496 -0.038030572 -0.036187164 0.3904594
0.40432954 0.0086131 -0.105991386 0.19768596 0.26893818 -0.034495443 0.2738772 -0.026668303
-0.16320167 0.104333356 -0.17236051 0.4296729 -0.25705725 -0.426168 -0.11948065 0.23925598
0.21224958 0.040197447 0.23829113 -0.09130695 -0.1614179 -0.082243234 -0.21518919 -0.24490851
0.33360612 -0.25926325 -0.40010256 0.06253124 -0.45254987 0.1428662 -0.46037167 0.13238217
0.08644837 -0.4039225 -0.33622426 0.12493767 0.21961774 -0.03315285 0.119961515 -0.005570453
-0.44240713 -0.2531461 -3.5495617e-05 -0.21438354 0.37305018 0.05569197 -0.14325203 -0.0919705
-0.27261016 0.091057755 0.10258497 0.2922087 -0.09702878 -0.33053848 0.3318199 -0.20603086
0.013561078 -0.30982578 0.30186477 0.25994015 0.18373291 0.099765316 -0.02716202 0.15031451
0.15676579 0.103525035 -0.062805094 0.012159941 0.24944398 -0.21790941 0.056308277 0.018091848
0.093739025 -0.24121541 -0.0074670915 -0.30801496 0.18748297 -0.3733686 -0.4931437 -0.056353733
0.49520218 0.022771541 0.26503325 -0.47938454 0.027583998 0.08121667 0.32843384 -0.1704645
0.10954225 -0.020056257 -0.06823453 0.30060568 0.37880066 -0.5093233 -0.13187225 -0.26276705
0.2936424 -0.10459167 0.16395366 -0.12037784 -0.22113863 0.30296105 -0.47331694 0.3314878
-0.08079791 -0.14450619 0.02817967 -0.08957927 0.18233272 -0.053365882 -0.0962875 0.22082359
0.36666757 -0.24949464 0.16417897 0.038711704 0.3925999 -0.08372123 0.4145427 0.32287776
-0.24434122 0.23605682 -0.3464269 -0.023733975 0.053892266 0.45121604 -0.11078142 -0.107997194
-0.09365995 0.18566768 0.19232768 0.2278324 0.17211528 -0.32938114 0.022536827 -0.31790584
0.41557044 0.40381682 -0.035229143 -0.1112419 0.18166922 0.03090621 0.22097045 0.3648744
0.31259558 -0.47438896 -0.39701515 -0.38609853 0.34705094 -0.0061397203 -0.27497226 -0.08653162
-0.08137979 0.1206976 -0.15703143 0.49783683 0.2583383 -0.2934836 -0.10050559 -0.06618476
-0.17742732 0.21655945 -0.14868443 -0.36122072 -0.2824819 0.39169982 0.16890106 0.10545021
0.06126535 0.118873544 0.07062787 0.45961148 0.20410557 0.29034084 -0.22979397 0.06000789
-0.038817443 0.29295313 -0.10104975 0.14206329 -0.108079106 0.07390736 0.07106632 0.41707298
-0.07909083 0.23199014 0.22635138 0.101224706 0.18229072 -0.2602318 -0.36049637 0.010493334
-0.2612169 0.2520211 -0.061945442 -0.3877277 -0.09565506 0.28118035 0.23422533 -0.15751772
-0.3611039 0.009169936 0.08031198 -0.11343792 -0.40340057 0.27560136 -0.047603954 0.108902395
0.43484816 -0.067488916 -0.078386195 -0.047968585 0.009770526 -0.11780333 0.17018501 -0.28564847
-0.0373575 0.21053788 0.07605209 0.42301074 -0.33169994 0.061439183 0.104547866 -0.3875018
0.1021722 -0.14436771 0.26190558 -0.39659566 -0.33172145 0.1985289 -0.037973184 0.3010117

network.0.bias f4 [32]
00000000: b49e cf3d 0620 8b3e ff33 963d 1e16 b13c
00000010: a778 123e 009e d13e 9327 a43e 4107 323e
00000020: 5f73 2d3e de34 003e 0a1b 983d 8e1d 45bc
00000030: 4220 6c3e e485 ef3d b261 a73c 4763 e13e
00000040: b3b8 52bd 482c 89bd 436f 87be e5b2 bf3e
00000050: d9d8 5abe d967 b53d 4434 62be 1951 ab3e
00000060: 3c38 cd3d cac6 b33e 8d94 7a3e cbe9 3d3e
00000070: 2963 8d3e 5a17 7c3e b949 1dbd 29e4 fd3e
0.10137692 0.2717287 0.07334136 0.021616992 0.14303838 0.40940857 0.32061443 0.1738558
0.16938542 0.12520167 0.07427032 -0.012030972 0.2305918 0.116954595 0.020432327 0.44021055
-0.051445674 -0.06697899 -0.26452073 0.37441173 -0.21371783 0.08857698 -0.2209025 0.3346031
0.100204915 0.35112602 0.2447073 0.18546216 0.27614716 0.24618283 -0.038400386 0.49588135

network.2.weight f4 [16, 32]
00000000: 4cfc 2b3e 19de 08be a318 883d 1ccd f83c
00000010: 477a 813e 8df2 5f3d d29b 3cbd dc6c 403e
00000020: c152 81bd 364b 8f3e 21de 18be bd96 4fbe
00000030: c871 d63a a55a 003e 5e3f 593e 014b 1abd
00000040: 88b7 d33d 6e5e 5bbe b37c 613e 296b 503e
00000050: eb15 9a3e 5add 8a3e 332a c33d a683 583e
00000060: f33d 4e3c 0ca2 8d3e 020e 5fbd f342 43bd
00000070: f86c ef3c dc55 51bc e6e7 1a3e 9831 813e
00000080: 835a a03e a9cb 9bb9 e01a 583d a44b 883c
00000090: 17e4 9abe ec80 b3be ecd5 b63e b791 5bbd
000000a0: cf05 cc3e 106f 1dbe 090f a13e b205 963e
000000b0: 907d 933e 51e7 ddbd 35ee f5bd cda9 b23e
000000c0: 5ffe 3dbe e13f 4e3e 2bdc b4bc c2c5 b8bd
000000d0: 2329 1abe 5e07 82be 2d99 48be 4cd7 fe3d
000000e0: 8f44 9a3e e858 04be 9113 153e 408a 583e
000000f0: 2ac9 ae3d 0275 dd3d 7e13 453e af30 d73d
00000100: 0b54 593e 8254 a1bd b28f b43e c443 353e
00000110: a776 553e bf09 983e 4a7f 263e d140 973e
00000120: 9c90 ecbc 438b 90bd 7858 2e3e e580 c4bd
00000130: df90 893c 2990 94bd 645f 2b3d 1eec a5bd
00000140: 481a 1a3e a89d bbbd 5978 393e 1bca cfbd
00000150: 042f 5c3e 1c89 09be 08c6 583e 3a43 903d
00000160: 66ed dfbd 587a 273e 866d 203c 70a1 82be
00000170: b68f 14bd 18d8 a53c 42fe 0cbd dccc eb3d
00000180: ca77 0e3e 4369 6cbe 2da7 833e 26e5 b73e
00000190: a853 a2bc 3f68 6f3e 8b60 82bd 323c 983e
000001a0: c86b bfbd 1e91 11be 3e6b 87bd 9f1c 8b3c
000001b0: 3951 d6bc 3417 9abe 41fc 243e 6d1b 753e
000001c0: 3d19 ac3e 8978 fbbc 865b 0c3e ac15 95be
000001d0: 8404 cd3e 0a19 91be baac b2be 2a6f eabd
000001e0: e8cd c6bd 8dbd 9c3e e293 d4bd 1cd6 a03d
000001f0: b55b c83d ba68 a4be 6bef 87bd bf78 44be
00000200: d899 723d 93fb cebd 3e1b 113e c0e1 29be
00000210: 0f2c 01bc 8c86 04be 5d58 3bbe 445d c6bd
00000220: 20d1 d4bb 2fb1 1abe f6c6 98bd 2b00 2fbe
00000230: b869 fbbd 8528 123e ee3c 9e3d 2b9e dbbd
00000240: ab02 8e3d 8c1d 333d 4d03 0dbe b44d 0fbe
00000250: 1c88 0bbd 4068 efbd 6746 1f3e 5829 5abd
00000260: 7827 3ebe 137a 7c3d 4a5b 24be ac07 12bd
00000270: 9c69 10be b350 86bd e356 84bd 3a0b fcbd
00000280: a42d ddbd 0854 13bd 83fc 07be f582 0cbe
00000290: e1df 9bbd cfaf 84bd 84b7 7e3d 3a50 ca3d
000002a0: d93a fcbd 866d c33d 743e 13bd c2b4 edbd
000002b0: 72a7 0cbe 4a39 883d 50b4 6bbc 32e2 dd3d
000002c0: 14c4 fabd 7993 eabd d644 ebbd a0e9 efbc
000002d0: 0034 d3bc d8db 38bd 1921 0d3e b996 afbd
000002e0: 904f e9bd 08d3 913c 3e05 9b3d f681 dbbd
000002f0: 0307 17be 8634 c6bd d2eb d2bd 3098 42bd
00000300: 6eec 973e 5b5f 043c 1949 bb3e f6ed 923e
00000310: 98e7 b03d 061f f73d aebc 013d 2495 3f3d
00000320: cee1 73be fa86 dc3e 0868 e13d 400a fdbd
00000330: c3fa be3d 17e4 003e e89d 5f3e 8228 6bbe
00000340: 70f6 be3e 9554 2fbd 309b 4c3e 4d9d b63e
00000350: 6001 423d e235 713e dc51 8a3e 8d84 193e
00000360: 0c01 20be 9af8 a63e e773 acbc dcde 8fbe
00000370: c52d 523c 832b c33e d9a7 553e 5b30 263e
00000380: b96a bd3e d217 af3e fc82 cd3b 17d8 f9bc
00000390: 0b6e 043e 71d5 3fbd b74b 973e 3871 6d3d
000003a0: d2db 793e f04a 153e ade3 6f3e ac08 a33e
000003b0: e292 633e 00fd 403e 23e6 783d 346e b83e
000003c0: 9ef1 dcbd df6f 123e f7ee 06be acc5 a43d
000003d0: e799 a8be 927e 7e3e e641 31be bd16 393e
000003e0: b20b 943e b3b6 11bd 143a a83e e912 b43e
000003f0: b6f1 d93d 0eee 563d e884 583e 890f 843e
0.16795462 -0.13365974 0.06645324 0.030371241 0.25288603 0.054674674 -0.04604704 0.18791527
-0.06314612 0.2798707 -0.14928485 -0.20272346 0.0016360814 0.12534578 0.21215579 -0.037669186
0.1033774 -0.21422741 0.22020225 0.20353378 0.30094847 0.27122003 0.09529533 0.2114397
0.012588012 0.27662694 -0.05445672 -0.04767127 0.029226765 -0.012776818 0.15127525 0.2523315
0.31319055 -0.00029715642 0.052760005 0.01663763 -0.30252144 -0.35059297 0.35710084 -0.05360576
0.39848182 -0.15374398 0.31456783 0.2930122 0.28806734 -0.10835136 -0.12008325 0.34895173
-0.18554066 0.20141555 -0.02207764 -0.09022094 -0.15054755 -0.25396246 -0.19589682 0.12443408
0.3013043 -0.1292454 0.14558245 0.21146488 0.08534463 0.10813333 0.19245717 0.105073325
0.21223466 -0.07877447 0.3526588 0.17701632 0.20846044 0.29694936 0.16259494 0.29541638
-0.028877549 -0.07057812 0.17025936 -0.09594897 0.016792713 -0.07254059 0.04183902 -0.081016764
0.15049088 -0.0916093 0.18112315 -0.101459704 0.2150231 -0.1343121 0.21169293 0.070440724
-0.10933952 0.16355264 0.009791737 -0.25513792 -0.036269866 0.020244643 -0.034422167 0.11513683
0.13912883 -0.23087029 0.25713482 0.35917014 -0.019815281 0.2337961 -0.0636607 0.29733425
-0.093467295 -0.14215514 -0.06612252 0.016981421 -0.026161777 -0.30095828 0.16111852 0.23936243
0.33613005 -0.030697124 0.13706788 -0.29118097 0.40042508 -0.28339416 -0.34897405 -0.11446984
-0.09707242 0.30613366 -0.10379769 0.07853338 0.09783117 -0.3211115 -0.06637462 -0.19186686
0.059228748 -0.10106578 0.14170548 -0.16590023 -0.00788404 -0.1294195 -0.18295427 -0.09685758
-0.006494656 -0.15106653 -0.07459824 -0.17089908 -0.122760236 0.1427327 0.07726465 -0.107235275
0.069341026 0.04372935 -0.1377079 -0.13994485 -0.03406535 -0.11689806 0.155542 -0.053262085
-0.18569744 0.061639857 -0.16050449 -0.035651848 -0.14102787 -0.06558361 -0.06461885 -0.12306829
-0.10799721 -0.03596881 -0.1327992 -0.13721831 -0.07611061 -0.06478845 0.062186733 0.09878583
-0.12315912 0.09542374 -0.03594823 -0.116067424 -0.1373575 0.06651552 -0.014386252 0.10834159
-0.1224443 -0.114539094 -0.11487739 -0.029286206 -0.025781631 -0.045131534 0.13782157 -0.0857367
-0.113921285 0.017800823 0.07569359 -0.107181475 -0.14748769 -0.09677987 -0.102988854 -0.04750842
0.2967257 0.008079375 0.36579207 0.28697175 0.08637923 0.12066464 0.03167408 0.04677309
-0.23816606 0.4307173 0.110061705 -0.12355471 0.09325173 0.1258701 0.2183758 -0.22964671
0.37297392 -0.042805273 0.19981074 0.35666886 0.047364593 0.23555711 0.2701558 0.1499197
-0.156254 0.32611543 -0.02105136 -0.28099716 0.012828295 0.38119134 0.2086481 0.16229384
0.36995485 0.3419786 0.006271718 -0.030498547 0.12932603 -0.046834413 0.29549953 0.057969302
0.24400261 0.14579368 0.23426695 0.31842554 0.22224 0.18846512 0.06076635 0.36021578
-0.10788272 0.14300488 -0.13177095 0.080455154 -0.32929918 0.2485297 -0.17310295 0.1807508
0.28915173 -0.035574626 0.3285681 0.35170677 0.10641806 0.05247312 0.2114445 0.25793102

network.2.bias f4 [16]
00000000: 9df0 1e3e f52d 3f3e 8f31 833d 6859 b3bc
00000010: c146 11be 30df 7fbd 0b67 2a3d fad4 843e
00000020: 4d17 cd3d 1909 573e adb5 2d3e 32ed 5c3d
00000030: 3dcc 49be 7a21 bcbc bc44 883e ed36 453e
0.15521474 0.18669875 0.06405937 -0.021893218 -0.14187147 -0.062468708 0.041602176 0.25943738
0.1001421 0.20999564 0.16963835 0.053937145 -0.19706817 -0.022965182 0.2661494 0.19259234

network.4.weight f4 [3, 16]
00000000: 710b e4be 4af8 e93e 5e6d b8be d3b8 23be
00000010: b1c1 173e b8e0 9abd 38d7 14bf 76ca 2b3e
00000020: d1e0 28be 305e 8dbe 46ce cbbe 4624 db3e
00000030: fbbf f6bc 7b16 42be 794d 3ebe a906 793e
00000040: b9f7 223e 4793 abbe ee65 6a3b 054e d4be
00000050: 1f2a 523e 64a8 9f3d d116 fe3d dad0 3bbe
00000060: bac1 afbe fbd9 033f 1105 bf3e 51e4 223e
00000070: e109 44be 59f8 13bd 0a4f e63e 3b14 3a3e
00000080: 3fde 223e 259e 25be 604e d33e fc55 ea3e
00000090: 3a5b c7bd 1a06 683e d9bc d63d 1690 bfbe
000000a0: 5fa5 d83e d056 24be 5ba5 7d3c a898 86be
000000b0: 30c2 59be 17ca 463e 4a96 06bf d2eb d9be
-0.4453998 0.45697242 -0.3602094 -0.15988474 0.14819981 -0.07562393 -0.581409 0.16776451
-0.1649201 -0.27610922 -0.39805812 0.42801112 -0.03012084 -0.18953888 -0.18584241 0.24318947
0.15914811 -0.335108 0.0035766321 -0.41465774 0.2052388 0.0779579 0.12406696 -0.1834139
-0.3432749 0.51504487 0.37308553 0.15907408 -0.19144394 -0.036125515 0.44982177 0.1817178
0.15905093 -0.16173609 0.41270733 0.45768726 -0.09734197 0.22658578 0.104852386 -0.37414616
0.42313668 -0.16048741 0.015481318 -0.26288342 -0.21265483 0.19413029 -0.5257307 -0.4256273

network.4.bias f4 [3]
00000000: 0b12 b7bd bed2 70bd 8fca 123e
-0.08938988 -0.05879473 0.14335082

exp_avg f4 [32, 13]
00000000: 1f73 57b8 99a3 8a38 263a 5537 f2b5 3239
00000010: ad61 91b8 943c d5b8 0564 1cb8 8c58 16b9
00000020: d102 7139 1cbb 9b38 9ae4 92b8 4ad3 e737
00000030: c5d7 4bb7 69db 81b8 3f06 41b8 4a35 7cb8
00000040: b792 d238 af07 25b8 da5f 24b8 3d5a 19b8
00000050: a3aa bcb7 0cc1 b238 1c51 9038 3016 13b7
00000060: 9830 2db8 af8c 8eb8 21db cab8 4bd7 4db9
00000070: f6f3 3eb9 3b8f cb38 b646 6439 e15c 71b8
00000080: 8a8f 1d3a 9b61 98b8 116b 6739 9846 27b9
00000090: f0ff cb39 0c17 8e39 ad8d 8cb8 fb5f 27b9
000000a0: cd00 22b9 427b b7b9 a02d 1039 dc44 3539
000000b0: 51f5 f5b8 367e 573a 244e 46b9 0956 cc39
000000c0: 3831 08b9 0800 f339 5e06 ca39 de8c fbb8
000000d0: e952 af38 1a5b 0f38 4b64 dc38 2568 44b8
000000e0: 5d07 12b9 6874 b238 37de 37b9 236a 0038
000000f0: 6cc6 e8b8 b1ad c538 3915 19b9 498b 80b8
00000100: ce2e 7b38 2238 4839 3f47 4738 db2b de39
00000110: 7fdc 13b9 0d3e 0237 e86a 0e38 8e9d 73b9
00000120: b852 3d39 89c7 29b9 1c39 bc37 4a60 b1b8
00000130: 856b 76b7 e1b7 9139 703f 35b8 1242 0637
00000140: 64d3 8e38 cb88 5f39 bddf d3b5 bc58 02b9
00000150: 77ca 89b8 2cb1 5bb9 36e6 7739 8b98 3d38
00000160: fe81 aeb8 1cd4 4eb6 960c 3437 51d8 a3b8
00000170: 6565 33b8 1f16 1bb9 7871 0938 195a 0938
00000180: 1b4d 5838 95cc e739 6fdd f4b8 c1d2 9739
00000190: 3484 57b8 d07f 7339 f9d1 9939 bf60 14b7
000001a0: ee5c 50b9 cff2 a0b8 9bdf dbb9 3672 6b39
000001b0: 4bd8 f9b8 9afd b0b7 e763 08b9 b186 98b8
000001c0: ca5f 1639 84c4 0339 cdc6 b2b8 f8d2 76b9
000001d0: 9e05 bbb9 20f9 8a39 dc26 29b8 e61a 1739
000001e0: 3982 70b9 72cf 09b6 c494 1738 6b10 5c38
000001f0: a5b8 c538 10c5 2db9 c23c b238 b0c7 e6b7
00000200: 1a02 e637 d7c4 6639 96e9 a3b8 4f68 07b9
00000210: dbaf 9fb8 c956 de38 2d06 32b8 33e9 aeb8
00000220: baf4 f0b8 696b 9a38 2d96 ecb6 dc59 7f38
00000230: 6ef1 5cb5 d497 fab8 b3fb c1b8 7324 d9b8
00000240: 472b 6bb9 a797 7bb9 0f2d 0039 8f75 f5b7
00000250: 169f a8b7 38b5 2cb9 6925 b938 88f6 9cb8
00000260: 4195 2338 586a 5eb5 3c34 73b9 d950 5db9
00000270: 819e 3ab8 49b7 84b8 8322 12b9 44c6 bb38
00000280: 79b6 0cb9 0f82 81b8 8d80 88b8 3550 a138
00000290: fece 4438 ad6f f238 9970 b8b7 722d adb8
000002a0: c040 bdb8 ce7e c239 a860 7139 9947 2e39
000002b0: dcb0 10b9 ea86 8cb9 860b 1739 c37b c338
000002c0: 5fe9 8bb9 7bfd aa39 a3f1 ec38 5e38 8eb9
000002d0: 571b 8d39 d448 d239 c330 3238 0904 0538
000002e0: d55a 8f38 ff4d b1b7 c9c3 f5b7 5888 9538
000002f0: fcb7 15b9 838f 3cb7 4b01 8eb7 fdaa 0538
00000300: d8ca b5b8 82e2 a8b7 6cda 4b38 ce34 6bb9
00000310: a63b 96b9 b58a b0b9 081d 1a39 d667 11b8
00000320: 4a48 3d36 ed2b cab8 7e16 b237 d54f 1338
00000330: d180 9438 187e d0b7 c2a4 6db9 ca80 91b9
00000340: 95ba e6b8 4b78 d0b8 0db0 79b9 09a3 b138
00000350: 83b9 bd38 544f b6b7 6d12 1c3a 336d 3cb9
00000360: d5c8 b639 7f1a 98b8 2c3a a839 a9af ac39
00000370: 26fc 55b8 8ca1 7ab8 034b fbb8 35d7 9937
00000380: 5806 0e39 f0bc 2837 6f32 d3b7 1274 88b8
00000390: f9ca 4938 1c8f 4638 bdf0 bb37 b77b 0d38
000003a0: 9cbf adb8 5e06 b2b8 6a04 5438 abec 5539
000003b0: 6872 49b9 1433 0739 1672 77b8 adad 6bb8
000003c0: fbc2 9639 e8c0 e038 0d5e 2f38 741b 8db8
000003d0: 9f92 6b39 e40c 0639 d83b 0eb9 e905 5039
000003e0: d885 09b8 1334 cd38 1d89 0eba dfb3 4cb9
000003f0: 7c54 4539 3ef2 5aba 7275 263a 327a 2dba
-5.136721e-05 6.610825e-05 1.2709328e-05 0.00017043183 -6.932332e-05 -0.00010167915 -3.728645e-05 -0.00014338101
0.000229846 7.425828e-05 -7.004403e-05 2.7635735e-05 -1.2149981e-05 -6.192068e-05 -4.6020603e-05 -6.013111e-05
0.00010040908 -3.934622e-05 -3.9189916e-05 -3.6562084e-05 -2.2490805e-05 8.523659e-05 6.881563e-05 -8.767049e-06
-4.129167e-05 -6.797292e-05 -9.6729265e-05 -0.00019630526 -0.00018210695 9.706473e-05 0.00021770116 -5.7545378e-05
0.00060104637 -7.266105e-05 0.00022069762 -0.0001595266 0.00038909866 0.00027101522 -6.7021094e-05 -0.00015962117
-0.00015449822 -0.00034996314 0.00013749907 0.00017287157 -0.00011728204 0.0008220406 -0.00018911861 0.00038974013
-0.00012988306 0.00046348595 0.00038533186 -0.00011994851 8.3600935e-05 3.41787e-05 0.000105090985 -4.6827034e-05
-0.00013926388 8.509384e-05 -0.00017535021 3.0616426e-05 -0.00011099581 9.4260446e-05 -0.00014599123 -6.1294595e-05
5.9886654e-05 0.00019094397 4.751165e-05 0.00042375815 -0.00014101154 7.763051e-06 3.3955002e-05 -0.0002323298
0.0001805526 -0.00016191429 2.243794e-05 -8.457953e-05 -1.46877765e-05 0.00027793556 -4.3212844e-05 8.002406e-06
6.810462e-05 0.00021317897 -1.5785841e-06 -0.00012430822 -6.570381e-05 -0.00020951469 0.00023641516 4.5203178e-05
-8.3211795e-05 -3.0819856e-06 1.0731766e-05 -7.812738e-05 -4.2771357e-05 -0.00014790193 3.276902e-05 3.2747255e-05
5.1570223e-05 0.0004421218 -0.00011676072 0.00028957988 -5.138312e-05 0.000232219 0.00029338876 -8.844013e-06
-0.00019871045 -7.674621e-05 -0.00041937534 0.00022453893 -0.00011913533 -2.1098927e-05 -0.00013007187 -7.273013e-05
0.00014340799 0.00012566341 -8.524731e-05 -0.0002353898 -0.00035671605 0.00026507024 -4.032893e-05 0.00014410503
-0.00022936695 -2.053534e-06 3.6139754e-05 5.2467378e-05 9.428085e-05 -0.00016571977 8.4990184e-05 -2.7511123e-05
2.7419115e-05 0.00022007838 -7.8159545e-05 -0.00012913461 -7.6144664e-05 0.0001060195 -4.244426e-05 -8.340403e-05
-0.00011489676 7.363299e-05 -7.050831e-06 6.0880426e-05 -8.2307713e-07 -0.00011949209 -9.24984e-05 -0.000103541555
-0.00022427469 -0.0002399372 0.00012223817 -2.9261018e-05 -2.010124e-05 -0.00016470707 8.8284556e-05 -7.48458e-05
3.9001232e-05 -8.2856195e-07 -0.00023193745 -0.0002110632 -4.4493474e-05 -6.32839e-05 -0.00013936502 8.953785e-05
-0.00013419417 -6.175425e-05 -6.50893e-05 7.692018e-05 4.6922818e-05 0.000115602605 -2.1986942e-05 -8.257748e-05
-9.024283e-05 0.0003709704 0.00023019558 0.00016620605 -0.00013798795 -0.000268034 0.00014404775 9.321377e-05
-0.0002668602 0.00032613784 0.00011298365 -0.00027126347 0.00026913985 0.00040108582 4.248392e-05 3.171343e-05
6.83569e-05 -2.1136364e-05 -2.9297446e-05 7.13027e-05 -0.00014278287 -1.1239087e-05 -1.6928321e-05 3.1868916e-05
-8.668535e-05 -2.0132637e-05 4.8602393e-05 -0.00022431018 -0.0002865467 -0.0003367268 0.000146974 -3.46674e-05
2.8205272e-06 -9.6402924e-05 2.1229727e-05 3.512188e-05 7.081184e-05 -2.485425e-05 -0.00022663458 -0.0002775251
-0.00011002008 -9.940619e-05 -0.00023812075 8.4703854e-05 9.0467765e-05 -2.173303e-05 0.00059536734 -0.00017969757
0.00034863377 -7.25286e-05 0.00032086798 0.00032937273 -5.101799e-05 -5.9755097e-05 -0.00011982585 1.8339235e-05
0.00013544539 1.0057571e-05 -2.5176645e-05 -6.506605e-05 4.8111167e-05 4.734016e-05 2.240424e-05 3.3732238e-05
-8.284973e-05 -8.4888874e-05 5.054885e-05 0.00020401429 -0.00019211473 0.00012893631 -5.899564e-05 -5.6190114e-05
0.000287555 0.00010717084 4.1810843e-05 -6.7285175e-05 0.00022465967 0.00012784038 -0.00013564469 0.00019838627
-3.2787997e-05 9.784861e-05 -0.00054373016 -0.00019521963 0.00018818857 -0.0008352137 0.0006349898 -0.0006617635

exp_avg_sq f4 [32, 13]
00000000: 009b 5b37 7624 4a36 033c 8536 536b 2837
00000010: be96 a836 cea8 3137 994d 4f37 27dc 8236
00000020: 05fd ac36 c5fd 3d36 8b0c 4636 fb41 ea36
00000030: fe98 b337 a39f 4636 f3b2 5436 400b 4b37
00000040: 454a 9c36 8d3e cb36 9867 2b36 9887 4736
00000050: ad50 8d36 bcbb 6836 92e3 6336 44f9 4336
00000060: 9485 ad36 d466 9036 7e40 b736 fa2a 1038
00000070: 1685 6137 fbaf 8b37 7c72 d737 6ebc c537
00000080: d8f4 0538 2028 8038 30dd cb37 8beb 6837
00000090: 3806 ac37 aefc 3738 5bae 3337 f341 3037
000000a0: 262f a638 48ec cf37 80a8 1c38 e5f2 4138
000000b0: 9c06 5d38 ce48 9738 a300 0539 0652 5b38
000000c0: d873 2438 d8e4 4238 8ed7 c738 1cbe d637
000000d0: ffe0 0d36 6e18 5836 9028 0836 dea2 9335
000000e0: a05c 9037 063d 3836 a049 6136 35af 6c36
000000f0: 53ab 0a37 8d1f 1736 5b38 2836 c364 6336
00000100: 82ed 0d36 3233 3837 241f 1137 a6a0 1638
00000110: 6e71 8d37 cd9b 1338 8ee3 0f37 bfc4 2c37
00000120: 9646 3637 b812 7337 0113 e936 1ecf 0637
00000130: 3205 3037 c152 6037 6cc8 5e37 7a06 8c36
00000140: c0af cf36 cfb1 7e37 5960 b936 bc9e 6e37
00000150: 1c1a 9437 8886 d736 516c 0437 7044 1c36
00000160: 446b b836 d963 5837 3238 da37 b6ed 1836
00000170: 154b 1b37 dd83 8636 3764 8936 8650 9836
00000180: 2c4f e736 d836 2c37 617d 3b37 6866 0237
00000190: 4619 ae36 ea0e ea36 aa21 4b37 0756 8d36
000001a0: 884f d037 6690 9e37 1cd8 8c38 5e60 1838
000001b0: 0dea 6638 b438 ba37 3783 f837 75e2 8a37
000001c0: 210c cd37 fa7a e236 0cc5 6b37 2e77 1238
000001d0: 2cf7 2b38 aff5 ae37 ac19 4e37 df29 7137
000001e0: 4578 8137 22a8 fc37 0fea 2a37 2966 dd36
000001f0: 8b45 0c37 0d92 7437 01b7 ad37 ccb1 1137
00000200: 68f6 1937 d089 b037 d624 5936 ffed ce35
00000210: a204 3b36 b57d 3e36 664f b535 70ef 9b36
00000220: 0913 c136 7bac 0e36 97ae 2536 168a fa34
00000230: d70f 3136 e7d1 6136 b176 0837 af33 2737
00000240: a003 ee36 5fc6 b837 149e 8437 9149 5f37
00000250: bfae 3637 e642 6b37 2629 fa36 97d4 d836
00000260: e2ed 1836 f7e9 d236 c281 5237 e221 b837
00000270: 9621 cf36 ffbe 9636 2c87 9136 5778 0437
00000280: 9415 9036 c156 1d37 4a0f 3437 7718 c336
00000290: 912e 8d36 56db 0636 04cc bf36 cc4f 0f37
000002a0: 3d24 6537 256a 1f38 2a38 b637 7149 ea37
000002b0: e842 a037 1e06 0338 f974 9337 0c41 8c37
000002c0: 1ffe 0638 55fe f537 1a92 0a38 a341 8837
000002d0: 5f92 fb37 320a 0838 b128 e535 0394 e035
000002e0: b833 9f35 7a38 1236 b86a 0836 29a2 2d36
000002f0: ce2c 9036 329e b036 9e39 2436 d9bd d635
00000300: 3195 1736 b9df 5736 316e 1b36 668a 9637
00000310: 7bd2 6637 ad0d 2238 65c1 d737 6f9f 0738
00000320: bf2f 6137 95e7 8c37 fe21 5437 002a 8a37
00000330: 6df5 1f37 e62c 0737 399c 9737 b895 e237
00000340: 66a2 5f36 f2d3 ce37 646f a137 fd46 6d37
00000350: 8e2c a537 ea59 9437 dd16 d437 fbcc 1938
00000360: 379c 9a37 8d04 4937 e15f 8937 c093 0438
00000370: dfcf e536 f466 a536 cd18 4936 2036 cc35
00000380: 1b0f ee36 678f 4636 7b90 a236 5dab c736
00000390: 5445 8c36 b7d9 bc36 f564 5235 a56e e035
000003a0: f800 e836 601e d036 ac27 ec35 e5bb 5137
000003b0: c2a6 8036 f2f6 cb36 c814 0537 952f 0237
000003c0: dd78 0737 5bfe d237 f1da cd36 33cc c836
000003d0: ae81 d036 5907 4737 9108 9736 e9e3 ff37
000003e0: 27aa 6138 8bd2 8e37 eb3f 2d38 2ebe 1c38
000003f0: 5a67 0a38 58a2 bc37 42ff c138 2847 1f37
1.3089506e-05 3.0121569e-06 3.970695e-06 1.0038569e-05 5.024339e-06 1.0589325e-05 1.2356229e-05 3.899931e-06
5.155455e-06 2.8310908e-06 2.95116e-06 6.9814246e-06 2.1409705e-05 2.959722e-06 3.1694624e-06 1.2102362e-05
4.6578084e-06 6.0571533e-06 2.5541285e-06 2.9732237e-06 4.2115194e-06 3.467997e-06 3.39581e-06 2.9202356e-06
5.1713523e-06 4.303505e-06 5.461333e-06 3.43723e-05 1.3442032e-05 1.6652039e-05 2.5683308e-05 2.3571974e-05
3.19377e-05 6.1109895e-05 2.4302484e-05 1.3883119e-05 2.0506894e-05 4.3865926e-05 1.0709827e-05 1.05057725e-05
7.924279e-05 2.478635e-05 3.7350226e-05 4.6241e-05 5.269666e-05 7.213802e-05 0.00012684106 5.229006e-05
3.9208535e-05 4.646633e-05 9.52921e-05 2.5599315e-05 2.1141602e-06 3.2200728e-06 2.028919e-06 1.0999754e-06
1.720927e-05 2.7453657e-06 3.3570468e-06 3.5268724e-06 8.2653305e-06 2.2519118e-06 2.5066754e-06 3.3884287e-06
2.1148885e-06 1.09791745e-05 8.649924e-06 3.5912402e-05 1.686133e-05 3.5192632e-05 8.576446e-06 1.0297807e-05
1.086448e-05 1.4488287e-05 6.9461535e-06 8.035246e-06 1.0491627e-05 1.3370708e-05 1.32788955e-05 4.173079e-06
6.1895407e-06 1.5180979e-05 5.524646e-06 1.4222864e-05 1.7655133e-05 6.423161e-06 7.8930325e-06 2.3285647e-06
5.4961147e-06 1.2897851e-05 2.6013793e-05 2.278813e-06 9.256201e-06 4.008862e-06 4.0945847e-06 4.539327e-06
6.8935533e-06 1.0264768e-05 1.1175261e-05 7.772447e-06 5.1885463e-06 6.9754797e-06 1.2107581e-05 4.2121424e-06
2.4832567e-05 1.8902309e-05 6.715974e-05 3.6329373e-05 5.505425e-05 2.2199332e-05 2.9625005e-05 1.6556334e-05
2.4443552e-05 6.749641e-06 1.405297e-05 3.4920107e-05 4.0999774e-05 2.0856822e-05 1.2284534e-05 1.4374468e-05
1.5434003e-05 3.0119034e-05 1.0187286e-05 6.5982063e-06 8.360842e-06 1.4577538e-05 2.0708425e-05 8.68407e-06
9.176882e-06 2.1045009e-05 3.235696e-06 1.5417462e-06 2.7867868e-06 2.8385377e-06 1.3508659e-06 4.647234e-06
5.754064e-06 2.1260046e-06 2.468854e-06 4.66666e-07 2.6384275e-06 3.3649792e-06 8.133867e-06 9.966009e-06
7.0933747e-06 2.2026883e-05 1.5809237e-05 1.3308964e-05 1.0888732e-05 1.40226675e-05 7.455371e-06 6.4620504e-06
2.278823e-06 6.285725e-06 1.2547187e-05 2.1950287e-05 6.1729907e-06 4.4925832e-06 4.337073e-06 7.895832e-06
4.2940464e-06 9.378128e-06 1.0732396e-05 5.814301e-06 4.2075485e-06 2.0095226e-06 5.715994e-06 8.542043e-06
1.3657901e-05 3.800741e-05 2.1722244e-05 2.7929173e-05 1.9104642e-05 3.123853e-05 1.7578235e-05 1.671959e-05
3.218476e-05 2.9324709e-05 3.303783e-05 1.6243028e-05 2.9989691e-05 3.2434422e-05 1.7073672e-06 1.6732378e-06
1.1861475e-06 2.178857e-06 2.0327698e-06 2.5873398e-06 4.2967504e-06 5.263625e-06 2.4471442e-06 1.5999495e-06
2.2587594e-06 3.216772e-06 2.316094e-06 1.794584e-05 1.3758075e-05 3.8636546e-05 2.5720054e-05 3.2334992e-05
1.3422162e-05 1.679714e-05 1.2644099e-05 1.647044e-05 9.534281e-06 8.057081e-06 1.807335e-05 2.7011018e-05
3.3324118e-06 2.4655808e-05 1.9244566e-05 1.4142829e-05 1.969028e-05 1.7684844e-05 2.5283016e-05 3.6668946e-05
1.8430974e-05 1.1981593e-05 1.637632e-05 3.1608855e-05 6.848931e-06 4.9293685e-06 2.996577e-06 1.5214937e-06
7.0947112e-06 2.958777e-06 4.844796e-06 5.9506115e-06 4.180396e-06 5.628182e-06 7.837801e-07 1.6721502e-06
6.9142516e-06 6.202419e-06 1.7594916e-06 1.2501118e-05 3.8341104e-06 6.0786197e-06 7.932256e-06 7.759682e-06
8.074768e-06 2.5152394e-05 6.134964e-06 5.9842364e-06 6.2139798e-06 1.1863035e-05 4.501148e-06 3.0504498e-05
5.3802647e-05 1.702576e-05 4.1305942e-05 3.7370417e-05 3.2998018e-05 2.2486944e-05 9.2505026e-05 9.493706e-06

exp_avg f4 [32]
00000000: 95ea b5b9 f978 2cb9 1f92 96b8 c746 36b9
00000010: e9fa bfb8 eeb8 c037 4ee3 bab9 9389 2db9
00000020: 22c1 c0b9 64de dab6 cdb0 5eb9 86a2 5db9
00000030: c83b 8ab9 91be c7b9 5369 95b7 5967 adb9
00000040: f2ed 48b9 5a18 00b9 b024 4737 2030 4939
00000050: 9004 a1b8 d07a 8fb8 2124 94b8 8f15 f6b9
00000060: 40ef b4b9 ff3f 8eb9 049b b5b8 f65b 98b9
00000070: 61d9 90b9 8273 cfb9 8a81 23b9 019d e2b9
-0.00034697787 -0.00016448264 -7.1797745e-05 -0.00017383239 -9.1543254e-05 2.2974298e-05 -0.0003564604 -0.00016549816
-0.0003676499 -6.522796e-06 -0.00021237433 -0.00021136747 -0.00026365952 -0.0003809822 -1.781123e-05 -0.0003307413
-0.00019162128 -0.00012216103 1.1869866e-05 0.00019186782 -7.677928e-05 -6.841647e-05 -7.0639195e-05 -0.0004693684
-0.0003451053 -0.0002713203 -8.6596265e-05 -0.00029060215 -0.0002762778 -0.00039568177 -0.00015593148 -0.00043223056

exp_avg_sq f4 [32]
00000000: c843 7537 95dd 5137 af6b d337 c3a2 7138
00000010: e0da 1937 8d1a 9837 9256 5737 cc81 4d37
00000020: 9113 3238 ca92 c337 1e17 e936 de5a ad37
00000030: 4e80 8637 5565 6238 ffd1 4536 e498 ac37
00000040: a2f0 a337 409d 0b37 47ed 1837 d910 3238
00000050: a520 dc37 97a1 0938 f56d 6236 b265 c437
00000060: 30c6 0a37 25bb 0238 e6f6 2b36 bc30 0938
00000070: ba8a b637 58bf a537 711b 2937 bbce 5c38
1.46189195e-05 1.2508962e-05 2.5203304e-05 5.761046e-05 9.1704715e-06 1.8132176e-05 1.2835155e-05 1.2249173e-05
4.245673e-05 2.3314165e-05 6.9466323e-06 2.066552e-05 1.6033791e-05 5.397697e-05 2.9477521e-06 2.0575193e-05
1.9543168e-05 8.321658e-06 9.115151e-06 4.2454198e-05 2.6241245e-05 3.2813838e-05 3.3740628e-06 2.3412376e-05
8.271585e-06 3.1168707e-05 2.56247e-06 3.2708733e-05 2.176069e-05 1.9758634e-05 1.0079574e-05 5.264462e-05

exp_avg f4 [16, 32]
00000000: 73cb 52b8 dcdc b3b8 d5b3 93b8 48a2 7db7
00000010: cbd2 86b8 30c2 04b9 10a0 64b8 a771 7eb8
00000020: 0409 2239 2fba 1ab9 f54e 2eb8 061b 6b37
00000030: db74 89b8 3db7 06b9 dd83 97b7 c1cc 1539
00000040: f186 96b8 96df b638 736c 27b6 08e1 85b8
00000050: 7a53 11b8 9ec2 01b9 573a 1eb9 3e27 3cb8
00000060: a873 d438 4c9d ceb8 f100 2c39 3703 2039
00000070: a5f3 01b9 ddc4 22b9 0b5d abb8 24e0 1eb9
00000080: 50a1 04b9 d2cd 81b9 52c5 2d38 b5c5 b035
00000090: 5651 4538 9872 fe38 c411 42b9 9205 8e38
000000a0: 7943 26ba 94b9 1539 361c a0b9 71c2 bab9
000000b0: ef7e bbb9 8cbd 0339 d9d7 8034 061b 32ba
000000c0: 5f41 8438 0ede 89b9 58df 2f34 fada 89b7
000000d0: 60f2 0838 b05d 1239 a482 3a39 2621 d3b8
000000e0: 9034 efb9 dcdb e338 f76f 05ba 3d40 28ba
000000f0: c562 cbb7 f4cd e738 ad05 d6b8 cf1c 6738
00000100: 5b76 0238 e732 6437 23a3 98b9 0a11 83b9
00000110: 1b9d 6cb6 b847 c436 e9b3 8f38 ca25 b0b9
00000120: f5e1 5538 bb24 94b7 b905 1337 122c 3938
00000130: 6e07 c237 909e 8a38 6579 7cb8 8564 1838
00000140: 9038 a1b9 c43c 3ab7 d28e c5b8 da9e fe38
00000150: cfef ccb9 d4a5 e438 d272 5638 1c6c 6f38
00000160: 8b3d 6938 b231 afb9 35b3 b2b5 208c 4338
00000170: 0a5d c137 5aaf 0b39 bcdb 66b5 0077 bb38
00000180: 5a77 c237 f4be b50c 0863 20ba 9a16 06ba
00000190: bf12 7138 5f7e 2039 2e43 cf38 1684 33ba
000001a0: da7e 08b4 2227 0a39 7097 3280 1e5d 6c80
000001b0: 68e8 9037 e4fd 9439 594c ebb8 47cc 80b8
000001c0: 7baa 23ba 3ce1 df02 c142 4eb9 6104 c739
000001d0: 4ec9 54ba b8e2 aa39 dec7 2b39 3a57 2d39
000001e0: d85a 27b3 cfe8 31ba 61fd 5fb6 5ade 93b2
000001f0: 4e71 b135 9915 a339 1d6b 5738 f2e1 b139
00000200: 0000 0000 0000 0000 2c70 0600 9d69 0100
00000210: 8153 0400 0f4c 0200 a701 0000 a585 0000
00000220: 0000 0000 0000 0000 0000 0000 0000 0000
00000230: 0000 0000 0000 0000 f4e5 0200 0000 0000
00000240: 5848 0600 0000 0000 87ca 0000 0000 0000
00000250: 0000 0000 0000 0000 0000 0000 0000 0000
00000260: 0b1e 0000 ad97 0500 0000 0000 0000 0000
00000270: 2e3e 0300 34a0 0000 0000 0000 0000 0000
00000280: 0000 0000 0000 0000 0000 0000 0000 0000
00000290: 0000 0000 0000 0000 0000 0000 0000 0000
000002a0: 0000 0000 0000 0000 0000 0000 0000 0000
000002b0: 0000 0000 0000 0000 0000 0000 0000 0000
000002c0: 0000 0000 0000 0000 0000 0000 0000 0000
000002d0: 0000 0000 0000 0000 0000 0000 0000 0000
000002e0: 0000 0000 0000 0000 0000 0000 0000 0000
000002f0: 0000 0000 0000 0000 0000 0000 0000 0000
00000300: eca6 76b8 a3ce ab37 b08d 67b8 5bbf d8b6
00000310: bcae a0b8 edba 19b9 011b 27b8 5f76 d2b8
00000320: 2804 2b39 7b78 26b9 5f12 7c38 80e8 c638
00000330: c02f 2538 f2fa 15b9 a986 9db7 c6b2 3539
00000340: 8ce8 95b8 4192 8537 70ac ba35 8879 09b9
00000350: ea1d c3b7 9a75 5ab9 3390 24b9 974a 64b8
00000360: f91d 0b39 2b51 d6b8 6035 5e38 402a 1f39
00000370: c253 2fb8 ab23 4fb9 6205 3fb8 a890 2db9
00000380: 3ae3 e2b8 0bc9 02b9 fc37 0b38 1c36 fc37
00000390: 939c 17b8 16ad 9ab7 a759 1fb9 1f22 3a38
000003a0: 17b5 98b9 14e8 1938 2321 13b9 becc 39b9
000003b0: 0aa8 46b9 8ab2 69b6 c69a bfb6 aa46 9db9
000003c0: 77d9 1e38 b36a 01b9 9c34 d337 d75d c1b8
000003d0: f188 9c38 f638 29b8 10a4 4237 0a81 00b9
000003e0: 484e 59b9 2921 8638 aab1 77b9 dfb4 9ab9
000003f0: a795 60b8 f7ca afb8 2c73 74b8 1056 83b8
-5.025738e-05 -8.5765234e-05 -7.0430026e-05 -1.5117759e-05 -6.428881e-05 -0.00012660841 -5.4508506e-05 -6.0664166e-05
0.00015452883 -0.00014755943 -4.1558367e-05 1.4013383e-05 -6.554435e-05 -0.00012847497 -1.8062006e-05 0.00014286024
-7.177692e-05 8.7200824e-05 -2.4948065e-06 -6.3838495e-05 -3.4648438e-05 -0.00012374899 -0.00015089787 -4.485924e-05
0.000101304904 -9.852144e-05 0.00016403549 0.00015259987 -0.00012393163 -0.00015522861 -8.171246e-05 -0.00015151553
-0.00012648595 -0.00024758145 4.1430183e-05 1.3170562e-06 4.704421e-05 0.000121330086 -0.000185079 6.772125e-05
-0.00063424517 0.0001427888 -0.00030538597 -0.00035621555 -0.00035761992 0.00012563745 2.3998908e-07 -0.0006794188
6.306427e-05 -0.0002629612 1.6379397e-07 -1.6433642e-05 3.2650656e-05 0.00013958546 0.0001778701 -0.000100674384
-0.00045624794 0.000108651555 -0.00050902314 -0.00064182637 -2.4245479e-05 0.000110533 -0.000102053724 5.5101522e-05
3.1104642e-05 1.3601711e-05 -0.00029113246 -0.00024998962 -3.5258188e-06 5.8496043e-06 6.852282e-05 -0.0003359749
5.0993596e-05 -1.7660079e-05 8.763215e-06 4.414848e-05 2.3130062e-05 6.609887e-05 -6.019454e-05 3.633324e-05
-0.00030750455 -1.1100612e-05 -9.4202944e-05 0.00012141252 -0.00039088583 0.00010902775 5.112851e-05 5.7082725e-05
5.5608845e-05 -0.00033415627 -1.331419e-06 4.6622125e-05 2.3050718e-05 0.00013321397 -8.600143e-07 8.93902e-05
2.318218e-05 2.8002391e-31 -0.00061182724 -0.0005115062 5.7476336e-05 0.00015305866 9.8830424e-05 -0.00068479904
-1.2712135e-07 0.00013175284 -4.6461e-39 -9.951638e-39 1.727436e-05 0.00028417923 -0.00011219894 -6.141565e-05
-0.000624336 3.2896183e-37 -0.00019670559 0.000379595 -0.0008117155 0.00032593845 0.00016382287 0.0001653106
-3.896534e-08 -0.00067867053 -3.3377075e-06 -1.7214166e-08 1.3220504e-06 0.00031105874 5.135975e-05 0.00033928413
0.0 0.0 5.91253e-40 1.29722e-40 3.97298e-40 2.10956e-40 5.93e-43 4.7943e-41
0.0 0.0 0.0 0.0 0.0 0.0 2.66163e-40 0.0
5.76965e-40 0.0 7.2653e-41 0.0 0.0 0.0 0.0 0.0
1.0777e-41 5.13588e-40 0.0 0.0 2.97812e-40 5.747e-41 0.0 0.0
0.0 0.0 0.0 0.0 0.0 0.0 0.0 0.0
0.0 0.0 0.0 0.0 0.0 0.0 0.0 0.0
0.0 0.0 0.0 0.0 0.0 0.0 0.0 0.0
0.0 0.0 0.0 0.0 0.0 0.0 0.0 0.0
-5.880643e-05 2.0481011e-05 -5.520665e-05 -6.4595783e-06 -7.661941e-05 -0.00014660852 -3.9841052e-05 -0.00010035629
0.00016309379 -0.00015875876 6.009859e-05 9.484682e-05 3.9383536e-05 -0.00014303232 -1.8778564e-05 0.00017328103
-7.148189e-05 1.592294e-05 1.3908266e-06 -0.00013110612 -2.3259741e-05 -0.0002083391 -0.00015693977 -5.4428903e-05
0.00013267239 -0.00010219434 5.2978634e-05 0.00015179161 -4.1801257e-05 -0.00019754346 -4.554296e-05 -0.00016552454
-0.00010818844 -0.0001247266 3.3192322e-05 3.0065938e-05 -3.6147027e-05 -1.843883e-05 -0.0001519682 4.4377633e-05
-0.00029126622 3.6694182e-05 -0.00014031357 -0.00017719247 -0.00018945351 -3.482363e-06 -5.7102616e-06 -0.00029998022
3.7872665e-05 -0.00012342147 2.5177658e-05 -9.220436e-05 7.464167e-05 -4.034579e-05 1.16015e-05 -0.00012255102
-0.00020723895 6.3957945e-05 -0.0002362194 -0.00029507928 -5.3545136e-05 -8.3824554e-05 -5.8281395e-05 -6.262597e-05

exp_avg_sq f4 [16, 32]
00000000: 7bdd d736 a593 9c37 72af 8537 23b3 2937
00000010: f7e7 6237 5aad 3837 9731 eb36 52a1 cd36
00000020: 2ed3 2038 5f22 2837 7ae8 7937 7028 dd36
00000030: da23 6038 f698 3037 7618 1236 82d3 1738
00000040: 533b dd36 8661 1037 d67f 5935 0226 2d37
00000050: 5941 4636 a667 af36 f793 0336 11bb 6b37
00000060: 2a0b 0c37 7c33 ee37 2f3f 1738 e368 2438
00000070: 402b bd37 42e9 5037 f386 8d36 4d14 9837
00000080: e34b 0638 29f6 8838 4b0d 4036 8a40 4235
00000090: ff4d ab36 12f0 ce36 cee3 4838 ff1d fd35
000000a0: dabe 8339 cee2 9337 0135 2c38 5274 9538
000000b0: 8642 4039 ede5 9137 fb8e b234 7117 3739
000000c0: 23bf aa35 37a4 0838 48c0 af34 a2ef 2037
000000d0: 967e 1035 f30f de36 4f72 5e36 5a09 ed37
000000e0: a821 3837 d757 4736 bb00 cd38 68ae 8239
000000f0: 7a38 a837 e356 ab37 8ac1 ea36 3112 dd37
00000100: 680b 3a36 4b00 3736 0067 2538 f1bc 0a38
00000110: d459 ad37 5428 6637 d773 9736 776d b437
00000120: 78d0 1236 2dd3 8735 7a4a e934 45e6 c434
00000130: 27cd 8936 43b6 a835 f634 1537 0c44 6a36
00000140: 5c34 b737 05b9 0a36 a4fa 4736 a869 0837
00000150: 936c 1937 ce29 6136 5e45 f734 550d 4636
00000160: e96f ad36 047e 9138 8b42 2b36 b02d e035
00000170: e301 3d37 d0de 2736 71d1 b135 d871 d836
00000180: 0e9c 8d35 d1ed 3035 7abc c138 8170 a538
00000190: 518d 6c38 ccac c337 601d cd36 1692 8138
000001a0: 565d ca32 d2e3 6e36 acfa 7931 c43a 0632
000001b0: a86f dc34 205d f436 af42 ff37 549e b435
000001c0: 2d05 6e38 ec3e 8034 1869 1337 982d e537
000001d0: f510 c937 735f 4037 0cee 0f35 a11e d236
000001e0: 79e1 b536 38d6 4139 6a45 bb35 56cb 1931
000001f0: b27a e137 87d6 b636 4de8 6e36 0554 4f37
00000200: 0000 0000 0000 0000 fdc8 8a34 6d97 af31
00000210: 6d84 f233 c886 0733 f149 8f2f a35e 2e30
00000220: 0000 0000 0000 0000 0000 0000 0000 0000
00000230: 0000 0000 0000 0000 9117 4133 0000 0000
00000240: 0efd 6e34 0000 0000 4eae ca30 0000 0000
00000250: 0000 0000 0000 0000 0000 0000 0000 0000
00000260: ccb3 1232 7c35 3b34 0000 0000 0000 0000
00000270: c21b fb33 a51e 4232 0000 0000 0000 0000
00000280: 0000 0000 0000 0000 0000 0000 0000 0000
00000290: 0000 0000 0000 0000 0000 0000 0000 0000
000002a0: 0000 0000 0000 0000 0000 0000 0000 0000
000002b0: 0000 0000 0000 0000 0000 0000 0000 0000
000002c0: 0000 0000 0000 0000 0000 0000 0000 0000
000002d0: 0000 0000 0000 0000 0000 0000 0000 0000
000002e0: 0000 0000 0000 0000 0000 0000 0000 0000
000002f0: 0000 0000 0000 0000 0000 0000 0000 0000
00000300: b17e d636 0f4e 5037 f3f3 3437 3446 0137
00000310: 1937 2537 80fb 1b37 5ab7 bd36 b628 9536
00000320: 1c62 2737 84a3 2637 48f8 7f36 a242 a636
00000330: 9e19 8337 e89f 2e37 42ef c435 2126 2b37
00000340: 344c c636 300e 9736 338f 2035 297f e936
00000350: 28a2 d235 1ce0 9136 deb8 f735 c7cf 3337
00000360: 8f84 2036 367a 9a37 87fa e136 a1cd 1937
00000370: ce45 6837 f639 d036 1368 6736 f389 7f37
00000380: 4c53 6436 925e 1737 0b04 0e36 15ab c235
00000390: 2b81 1a36 9d13 6535 005d b336 c90c 1e36
000003a0: ceee c437 c93d 8f35 bf1b 9136 de32 0d37
000003b0: 47d8 9437 a243 8235 8b53 bc35 f744 9337
000003c0: 6ac0 ce35 111b 8d36 524c 7534 bd3f 3d36
000003d0: 67a6 0235 f45e 9a35 e32c 9c34 8c61 aa36
000003e0: ab6e ea35 47d6 ca36 2377 2737 5e27 c737
000003f0: 5b9a 5936 84ac 5336 5aea 9f35 09c4 7d36
6.433283e-06 1.8665402e-05 1.5936534e-05 1.01148935e-05 1.3524658e-05 1.1007616e-05 7.009319e-06 6.1282562e-06
3.834365e-05 1.0021583e-05 1.4895684e-05 6.591021e-06 5.343915e-05 1.05260315e-05 2.1769933e-06 3.6198187e-05
6.5932195e-06 8.605775e-06 8.1024825e-07 1.0320453e-05 2.9542337e-06 5.2274727e-06 1.9606648e-06 1.4050646e-05
8.34725e-06 2.8395785e-05 3.606005e-05 3.919833e-05 2.2550696e-05 1.2452076e-05 4.2178376e-06 1.8129265e-05
3.2018765e-05 6.530836e-05 2.8617967e-06 7.236455e-07 5.105277e-06 6.1672263e-06 4.7895875e-05 1.8858699e-06
0.00025128463 1.762938e-05 4.105736e-05 7.12654e-05 0.00018335329 1.7392415e-05 3.3259116e-07 0.00017460973
1.2721615e-06 3.2577864e-05 3.2736193e-07 9.592537e-06 5.3828387e-07 6.6179723e-06 3.3147114e-06 2.8256956e-05
1.0975091e-05 2.970444e-06 9.775298e-05 0.00024925475 2.005346e-05 2.0425248e-05 6.9962744e-06 2.6353724e-05
2.77228e-06 2.7269296e-06 3.943499e-05 3.307773e-05 2.0665037e-05 1.3718458e-05 4.513636e-06 2.1508646e-05
2.187704e-06 1.0119744e-06 4.345382e-07 3.6675388e-07 4.106801e-06 1.257002e-06 8.893423e-06 3.4908326e-06
2.1839682e-05 2.0671298e-06 2.9799203e-06 8.130832e-06 9.14479e-06 3.3551946e-06 4.6057806e-07 2.951206e-06
5.16883e-06 6.937611e-05 2.5519719e-06 1.6702597e-06 1.1265717e-05 2.5014633e-06 1.3248483e-06 6.450555e-06
1.0550737e-06 6.591118e-07 9.238064e-05 7.8887686e-05 5.6398396e-05 2.3326276e-05 6.112896e-06 6.17841e-05
2.355834e-08 3.5597373e-06 3.637676e-09 7.813188e-09 4.1059434e-07 7.282608e-06 3.042942e-05 1.3457125e-06
5.6748442e-05 2.388764e-07 8.786352e-06 2.7320159e-05 2.3968963e-05 1.1466315e-05 5.3618055e-07 6.2620534e-06
5.420469e-06 0.00018485717 1.3952788e-06 2.2380013e-09 2.6879225e-05 5.448997e-06 3.559998e-06 1.2357724e-05
0.0 0.0 2.585074e-07 5.1103854e-09 1.1293091e-07 3.155472e-08 2.6064087e-10 6.343532e-10
0.0 0.0 0.0 0.0 0.0 0.0 4.4957748e-08 0.0
2.2257538e-07 0.0 1.4746975e-09 0.0 0.0 0.0 0.0 0.0
8.5392e-09 1.743519e-07 0.0 0.0 1.16931474e-07 1.1299254e-08 0.0 0.0
0.0 0.0 0.0 0.0 0.0 0.0 0.0 0.0
0.0 0.0 0.0 0.0 0.0 0.0 0.0 0.0
0.0 0.0 0.0 0.0 0.0 0.0 0.0 0.0
0.0 0.0 0.0 0.0 0.0 0.0 0.0 0.0
6.392446e-06 1.2415941e-05 1.0785635e-05 7.705345e-06 9.847595e-06 9.297277e-06 5.653984e-06 4.4452854e-06
9.976819e-06 9.9324425e-06 3.814248e-06 4.9549426e-06 1.5628346e-05 1.0408439e-05 1.4672771e-06 1.0201272e-05
5.909731e-06 4.5018023e-06 5.9813027e-07 6.9587445e-06 1.5693413e-06 4.3474265e-06 1.8456738e-06 1.0717608e-05
2.3919017e-06 1.841514e-05 6.7346878e-06 9.167387e-06 1.384453e-05 6.2056306e-06 3.4482262e-06 1.5231303e-05
3.4023133e-06 9.02232e-06 2.1162002e-06 1.4503918e-06 2.3022974e-06 8.533769e-07 5.3454423e-06 2.3551277e-06
2.3476223e-05 1.0672312e-06 4.324567e-06 8.416098e-06 1.7743687e-05 9.705439e-07 1.4031406e-06 1.755588e-05
1.5404196e-06 4.2052784e-06 2.2845168e-07 2.8200295e-06 4.867092e-07 1.1501529e-06 2.9089924e-07 5.0777508e-06
1.7466567e-06 6.0450143e-06 9.981714e-06 2.374098e-05 3.2425366e-06 3.1541867e-06 1.1914628e-06 3.7814045e-06

exp_avg f4 [16]
00000000: e18c 1eb8 03ac 9fb9 055d c8b8 b4f5 64b9
00000010: fa85 0500 0000 0000 d89d 83b8 da7d 46b9
00000020: 4023 97b8 2c47 dab8 cbf8 0db8 34b1 2ab9
00000030: cd15 540c 4ba7 2202 f547 02b9 7b2e adb8
-3.780134e-05 -0.00030455002 -9.5540694e-05 -0.00021835306 5.07239e-40 0.0 -6.2759675e-05 -0.00018929635
-7.206807e-05 -0.00010408307 -3.3848726e-05 -0.00016278477 1.6338446e-31 1.1949891e-37 -0.00012424572 -8.2579405e-05

exp_avg_sq f4 [16]
00000000: 8c97 6038 081c 0339 9f5d 3b38 5bb9 af38
00000010: 6f53 9434 0000 0000 16aa 0938 ba0c a337
00000020: 5974 0439 69e5 8338 5eaa b238 a01a 6838
00000030: 7c88 0f33 27a7 5538 7be4 5c39 421e e938
5.35469e-05 0.00012503576 4.4671466e-05 8.3791754e-05 2.7627854e-07 0.0 3.282175e-05 1.943704e-05
0.00012631844 6.289298e-05 8.519435e-05 5.5337907e-05 3.3418914e-08 5.093883e-05 0.0002106595 0.00011115942

exp_avg f4 [3, 16]
00000000: 7579 083a ba9d 04bb 1fdd af39 c6eb 6538
00000010: 6a32 0000 0000 0000 7165 693a 4eab f6ba
00000020: 82aa 8438 8504 4e3a 96d3 5c3a ba94 b3ba
00000030: d6e9 a108 4947 1b80 53f5 3b3a b33f 6aba
00000040: 7605 95b9 adb1 ec3a c537 043a f23d 093b
00000050: 82b5 0000 0000 0000 e1a3 5dba 0233 5e3a
00000060: 428b e83a b286 17bb db49 daba f278 0039
00000070: 7049 cb88 f4ba 1400 aad5 03bb b750 87b9
00000080: c8d8 77b9 9550 6439 f225 5cba 83d5 0cbb
00000090: ede7 0080 0000 0000 180c 3cb8 4792 873a
000000a0: b8d5 f0ba 640b c83a bdc0 573a 0f86 a33a
000000b0: aa87 a507 518c 0600 e1b0 a93a 68f4 963a
0.0005206087 -0.0020235614 0.0003354335 5.4817436e-05 1.8085e-41 0.0 0.00089033606 -0.0018819363
6.32601e-05 0.000785895 0.0008423863 -0.001370094 9.74481e-34 -2.50513e-39 0.000717004 -0.00089358835
-0.00028423563 0.0018058323 0.00050437107 0.0020941463 6.5113e-41 0.0 -0.0008454901 0.00084762287
0.0017741697 -0.0023121056 -0.0016654091 0.00012252087 -1.2234883e-33 1.903776e-39 -0.0020116367 -0.00025809344
-0.00023636513 0.00021773794 -0.0008397988 -0.0021489568 -8.3199e-41 0.0 -4.4833956e-05 0.0010343277
-0.001837424 0.0015262184 0.00082303194 0.0012475866 2.4906177e-34 6.01349e-40 0.0012946391 0.001151693

exp_avg_sq f4 [3, 16]
00000000: e661 9338 0548 ca3a ac13 0d38 ecd2 8d37
00000010: 707c 1530 0000 0000 dded fd38 15d2 713a
00000020: 563f 9838 33b0 1d39 a222 b039 2b4e 1c3a
00000030: cb71 4832 e4c7 8f37 251f e338 c1b8 273a
00000040: aacd 9c39 535f 373a 1108 4c39 3f1e 9c39
00000050: a3d2 6f31 0000 0000 bbd6 d639 2a4d d939
00000060: bbb9 2e39 8a22 1e3a 345f 353a 6fe1 a439
00000070: 8ae9 9333 4364 0f36 bc68 0c3a db3e c539
00000080: e4b3 9339 b8a7 7f39 b4ae 8339 2f2a d139
00000090: 9b70 e631 0000 0000 90b3 c139 e7b3 c539
000000a0: a198 7439 4627 5439 cea7 d439 e35f 9439
000000b0: 5622 d132 9342 f836 82b0 9439 8c3f f339
7.027741e-05 0.001543284 3.363534e-05 1.6906728e-05 5.438272e-10 0.0 0.000121082856 0.0009224725
7.259722e-05 0.00015038326 0.0003359514 0.00059625757 1.1667406e-08 1.714001e-05 0.000108300046 0.0006398075
0.0002990787 0.00069951004 0.00019457961 0.00029777174 3.489881e-09 0.0 0.00040977247 0.00041446957
0.00016663123 0.00060323684 0.00069187884 0.0003144848 6.8877014e-08 2.136702e-06 0.0005356183 0.000376216
0.00028172054 0.00024381175 0.0002511643 0.00039895016 6.7066828e-09 0.0 0.00036945613 0.00037708806
0.00023326512 0.00020232526 0.00040560815 0.000283002 2.4346416e-08 7.398726e-06 0.00028360268 0.00046395918

exp_avg f4 [3]
00000000: 011d c0b9 3468 e139 f42a 85b8
-0.00036642703 0.00042992982 -6.349935e-05

exp_avg_sq f4 [3]
00000000: bf35 273a 3f44 543a 6ffc 423a
0.0006378553 0.00080973277 0.0007438128
