homework1/lightning_logs/version_9/checkpoints/epoch=99-step=900.ckpt (torch, 22040 bytes, 18 tensors)

network.0.weight f4 [32, 13]
0	0x3c05aa1f	0.008158236
1	0xbdb68857	-0.089127235
2	0xbebedc8a	-0.37277633
3	0xbe3b5437	-0.18293844
4	0x3e120fae	0.14263794
5	0x3ea81226	0.32826346
6	0x3e125f4f	0.1429417
7	0x3d3a5a7b	0.045496445
8	0xbef8ef55	-0.48620096
9	0x3e3d22e6	0.18470344
10	0x3e5f4506	0.21803674
11	0x3e1783f1	0.14796425
12	0x3e5aa1c0	0.21350765
13	0x3df0cf27	0.11758261
14	0x3dc69996	0.09697263
15	0x3ecda0b7	0.40161678
16	0xbe546990	-0.20743394
17	0xbe46751c	-0.19380611
18	0x3c8b66f1	0.01701686
19	0xbf0cd8e1	-0.5501843
20	0xbe6d9bfd	-0.23204036
21	0xbe2b3838	-0.16720665
22	0x3f084f9d	0.5324648
23	0xbef0df0b	-0.47045168
24	0xbe827742	-0.25481611
25	0xbce09b07	-0.027417673
26	0xbcd7ffa0	-0.026367009
27	0x3e3b726b	0.18305366
28	0x3e64f83f	0.22360323
29	0xbe6ad431	-0.22932507
30	0x3c6b730f	0.014370694
31	0x3dfb04cf	0.122567765
32	0xbe43b938	-0.19113624
33	0xbdf807af	-0.121108405
34	0xbdab129d	-0.083531596
35	0x3ec76a83	0.3894845
36	0xbeeca280	-0.46217728
37	0xbe9b03cf	-0.30276343
38	0xbe24a442	-0.16078284
39	0x3eab85f8	0.33500648
40	0xbd6dd3ef	-0.058063444
41	0xbdadceb0	-0.08486688
42	0xbde79c04	-0.113090545
43	0x3ea4ceda	0.32189065
44	0x3e48e2b3	0.19617729
45	0x3d4a6e76	0.04942175
46	0xbdc457c2	-0.09587051
47	0x3e865287	0.26234838
48	0xbe9b0249	-0.3027518
49	0xbcce8f81	-0.025214912
50	0x3ddcbfa6	0.107787415
51	0x3ea1662c	0.31523263
52	0xbe2e761a	-0.1703724
53	0x3e5b95ef	0.21443914
54	0xbd87f352	-0.066382065
55	0x3ddc0b6d	0.10744367
56	0x3e17dab4	0.14829522
57	0xbe6833ee	-0.2267606
58	0xbe5fa75a	-0.21841183
59	0x3d2b33f6	0.0417976
60	0xbe3b1e98	-0.1827339
61	0x3ea9d157	0.33167526
62	0xbe38b076	-0.18036065
63	0xbe8ab10d	-0.27088204
64	0xbde344bd	-0.11097095
65	0x3e23efb6	0.16009411
66	0x3c29a30d	0.010353816
67	0x3df64085	0.12024025
68	0x3df6f320	0.12058091
69	0x3e65757d	0.224081
70	0xbea1e756	-0.31621808
71	0xbee3baae	-0.44478363
72	0xbd698e12	-0.057020254
73	0xbedc65da	-0.43046457
74	0x3ee56384	0.44802487
75	0xbed8cab2	-0.42342144
76	0xbeafdbe8	-0.34347463
77	0xbd91107c	-0.07083222
78	0x3ecf556d	0.40494862
79	0xbe72cabb	-0.23710148
80	0xbccc19b3	-0.024914598
81	0xbf06e241	-0.52688986
82	0x3e3c4065	0.1838394
83	0x3ec53111	0.38513997
84	0x3eb2ce6e	0.34923118
85	0xbe068352	-0.13136032
86	0xbe3a46ac	-0.18191022
87	0x3dc47368	0.095923245
88	0xbdd74984	-0.10512069
89	0x3da9d616	0.08292787
90	0x3d9774c5	0.07395319
91	0x3c7a82ca	0.015289972
92	0xbe39ff99	-0.18163909
93	0x3e9d01b7	0.3066537
94	0xbee64cb2	-0.4498039
95	0xbda822c2	-0.082097545
96	0xbdb6f388	-0.08933169
97	0x3ea555df	0.32292077
98	0xbe9b6217	-0.30348274
99	0xbdebc4d2	-0.1151215
100	0xbc5ceb5c	-0.013483848
101	0x3dc18a3c	0.09450194
102	0x3dcb49d2	0.099261895
103	0x3eb4b8fa	0.35297376
104	0xbe86aec3	-0.26305208
105	0x3c987cdf	0.01861423
106	0x3d1df7c7	0.038566377
107	0x3e16eb4e	0.14738199
108	0x3e29a942	0.16568473
109	0xbe0a6007	-0.13513194
110	0x3e5f0640	0.21779728
111	0x3dca7340	0.098852634
112	0x3e935199	0.28773192
113	0x3cba6e63	0.022757715
114	0xbdcef6ad	-0.101056434
115	0xbdd60f72	-0.10452165
116	0xbe916e67	-0.28404543
117	0xbeca56cd	-0.3951935
118	0xbe662f2d	-0.22478934
119	0xbe8b3590	-0.27189302
120	0xbc3401dd	-0.010986772
121	0xbd5caa83	-0.05387355
122	0x3bda9ae0	0.0066712946
123	0xbda2d012	-0.079498425
124	0xbd3ecc92	-0.046581812
125	0xbe13b856	-0.14425787
126	0xbe5f59ea	-0.21811643
127	0x3ed38aeb	0.41316923
128	0x3e31b309	0.17353453
129	0xbecc4ed7	-0.399039
130	0x3bb06f6b	0.005384376
131	0x3dc3173d	0.09525917
132	0x3eaaa600	0.33329773
133	0xbe4823b1	-0.19544865
134	0xbc754c27	-0.014971769
135	0x3e74f69a	0.23922196
136	0x3eacf43c	0.33780086
137	0x3db02a3a	0.08601804
138	0x3e30ecf4	0.1727789
139	0xbe347df6	-0.17626175
140	0x3d399443	0.04530741
141	0x3eee57f9	0.46551493
142	0x3e4f83ff	0.20265196
143	0x3ea93d55	0.33054605
144	0x3c4fb1c2	0.012676658
145	0x3e0e2ce3	0.1388431
146	0xbeb072df	-0.3446264
147	0x3e1b97d2	0.15194634
148	0xbb400fdf	-0.0029306335
149	0x3e5133a1	0.20429851
150	0x3dc3614f	0.095400445
151	0x3e139506	0.14412317
152	0x3e85ac5b	0.2610806
153	0x3e9c496c	0.30524766
154	0x3cc3f0fa	0.023918618
155	0x3ef2050a	0.4726947
156	0xbdba9490	-0.09110367
157	0x3dd615d3	0.104533814
158	0x3d5c152b	0.053731125
159	0xbe7e3234	-0.24823838
160	0x3e962e37	0.29332134
161	0x3e1fcfa8	0.15606558
162	0x3e9dd30a	0.30825073
163	0xbe3fd6f0	-0.18734336
164	0x3e1f8a9b	0.15580218
165	0xbe592c39	-0.21208276
166	0x3e68c1b1	0.22730137
167	0x3e968eb7	0.29405758
168	0xbe016324	-0.12635475
169	0x3ec029c5	0.37531868
170	0x3d608065	0.054809947
171	0x3e51d12e	0.20489952
172	0xbe9d592b	-0.30732092
173	0xbd02861b	-0.031866174
174	0x3e55c9df	0.20877789
175	0x3de4d8a2	0.11174132
176	0xbd31cc98	-0.043408006
177	0xbc53c60a	-0.012925634
178	0x3d159cf9	0.036526654
179	0x3e8020b8	0.25024962
180	0x3ec39039	0.3819597
181	0x3eb98d25	0.36240497
182	0x3e47a48f	0.19496368
183	0x3e811b5c	0.25216186
184	0xbdfea519	-0.12433834
185	0x3e4889bf	0.19583796
186	0xbe8b9dd2	-0.27268845
187	0xbd944eae	-0.072415695
188	0x3dc570e6	0.09640674
189	0x3e15fe70	0.14647841
190	0x3e7605c7	0.24025641
191	0x3a92aa77	0.0011189718
192	0x3dc56e23	0.096401475
193	0xbda5f2b6	-0.08102934
194	0x3d388f97	0.045058813
195	0xbc0f5b24	-0.008749757
196	0x3dfb85e4	0.12281397
197	0xbe8a0964	-0.2696029
198	0x3df29a4a	0.118458346
199	0xbe9f60f9	-0.31128672
200	0xbdff91b0	-0.124789596
201	0x3e5bb9a0	0.21457529
202	0x3e78fcaf	0.24315141
203	0xbe46d579	-0.19417371
204	0xbeab9694	-0.3351332
205	0xba36304a	-0.00069499447
206	0x3e02d6fd	0.12777324
207	0xbe107e70	-0.14110732
208	0xbe484f23	-0.19561438
209	0x3d6fb258	0.05851969
210	0x3d2d625b	0.042330127
211	0x3db5de22	0.08880259
212	0x3d6dbe1b	0.058042627
213	0xbdf4a0d5	-0.11944739
214	0xbee0d6fc	-0.4391402
215	0x3eb58bac	0.35458124
216	0xbeb59e14	-0.35472167
217	0x3d20630d	0.039156962
218	0x3d19078b	0.03736071
219	0xbed47985	-0.41498962
220	0xbeec983d	-0.462099
221	0xbe10b548	-0.14131653
222	0x3e932a1e	0.2874307
223	0x3de7f55a	0.11326094
224	0x3de2eb36	0.11080019
225	0x3eb5163a	0.3536852
226	0xbe3a8b1b	-0.18217127
227	0xbeb4f8d9	-0.35346106
228	0x3d4b2dbe	0.04960417
229	0x3e1f512b	0.15558307
230	0x3ecd2a8e	0.4007153
231	0xbe9dbfd0	-0.30810404
232	0x3c254de9	0.010089376
233	0xbeb429b7	-0.35188076
234	0xbec681d3	-0.38770923
235	0x3c8d60df	0.017258106
236	0xbe836ead	-0.25670376
237	0x3d38b089	0.045090232
238	0xbea23bbf	-0.31686208
239	0xbdca9118	-0.09890956
240	0x3e3e4119	0.1857952
241	0x3c4f17aa	0.012639919
242	0xbde7fb77	-0.1132726
243	0xbf03f9ca	-0.5155302
244	0x3e25c31e	0.16187713
245	0xbd613b95	-0.054988462
246	0xbe128a43	-0.14310555
247	0xbeaf95ed	-0.34294072
248	0xbec148e3	-0.3775092
249	0xbea87a4e	-0.3290581
250	0x3ed1f633	0.41008148
251	0x3e27b5cc	0.16377944
252	0xbe1c70d1	-0.15277411
253	0xbd53a4c8	-0.05167082
254	0xbea0d9c5	-0.31416145
255	0xbe32203f	-0.17395113

network.0.bias f4 [32]
0	0x3e666e37	0.22502981
1	0x3c9dabea	0.019247014
2	0x3e1d2207	0.15345012
3	0x3e76e58c	0.24111003
4	0x3e22ffd4	0.15917903
5	0x3b9f64d3	0.004864314
6	0x3da9c7a6	0.08290033
7	0x3e8bd63f	0.27311894
8	0x3ce1c3cc	0.027559184
9	0x3bb6c667	0.0055778506
10	0x3e9f8efc	0.31163776
11	0x3ed80214	0.42189085
12	0x3e98e579	0.29862574
13	0x3d09fc61	0.033687953
14	0xbe50cd84	-0.20390898
15	0x3d449827	0.047996666
16	0x3e1322da	0.14368764
17	0x3ea2311a	0.31678087
18	0x3e9031f6	0.28163117
19	0x3eae2d2a	0.34018832
20	0x3e8eb469	0.27872017
21	0xbd063675	-0.032766778
22	0xbc3c8df6	-0.0115084555
23	0x3bf861b4	0.0075800065
24	0x3c8e4e38	0.017371282
25	0x3eb8c923	0.36090955
26	0x3eb42886	0.35187167
27	0x3e87d25d	0.26527682
28	0x3ebeda7a	0.3727606
29	0x3dd7edf5	0.105434336
30	0xbe0d5b86	-0.13804445
31	0xbc5f048b	-0.013611923

network.2.weight f4 [16, 32]
0	0x3e3801f4	0.17969495
1	0xbe91e91c	-0.2849816
2	0xbe7546fb	-0.23952858
3	0x3da58dde	0.080837
4	0x3dd38398	0.10327834
5	0xbe4c08b8	-0.19925201
6	0xbe219f37	-0.15783392
7	0xbe8483f1	-0.25881913
8	0x3e76d611	0.24105097
9	0x3ea79157	0.32728073
10	0x3db94ae0	0.090474844
11	0xbc93ecc9	-0.018057244
12	0xbc820323	-0.015870636
13	0xbdfce25b	-0.123478614
14	0x3e971e46	0.29515284
15	0x3ed252c9	0.41078785
16	0x3db3bd07	0.087762885
17	0xbd9a2eba	-0.07528444
18	0x3e621dca	0.22081676
19	0x3eecf5c3	0.4628125
20	0xbe486110	-0.19568276
21	0x3de18dc2	0.11013366
22	0x3eca21c7	0.39478895
23	0x3ebf5437	0.37368938
24	0xbe47b3f3	-0.19502239
25	0x3e4502d9	0.19239368
26	0x3e876ddd	0.26451007
27	0x3ddddcd7	0.108331375
28	0x3e8f6dc8	0.28013444
29	0xb979726e	-0.00023789119
30	0x3c101468	0.008793928
31	0xbe0a8451	-0.13527037
32	0x3e395c87	0.18101703
33	0xbe65ecf7	-0.22453676
34	0xbe04ebcb	-0.12980573
35	0x3e820ffc	0.2540282
36	0xbdf816ff	-0.12113761
37	0xbe5d409b	-0.21606676
38	0x3e08df43	0.13366418
39	0xbc86f95c	-0.016476326
40	0xbb369fe9	-0.002786631
41	0x3e73b354	0.23798877
42	0x3e31366e	0.1730592
43	0xbd09d98b	-0.03365473
44	0x3c506b62	0.012720915
45	0xbb8c6547	-0.004284534
46	0x3e4d1f45	0.2003146
47	0x3e60c343	0.21949486
48	0xbd78e138	-0.06076166
49	0x3e735c4f	0.23765682
50	0x3e94da7a	0.29072934
51	0x3e8770dd	0.26453295
52	0xbe3db6f7	-0.18526827
53	0x3e9f722f	0.31141803
54	0x3e030b00	0.12797165
55	0x3e6bb11e	0.23016784
56	0xbc8e6298	-0.017380998
57	0x3e8825c2	0.26591307
58	0x3e817f0a	0.25292236
59	0xbc86c6ad	-0.016452158
60	0x3e9e170a	0.30876952
61	0x3e529630	0.20565104
62	0x3d80ce95	0.062894024
63	0x3db5c632	0.088756934
64	0xbdebf586	-0.11521439
65	0x3ecd723f	0.40126225
66	0x3ea39e4f	0.31956717
67	0xbe0a3f0f	-0.13500617
68	0x3eb6d41f	0.3570871
69	0x3e04e764	0.12978894
70	0xbe48c81f	-0.1960759
71	0xbe4f253a	-0.20229045
72	0x3d2674ea	0.04063884
73	0x3dd26461	0.10273052
74	0x3c80563f	0.015666125
75	0xbcf02aa8	-0.029317215
76	0x3d089213	0.033342432
77	0xbdbe27c9	-0.09284932
78	0x3ddbd75f	0.10734438
79	0x3e49d30f	0.19709419
80	0x3ecc5e00	0.39915466
81	0x3dcbf686	0.0995913
82	0x3c87069e	0.016482648
83	0x3e9ebeed	0.3100504
84	0xbcc45d52	-0.02397028
85	0x3dc0cb36	0.094137594
86	0x3e523273	0.20527057
87	0x3e5429e6	0.20719108
88	0xbe47aa7a	-0.19498625
89	0x3c8566b5	0.016284326
90	0x3e65f9a2	0.22458509
91	0x3d82eb5e	0.06392549
92	0x3c292f89	0.010326275
93	0x3e82cfec	0.25549257
94	0x3e9c9441	0.3058186
95	0x3d48d49a	0.049030878
96	0x3ea22cb4	0.3167473
97	0xbded192d	-0.115770675
98	0xbdd72181	-0.10504437
99	0x3eb00d9b	0.3438538
100	0xbe7fddd3	-0.24986963
101	0xbe52326c	-0.20527047
102	0x3daadb78	0.083426416
103	0x3e25d815	0.1619571
104	0xbe3c8a7f	-0.18412207
105	0xbe820da7	-0.2540104
106	0x3eb867dd	0.3601674
107	0x3eb46cb9	0.352392
108	0x3e6e9ac4	0.23301226
109	0x3e0a65a7	0.1351534
110	0x3e02da57	0.12778603
111	0x3db2a3fe	0.08722685
112	0xbea511d1	-0.32240155
113	0x3e349562	0.1763511
114	0x3de82fdf	0.11337256
115	0xbc9490af	-0.018135397
116	0x3e5c4564	0.21510845
117	0x3d77ec18	0.06052789
118	0xbc0d87ef	-0.008638366
119	0xbe82119e	-0.25404066
120	0x3e9f2056	0.31079358
121	0x3e0a6f18	0.13518941
122	0xbe444d59	-0.19170131
123	0x3e232a59	0.15934123
124	0xbe3ebd3f	-0.18626879
125	0x3e27207f	0.1632099
126	0xbdc3e895	-0.09565846
127	0x3e098adb	0.13431875
128	0x3e3a37fc	0.18185419
129	0xbb3ff920	-0.0029292777
130	0x3e0b5ed6	0.13610396
131	0x3e348bd0	0.17631459
132	0xbe0c33f9	-0.13691701
133	0xbe1e5417	-0.15461765
134	0x3e4b57ab	0.19857661
135	0x3e66a408	0.2252351
136	0xbdc7ebb6	-0.09761755
137	0xbde45f14	-0.11150947
138	0x3dc38077	0.09545987
139	0x3e970762	0.2949782
140	0x3e74ed2d	0.239186
141	0x3e7c4a8c	0.24637812
142	0x3d842c6b	0.064537846
143	0x3dd6c732	0.10487212
144	0xbcdd6514	-0.027025737
145	0xbdbec26a	-0.09314425
146	0x3c6d8896	0.014497897
147	0xbe629f68	-0.22131121
148	0x3e904e03	0.28184518
149	0xbddb524a	-0.10709055
150	0xbe68137f	-0.22663687
151	0xbe3faeea	-0.18719068
152	0x3eb9b74a	0.3627265
153	0x3b8e9ea6	0.0043524085
154	0xbe5fde6a	-0.21862188
155	0xbce0402d	-0.027374351
156	0xbd6571bc	-0.05601667
157	0x3e1783e4	0.14796406
158	0xbe2ed71d	-0.17074247
159	0xbd181d23	-0.037137162
160	0x3d8c4bcb	0.06850394
161	0x3e3861fa	0.18006125
162	0x3e303f55	0.17211659
163	0xbdd0c48c	-0.10193738
164	0x3e92cbb5	0.2867104
165	0x3e698c0c	0.2280733
166	0xbe21b6e7	-0.15792428
167	0xbdee37bb	-0.116317235
168	0xbda7ee1d	-0.081997134
169	0xbe8c49ab	-0.27399954
170	0xbe830613	-0.25590572
171	0x3d20d242	0.039263017
172	0xbe683919	-0.22678031
173	0xbd9e95b5	-0.07743398
174	0xbe138562	-0.1440635
175	0xbdbb0575	-0.091319
176	0x3e5976a1	0.2123666
177	0x3e339c46	0.17540082
178	0xbdb1c9dd	-0.086810805
179	0x3e1b14f9	0.15144719
180	0x3e81efd0	0.25378275
181	0xbcd77870	-0.026302546
182	0xbee4ff87	-0.44726202
183	0xbe995696	-0.29948872
184	0x3de8055d	0.11329148
185	0x3e3a36eb	0.18185012
186	0x3a64e844	0.000873212
187	0x3ded9243	0.11600163
188	0xbe646cc0	-0.2230711
189	0xbc9fb5ad	-0.01949581
190	0x3ddc2222	0.10748698
191	0xbe05cbbd	-0.13066001
192	0x3d41a379	0.04727504
193	0x3e0ec4e0	0.1394229
194	0x3e514d85	0.20439728
195	0x3e5bd895	0.21469338
196	0x3e043b2e	0.129132
197	0x3e9512f5	0.29116026
198	0x3e657e0c	0.22411364
199	0x3e1b0f22	0.15142491
200	0xbe2147d3	-0.15750055
201	0xbe8ad381	-0.2711449
202	0x3eb604b3	0.3555046
203	0x3e7c2183	0.24622159
204	0xbd9a7613	-0.07542052
205	0x3ed78519	0.42093733
206	0xbd98ef55	-0.07467524
207	0xbe609a76	-0.21933922
208	0xbd8223ad	-0.06354461
209	0xbc53a4ec	-0.012917738
210	0xbe27978e	-0.16366407
211	0x3b85f52f	0.004088066
212	0x3ed9f704	0.4257127
213	0x3d769443	0.060199987
214	0xbe287f5e	-0.16454837
215	0xbcba4e9e	-0.022742566
216	0x3ea99ee9	0.3312905
217	0x3d85a274	0.06525126
218	0xbe324f7f	-0.17413138
219	0x3d2f7b04	0.042841926
220	0xbdc0a6b9	-0.094068
221	0x3e19724e	0.1498501
222	0x3ca11328	0.019662455
223	0xbd3a889e	-0.045540445
224	0x3e01da05	0.12680824
225	0xbefa00dc	-0.4882878
226	0xbe39ed8c	-0.18157023
227	0x3d3dc6d6	0.046332203
228	0x3dff2640	0.124584675
229	0xbd44316d	-0.0478987
230	0x3dc046a9	0.09388477
231	0x3da8aeed	0.082364894
232	0x3db15535	0.0865883
233	0x3e826a40	0.25471687
234	0xbcd3484b	-0.025791308
235	0xbc45aa28	-0.012064494
236	0x3e07099a	0.13187256
237	0xbedd0833	-0.43170318
238	0x3e026afa	0.12736121
239	0x3ec4b53c	0.3841952
240	0x3e89799a	0.26850587
241	0x3d480871	0.048836175
242	0x3e5ae4f3	0.213764
243	0x3e072ef5	0.13201506
244	0xbec12ca7	-0.3772938
245	0x3df96c84	0.12178901
246	0x3e902b49	0.28158024
247	0x3e9906d7	0.2988803
248	0xbe37f66a	-0.17965093
249	0x3e54cc1f	0.20780991
250	0x3dc04b59	0.093893714
251	0xbdc3e663	-0.09565427
252	0x3e8e4b0e	0.27791637
253	0x3e8b3538	0.2718904
254	0xbe0a01e7	-0.13477288
255	0x3d32e56c	0.043675825

network.2.bias f4 [16]
0	0xbce5aeae	-0.028037395
1	0x3e31d33a	0.17365733
2	0x3d23a52c	0.039952442
3	0x3e43707b	0.19085877
4	0x3e170cf5	0.14751036
5	0x3e47565d	0.19466539
6	0x3e3c89cd	0.18411942
7	0x3d0964da	0.033543445
8	0x3e855e9f	0.26048753
9	0x3e8b58f0	0.2721629
10	0xbe66ff0e	-0.22558233
11	0x3e2e1336	0.16999516
12	0x3e0622ac	0.13099164
13	0x3dcc484c	0.09974727
14	0xbe2ab808	-0.16671765
15	0x3e1bb4a0	0.15205622

network.4.weight f4 [3, 16]
0	0xbec3c5a0	-0.38236713
1	0xbd453693	-0.04814775
2	0xbf1a2dc1	-0.60226065
3	0x3e531e11	0.20616938
4	0x3ee400dc	0.44531906
5	0xbed0e0d8	-0.40796542
6	0x3de8f708	0.113752425
7	0xbea0a131	-0.3137298
8	0xbed70e03	-0.42002878
9	0x3e1a4716	0.1506618
10	0xbdf5ac01	-0.11995698
11	0x3ea52156	0.32251996
12	0xbe756d2b	-0.23967426
13	0xbd87cd82	-0.066309944
14	0xbe3dddad	-0.18541594
15	0x3ed8816b	0.42286238
16	0x3ed703b8	0.41995025
17	0x3ece924d	0.40345994
18	0x3de8262a	0.11335404
19	0xbe608456	-0.21925482
20	0xbf06a638	-0.5259738
21	0xbe86312b	-0.26209387
22	0xbf07e70a	-0.5308691
23	0x3ea4063e	0.32036012
24	0x3ea54a65	0.3228332
25	0x3eb2f597	0.34952995
26	0xbe87b916	-0.26508397
27	0xbeaa3ff0	-0.33251905
28	0xbe7d30ef	-0.24725698
29	0xbc122b2f	-0.008921429
30	0xbe487ce6	-0.19578895
31	0xbe8a20e4	-0.2697822
32	0xbea34b70	-0.31893492
33	0xbefcceea	-0.49376613
34	0x3ea988ef	0.33112285
35	0xbe7b6317	-0.24549519
36	0xbc40ec86	-0.011775142
37	0x3ebe38c9	0.371527
38	0xbdd1cd27	-0.10244208
39	0xbefc503c	-0.49279964
40	0xbed3e0e1	-0.41382506
41	0xbe333655	-0.17501195
42	0x3dfedfdd	0.12445042
43	0xbea7b2e0	-0.32753658
44	0x3e770464	0.24122769
45	0x3ea2e616	0.31816167
46	0x3dea1680	0.11430073
47	0xbd3fe2d4	-0.04684718

network.4.bias f4 [3]
0	0x3e3a6289	0.1820165
1	0x3ded4ee7	0.11587315
2	0x3e00c552	0.12575272

exp_avg f4 [32, 13]
0	0xb883c269	-6.2827785e-05
1	0x37887974	1.626902e-05
2	0x379cdfe3	1.8700905e-05
3	0x38da4874	0.000104085455
4	0xb7daf242	-2.6100435e-05
5	0xb8b16731	-8.4592386e-05
6	0xb7f77a2c	-2.9501585e-05
7	0xb8a448c9	-7.833687e-05
8	0x390c3656	0.00013371682
9	0x38950aa7	7.106858e-05
10	0xb80df5c6	-3.3845914e-05
11	0xb7c50707	-2.3487502e-05
12	0xb7ba6ea9	-2.2224458e-05
13	0x39032dea	0.00012510238
14	0xb937e0fe	-0.00017536056
15	0xb896fedf	-7.200031e-05
16	0xb7926252	-1.745034e-05
17	0x393e28e6	0.00018135048
18	0x38b9987a	8.8498884e-05
19	0x39e77a74	0.00044150988
20	0x39263f1e	0.00015854507
21	0x382e859c	4.1609266e-05
22	0xb9a08ab8	-0.00030620932
23	0x39a870ac	0.00032127404
24	0x3959f258	0.00020785013
25	0x36abb3bc	5.117121e-06
26	0x389b64ab	7.409727e-05
27	0xb8f9c32d	-0.000119095996
28	0xb84cbd71	-4.881382e-05
29	0xb6cdd13b	-6.1338337e-06
30	0x38e2d421	0.00010816032
31	0x38a4e575	7.862869e-05
32	0x39a64b2b	0.00031717992
33	0x38b3ac76	8.5675085e-05
34	0x3878b21a	5.9293678e-05
35	0xb9556e39	-0.00020354324
36	0x396b6762	0.0002244986
37	0x3937d26d	0.0001753063
38	0x36cf8580	6.184622e-06
39	0xb8bcd2c8	-9.0038e-05
40	0xb8c3a3f5	-9.328864e-05
41	0xb99e34ff	-0.00030175594
42	0x38b97b12	8.844411e-05
43	0xb9294767	-0.00016143695
44	0xb8b82a36	-8.781666e-05
45	0xb8f3855e	-0.000116119845
46	0xb89076d7	-6.888591e-05
47	0x388adfa7	6.622011e-05
48	0x3910b929	0.00013801888
49	0xb888ea2b	-6.5286025e-05
50	0xb92a0a4d	-0.000162163
51	0xb8fb23a2	-0.0001197525
52	0x34f7582b	4.6071486e-07
53	0xb85954ef	-5.1815932e-05
54	0xb81bf0e1	-3.7179216e-05
55	0x376a6987	1.3972057e-05
56	0x38005324	3.059501e-05
57	0x36087b9c	2.033753e-06
58	0x39409994	0.00018367759
59	0xb7bfe29a	-2.2874494e-05
60	0x38fe8b66	0.00012137629
61	0xb8b69da5	-8.7078e-05
62	0x39069c0b	0.00012837366
63	0x390b7f6c	0.00013303541
64	0x38347eb1	4.3033335e-05
65	0x3746b54e	1.1843933e-05
66	0xb92db09e	-0.0001656436
67	0xb8900f45	-6.869299e-05
68	0x355e57d4	8.282925e-07
69	0x38efb937	0.00011430907
70	0xb7cd996b	-2.4509345e-05
71	0x39778fc2	0.0002360931
72	0x3810fa26	3.4565244e-05
73	0x387a9d88	5.9751357e-05
74	0xb9575bd4	-0.00020538206
75	0x394753b9	0.00019009308
76	0x38f27dc1	0.00011562883
77	0x384de91e	4.9092916e-05
78	0xb8a4c1de	-7.85624e-05
79	0xb8d7f578	-0.00010297721
80	0xb69888e4	-4.545889e-06
81	0x391ab0a5	0.0001475239
82	0xb74ce371	-1.2212303e-05
83	0xb8595bb9	-5.1822255e-05
84	0xb890714e	-6.88756e-05
85	0xb2d10524	-2.433314e-08
86	0x38a9dd3a	8.0997546e-05
87	0x3862e2ef	5.4093947e-05
88	0xb794f9c6	-1.7759285e-05
89	0xb8bef1c0	-9.1049355e-05
90	0xb8b60c11	-8.680684e-05
91	0xb92d001a	-0.00016498604
92	0xb95f9298	-0.00021321548
93	0xb98d23b5	-0.0002692022
94	0x3918e63f	0.00014581623
95	0xb88df31a	-6.768685e-05
96	0x37bf4354	2.2800326e-05
97	0xb8bda9f5	-9.043879e-05
98	0x36a23502	4.834147e-06
99	0xb82cf510	-4.1236228e-05
100	0x38b59389	8.658233e-05
101	0xb844b2ae	-4.689645e-05
102	0xb936d36b	-0.00017435632
103	0xb944edf4	-0.00018780661
104	0x38e5c191	0.000109556255
105	0xb663f112	-3.3965957e-06
106	0x396185f1	0.00021507569
107	0xb89b0d3c	-7.393441e-05
108	0x38ddbde8	0.00010573474
109	0x386ae326	5.6001496e-05
110	0xb800714b	-3.062309e-05
111	0xb7e0983f	-2.6773776e-05
112	0xb8a1eb9c	-7.720964e-05
113	0x3810b67b	3.4502224e-05
114	0x37cd5a04	2.4479821e-05
115	0x38417105	4.6120043e-05
116	0x38873195	6.446537e-05
117	0x37e41845	2.719102e-05
118	0x392ff3e3	0.00016780155
119	0xb91db6e8	-0.00015040825
120	0xb983c1d4	-0.0002513068
121	0xb9de64a5	-0.00042418126
122	0xb907a8ae	-0.00012937441
123	0xb77c4b2b	-1.5037872e-05
124	0x3784325f	1.5759082e-05
125	0x3928ac28	0.00016085862
126	0x3998e705	0.00029163822
127	0xb95fb90a	-0.0002133587
128	0xb822c53c	-3.88075e-05
129	0x387bb759	6.001382e-05
130	0xb8c3e1df	-9.340396e-05
131	0xb90d90b1	-0.0001350071
132	0xb9247338	-0.00015683181
133	0x38e6d2e8	0.00011006539
134	0xb8a12721	-7.6843666e-05
135	0xb8614689	-5.370987e-05
136	0xb8c83f4d	-9.548534e-05
137	0x37c52b38	2.3504355e-05
138	0x35f8eb4e	1.8545923e-06
139	0x38cbbb02	9.714627e-05
140	0xb7daa809	-2.6065873e-05
141	0xb90f8287	-0.00013686168
142	0xb8cf8177	-9.894644e-05
143	0xb90bfcb0	-0.00013350206
144	0xb9842488	-0.0002520422
145	0xb988a711	-0.00026064416
146	0x391f7950	0.00015208614
147	0xb84a1cc5	-4.8187347e-05
148	0x37530262	1.2577135e-05
149	0xb90bf0b9	-0.00013345749
150	0x38d10978	9.96766e-05
151	0xb8e6bbe9	-0.000110022556
152	0x38c39ee2	9.327919e-05
153	0xb839e051	-4.4316348e-05
154	0xb978cccb	-0.00023727414
155	0xb9536f66	-0.00020164027
156	0xb804a116	-3.1621275e-05
157	0xb843595a	-4.6574838e-05
158	0xb8eaefa1	-0.00011202624
159	0x38604d8c	5.3477983e-05
160	0xb8a74d02	-7.9775244e-05
161	0xb649bf9d	-3.0062868e-06
162	0xb7e12d53	-2.6843196e-05
163	0x38006296	3.0609393e-05
164	0x3707fabf	8.105008e-06
165	0x38863d4a	6.401034e-05
166	0xb7c9d168	-2.405858e-05
167	0xb870fefd	-5.7457935e-05
168	0xb8779368	-5.902667e-05
169	0xb8e22d05	-0.00010784905
170	0xb99fbe69	-0.0003046871
171	0xb9db6842	-0.00041848613
172	0x38c85f7e	9.55453e-05
173	0xb8c13791	-9.213307e-05
174	0x371db3bd	9.399778e-06
175	0xb9867750	-0.00025647366
176	0x3885c7cb	6.3791485e-05
177	0xb92b1f94	-0.00016319595
178	0x38977439	7.221889e-05
179	0xb81e2f36	-3.7714104e-05
180	0xb9a743a1	-0.0003190311
181	0xb95931d1	-0.0002071329
182	0x37856d60	1.5905767e-05
183	0xb6d338f9	-6.2949225e-06
184	0x385f928d	5.330383e-05
185	0xb8edcf41	-0.00011339645
186	0x392283e2	0.00015498654
187	0x38d3d7a2	0.00010101429
188	0xb8bf0747	-9.108945e-05
189	0xb94b9f66	-0.00019418969
190	0xb909537a	-0.00013096436
191	0x37ffb47e	3.0482417e-05
192	0x381e6b73	3.7770205e-05
193	0x37bdc664	2.2622939e-05
194	0x38b18e80	8.4665604e-05
195	0xb86eac6d	-5.6904206e-05
196	0x39663e59	0.00021957736
197	0x38f24f25	0.00011554201
198	0xb84a4917	-4.8228623e-05
199	0xb8bbad2f	-8.949113e-05
200	0x383cc92b	4.5010045e-05
201	0xb96a59fe	-0.00022349504
202	0xb92b928c	-0.00016362424
203	0x3891f1ee	6.959202e-05
204	0x398996b2	0.00026242953
205	0xb8efc244	-0.00011432593
206	0x37ddf952	2.6461352e-05
207	0x389e34a3	7.5438315e-05
208	0xb7cf293b	-2.4695522e-05
209	0x384b643f	4.8492333e-05
210	0xb66f916a	-3.5698417e-06
211	0x37a4a7c0	1.9628438e-05
212	0xb845f9e4	-4.720119e-05
213	0x384788b2	4.7572605e-05
214	0x39030412	0.0001249465
215	0xb8d663b1	-0.00010222884
216	0x39473373	0.00018997285
217	0x3846230c	4.723952e-05
218	0x3813f767	3.5277943e-05
219	0x3916d63d	0.00014384925
220	0x3812ce97	3.5001514e-05
221	0x36de90fd	6.6329944e-06
222	0x3694c3a3	4.433519e-06
223	0xb6accde8	-5.14997e-06
224	0x37841c0c	1.5748687e-05
225	0xb7991423	-1.8248398e-05
226	0x37818907	1.5441807e-05
227	0x3895d531	7.144584e-05
228	0xb5e2840a	-1.6876741e-06
229	0x3898d223	7.287066e-05
230	0xb7c36492	-2.3292643e-05
231	0x387103e5	5.7462505e-05
232	0x389f5096	7.596721e-05
233	0x37c6ad8c	2.3684253e-05
234	0x3855fee3	5.102054e-05
235	0x3922497b	0.00015476898
236	0xb832b88e	-4.2610387e-05
237	0xb92afbde	-0.00016306291
238	0xb9044202	-0.00012613091
239	0x3815a387	3.5676665e-05
240	0xb95b5045	-0.0002091537
241	0xb91b0c45	-0.00014786523
242	0xb499fa0c	-2.8680404e-07
243	0x39707346	0.00022931126
244	0xb8f7fda1	-0.0001182512
245	0xb8425cd8	-4.6339672e-05
246	0x38cbe32e	9.72211e-05
247	0x39422345	0.0001851442
248	0x3975d9b8	0.00023446127
249	0x3997c5e0	0.00028948393
250	0xb7fdac20	-3.0240102e-05
251	0xb8e679e7	-0.00010989961
252	0xb8ad5b0d	-8.2662424e-05
253	0x37dde928	2.6453825e-05
254	0xb622b2e7	-2.4244016e-06
255	0x39390862	0.00017646098

exp_avg_sq f4 [32, 13]
0	0x35965196	1.1199616e-06
1	0x3593ff54	1.1026664e-06
2	0x350609a5	4.9932925e-07
3	0x35bb8278	1.3970557e-06
4	0x358499a3	9.87948e-07
5	0x3586b1c8	1.0035519e-06
6	0x35bb5b2d	1.3959121e-06
7	0x359e5c7c	1.1798834e-06
8	0x35a24e3d	1.2092711e-06
9	0x35677d32	8.623639e-07
10	0x3580e462	9.603211e-07
11	0x35a8c70c	1.2574906e-06
12	0x35cd6721	1.5303705e-06
13	0x3645bb28	2.9464227e-06
14	0x381b95d3	3.7094414e-05
15	0x363568ea	2.703217e-06
16	0x377b48f2	1.497775e-05
17	0x37cea57a	2.463417e-05
18	0x379ac498	1.8449777e-05
19	0x37a764f2	1.9954958e-05
20	0x38835f41	6.264309e-05
21	0x378d5dbb	1.6852156e-05
22	0x36c8c884	5.9838076e-06
23	0x37281657	1.0018782e-05
24	0x37e4268c	2.7197668e-05
25	0x370fc734	8.569845e-06
26	0x36bd6d86	5.645389e-06
27	0x37c3e839	2.3353949e-05
28	0x368e4039	4.2394063e-06
29	0x372fc4d0	1.0476637e-05
30	0x3786c8c9	1.6067543e-05
31	0x37a9948a	2.0215539e-05
32	0x37ce1a13	2.4569255e-05
33	0x3823c345	3.9044087e-05
34	0x378d7123	1.6861193e-05
35	0x373b8ff8	1.1179589e-05
36	0x372c90d3	1.0285718e-05
37	0x37f982e9	2.9744073e-05
38	0x36ddca7a	6.6098846e-06
39	0x37c07d07	2.2946404e-05
40	0x37470e85	1.1864705e-05
41	0x37fda1fe	3.0235384e-05
42	0x3809a410	3.281614e-05
43	0x37b1acb9	2.1180475e-05
44	0x37b375e0	2.1393353e-05
45	0x37fc62d4	3.0086761e-05
46	0x3775b3bf	1.4644988e-05
47	0x373d2b88	1.1275413e-05
48	0x36d183ac	6.244014e-06
49	0x3764987b	1.3625361e-05
50	0x38027b27	3.110911e-05
51	0x38235d7f	3.8949303e-05
52	0x373fe048	1.1436707e-05
53	0x37dea710	2.6542257e-05
54	0x3705616b	7.9501e-06
55	0x37667e6a	1.3738501e-05
56	0x377ab502	1.4943305e-05
57	0x37b1c374	2.119106e-05
58	0x3819176a	3.649985e-05
59	0x381576e4	3.5635094e-05
60	0x37b8b5dd	2.2019196e-05
61	0x381b9069	3.7089372e-05
62	0x3802defe	3.1202093e-05
63	0x3853ff71	5.054422e-05
64	0x36cbf470	6.0783277e-06
65	0x3619f1a8	2.293944e-06
66	0x37a3db53	1.9533245e-05
67	0x364618f4	2.9518824e-06
68	0x37203ddd	9.551147e-06
69	0x374a734e	1.2066985e-05
70	0x37621b0d	1.3476948e-05
71	0x378acd09	1.6546359e-05
72	0x3809a62a	3.2818098e-05
73	0x373c3fb0	1.1220502e-05
74	0x37196b3f	9.144481e-06
75	0x374db0de	1.2260132e-05
76	0x37b5d90b	2.167795e-05
77	0x369f61d1	4.7499566e-06
78	0x36624cf4	3.3721417e-06
79	0x369a0f3a	4.5913303e-06
80	0x3654c10a	3.1702825e-06
81	0x370c265f	8.353584e-06
82	0x36b2b0c6	5.3253925e-06
83	0x36c4ff9a	5.871011e-06
84	0x36d60078	6.3777516e-06
85	0x366685c4	3.4350533e-06
86	0x36581062	3.2196044e-06
87	0x35f35d2d	1.8132029e-06
88	0x36a29464	4.845251e-06
89	0x36e38305	6.78038e-06
90	0x36df2f31	6.6514117e-06
91	0x370c148b	8.349433e-06
92	0x36f05911	7.162926e-06
93	0x37f34662	2.9000632e-05
94	0x379c3a75	1.862387e-05
95	0x377d0cd2	1.508296e-05
96	0x37338080	1.069915e-05
97	0x374b6469	1.2123121e-05
98	0x36d1382a	6.2352237e-06
99	0x36f92fe0	7.4263517e-06
100	0x364a0f6f	3.010933e-06
101	0x37209c2a	9.573103e-06
102	0x377814a6	1.47867595e-05
103	0x3784aafa	1.5815243e-05
104	0x363b7452	2.7932879e-06
105	0x365a433f	3.2523674e-06
106	0x36eb9375	7.020712e-06
107	0x369f89fc	4.7546328e-06
108	0x36bca9cc	5.6226036e-06
109	0x36342bd0	2.6847592e-06
110	0x361627eb	2.2374977e-06
111	0x369b327e	4.625238e-06
112	0x360a7324	2.0630623e-06
113	0x35d6536c	1.5968521e-06
114	0x360db230	2.1114356e-06
115	0x362e3769	2.5960273e-06
116	0x36214d5c	2.4035899e-06
117	0x379b42ec	1.8508603e-05
118	0x37873a17	1.6120304e-05
119	0x374aadd5	1.2080612e-05
120	0x37837eb8	1.5675425e-05
121	0x3772c4f5	1.4470182e-05
122	0x37227359	9.682809e-06
123	0x37253257	9.846487e-06
124	0x37a65c96	1.9831856e-05
125	0x37952675	1.7780092e-05
126	0x37b06194	2.1026273e-05
127	0x373b4e00	1.1164229e-05
128	0x3761d630	1.34609145e-05
129	0x37a283aa	1.9373216e-05
130	0x366fe2d9	3.5745818e-06
131	0x36c6571b	5.9110002e-06
132	0x3704a8c8	7.907111e-06
133	0x36d575c1	6.361603e-06
134	0x3663fd7c	3.3973183e-06
135	0x36a7e511	5.0036547e-06
136	0x3713e3a6	8.814886e-06
137	0x369dd275	4.703465e-06
138	0x3641450e	2.8799436e-06
139	0x36e32ae3	6.77012e-06
140	0x3695032b	4.440915e-06
141	0x37385898	1.0987882e-05
142	0x36a3cf74	4.8819293e-06
143	0x37b99086	2.2121018e-05
144	0x375cec10	1.3167984e-05
145	0x386f79a6	5.7095334e-05
146	0x381f9da5	3.8055372e-05
147	0x3822fb9f	3.885815e-05
148	0x37a42c0e	1.9570838e-05
149	0x37cfe20d	2.4781586e-05
150	0x3784a8c8	1.5814221e-05
151	0x379367c5	1.7572087e-05
152	0x36bd74a7	5.646219e-06
153	0x37245424	9.794752e-06
154	0x37ee3d52	2.8400365e-05
155	0x380fb19f	3.425928e-05
156	0x373618be	1.0853806e-05
157	0x36731462	3.6221686e-06
158	0x36e9f6c0	6.9726666e-06
159	0x36e797ad	6.901994e-06
160	0x36d16883	6.240852e-06
161	0x36222d42	2.4166225e-06
162	0x362a4508	2.5372156e-06
163	0x362c0986	2.563554e-06
164	0x36295c47	2.5236675e-06
165	0x36b5b271	5.4149937e-06
166	0x36562fa4	3.1916215e-06
167	0x3632e098	2.6654798e-06
168	0x37253bad	9.848661e-06
169	0x36fddadc	7.565466e-06
170	0x3728da97	1.0064475e-05
171	0x383ed254	4.5495413e-05
172	0x380ae14f	3.31116e-05
173	0x37bff1d9	2.2881593e-05
174	0x371f162c	9.482301e-06
175	0x37584385	1.2890324e-05
176	0x3729f522	1.0130259e-05
177	0x36e1d1a1	6.7299266e-06
178	0x36912309	4.3254154e-06
179	0x37285691	1.0033736e-05
180	0x3780f616	1.5373382e-05
181	0x379c8ee8	1.8663195e-05
182	0x35b9b686	1.3836695e-06
183	0x370a4a1b	8.242695e-06
184	0x356933dd	8.6874735e-07
185	0x368fdae4	4.2872143e-06
186	0x3635db70	2.7098831e-06
187	0x368c899e	4.188346e-06
188	0x36b55a18	5.4047086e-06
189	0x3724d546	9.824818e-06
190	0x361080ce	2.1532646e-06
191	0x36a4db26	4.913093e-06
192	0x36a53e5a	4.924642e-06
193	0x36b6ee8f	5.4517946e-06
194	0x364e0869	3.0701287e-06
195	0x35c7b6a2	1.4879809e-06
196	0x379621f6	1.7897208e-05
197	0x35dbd027	1.6377352e-06
198	0x3711691d	8.667147e-06
199	0x3721d09b	9.644918e-06
200	0x371b8046	9.268586e-06
201	0x36eae94e	7.0009037e-06
202	0x37f6dfb4	2.9429655e-05
203	0x36f3ae11	7.2622283e-06
204	0x36759680	3.6595447e-06
205	0x368c2541	4.176662e-06
206	0x3726fcf6	9.953268e-06
207	0x36ba7acd	5.557528e-06
208	0x363e45b8	2.8352788e-06
209	0x36ce6fcb	6.152293e-06
210	0x3626d045	2.4857156e-06
211	0x36b40150	5.364571e-06
212	0x3656d9ec	3.2015332e-06
213	0x3726c659	9.940552e-06
214	0x375bc690	1.3099649e-05
215	0x36f96342	7.4323334e-06
216	0x37199424	9.154002e-06
217	0x369ef4d9	4.737271e-06
218	0x36da8a5d	6.513014e-06
219	0x3740d8f4	1.1494605e-05
220	0x36c7fe53	5.9602694e-06
221	0x3595662e	1.1131103e-06
222	0x3696c5ad	4.493361e-06
223	0x361bbb10	2.3205685e-06
224	0x3663b6fd	3.393215e-06
225	0x364eb0dd	3.079934e-06
226	0x365f52d4	3.3277802e-06
227	0x36aa7f2d	5.0812e-06
228	0x36681e32	3.458827e-06
229	0x363a2edc	2.7743436e-06
230	0x36897177	4.096127e-06
231	0x36aee90e	5.2127352e-06
232	0x36cbdeac	6.075794e-06
233	0x358482a5	9.872789e-07
234	0x378914f9	1.6341439e-05
235	0x38183592	3.6289515e-05
236	0x3707ecd2	8.101766e-06
237	0x37bf7cc9	2.2827082e-05
238	0x37ead81c	2.7995608e-05
239	0x3791e7f6	1.7393362e-05
240	0x373c0508	1.1206845e-05
241	0x386542c7	5.4660046e-05
242	0x3788cc36	1.6307557e-05
243	0x37a07a34	1.9130392e-05
244	0x372d6cbf	1.0336923e-05
245	0x37b54326	2.160815e-05
246	0x37b5c497	2.1668426e-05
247	0x37ef8d1d	2.8556731e-05
248	0x379f2f49	1.8976296e-05
249	0x381becb2	3.717532e-05
250	0x3820b826	3.8318474e-05
251	0x3813ec2e	3.526749e-05
252	0x373bf0b9	1.1202116e-05
253	0x372e90cb	1.040492e-05
254	0x3798d41f	1.8218589e-05
255	0x37b2474b	2.1252452e-05

exp_avg f4 [32]
0	0xb8e757b4	-0.00011031274
1	0x37f16d8a	2.8780447e-05
2	0xb730e111	-1.054282e-05
3	0xb9a115b6	-0.0003072449
4	0xb8811922	-6.155881e-05
5	0x37810fca	1.538535e-05
6	0xb932b8a6	-0.0001704419
7	0xb9620e4e	-0.00021558368
8	0xb89445ee	-7.070215e-05
9	0xb932f81c	-0.00017067831
10	0xb9783c09	-0.00023673488
11	0xb976e6bc	-0.00023546343
12	0xb9089597	-0.00013025697
13	0xb9921e16	-0.00027869706
14	0xb8b9dfb5	-8.863156e-05
15	0xb92b87d5	-0.00016358432
16	0xb91993cb	-0.00014646274
17	0xb85ef519	-5.315719e-05
18	0xb91a0d7b	-0.00014691606
19	0xb9220268	-0.0001545042
20	0xb9ac47c7	-0.00032859875
21	0xb8a94f43	-8.0733116e-05
22	0xb9038735	-0.00012543502
23	0xb942f58c	-0.00018592755
24	0xb9490ba3	-0.00019173189
25	0xb8f9ddc8	-0.00011914555
26	0xb95b5bba	-0.00020919638
27	0xb88b2128	-6.634212e-05
28	0x389efe90	7.581443e-05
29	0xb9070432	-0.00012876166
30	0xb79c73bc	-1.8650542e-05
31	0xb7b157f3	-2.1140999e-05

exp_avg_sq f4 [32]
0	0x3611e05b	2.1737276e-06
1	0x37a6dc9a	1.9891468e-05
2	0x3767fb2f	1.3827156e-05
3	0x380c39bd	3.3432374e-05
4	0x379532a7	1.7785771e-05
5	0x377d3142	1.5091444e-05
6	0x3709800e	8.195651e-06
7	0x374af4ec	1.2097164e-05
8	0x36c08d51	5.7384973e-06
9	0x37f15d12	2.8772778e-05
10	0x37a1040d	1.9194582e-05
11	0x3804b945	3.1643798e-05
12	0x36d60be9	6.3790835e-06
13	0x37b9fb91	2.2170863e-05
14	0x367575f9	3.6576514e-06
15	0x3743df20	1.1674856e-05
16	0x37a90a79	2.0151247e-05
17	0x36a160bc	4.8094353e-06
18	0x3803d7fe	3.1433992e-05
19	0x381b5a4a	3.7038968e-05
20	0x38449de8	4.6877103e-05
21	0x36de070c	6.616936e-06
22	0x3741f944	1.1561733e-05
23	0x381f8407	3.8031514e-05
24	0x37be7adc	2.2706976e-05
25	0x37171353	9.004801e-06
26	0x37e871e3	2.7709588e-05
27	0x36b56e90	5.4070915e-06
28	0x38ba8995	8.894798e-05
29	0x37ebc040	2.8103706e-05
30	0x369db843	4.7004155e-06
31	0x356d4883	8.83949e-07

exp_avg f4 [16, 32]
0	0xb9155757	-0.00014242284
1	0x398d04f5	0.0002689731
2	0x392f368c	0.00016709621
3	0x3797f58f	1.811495e-05
4	0x386da626	5.665994e-05
5	0x38deb3d6	0.00010619282
6	0xb851723c	-4.9935872e-05
7	0x38b5a79a	8.661971e-05
8	0xb9007b98	-0.00012253074
9	0xb90efaaa	-0.00013635555
10	0x3893e81a	7.0527385e-05
11	0x38c8b4e4	9.570437e-05
12	0xb7e6fdcc	-2.753632e-05
13	0x39017d05	0.00012348972
14	0xb8c39370	-9.325787e-05
15	0xb913632c	-0.00014055957
16	0xb8899f86	-6.5623826e-05
17	0x3857fee7	5.149739e-05
18	0xb93b3ffa	-0.00017857543
19	0xb99764ec	-0.00028876157
20	0x392ad40e	0.0001629146
21	0xb8c4741e	-9.367637e-05
22	0xb9907f63	-0.0002756073
23	0xb930440a	-0.00016810014
24	0x38d26fab	0.0001003438
25	0xb86648f7	-5.4904227e-05
26	0xb94325a3	-0.0001861067
27	0x391429d0	0.00014129956
28	0xb984a6e9	-0.0002530136
29	0xb820f964	-3.8379236e-05
30	0x3823bfd0	3.9040868e-05
31	0xb6394563	-2.7607537e-06
32	0xb93d358c	-0.00018044392
33	0x39a6c7eb	0.00031810938
34	0x394a6f43	0.0001930567
35	0xb835d5f5	-4.3353026e-05
36	0x38a0d470	7.668964e-05
37	0x390e7022	0.00013583948
38	0xb8d4fb1c	-0.000101557205
39	0xb685c20a	-3.986298e-06
40	0xb90f9a0c	-0.0001369493
41	0xb908e563	-0.00013055424
42	0xb7814a38	-1.541256e-05
43	0xb703b51b	-7.850375e-06
44	0xb898eb2b	-7.291728e-05
45	0x382308b5	3.8870337e-05
46	0xb8d68a5a	-0.00010230085
47	0xb90db322	-0.0001351354
48	0x36585801	3.2237733e-06
49	0x386f087d	5.6989946e-05
50	0xb945399e	-0.00018808848
51	0xb99d86c6	-0.00030045788
52	0x391e78bf	0.00015113036
53	0xb8ae1aee	-8.3019826e-05
54	0xb9840448	-0.00025180192
55	0xb92261a7	-0.00015485902
56	0x37caab7e	2.4160134e-05
57	0xb77aa7ca	-1.4940228e-05
58	0xb929b8d2	-0.00016185947
59	0x39129e00	0.00013982505
60	0xb98a5b75	-0.00026389552
61	0xb88eb34e	-6.804486e-05
62	0x38c04f2f	9.1700225e-05
63	0xb7e6a60f	-2.7495464e-05
64	0xb883be34	-6.281995e-05
65	0xb91f234a	-0.00015176568
66	0xb8f4fc92	-0.000116818715
67	0xb770b04e	-1.4346164e-05
68	0xb8f21109	-0.00011542632
69	0xb94e9b2c	-0.00019703497
70	0xb86779a1	-5.5187968e-05
71	0xb5815c70	-9.638152e-07
72	0xb6b30cab	-5.3360905e-06
73	0xb88df806	-6.769602e-05
74	0x3823e29f	3.9073286e-05
75	0x385a1d07	5.2002284e-05
76	0xb84b8dde	-4.8531096e-05
77	0x385fbfe9	5.3346073e-05
78	0x369c9427	4.6664095e-06
79	0xb8173c32	-3.6057267e-05
80	0xb95a6030	-0.00020825933
81	0xb8aad592	-8.146012e-05
82	0xb8a432d4	-7.829597e-05
83	0xb92c76f9	-0.00016447519
84	0xb6f49a39	-7.2897205e-06
85	0xb895ec52	-7.148892e-05
86	0xb904e6a4	-0.00012674421
87	0xb883613a	-6.2646766e-05
88	0x388adf89	6.6219895e-05
89	0xb8b3072c	-8.536721e-05
90	0xb8ada66e	-8.280283e-05
91	0xb89e93ec	-7.56158e-05
92	0xb7e93a31	-2.7802862e-05
93	0xb8b595b9	-8.6586406e-05
94	0xb92225cc	-0.00015463604
95	0xb819e032	-3.668684e-05
96	0xb84d69b9	-4.897427e-05
97	0x369039e2	4.298273e-06
98	0xb7bf1482	-2.2778524e-05
99	0xb90095ff	-0.00012262909
100	0x370493d9	7.902237e-06
101	0x37cf1add	2.4688832e-05
102	0xb8c8440a	-9.5494164e-05
103	0xb918e832	-0.00014582349
104	0x36ccff9c	6.1094306e-06
105	0x37a0f3aa	1.9186951e-05
106	0xb94e6452	-0.00019683063
107	0xb9322b10	-0.00016991445
108	0xb9119729	-0.00013884589
109	0xb92a8df6	-0.00016265348
110	0x36cba39b	6.0689176e-06
111	0xb6c2f35d	-5.8099818e-06
112	0x38339420	4.2814878e-05
113	0xb83607cf	-4.3399454e-05
114	0xb732aa68	-1.0649303e-05
115	0x3865e9c8	5.481558e-05
116	0xb8ea0f65	-0.00011160857
117	0xb7fdf3cb	-3.0273475e-05
118	0x387bbe6a	6.00204e-05
119	0x37d085f7	2.4857914e-05
120	0xb8e2721e	-0.00010797776
121	0xb699eea9	-4.587539e-06
122	0x38174509	3.60655e-05
123	0xb828cdd6	-4.024602e-05
124	0xb65acf11	-3.260506e-06
125	0xb7f90992	-2.968757e-05
126	0x37cbe651	2.4306735e-05
127	0xb80cc9d4	-3.3566568e-05
128	0xb9130338	-0.00014020212
129	0x3630e330	2.6358284e-06
130	0xb8295ccf	-4.0379175e-05
131	0xb9621df0	-0.00021564192
132	0x368f4192	4.2693655e-06
133	0x371f201a	9.484613e-06
134	0xb95108bd	-0.00019935048
135	0xb990e982	-0.00027639797
136	0x37941160	1.7651066e-05
137	0x37936a22	1.7573188e-05
138	0xb9a8bd83	-0.00032184654
139	0xb9ab79f5	-0.00032706527
140	0xb96184a8	-0.0002150709
141	0xb9974361	-0.00028851166
142	0x3760121b	1.3355656e-05
143	0xb7521f3a	-1.2524246e-05
144	0x3784f4de	1.5849651e-05
145	0xb8963700	-7.162802e-05
146	0xb808f3e5	-3.265207e-05
147	0x38c9f57f	9.630154e-05
148	0xb94dd3ba	-0.00019629198
149	0xb6211968	-2.4005658e-06
150	0x38ab86cc	8.179023e-05
151	0x381111ed	3.458739e-05
152	0xb949aaa5	-0.00019232424
153	0xb73aa71b	-1.1125371e-05
154	0x389b10a9	7.394079e-05
155	0xb895effc	-7.149574e-05
156	0x37897d26	1.638995e-05
157	0xb89cc602	-7.4755415e-05
158	0x3711f8a2	8.700563e-06
159	0xb88b2033	-6.634034e-05
160	0x38d3e745	0.00010104341
161	0xb9abde81	-0.0003278144
162	0xb9706abf	-0.0002292795
163	0x379b30f8	1.8500243e-05
164	0xb932bd85	-0.00017046004
165	0xb99533cd	-0.0002845809
166	0x3859baab	5.191068e-05
167	0x37070432	8.047604e-06
168	0x38790d5a	5.937866e-05
169	0x38631894	5.4143908e-05
170	0x3455b437	1.9902733e-07
171	0x37cdc524	2.4529705e-05
172	0x37a3acd4	1.9511594e-05
173	0x331b1dfc	3.611602e-08
174	0x387e8838	6.0685183e-05
175	0x387c9853	6.0223345e-05
176	0xb94580ec	-0.00018835411
177	0xb91732f0	-0.00014419458
178	0x38a71cef	7.96857e-05
179	0x38903a54	6.8773195e-05
180	0xb90664c9	-0.00012816781
181	0xb44a2593	-1.8826385e-07
182	0x38ce5366	9.8383796e-05
183	0x3884699f	6.313924e-05
184	0xb6665dde	-3.4327309e-06
185	0xb8906e3c	-6.886988e-05
186	0x38086d7e	3.25269e-05
187	0xb9424d59	-0.00018530096
188	0x3902e144	0.00012481684
189	0x37fb741d	2.9975601e-05
190	0xb94ad28a	-0.00019342653
191	0x37bf4bf5	2.2804345e-05
192	0x382a3597	4.0581068e-05
193	0xb951036a	-0.00019933065
194	0xb93724fa	-0.00017466015
195	0xb8ddc369	-0.00010574499
196	0xb92f0b28	-0.00016693457
197	0xb933ed8f	-0.00017159268
198	0xb841c965	-4.620235e-05
199	0xb91e6b8c	-0.00015108119
200	0x372c7d13	1.028112e-05
201	0x387a3d45	5.9661706e-05
202	0xb950f984	-0.00019929378
203	0xb92e1f79	-0.00016605658
204	0xb8f3a5b6	-0.00011618009
205	0xb93ba7ff	-0.00017896293
206	0xb799950e	-1.830843e-05
207	0xb84d1904	-4.8899106e-05
208	0xb91b73a3	-0.0001482503
209	0xb9556d85	-0.00020354062
210	0xb81ef901	-3.790204e-05
211	0x38e89859	0.00011090999
212	0xb94464a8	-0.00018729514
213	0xb608927d	-2.0350847e-06
214	0x3937b38c	0.00017519126
215	0x366fdfeb	3.5744113e-06
216	0xb8fa6d0c	-0.000119412405
217	0xb921581b	-0.00015386978
218	0x38804d3d	6.1179024e-05
219	0xb95b2be7	-0.00020901822
220	0x378e08db	1.6931843e-05
221	0xb75e46d4	-1.3248722e-05
222	0xb9226019	-0.00015485323
223	0xb830e5da	-4.2175736e-05
224	0xb914f852	-0.00014206886
225	0x39883666	0.0002598047
226	0x392a27fa	0.00016227356
227	0x36a94ea6	5.0457484e-06
228	0x380507e1	3.171701e-05
229	0x387338f3	5.7988753e-05
230	0xb85ca89b	-5.2609113e-05
231	0x385323fa	5.0339826e-05
232	0xb911138e	-0.00013835562
233	0xb90cfc10	-0.00013445341
234	0x385c3914	5.2505246e-05
235	0x38825510	6.214727e-05
236	0xb7b7f06c	-2.1927255e-05
237	0x38d60b99	0.000102064754
238	0xb8cfeb2a	-9.914332e-05
239	0xb906ed14	-0.00012867554
240	0xb88d8736	-6.748589e-05
241	0x38213c2d	3.8441434e-05
242	0xb93b3bd9	-0.00017856005
243	0xb9b0b9cb	-0.00033707762
244	0x393ac35a	0.00017811116
245	0xb8a77076	-7.984128e-05
246	0xb98c66bf	-0.00026779433
247	0xb9298b5b	-0.0001616901
248	0x38813ed1	6.1629e-05
249	0xb803adfd	-3.1394873e-05
250	0xb9424a92	-0.00018529061
251	0x38f5fdd1	0.000117297874
252	0xb9885a84	-0.0002600738
253	0xb85b09cc	-5.2222793e-05
254	0x3814a0b1	3.5435605e-05
255	0xb71304bf	-8.762988e-06

exp_avg_sq f4 [16, 32]
0	0x361eec80	2.3681496e-06
1	0x36144f14	2.2099748e-06
2	0x35c3b8fe	1.4582472e-06
3	0x36148e88	2.2136683e-06
4	0x36814b53	3.8532685e-06
5	0x36829d61	3.892623e-06
6	0x3611a390	2.170189e-06
7	0x35cc75c8	1.5233463e-06
8	0x35ba35d2	1.3873744e-06
9	0x35889533	1.0176212e-06
10	0x36aacdde	5.090361e-06
11	0x3695393d	4.4472094e-06
12	0x36750b56	3.6514443e-06
13	0x35920631	1.087965e-06
14	0x34f35255	4.5322182e-07
15	0x361624ce	2.2373165e-06
16	0x3730ff42	1.0549849e-05
17	0x36874fea	4.0326167e-06
18	0x3665c31c	3.4237228e-06
19	0x369f1702	4.7412477e-06
20	0x35906dc0	1.0760778e-06
21	0x3655c11e	3.1851882e-06
22	0x36066650	2.002711e-06
23	0x36139b73	2.199519e-06
24	0x3651caf7	3.1261568e-06
25	0x36ed1e10	7.06665e-06
26	0x36826aa3	3.886716e-06
27	0x365e8623	3.3158656e-06
28	0x36a5fc12	4.946728e-06
29	0x36288f59	2.511739e-06
30	0x36a6eea8	4.9749688e-06
31	0x35652040	8.535608e-07
32	0x378ba95f	1.664896e-05
33	0x37763bfa	1.4676707e-05
34	0x37993e34	1.8267987e-05
35	0x37cc738e	2.4372504e-05
36	0x382ac43c	4.0713916e-05
37	0x3897a081	7.230137e-05
38	0x3720a7ea	9.575839e-06
39	0x37767083	1.4688939e-05
40	0x37edd125	2.8349992e-05
41	0x38971e9a	7.205941e-05
42	0x3816ffa7	3.600088e-05
43	0x3787f5e0	1.6207749e-05
44	0x3948297d	0.00019088942
45	0x35ab87d7	1.2780027e-06
46	0x36336ecb	2.6737569e-06
47	0x3750f46a	1.2454673e-05
48	0x38acd562	8.241345e-05
49	0x382a2126	4.056203e-05
50	0x38d1ed83	0.000100101366
51	0x392f1de2	0.00016700433
52	0x36a641c1	4.9548403e-06
53	0x379a53b7	1.8397213e-05
54	0x382e10a5	4.1500334e-05
55	0x38e70f55	0.00011017794
56	0x372bf2d1	1.0248929e-05
57	0x383801d6	4.387073e-05
58	0x38aa6241	8.124533e-05
59	0x3832f988	4.26709e-05
60	0x393d452d	0.00018050215
61	0x38383661	4.3919663e-05
62	0x384e77c9	4.9225786e-05
63	0x37157f83	8.910781e-06
64	0x35cb9ced	1.517035e-06
65	0x368c5f69	4.1834323e-06
66	0x3686978c	4.0111536e-06
67	0x3682817b	3.8893754e-06
68	0x36df9a8a	6.6639086e-06
69	0x375da3b0	1.3210738e-05
70	0x3601c64f	1.9337929e-06
71	0x36478ef4	2.973652e-06
72	0x3627c2e6	2.4998385e-06
73	0x35e892ad	1.7328035e-06
74	0x372b4251	1.0207835e-05
75	0x36843ac4	3.940748e-06
76	0x36ec490f	7.041853e-06
77	0x3604dada	1.9796921e-06
78	0x339b6e8d	7.237859e-08
79	0x3503ce84	4.910182e-07
80	0x3725fc60	9.893527e-06
81	0x36d4b51a	6.3391753e-06
82	0x367e2032	3.786769e-06
83	0x37187856	9.087924e-06
84	0x360a9b1b	2.0653886e-06
85	0x36bf36f5	5.6986414e-06
86	0x35fb88be	1.8740755e-06
87	0x361ebe0f	2.3654463e-06
88	0x3684094b	3.9349884e-06
89	0x3680721d	3.827982e-06
90	0x3705d8ba	7.977878e-06
91	0x36c28b4a	5.797866e-06
92	0x36d7e433	6.434065e-06
93	0x36603e52	3.3414876e-06
94	0x369d56ca	4.689068e-06
95	0x359507ac	1.1103598e-06
96	0x3607f2cb	2.0257892e-06
97	0x35704916	8.951332e-07
98	0x356f37e0	8.9115747e-07
99	0x36dd7774	6.6002194e-06
100	0x348755e2	2.5208197e-07
101	0x34ce3a79	3.8413035e-07
102	0x3712fb71	8.760821e-06
103	0x36eb9056	7.0203487e-06
104	0x35b4a5e5	1.3459327e-06
105	0x3566ca37	8.597594e-07
106	0x37528791	1.2548539e-05
107	0x37853899	1.588119e-05
108	0x36e98a45	6.960038e-06
109	0x36a91448	5.0389535e-06
110	0x338967ec	6.398463e-08
111	0x3410bb71	1.3479236e-07
112	0x3441015c	1.797502e-07
113	0x35e503ee	1.7062973e-06
114	0x35be0b18	1.4159332e-06
115	0x364dd815	3.0673157e-06
116	0x362b8ec2	2.5564082e-06
117	0x36743542	3.6389833e-06
118	0x358020f5	9.546335e-07
119	0x359ec07b	1.1827937e-06
120	0x37104b13	8.600548e-06
121	0x35cef539	1.5419565e-06
122	0x364911dc	2.996173e-06
123	0x35c3537e	1.4552932e-06
124	0x3623bca5	2.4398698e-06
125	0x36978037	4.515077e-06
126	0x3376c04d	5.7451235e-08
127	0x35fb7322	1.8734465e-06
128	0x371d3474	9.370142e-06
129	0x36357da4	2.7044234e-06
130	0x36ee4f25	7.1021664e-06
131	0x38126aa8	3.4908444e-05
132	0x34f5df24	4.5797162e-07
133	0x343825f6	1.7150145e-07
134	0x380f5663	3.417431e-05
135	0x3803ec74	3.1453048e-05
136	0x374d9414	1.2253429e-05
137	0x361e9ca4	2.3635012e-06
138	0x3852b413	5.023561e-05
139	0x38848f10	6.320898e-05
140	0x3830a8fa	4.211904e-05
141	0x37a22a61	1.933164e-05
142	0x352ede33	6.5143394e-07
143	0x356bd00b	8.7847064e-07
144	0x34b5c3d5	3.3856364e-07
145	0x373bb699	1.1188583e-05
146	0x36f5f4f5	7.3300857e-06
147	0x373af1f9	1.1142803e-05
148	0x3736f75a	1.0905636e-05
149	0x37bd6199	2.2576003e-05
150	0x36ca38fd	6.0267034e-06
151	0x362eece4	2.606591e-06
152	0x380f54a5	3.4172688e-05
153	0x36a56ba8	4.929916e-06
154	0x37cbafa1	2.428127e-05
155	0x37447ed5	1.1712041e-05
156	0x37962130	1.7896848e-05
157	0x37ca026c	2.4081404e-05
158	0x33b9afea	8.6467324e-08
159	0x371bff74	9.298197e-06
160	0x360d5f36	2.1066057e-06
161	0x38c79903	9.51756e-05
162	0x38a74dae	7.9776495e-05
163	0x35ac5e6d	1.284248e-06
164	0x392a5753	0.00016244994
165	0x39d955af	0.00041453305
166	0x363f6e95	2.8525585e-06
167	0x368ede73	4.2578263e-06
168	0x36fdfb8a	7.5692706e-06
169	0x35482497	7.455905e-07
170	0x3631e2c2	2.6507046e-06
171	0x37953cbb	1.7790464e-05
172	0x363a76d3	2.7785325e-06
173	0x34b88a1b	3.4373156e-07
174	0x366fe371	3.5746164e-06
175	0x3714a41a	8.859695e-06
176	0x390999c1	0.00013122616
177	0x38e2c9ed	0.000108141314
178	0x37258b68	9.867224e-06
179	0x38080c20	3.243622e-05
180	0x389a5cc3	7.3605705e-05
181	0x35afaab7	1.3088201e-06
182	0x3536acba	6.8051634e-07
183	0x36159dd2	2.2294594e-06
184	0x36abb09a	5.1167563e-06
185	0x38970042	7.200289e-05
186	0x37892fe8	1.635398e-05
187	0x390c1cf9	0.00013362234
188	0x36a457a5	4.897784e-06
189	0x35bb32b2	1.394734e-06
190	0x38e3bcb5	0.00010859353
191	0x355c34b8	8.20331e-07
192	0x36790dc7	3.711191e-06
193	0x36b4b804	5.3858403e-06
194	0x36921b1c	4.354295e-06
195	0x37304857	1.050726e-05
196	0x36debdf1	6.6382277e-06
197	0x374ab5b2	1.20824425e-05
198	0x37254989	9.851888e-06
199	0x371a3ae0	9.192823e-06
200	0x36b0b90d	5.2667515e-06
201	0x36a0fb82	4.797651e-06
202	0x377976f2	1.4869251e-05
203	0x37aa8827	2.032898e-05
204	0x37863044	1.599652e-05
205	0x36cdc4c2	6.1323817e-06
206	0x34bda13c	3.5321307e-07
207	0x35d4b2a4	1.5847222e-06
208	0x374028d0	1.1453594e-05
209	0x3703d5dc	7.8580015e-06
210	0x3709b679	8.208322e-06
211	0x37b24071	2.1249261e-05
212	0x370bedd0	8.340416e-06
213	0x36f7270b	7.365719e-06
214	0x36b3537d	5.344335e-06
215	0x36f85836	7.401245e-06
216	0x3731a046	1.0587339e-05
217	0x370a4bf6	8.243127e-06
218	0x373c5cc1	1.1227269e-05
219	0x3700cb08	7.676666e-06
220	0x374ba6de	1.2138595e-05
221	0x36eaa1d2	6.992582e-06
222	0x36d54658	6.3560838e-06
223	0x3630193d	2.6240734e-06
224	0x370deb91	8.459102e-06
225	0x36d00a7e	6.2001045e-06
226	0x36e6729f	6.867878e-06
227	0x373b8ae2	1.1178405e-05
228	0x37be9d92	2.272314e-05
229	0x38064433	3.2011605e-05
230	0x36a252b0	4.8376023e-06
231	0x36ebc5be	7.026566e-06
232	0x3716335f	8.9526575e-06
233	0x386c32d1	5.631411e-05
234	0x37436ccc	1.1648237e-05
235	0x36e727c4	6.888966e-06
236	0x3885a74e	6.373097e-05
237	0x36084928	2.0308162e-06
238	0x3588a6a0	1.0181284e-06
239	0x37032c63	7.818543e-06
240	0x38657e37	5.47154e-05
241	0x37ac23ab	2.0520607e-05
242	0x3893da9f	7.0502276e-05
243	0x38f74bb0	0.00011791976
244	0x3633b2f5	2.6777245e-06
245	0x371f6567	9.500748e-06
246	0x380250c3	3.106963e-05
247	0x38a5dc10	7.908803e-05
248	0x366917fc	3.4733666e-06
249	0x37df829e	2.6644495e-05
250	0x385b5012	5.228824e-05
251	0x3782b83f	1.5583004e-05
252	0x38ce2b60	9.830925e-05
253	0x37bb98d8	2.236331e-05
254	0x37c6181b	2.3614664e-05
255	0x3675f39e	3.6649649e-06

exp_avg f4 [16]
0	0xb8a5fad0	-7.9145306e-05
1	0xb9036020	-0.00012528943
2	0xb8dae999	-0.00010438561
3	0xb90134f3	-0.00012322124
4	0xb979ed9a	-0.00023835004
5	0xb7e1a9f5	-2.6901233e-05
6	0xb94c4071	-0.00019478962
7	0xb8ceea1b	-9.866451e-05
8	0xb8f6548c	-0.00011745942
9	0xb8adc687	-8.2862614e-05
10	0x372d3b7f	1.0325456e-05
11	0xb96512ae	-0.000218461
12	0xb6d91901	-6.470015e-06
13	0x37aadde2	2.0368901e-05
14	0x369431f8	4.416561e-06
15	0xb939130e	-0.00017650073

exp_avg_sq f4 [16]
0	0x371f5b40	9.498384e-06
1	0x39823233	0.00024832934
2	0x374837d5	1.1933928e-05
3	0x373cd697	1.1255636e-05
4	0x3868d047	5.5507084e-05
5	0x390b5687	0.00013288307
6	0x37c52df9	2.3505638e-05
7	0x38d0cfcb	9.956917e-05
8	0x3907f594	0.00012966088
9	0x38076188	3.227734e-05
10	0x36640e18	3.3982851e-06
11	0x38453de4	4.70261e-05
12	0x37c37d94	2.3304288e-05
13	0x374925a7	1.19893e-05
14	0x36e46090	6.806171e-06
15	0x380ec651	3.4040135e-05

exp_avg f4 [3, 16]
0	0x39e7500a	0.00044119387
1	0xb8b2937c	-8.5151725e-05
2	0x3a01b5d0	0.00049480516
3	0xba7e76e2	-0.0009707046
4	0xba59c629	-0.0008307421
5	0x39001fdc	0.000122189
6	0xba51caeb	-0.00080029544
7	0x39b576fb	0.00034611658
8	0x39d77906	0.00041098165
9	0xb99ac95d	-0.00029523196
10	0x38939d16	7.038766e-05
11	0xba401b82	-0.0007328318
12	0x3915d45d	0.00014288859
13	0x3922918a	0.00015503741
14	0xb1c2e6a0	-5.672362e-09
15	0xba840ba4	-0.001007427
16	0xba95111a	-0.0011372895
17	0xba3b9c29	-0.00071567536
18	0x37f77811	2.9500605e-05
19	0x3a137a63	0.0005625842
20	0x3a0aeb65	0.0005299359
21	0x3a287e9a	0.00064275565
22	0x3a7431ec	0.00093153
23	0xba864d75	-0.0010246473
24	0xba7f5fd8	-0.000974176
25	0xba32bf0f	-0.0006818631
26	0x3a10bfc1	0.00055217376
27	0x39e2e50a	0.00043276727
28	0x3a4949fd	0.00076785666
29	0x3a137d52	0.0005626279
30	0x31241e07	2.388221e-09
31	0x3a217e71	0.0006160504
32	0x3a367a64	0.00069609866
33	0x3a51ee98	0.00080082705
34	0xba09718a	-0.0005243054
35	0x39d5f7d5	0.00040811175
36	0x399db483	0.00030079865
37	0xba48869d	-0.00076494535
38	0xb9099e47	-0.00013124301
39	0x3a31df8e	0.00067853264
40	0x3a13a38d	0.0005631976
41	0x3a8011cf	0.0009770932
42	0xba23336c	-0.0006225619
43	0x399d510b	0.00030005755
44	0xba6ebf26	-0.0009107463
45	0xba3c21be	-0.0007176659
46	0x3161af44	3.2841436e-09
47	0x39cd3070	0.00039136736
