homework1/lightning_logs/version_4/checkpoints/epoch=99-step=900.ckpt (torch, 22040 bytes, 18 tensors)

network.0.weight f4 [32, 13]
000000 b6 ac c6 3e 2c bd 35 3d e3 80 91 3e 6c fa b1 be
       0.38803643 0.04436986 0.28418645 -0.3476137
000010 25 4f 22 3d b7 7f a5 3d e8 51 d5 3e d8 7a 74 be
       0.03962626 0.08081 0.41664052 -0.23874986
000020 33 ee 35 3e 32 d1 86 3e 1c 3c 6c 3e de 91 4f 3e
       0.17766647 0.26331478 0.23069805 0.20270488
000030 fb 9d 9b 3e a0 53 1a 3d 83 b8 12 bd 5e e2 6c 3e
       0.30393967 0.037677407 -0.035820495 0.23133227
000040 a5 24 69 be 2b 10 de bd 07 06 41 3e 49 5f 81 3e
       -0.22767885 -0.108429275 0.18849955 0.2526801
000050 66 49 ba 3d 0b 46 95 3d 45 75 5e 3e fa d7 5e 3e
       0.09096031 0.0728875 0.21724422 0.21762076
000060 b0 05 20 3d a4 af fe 3e 5b ba c1 be db 56 59 3e
       0.039067924 0.49743378 -0.3783749 0.21224539
000070 4c d4 20 3e bc 05 3e 3e 8e 69 b5 3e b6 35 5a 3e
       0.15705985 0.18556875 0.35432094 0.21309552
000080 0a e1 a6 3e 4c 09 99 be 95 88 01 bd b8 0a f9 be
       0.32593566 -0.29889905 -0.031624395 -0.4864099
000090 98 be 17 3e b5 ae 90 3e eb 71 05 3e d6 57 4b be
       0.148188 0.2825829 0.13031738 -0.19857726
0000a0 86 8d aa be 3a 97 bd be 15 54 24 bb 54 0e ae be
       -0.333111 -0.3702944 -0.002507453 -0.33995306
0000b0 0e f3 a0 3e 26 95 bd bd 8c ba 01 be 0b 22 2a be
       0.31435436 -0.092569634 -0.12668818 -0.16614549
0000c0 09 59 f6 be de f7 6e 3d eb 82 11 3c cd e5 7e be
       -0.48114803 0.058341853 0.008881311 -0.2489235
0000d0 5d 2b b2 3e 32 2e ae 3d b9 15 de 3e 38 77 b7 be
       0.3479871 0.08504905 0.43375948 -0.35833144
0000e0 b4 6a fe 3d 01 e4 8a 3e 28 de a6 3e 88 06 80 bd
       0.12422696 0.27127078 0.32591367 -0.06251246
0000f0 09 d4 42 3d f0 03 b5 bd 05 b9 7f 3d c1 f0 55 3e
       0.047565494 -0.08838642 0.062432308 0.20892622
000100 af 6c 29 3e f5 9d 10 3e d8 ed cd be 73 21 bc 3e
       0.16545366 0.14122756 -0.40220523 0.3674427
000110 d1 06 2a be 22 a6 28 3e 46 ac a2 3e 61 63 03 3c
       -0.16604163 0.16469625 0.3177206 0.008019299
000120 8f 23 3d be f3 28 b6 be 5d 43 4c be 70 4c 3c 3e
       -0.18470596 -0.35578117 -0.19947572 0.18388534
000130 a1 fc 9a 3e ab bf a1 bc 71 25 25 3d 63 df 89 be
       0.30270866 -0.019744715 0.04031891 -0.26928243
000140 90 24 3f be 60 24 2b be 82 d3 50 be 74 12 89 be
       -0.18666291 -0.16713095 -0.20393184 -0.2677189
000150 8d 8e a3 3e a0 e3 b1 3e 88 f0 c6 bc c7 e1 20 be
       0.31944695 0.34743977 -0.024284616 -0.15711127
000160 e0 72 d3 3e 3a 95 09 3e 39 5b dd be 57 e7 96 bd
       0.4129858 0.13435832 -0.4323366 -0.07368343
000170 1a da df 3d 15 2e 74 bd a9 34 37 bc 71 3e ab be
       0.109302714 -0.05961426 -0.011181989 -0.33446077
000180 87 7c c1 bd 0e d6 8d be 2f 31 c8 3e 69 75 9b bb
       -0.0944758 -0.27702373 0.39100024 -0.004744221
000190 b7 fb 06 bd 4d 21 fc bd 0b 88 87 be ac 69 0e be
       -0.032954898 -0.12311039 -0.2647098 -0.13907498
0001a0 a6 0b d4 be 03 6b ef bd 33 78 9e be 29 9b db 3e
       -0.41415137 -0.11690333 -0.3095108 0.42891815
0001b0 54 2b d7 bd 79 70 0a 3e 3c c3 e3 3d d2 30 23 3e
       -0.10506311 0.13519467 0.111212224 0.15936592
0001c0 0b 0b 73 3d 51 33 0a be d6 e7 5b 3e b4 c0 6a 3d
       0.059336703 -0.13496138 0.21475157 0.057312682
0001d0 eb ae 82 be 59 3d c1 3d bf d6 35 3e c9 cd 95 bb
       -0.25524077 0.09435529 0.177577 -0.0045716506
0001e0 dd bf 36 be 16 1f 80 3e c4 7d 45 be 16 1b b4 be
       -0.17846628 0.25023717 -0.19286257 -0.35176915
0001f0 07 de fb 3d 5f 8d 56 be ba 0a b0 3e b6 4f 9b be
       0.12298208 -0.20952366 0.34383184 -0.30334252
000200 5f 1e de be 05 9c 04 be fe 04 cc bd 19 1d 25 bd
       -0.43382546 -0.12950142 -0.0996189 -0.040310953
000210 2d 05 34 be 5b f6 a1 3e ea 00 0a be 60 db 49 be
       -0.175801 0.31633267 -0.13476911 -0.19712591
000220 a3 a7 a9 3d e4 5c 32 be d7 16 ce b8 72 e3 b6 3c
       0.08283927 -0.17418247 -9.8271e-05 0.022325251
000230 41 8b ab 3e 3c 74 1d bb 4e 6a 00 bf bf d0 cc be
       0.3350468 -0.002402558 -0.5016221 -0.4000301
000240 90 61 99 be 31 82 42 be 41 d9 5d 3e 20 ae 2b 3e
       -0.29957247 -0.18994977 0.21664907 0.16765642
000250 dd 1b 88 3d 8a 28 e0 3d cb 56 b8 bc ba 89 35 be
       0.066459395 0.10945232 -0.022502324 -0.1772832
000260 81 ab de be 1f 41 0f 3e 4f 60 92 3d 72 15 d0 bd
       -0.43490222 0.13989685 0.07147276 -0.1016034
000270 2d 5d 89 3e 9c ac 2f 3e 2a d9 07 3d e3 fb 06 be
       0.268289 0.17155689 0.03316609 -0.13182025
000280 ce 16 84 bd b0 8d 0b be 17 a5 c4 be 1a bf b2 3e
       -0.06449662 -0.13628268 -0.38407204 0.34911424
000290 89 c3 7a 3d 5a 78 5d 3e 8c b8 3f 3d de c9 90 be
       0.061221633 0.21627942 0.046806857 -0.28279012
0002a0 a8 05 cd 3d af 7f 76 bd 47 9b 3b be 61 5f 9d 3d
       0.100108445 -0.060180362 -0.18320952 0.07684208
0002b0 42 d3 35 be 19 80 2c 3e 5f ad 98 3e 79 fa bc 3e
       -0.1775637 0.1684574 0.29819772 0.36909845
0002c0 39 5f 5e be c0 c2 10 3c 5a 64 72 be cb ef 4c 3e
       -0.21716012 0.0088354945 -0.23671094 0.20013349
0002d0 60 be f5 3d 26 2c b0 3e 98 a6 e6 3e 4a 3e ef bd
       0.11999202 0.34408683 0.45048976 -0.116818026
0002e0 66 11 f0 3e 2e d8 f3 be 9f a8 93 3d 4f 4d 03 be
       0.46888274 -0.4762587 0.07209896 -0.1282246
0002f0 e8 00 cd 3e 4c 0b 9d be fd 5a 4f be 55 cc 07 3e
       0.40039754 -0.3067268 -0.20249553 0.1326154
000300 60 22 a1 3e 5c 98 32 3e 6d 7a ed 3e da 7e 9f bd
       0.3147154 0.17440933 0.46382466 -0.07787867
000310 82 36 a3 be 11 b6 97 3e f4 ab a2 3d f1 86 a0 3c
       -0.31877524 0.29631093 0.07942954 0.019595595
000320 7b e4 cb 3e 32 bf 45 3e 4f fd f4 bd ef dc ac 3e
       0.39822754 0.19311216 -0.11962377 0.3376231
000330 45 fa 02 bf 61 37 e5 bd 31 b6 fc 3e d7 47 34 3e
       -0.5116313 -0.11192203 0.4935775 0.1760553
000340 48 19 8f 3d fe 63 18 be f7 fc 45 bd 28 32 b0 3c
       0.06987244 -0.14881894 -0.04833695 0.021508291
000350 92 ab 81 be 25 c3 76 3e a9 49 8a 3e e2 90 74 be
       -0.2532621 0.24097879 0.27009323 -0.23883393
000360 4f b2 91 3e f8 7f 2b bd 8b 7e 9e bd f1 cd bd 3e
       0.2845635 -0.041870087 -0.0773898 0.37071183
000370 d7 d8 e8 be a8 e9 69 3d ce a4 a5 bd a7 3e 40 3e
       -0.45477936 0.057107598 -0.080880746 0.187739
000380 7c 2d c1 be ca 2c 47 bd 2f 24 b3 3e 02 e4 4c 3e
       -0.37730014 -0.0486267 0.34988543 0.20008853
000390 fd c7 1f be 3d 85 40 3d d7 52 67 3d df 7a 3d be
       -0.15603633 0.047002066 0.056475487 -0.18503903
0003a0 b1 63 70 3e c4 b6 c2 3e 78 cf 12 3e 9b d2 42 3e
       0.23475529 0.38030064 0.14336956 0.19025652
0003b0 c7 d3 df bd 51 2e 16 3e 92 9b b2 3c fd 15 41 be
       -0.10929065 0.14666106 0.021802697 -0.18856044
0003c0 6b 40 d4 be 4c 1b c6 bd 75 0e 74 3e 6c 76 89 be
       -0.41455397 -0.09673175 0.2383364 -0.2684816
0003d0 f0 0b 4a bd 7a b0 aa be a7 f5 28 be a2 49 90 bc
       -0.04932779 -0.33337766 -0.16499959 -0.017613236
0003e0 54 d5 2f 3e 72 d5 a9 3e 00 20 76 be 27 c0 58 3e
       0.17171222 0.33170658 -0.24035645 0.2116705
0003f0 6a 28 14 3e 7e 12 f1 be 35 20 a6 bd d8 b4 9c bb
       0.14468542 -0.4708442 -0.08111612 -0.0047823004

network.0.bias f4 [32]
000000 da e1 f8 3d de 6f dc 3d 31 f0 97 3e a4 18 40 3e
       0.12152453 0.107635245 0.2967544 0.187594
000010 04 95 c0 3c 65 2b 81 bd 9f ce be 3e 9c 8e d9 3e
       0.023508556 -0.06307105 0.37267014 0.42491615
000020 ca 3d cc 3e db b4 c3 3b 77 c6 b9 3e 6f 6e bb 3d
       0.3989089 0.0059724874 0.3628423 0.09151923
000030 32 d0 21 bd 57 1b b2 3e 08 30 2e 3d ab 66 ca 3c
       -0.03950519 0.34786484 0.042526275 0.024707159
000040 43 bb 8a bc 80 5d d9 3e 9e d9 f3 3e 19 7f 49 be
       -0.016934996 0.42454147 0.47626966 -0.1967739
000050 b4 a8 d4 3e e3 ba 14 3e 44 19 74 3e eb 02 01 be
       0.4153496 0.14524417 0.23837763 -0.1259877
000060 8b f6 51 3e 53 5b 04 be da 4e 27 bd 30 8f 16 bd
       0.20504205 -0.12925462 -0.040846683 -0.036757648
000070 18 b6 02 3f 60 59 c3 3e 71 27 0d 3e 8b 0e 13 bd
       0.51059103 0.38154125 0.13784577 -0.03590254

network.2.weight f4 [16, 32]
000000 1c 3a ac 3e ce 68 b6 3e d6 20 39 3d 4f 15 83 bd
       0.33638084 0.35626835 0.04519733 -0.06400549
000010 aa c5 b4 3e 7d bd 57 3e c2 7d 26 bd ab 39 04 bd
       0.35307056 0.21068378 -0.040647276 -0.03228156
000020 34 88 36 be 07 24 84 be 50 16 2a 3d 02 bd 9c bd
       -0.17825395 -0.25808737 0.041525185 -0.07653238
000030 d1 ee 21 3e bd 47 01 3e 44 cc c0 3e 60 41 7c 3e
       0.15813757 0.12625022 0.37655842 0.24634314
000040 00 93 c4 3d 35 23 b3 3e 17 16 0c be 73 16 06 bd
       0.095983505 0.34987798 -0.13680302 -0.032736253
000050 63 b7 2c be 81 22 10 3e f5 82 a4 bd 5f 5a 58 bd
       -0.16866831 0.14075662 -0.080327906 -0.05282056
000060 f8 0c 08 be 8c b7 0b be 95 22 41 3d 03 cf ce bd
       -0.13286197 -0.13644236 0.04715212 -0.10098078
000070 93 1c 2c 3e d0 49 bb 3e 20 bb d4 bd 8b 40 2d be
       0.16807775 0.36579752 -0.10387254 -0.16919152
000080 f5 55 e2 3d 26 61 48 be 1e cb ea 3d 25 5e 95 3e
       0.11051551 -0.19568309 0.11464523 0.2917339
000090 cd c1 c1 bc c4 e0 23 3e 4c 46 1d bc 34 b9 98 3e
       -0.023651982 0.1600371 -0.00959928 0.298288
0000a0 13 35 93 3e c8 1f 1e 3e f5 23 1c 3e 1e 09 cb 3d
       0.2875143 0.15441811 0.15248092 0.09913848
0000b0 d2 de 65 3e 7f fe fb bd 35 4a 45 be 8e 75 7b 3c
       0.2244828 -0.12304401 -0.19266589 0.015347851
0000c0 c4 04 3a 3e 56 00 4e bd 68 9a 3c bc df d5 1d 3e
       0.1816588 -0.05029329 -0.011511423 0.15413617
0000d0 83 55 99 3e b9 bc 96 bd 41 8d 92 3e c7 13 b2 3d
       0.29948053 -0.07360215 0.28623393 0.086951785
0000e0 4c 16 ab 3c 3d 49 86 3e 7b cb 92 3d 04 78 0a 3e
       0.020884655 0.2622775 0.07167717 0.13522345
0000f0 c2 ac ca bd 3a 97 81 bd d1 68 a7 3e 97 a1 02 3e
       -0.09896232 -0.06327672 0.32697156 0.12756954
000100 31 7e 93 3d 82 8f 24 3e c4 92 a6 be 64 38 4a bd
       0.072018035 0.16070369 -0.32533848 -0.049370185
000110 3f 27 32 be a4 14 73 be fa 24 9e be 64 18 b5 bc
       -0.17397784 -0.23738343 -0.30887586 -0.022106357
000120 e1 8f 4d be 1e d5 0f 3e 18 de 8c 3d c2 24 32 be
       -0.20074417 0.14046142 0.068782985 -0.17396834
000130 c9 ca ba 3c 64 8d 78 be 41 e5 e7 bd 9f 3b 59 be
       0.022801774 -0.24272686 -0.113230236 -0.2121415
000140 c2 f2 8f 3d bb 0d 26 be cb 98 47 3e 33 3e da 3e
       0.07028724 -0.16216175 0.1949188 0.4262558
000150 4c ac 4a bd 6e c4 16 3e 80 75 11 3d ec ef d8 3e
       -0.04948072 0.1472337 0.035512447 0.42370546
000160 cf 84 a7 3d be 46 b1 3e 58 0a 51 3e d9 e0 75 3e
       0.08179628 0.34624285 0.20414102 0.24011554
000170 30 55 3f bd 9c 52 ed 3c e6 7f 20 bd 09 4d b2 3e
       -0.0467121 0.028970055 -0.039184473 0.34824398
000180 73 51 8e 3e 6b 43 c6 3e 18 45 f9 3c f9 2c 19 be
       0.27796516 0.3872331 0.030428454 -0.14958562
000190 22 41 a6 3d ee 74 17 3d bc be 97 be 7f 46 4b 3e
       0.08117892 0.036976747 -0.29637706 0.19851111
0001a0 78 e6 39 be aa 1e ad 3c 87 4c c1 3d 87 b5 bc be
       -0.18154323 0.021132786 0.094384246 -0.36857244
0001b0 06 35 00 3e 71 19 4b 3d fe cb 6c 3e 14 57 82 bc
       0.12520227 0.04958481 0.23124692 -0.015910663
0001c0 7d b2 da 3d b5 2c ad 3e 0a 0c df 3d 11 d0 4f 3e
       0.10678575 0.3382317 0.10890968 0.20294215
0001d0 a5 3f 2d 3d 91 22 25 3e 04 2c a3 3e af 0b 9b 3e
       0.042297024 0.16126467 0.3186952 0.3028235
0001e0 e9 36 e5 bc 14 c1 1a 3e 2c 47 38 3d cc 8d 60 3e
       -0.027980285 0.15112716 0.04498975 0.21929091
0001f0 ef bf b7 bc b6 ec 7f 3e 8c db 30 be f5 10 fc 3d
       -0.022430388 0.24992642 -0.1727125 0.12307922
000200 70 ef 71 be 96 ca 38 bd 8d d2 1c 3e 40 c4 ad 3c
       -0.23626494 -0.045115076 0.15314694 0.021211743
000210 32 e8 17 be c6 69 f7 bc 4f 0c b5 3d 20 1f 8b 3d
       -0.14834669 -0.030201804 0.08840238 0.06793046
000220 5f b7 84 3e ea 12 81 bc 1b cd 68 3e 92 17 a5 3e
       0.2592115 -0.01575609 0.22734492 0.32244545
000230 91 31 93 ba b5 ea 9a 3d 17 f8 a8 bd 2f 1a 2e 3e
       -0.0011229982 0.07564298 -0.082504444 0.17002176
000240 ac c9 87 3e a5 3f cb bd 5b b4 8c 3e c1 dd af be
       0.2652105 -0.099242486 0.2748135 -0.34348872
000250 44 0e b2 3e 01 26 39 3d 8c 52 12 3e 99 b9 8a be
       0.3477651 0.04520226 0.14289302 -0.27094725
000260 70 b5 a4 3d f2 6b 17 be 10 20 34 be a8 9e 28 be
       0.08042419 -0.14787272 -0.17590356 -0.16466773
000270 84 2e 73 3d ab 53 9b be 10 c5 d6 3e 80 df 13 3e
       0.059370533 -0.3033727 0.41947222 0.14440727
000280 2c 6e e9 bc 84 b0 bb 3d 85 96 81 3e c9 ec fd 3d
       -0.028494917 0.09164527 0.2531015 0.12398679
000290 64 61 37 3c 19 85 16 3e 23 04 cb 3e 1f 28 a2 3e
       0.011192653 0.1469921 0.39651594 0.31671235
0002a0 93 79 d9 3d c5 56 8d bd b1 c5 4d 3e 51 22 c1 3d
       0.106188916 -0.069013156 0.20094945 0.094303735
0002b0 bc d2 94 3d ec 2f a4 3e a3 e7 46 be 06 c5 91 3e
       0.07266757 0.3206781 -0.194243 0.2847063
0002c0 95 7c 45 3e 2f 6e 80 bd 40 0c 0b 3d 4b 3d 1d be
       0.19285806 -0.06271016 0.03394723 -0.15355413
0002d0 60 fc 93 3e f0 1c 04 bd 4f 1c 17 be 5d 1d 98 be
       0.28903484 -0.03225416 -0.14756893 -0.29709902
0002e0 ae ed ca 3d c2 ca e5 bc aa 9b e2 3d ca f1 b1 be
       0.09908615 -0.028050784 0.11064847 -0.34754783
0002f0 49 56 8d 3e 15 68 8e bd 88 7a 97 3e d3 cf 17 3e
       0.27604893 -0.06953446 0.2958567 0.14825372
000300 e5 a4 8a 3e 83 a9 73 3e f6 b8 24 3e 98 83 a1 3e
       0.2707893 0.23795132 0.16086182 0.3154571
000310 5f eb 15 3d b2 9f ca 3e 8f 59 98 3e 18 21 4f 3e
       0.03660142 0.39574963 0.29755828 0.20227468
000320 15 0c f7 3d c4 e3 fe bd e4 54 9c 3e dd 6e 1a 3d
       0.12062851 -0.124457866 0.30533516 0.037703384
000330 3c f5 9a 3d f6 75 3b 3e 3d 56 a4 3d 8e f3 b4 3e
       0.07566306 0.18306717 0.08024261 0.35342067
000340 32 b6 a7 3e 2e 42 49 3e 5b a8 80 3d 1f e2 d1 bd
       0.32756191 0.19654152 0.06282111 -0.10248207
000350 30 63 6e 3e 9a 81 9f 3d 48 53 81 bd 90 40 83 be
       0.23280025 0.077883914 -0.06314713 -0.25635195
000360 f6 7c 8d 3e a0 16 ce bd 59 ca 43 be 68 6a 5b be
       0.276344 -0.10062909 -0.19120158 -0.2142731
000370 67 d8 a8 3e 4e 4e f1 3d b5 b4 95 3e ea 18 3a 3d
       0.32977602 0.117825136 0.2923943 0.045433916
000380 13 4d 7c be bb 03 d2 bd 43 a5 2c 3e 8c d5 04 3e
       -0.24638776 -0.10254618 0.16859917 0.12972087
000390 9b 1a 01 be cd 29 a0 3d 8d 15 5c 3e 8f d7 3f 3e
       -0.12607805 0.07820473 0.21492596 0.18734573
0003a0 46 b9 aa 3e 93 5e ff bd 0a c6 75 3e 03 c1 b1 3e
       0.33344477 -0.124692105 0.24001327 0.3471757
0003b0 ce 73 f4 3c 3f c7 9d 3b 99 f0 0c be 61 6c 97 3c
       0.029840376 0.0048150118 -0.13763656 0.018484296
0003c0 ec 5c 9b 3e 29 8f 28 3d 96 9c 17 3e c1 02 4f bd
       0.3034433 0.041152153 0.14805827 -0.050539736
0003d0 c8 cc 7c 3e 17 b9 91 be 1d 61 70 be 81 c7 48 be
       0.24687493 -0.28461525 -0.23474546 -0.19607355
0003e0 69 e5 93 3e e3 bb 99 3d 2c 90 01 be 83 93 93 bd
       0.28885964 0.0750654 -0.12652653 -0.0720587
0003f0 b9 bc 50 bd d2 db 00 be 67 ed 93 3e d3 68 db bd
       -0.05096123 -0.12583855 0.2889206 -0.10713353

network.2.bias f4 [16]
000000 4a e5 da 3d ef ac e6 bc a5 a0 c9 3d 1b 6f 65 bd
       0.10688265 -0.028158633 0.09845094 -0.05601416
000010 90 46 1f 3a 1f c3 d2 3d 0a 34 1d 3e 2a c5 80 3e
       0.0006075883 0.10291123 0.15351883 0.25150424
000020 ac d7 f1 ba fc 37 ab bc 75 c1 94 bc a9 9c 46 3e
       -0.0018451116 -0.020900719 -0.018158654 0.19395699
000030 ce 33 86 3d d2 8b 59 3e 24 a3 f7 bb 62 a1 12 be
       0.0655285 0.21244743 -0.0075572897 -0.14319375

network.4.weight f4 [3, 16]
000000 d3 90 9f 3e e5 61 cc be 36 01 5a be 36 c6 d8 3d
       0.3116518 -0.39918438 -0.21289524 0.10584681
000010 dc fd 01 bf 38 3e 89 3d 74 c5 a2 3d 34 a3 d6 bd
       -0.50777984 0.067013204 0.079478174 -0.10480347
000020 94 73 9b 3e 73 6f 24 bc dd 73 c4 be 82 9b d1 be
       0.30361617 -0.010036337 -0.38369647 -0.40938956
000030 be d2 e2 be 6d 43 b4 3e 01 47 8f be 58 6d 94 bd
       -0.4430141 0.35207692 -0.2798386 -0.07247418
000040 b7 88 9a be ea 34 4e 3e 45 08 c6 be 29 22 c8 be
       -0.3018243 0.20137373 -0.38678184 -0.39088562
000050 37 ef f3 3e 2d d9 99 3e 62 be 01 3e 17 13 f4 3e
       0.47643444 0.30048504 0.12670282 0.47670814
000060 e8 21 df be 0e 39 1c bf 65 f7 96 bc 9b 41 21 3e
       -0.43580556 -0.6102456 -0.018428514 0.15747683
000070 60 ee 8b 3e 8c 93 75 be 2f 5c a6 bd 9e 09 23 3e
       0.27330303 -0.23982066 -0.081230514 0.15921637
000080 9d 71 70 be f7 99 6c 3e cb 89 90 3e 58 fc 4f 3e
       -0.2348084 0.23105608 0.28230128 0.20311105
000090 7a e0 d3 be 04 f0 a9 be d9 9f d1 be 08 dd aa bd
       -0.413822 -0.3319093 -0.40942267 -0.083429396
0000a0 82 67 80 be 35 78 88 3e 34 09 9c 3e 49 b8 9a be
       -0.2507897 0.2665421 0.3047577 -0.30218723
0000b0 5d 67 5e be 00 53 8b be 36 b4 bd 3e 30 8e 18 3e
       -0.21719117 -0.2721176 0.37051553 0.1489799

network.4.bias f4 [3]
000000 27 07 7c 3d b8 c5 51 3e eb f3 7e 3d
       0.06153026 0.2048558 0.062244337

exp_avg f4 [32, 13]
000000 ee db 55 b9 48 1b 30 b9 93 d8 43 b8 b7 75 bf 39
       -0.00020395193 -0.00016794831 -4.6693323e-05 0.00036518063
000010 72 1c 15 39 45 6a d5 37 ec 60 1c b9 0d b8 b1 36
       0.00014220344 2.5441064e-05 -0.00014913426 5.2964374e-06
000020 16 2c 7a 39 1a ab cd 38 35 86 bc b7 ab ee 1b b9
       0.00023858281 9.807032e-05 -2.2473841e-05 -0.00014870863
000030 04 71 6e b9 0d 88 2c b9 34 16 97 b9 5c 15 9b b8
       -0.0002273955 -0.00016453881 -0.00028817507 -7.3949544e-05
000040 f3 73 90 39 5e 83 41 39 7f 82 a4 38 8f ba 3e b9
       0.0002755221 0.00018454852 7.844436e-05 -0.0001818931
000050 97 1b d6 38 36 8c 51 38 44 31 7d 37 33 63 85 37
       0.00010209454 4.9960065e-05 1.5091446e-05 1.5901029e-05
000060 88 b5 5d b9 e1 fd 53 b9 40 ad 95 38 ed 8c 44 b8
       -0.00021143828 -0.00020217105 7.137144e-05 -4.686129e-05
000070 02 90 26 37 52 82 5d b8 94 49 ab b8 93 7d 8a b8
       9.9279005e-06 -5.2811876e-05 -8.1676204e-05 -6.603743e-05
000080 67 ec 05 b8 ee 74 8f 38 e1 d4 eb b8 a0 fa 7b 38
       -3.1929838e-05 6.840551e-05 -0.00011245325 6.0076476e-05
000090 5e 13 51 b5 9b 8b 87 b8 e6 54 28 38 ad 5c ee b7
       -7.788675e-07 -6.463305e-05 4.013339e-05 -2.8414966e-05
0000a0 b9 26 95 38 29 9f 91 b7 0f a9 91 b8 91 62 1e b9
       7.112086e-05 -1.7359462e-05 -6.9456284e-05 -0.00015104773
0000b0 01 c4 17 b9 cf 74 d6 b8 ba f7 08 37 85 db 1c 39
       -0.000144735 -0.000102260725 8.16391e-06 0.00014959097
0000c0 99 54 ea 38 ea 21 ff b8 e5 18 2c b8 58 01 13 39
       0.00011173747 -0.000121656645 -4.103118e-05 0.00014019513
0000d0 1b cb 46 b9 d7 f4 7d b9 b6 5f 7b b8 17 40 a1 39
       -0.00018958414 -0.0002421917 -5.99322e-05 0.00030756064
0000e0 51 81 52 39 d7 4c 9a 38 1f ed 34 b9 46 0d 9d 38
       0.00020075335 7.357605e-05 -0.00017254472 7.488816e-05
0000f0 61 61 04 39 89 3d 78 37 af ce 90 b6 78 d2 43 b9
       0.00012624777 1.4796279e-05 -4.3155956e-06 -0.00018675055
000100 61 d1 69 b9 31 6a d9 b7 6e 0c d2 38 80 de e5 b7
       -0.00022298611 -2.5917865e-05 0.000100158955 -2.7402537e-05
000110 0f c9 99 38 52 52 80 b8 87 30 25 b8 b8 48 df 37
       7.3330586e-05 -6.118849e-05 -3.938426e-05 2.6617534e-05
000120 f5 ce 8f b8 d6 84 13 39 6c d7 c5 38 55 90 88 b8
       -6.85732e-05 0.00014068498 9.4338175e-05 -6.511869e-05
000130 d9 cd 8a 37 c1 00 5f b8 51 f3 e3 b8 44 fb 67 b9
       1.6546737e-05 -5.3168045e-05 -0.00010869525 -0.0002212348
000140 17 f4 86 38 74 06 74 b9 29 45 0e b9 39 53 9d 38
       6.435083e-05 -0.00023272057 -0.0001356794 7.501845e-05
000150 83 fa 3f b9 0e b8 8b b9 88 30 88 39 73 28 5d 39
       -0.00018308502 -0.00026649277 0.000259761 0.00021091271
000160 1b c8 22 b9 30 e2 6b 38 77 f8 7c 39 50 ca a5 b7
       -0.00015524069 5.623902e-05 0.00024125153 -1.9763742e-05
000170 9b ac 3c 38 32 05 e9 37 38 ba 48 37 d3 ba 11 b8
       4.4983444e-05 2.7778184e-05 1.1964286e-05 -3.4744688e-05
000180 6d 64 ec 37 4b 91 15 38 e4 10 ac b8 f9 14 26 39
       2.8180157e-05 3.5659683e-05 -8.204745e-05 0.00015838807
000190 d1 f6 b2 38 8d d4 eb b7 83 e8 aa 38 d8 16 35 38
       8.5336746e-05 -2.811316e-05 8.1495404e-05 4.3175038e-05
0001a0 8b 1c e7 38 18 18 c0 b7 cf fc 95 39 fb c5 d8 b9
       0.00011020255 -2.2899403e-05 0.00028607852 -0.00041346237
0001b0 9d 89 03 ba e5 da 1b b8 9f 8f e8 b8 a4 d4 9b b8
       -0.00050177594 -3.715874e-05 -0.000110893736 -7.430583e-05
0001c0 79 3b 00 b8 22 eb a4 39 49 ac 65 b9 f1 67 29 39
       -3.0572966e-05 0.00031455705 -0.00021903323 0.00016155817
0001d0 5a 01 d5 39 16 44 63 38 fc 55 ea 38 31 51 8f b8
       0.00040627533 5.4184427e-05 0.00011174005 -6.8338944e-05
0001e0 01 af 78 38 d7 bc a5 38 37 b5 fe b7 bb b7 60 39
       5.9290793e-05 7.902987e-05 -3.0363544e-05 0.0002143075
0001f0 57 5c 3f 38 3c 84 f8 37 23 6a c1 b8 0f ff 29 39
       4.5623947e-05 2.962548e-05 -9.222727e-05 0.00016212113
000200 d3 50 dd 38 d2 e3 42 b8 3d 3b 57 39 ba e6 59 b8
       0.00010553156 -4.646538e-05 0.00020526066 -5.1951713e-05
000210 74 ee 1a 39 5b 5c b0 b9 1c 88 29 39 fe a5 12 38
       0.00014775415 -0.00033638146 0.000161678 3.4963705e-05
000220 35 7a 48 b7 65 e7 3b b9 ec 89 06 b9 c4 b5 c3 36
       -1.19493825e-05 -0.00017919911 -0.00012830616 5.832613e-06
000230 0d ba a8 38 af 93 e0 38 83 6c b4 39 e5 48 19 39
       8.045519e-05 0.000107086606 0.00034413123 0.00014618372
000240 19 b9 99 39 2e 0d 59 39 e9 e4 5c b8 a8 6a c9 b9
       0.00029320343 0.00020699642 -5.2665277e-05 -0.00038417173
000250 dd cb 3d b9 ae 8e be 38 40 b3 19 b9 e5 46 21 39
       -0.0001810039 9.086482e-05 -0.00014657993 0.00015380567
000260 6d 43 42 39 a7 f8 b1 b8 81 02 41 39 0b 3f 89 39
       0.000185264 -8.486333e-05 0.00018406847 0.00026177647
000270 97 0a f8 36 b3 d4 4d 38 d3 7c ae b7 5e da cd 37
       7.3922088e-06 4.90739e-05 -2.0800542e-05 2.453959e-05
000280 bb 61 67 b7 59 d0 23 37 a1 4c be 38 2e 02 b3 b7
       -1.3791428e-05 9.764067e-06 9.074179e-05 -2.1339478e-05
000290 11 67 ac 38 1d 32 96 36 7b 7a 37 38 5b 02 a8 38
       8.220797e-05 4.4761823e-06 4.374467e-05 8.011303e-05
0002a0 f3 de b1 35 6c 5a 81 b8 5c b6 92 b7 d2 f5 43 b8
       1.3252414e-06 -6.168042e-05 -1.7489474e-05 -4.672056e-05
0002b0 b6 15 01 39 3f 18 dc b7 0f 24 20 b8 df db 3e b7
       0.00012310487 -2.6237334e-05 -3.8180555e-05 -1.1376075e-05
0002c0 37 f7 88 b8 35 bd 1a 39 33 b7 c7 38 6e be 05 b8
       -6.531033e-05 0.0001475707 9.523183e-05 -3.1887022e-05
0002d0 23 0b 04 b8 c9 e1 84 b8 98 f4 c4 b8 42 d9 a2 b9
       -3.1481624e-05 -6.336306e-05 -9.3915674e-05 -0.00031060918
0002e0 31 33 8e b8 81 05 8c 39 cf 7f 0c 38 ff a3 82 38
       -6.780623e-05 0.00026706982 3.3497632e-05 6.22943e-05
0002f0 ae da 7b b9 5d cc 65 39 7e 71 3d b9 01 66 21 38
       -0.0002401869 0.00021915273 -0.00018066724 3.848039e-05
000300 69 30 94 b6 9b 5c 96 b9 8a ce 8c b9 64 d1 a9 37
       -4.4163794e-06 -0.00028679226 -0.00026856764 2.0243875e-05
000310 df e8 de b8 50 d6 0b b4 e9 13 c0 37 12 9d bd b8
       -0.000106291605 -1.302335e-07 2.2897455e-05 -9.041479e-05
000320 8f 41 5b b8 53 f4 6d b8 fd c4 f7 38 0c 06 58 b8
       -5.2274725e-05 -5.6732748e-05 0.0001181457 -5.1504045e-05
000330 06 a9 b1 38 37 97 eb 37 8d 2c 89 b8 10 65 14 37
       8.471501e-05 2.8084598e-05 -6.540967e-05 8.845018e-06
000340 f8 54 79 38 58 5f b0 b7 f1 a6 68 b8 a2 41 2d b9
       5.944536e-05 -2.1025233e-05 -5.5468587e-05 -0.00016523016
000350 9c 63 a2 b6 84 52 10 b9 2a 1d ae b8 2c 70 a6 38
       -4.8395723e-06 -0.0001376365 -8.302399e-05 7.9363905e-05
000360 0a 35 97 b8 9f 15 39 38 6d d2 de b5 f8 ac 98 b8
       -7.2101204e-05 4.4127573e-05 -1.6601531e-06 -7.280143e-05
000370 7d 96 b2 38 df 3b 17 b9 a9 6b 5d b9 bb bc 36 b8
       8.515732e-05 -0.00014422786 -0.00021116309 -4.356795e-05
000380 38 24 84 39 ac b6 0e 39 2d 42 4a 38 07 1d 2d b9
       0.00025203987 0.00013610226 4.8222184e-05 -0.00016509379
000390 92 6c cb 38 11 d0 5e 38 c5 fc be 37 3b fc 6a b7
       9.700017e-05 5.31227e-05 2.276747e-05 -1.4006214e-05
0003a0 35 f5 39 b9 05 ae 4e b9 04 3a 0c b7 86 1d 6f 38
       -0.00017734322 -0.00019710518 -8.358158e-06 5.7009536e-05
0003b0 b5 da 23 38 54 cd 82 36 0b c0 46 b9 fc 7b 8a 36
       3.9065915e-05 3.8982053e-06 -0.00018954293 4.127154e-06
0003c0 62 3e 54 37 5e ef 9b b8 60 a2 32 38 e5 de 14 39
       1.2650709e-05 -7.4355616e-05 4.258973e-05 0.00014197415
0003d0 06 6b b8 b8 eb be 6b 38 8d 3a f6 37 f9 72 09 39
       -8.7937384e-05 5.6206172e-05 2.935275e-05 0.00013108169
0003e0 32 ec 30 39 28 9b 01 b9 83 38 b5 38 32 ce 52 39
       0.00016872658 -0.00012360199 8.641279e-05 0.00020103974
0003f0 db 94 79 b8 da 4e b3 39 c8 f9 3c 39 02 6f c0 b8
       -5.950486e-05 0.0003420029 0.00018022128 -9.17595e-05

exp_avg_sq f4 [32, 13]
000000 51 46 f5 37 2c 85 87 37 bc bc fd 37 08 b8 45 38
       2.923902e-05 1.6155267e-05 3.0247837e-05 4.7139853e-05
000010 dd d1 bc 38 ae c2 91 37 49 77 b0 37 bd 6a 6e 37
       9.003629e-05 1.7376002e-05 2.1036381e-05 1.4210757e-05
000020 a3 56 36 38 dc 85 1e 37 13 a2 78 37 c0 51 9e 37
       4.3472868e-05 9.4487e-06 1.4819688e-05 1.8873136e-05
000030 88 22 39 38 52 bc ee 36 31 2a a2 36 1c 03 90 37
       4.4139597e-05 7.114876e-06 4.832888e-06 1.7167586e-05
000040 a6 52 95 37 50 15 09 38 36 42 e6 36 1b ed 0a 37
       1.780067e-05 3.2683194e-05 6.862242e-06 8.280646e-06
000050 dc 55 d7 36 26 67 76 37 89 79 82 36 e8 89 dd 36
       6.4174947e-06 1.4686759e-05 3.8884505e-06 6.6023676e-06
000060 09 a9 00 37 15 41 68 37 d6 6b 48 36 98 7b 56 36
       7.668751e-06 1.3843431e-05 2.9865091e-06 3.1960426e-06
000070 e6 88 26 36 9a 36 6c 36 13 4a 00 37 b9 5b 19 36
       2.4815613e-06 3.5198523e-06 7.646641e-06 2.2852166e-06
000080 ad 8e f5 35 dd cc 18 36 58 8a 8a 36 42 76 6a 36
       1.8295447e-06 2.2769011e-06 4.128826e-06 3.4937552e-06
000090 76 4a 0a 36 db c4 5b 36 06 02 f4 35 95 65 27 37
       2.0606944e-06 3.2748128e-06 1.8180006e-06 9.977627e-06
0000a0 64 07 25 37 19 a0 dc 36 91 51 fd 36 9a e1 fc 36
       9.836487e-06 6.5751487e-06 7.549483e-06 7.5364487e-06
0000b0 75 70 bc 36 54 e0 c2 36 f6 db 3b 37 d8 34 54 37
       5.6159283e-06 5.807766e-06 1.1197282e-05 1.2648488e-05
0000c0 aa eb 0f 37 2a 8d ba 36 1e 39 08 37 6c 6d 57 37
       8.578334e-06 5.5596656e-06 8.11953e-06 1.2840475e-05
0000d0 30 75 e8 37 ab 17 63 37 f1 85 e3 37 8a 43 30 38
       2.7711125e-05 1.3535765e-05 2.712288e-05 4.202457e-05
0000e0 1c 76 7e 38 bc c7 69 37 1f af 92 37 92 06 44 37
       6.0668317e-05 1.39343865e-05 1.7486103e-05 1.168404e-05
0000f0 51 94 f8 37 c5 88 f0 36 8d 87 4c 37 61 3d 8d 37
       2.9632969e-05 7.1684794e-06 1.2190908e-05 1.6837092e-05
000100 96 a3 19 38 43 32 08 36 6b 29 d6 35 e2 4d cf 35
       3.6630394e-05 2.0294835e-06 1.5956297e-06 1.5445369e-06
000110 30 25 03 36 ed 9e 83 36 af ac 1a 36 63 09 10 36
       1.9542167e-06 3.9226056e-06 2.3048303e-06 2.1463136e-06
000120 1a 74 e2 35 32 25 3a 36 70 1e 5c 35 9d b4 96 35
       1.6872102e-06 2.773781e-06 8.200068e-07 1.1228436e-06
000130 20 04 39 36 60 c2 52 36 32 77 34 37 40 93 dc 37
       2.756955e-06 3.140558e-06 1.0756588e-05 2.6294612e-05
000140 67 e6 0d 37 ec 81 67 37 1a e2 af 37 6f 78 86 37
       8.4579e-06 1.3798923e-05 2.0966912e-05 1.6030126e-05
000150 6c f9 4c 37 9f 2f 60 38 b1 19 9a 37 0e 4a 75 37
       1.2217421e-05 5.3450112e-05 1.8370194e-05 1.462038e-05
000160 a9 db 39 37 c2 94 b2 37 18 6e 87 37 06 34 35 36
       1.1078003e-05 2.1288524e-05 1.614452e-05 2.7001383e-06
000170 cd 39 0f 37 ee 7a cf 35 fd aa 95 36 ae 1c 22 36
       8.536922e-06 1.5458479e-06 4.4604517e-06 2.4156575e-06
000180 f8 10 08 37 db 44 5c 37 88 3d ea 36 54 22 da 36
       8.1101825e-06 1.31290535e-05 6.9809066e-06 6.5009026e-06
000190 12 5d 1e 37 2d 8e 35 37 37 90 5b 37 ab 55 73 36
       9.4392035e-06 1.0821544e-05 1.3086995e-05 3.6259687e-06
0001a0 23 8b c0 37 47 d2 05 38 3e 3c 42 38 26 61 81 38
       2.2952974e-05 3.1905507e-05 4.630931e-05 6.169295e-05
0001b0 14 2a bd 38 e7 0c ca 37 26 90 af 37 7c 26 54 38
       9.02006e-05 2.4086285e-05 2.092875e-05 5.058058e-05
0001c0 d1 07 3d 38 24 b9 d5 37 88 6e a9 37 ff 0b ca 37
       4.506839e-05 2.5477791e-05 2.019784e-05 2.4085863e-05
0001d0 81 b8 21 38 5b 01 c8 35 9a a5 08 37 6e 99 f9 35
       3.8557224e-05 1.4901556e-06 8.144789e-06 1.85966e-06
0001e0 8b 1f 85 36 29 06 ba 36 c3 06 e0 36 83 39 f6 36
       3.967381e-06 5.543949e-06 6.6765074e-06 7.3380666e-06
0001f0 1c 6e 73 37 44 f5 a6 36 05 99 9e 36 66 8c c9 36
       1.45095655e-05 4.975738e-06 4.7265808e-06 6.0066113e-06
000200 1a 48 4b 37 92 17 18 36 dd 16 1b 37 29 26 1c 37
       1.211653e-05 2.2663485e-06 9.244043e-06 9.307209e-06
000210 e5 23 59 37 f6 d7 b3 37 42 95 50 37 d3 65 07 37
       1.2942565e-05 2.1439027e-05 1.2432518e-05 8.070335e-06
000220 dc 3f cf 36 5d 02 68 37 93 49 b0 36 0e c6 09 37
       6.176515e-06 1.3828828e-05 5.253774e-06 8.2119495e-06
000230 06 e1 15 37 8f 41 13 37 9b 07 5b 37 6d f8 18 37
       8.933484e-06 8.777147e-06 1.3055188e-05 9.117747e-06
000240 d6 04 2c 37 5c ce 9e 37 6a b1 a4 37 d1 4a 51 38
       1.0253125e-05 1.8931161e-05 1.9632938e-05 4.989916e-05
000250 f6 81 0b 37 b6 b8 ec 36 83 41 70 37 72 2c f8 37
       8.3153045e-06 7.0548513e-06 1.4320368e-05 2.95846e-05
000260 44 e4 3c 37 c4 c9 14 37 23 05 21 37 b3 e1 28 37
       1.125882e-05 8.868465e-06 9.597544e-06 1.006613e-05
000270 dc 6f 2a 36 53 c8 c6 36 bc a0 90 35 32 c6 70 36
       2.5397085e-06 5.9241806e-06 1.0775616e-06 3.5878152e-06
000280 6a fd d9 35 19 23 c3 36 a4 7e 30 37 cc 35 08 37
       1.6241513e-06 5.8155388e-06 1.0519903e-05 8.118757e-06
000290 60 c9 a4 36 f5 d4 dd 36 bc 6a 01 37 f0 35 16 37
       4.911024e-06 6.6111047e-06 7.71385e-06 8.953255e-06
0002a0 cc 47 6d 36 95 bc 8e 36 a7 9b 73 36 3e 8e 9e 36
       3.5357543e-06 4.2538836e-06 3.6300423e-06 4.725326e-06
0002b0 da 08 04 37 44 6a e2 36 56 f4 ad 36 50 a5 b3 36
       7.869874e-06 6.747696e-06 5.184246e-06 5.3538606e-06
0002c0 e4 aa 9f 36 d9 71 c7 36 4a 31 b6 35 e2 34 85 36
       4.7584635e-06 5.9439158e-06 1.3574402e-06 3.9698652e-06
0002d0 fe 1b 27 37 99 56 f7 36 d0 73 c6 36 68 8e dd 36
       9.960493e-06 7.371255e-06 5.914342e-06 6.6028915e-06
0002e0 02 42 b2 37 4b 03 c9 37 80 16 15 38 fa 8c f8 36
       2.124999e-05 2.39626e-05 3.5545323e-05 7.407388e-06
0002f0 50 54 14 37 d6 cb 14 37 b1 a7 8e 37 1a d8 91 36
       8.841118e-06 8.868947e-06 1.7005807e-05 4.3464943e-06
000300 b0 2e fc 36 1c f3 1b 37 08 b7 5e 37 8b 20 1f 36
       7.5156204e-06 9.295323e-06 1.3274846e-05 2.3711789e-06
000310 8d 40 3a 36 67 da 5a 36 f2 2a 5a 36 f9 14 17 36
       2.7753733e-06 3.2611658e-06 3.250953e-06 2.251296e-06
000320 dd 07 9c 36 2f 09 cf 36 f2 e8 45 36 c0 61 50 36
       4.6500777e-06 6.17015e-06 2.949088e-06 3.1051313e-06
000330 07 c1 4d 36 38 0e 4b 36 96 44 15 37 97 56 89 36
       3.0659737e-06 3.0257634e-06 8.897061e-06 4.0929986e-06
000340 20 8e 20 37 c7 79 92 36 78 dc 93 36 e7 d4 c9 36
       9.569834e-06 4.365316e-06 4.4066073e-06 6.015052e-06
000350 ed a9 86 36 f3 0c 9b 36 35 b4 9f 36 bf bd 74 36
       4.013293e-06 4.6208675e-06 4.759548e-06 3.646928e-06
000360 6f cb 99 36 6f c8 c8 36 03 49 22 36 bd 5d 8d 36
       4.583438e-06 5.983798e-06 2.418238e-06 4.21304e-06
000370 d6 b9 41 37 bb e8 95 37 3a 27 14 37 1a 8f 8e 37
       1.1546965e-05 1.7870558e-05 8.830621e-06 1.6994356e-05
000380 f5 04 b5 37 20 cc 0a 38 43 45 12 37 d2 df 48 37
       2.157919e-05 3.309187e-05 8.718404e-06 1.1973041e-05
000390 58 34 f0 36 38 7f 92 37 c5 2e a1 36 e1 2e ed 36
       7.158651e-06 1.7463797e-05 4.8036186e-06 7.068608e-06
0003a0 e4 31 37 37 a6 fc bb 37 a4 7b 1b 36 cd 28 b5 36
       1.0919266e-05 2.2409786e-05 2.3168768e-06 5.39897e-06
0003b0 1d cb 07 36 6c 1f 20 36 35 57 69 37 c5 b9 8d 36
       2.0234795e-06 2.3860148e-06 1.3908187e-05 4.223754e-06
0003c0 b0 f1 ca 36 06 d8 59 36 c2 58 1d 37 e5 33 85 36
       6.0482053e-06 3.2461262e-06 9.378595e-06 3.96975e-06
0003d0 cd 20 93 36 b2 6b ef 36 49 76 3e 36 40 44 48 36
       4.38476e-06 7.1352924e-06 2.8381057e-06 2.984205e-06
0003e0 a1 b8 a2 37 c4 ec 40 36 ee 69 07 37 d1 1d 5f 37
       1.939788e-05 2.8748045e-06 8.071291e-06 1.3298778e-05
0003f0 39 5c 49 37 12 ed 51 37 2b 2e 16 38 61 e7 69 37
       1.2002006e-05 1.2512568e-05 3.5805784e-05 1.3941754e-05

exp_avg f4 [32]
000000 ca 56 a6 b9 01 30 4f b9 2f bf 7c b8 d2 ea bd 37
       -0.0003172665 -0.00019758941 -6.0259536e-05 2.2639902e-05
000010 88 9c 59 b9 02 a8 0a b9 a5 74 5b b9 99 e7 fa b8
       -0.00020753045 -0.00013223293 -0.00020928921 -0.000119640674
000020 c0 47 16 b9 79 eb 31 34 5c e8 af b8 25 5e fa b8
       -0.00014331844 1.6570074e-07 -8.3879306e-05 -0.00011938465
000030 c5 af 5e b8 6f 70 31 b9 cd 77 64 b9 e1 1f 27 b9
       -5.3092623e-05 -0.0001692192 -0.00021788404 -0.00015938237
000040 04 c2 90 b8 56 78 48 b9 6b f6 2c b9 9a 52 c0 38
       -6.902593e-05 -0.00019118315 -0.00016494996 9.170659e-05
000050 f9 1e 90 b9 b3 a6 3b b9 d4 e4 aa 37 9c ff b7 38
       -0.00027488897 -0.0001789581 2.0372136e-05 8.773731e-05
000060 af 7e cc b8 31 18 83 b7 84 0c db 37 3e 45 dc 38
       -9.751075e-05 -1.5627682e-05 2.6112662e-05 0.00010503315
000070 8c 1e 8e b9 4b 46 c8 b9 f5 6a 33 b9 e8 73 cd b8
       -0.0002710711 -0.00038199345 -0.00017110615 -9.796751e-05

exp_avg_sq f4 [32]
000000 45 67 ff 37 b7 14 3f 37 0c da b4 36 2a 3e 2a 37
       3.0446457e-05 1.138931e-05 5.389802e-06 1.0147263e-05
000010 22 8f d0 37 f6 f5 57 36 fc a6 38 38 a7 30 98 37
       2.4862184e-05 3.2180665e-06 4.4024535e-05 1.8142468e-05
000020 6d 54 27 38 31 20 e4 36 27 bc 66 37 56 58 77 37
       3.989453e-05 6.798677e-06 1.3752876e-05 1.4742915e-05
000030 d0 bf af 36 ee 88 1f 37 31 fb 68 37 d2 87 89 37
       5.2377363e-06 9.50902e-06 1.3886763e-05 1.6394919e-05
000040 4f 41 e3 36 5e 86 61 37 c5 4b d1 36 c5 60 67 37
       6.77273e-06 1.344233e-05 6.237506e-06 1.3791204e-05
000050 b9 85 60 38 6a e4 c2 36 bd 99 97 37 41 09 04 38
       5.35303e-05 5.8082414e-06 1.8072193e-05 3.147987e-05
000060 d8 48 57 37 42 46 af 36 8d b1 a3 36 66 51 91 37
       1.2831959e-05 5.2235855e-06 4.878448e-06 1.7323251e-05
000070 e5 83 1e 37 c2 57 a6 37 b9 b1 88 38 69 cf 0c 36
       9.448243e-06 1.9829607e-05 6.518089e-05 2.0982354e-06

exp_avg f4 [16, 32]
000000 14 60 82 b9 93 5b 33 b9 4b d5 c6 b8 ee 21 fa b7
       -0.00024867116 -0.00017104884 -9.481105e-05 -2.9818122e-05
000010 5a 92 77 b9 12 c7 d6 b8 f0 99 92 b8 03 a8 18 b7
       -0.00023610276 -0.00010241395 -6.9904956e-05 -9.099024e-06
000020 97 53 e1 38 aa 81 af 23 f8 ee 88 38 cc 7c 76 38
       0.00010744406 1.9028453e-17 6.529497e-05 5.8767197e-05
000030 97 96 ee b1 c8 56 47 b9 73 3d ac b9 34 89 8c b7
       -6.9438317e-09 -0.00019010447 -0.0003285218 -1.675319e-05
000040 f8 7f f7 37 e4 5e 94 b9 2c 23 2b 36 82 ae 91 b1
       2.9504285e-05 -0.0002829946 2.5501458e-06 -4.2398947e-09
000050 4d a0 c1 37 cb 95 b8 b9 98 8d e8 b2 f9 f6 ea b2
       2.3082039e-05 -0.0003520682 -2.7072744e-08 -2.7353495e-08
000060 73 0d fd b7 6b ed 04 b4 f0 62 b8 b5 a4 3e 1a ad
       -3.0166213e-05 -1.237983e-07 -1.3737863e-06 -8.7677955e-12
000070 ed 21 b8 b9 24 65 81 b9 2a 09 66 38 92 e9 1d 23
       -0.00035120492 -0.00024680153 5.4844808e-05 8.5604475e-18
000080 d8 d6 f4 b7 8f 28 c1 36 29 38 43 b9 2c 4b 27 b9
       -2.9187111e-05 5.75657e-06 -0.0001861757 -0.00015954365
000090 02 5e fe 36 04 e2 91 b8 da 90 cc b8 c3 33 d6 b8
       7.580734e-06 -6.9562375e-05 -9.754459e-05 -0.000102139566
0000a0 46 03 2d b9 26 16 ce b8 01 14 dd b8 fa df 3b b9
       -0.00016499785 -9.826971e-05 -0.00010541827 -0.00017917147
0000b0 d8 8f 6f b8 c1 7d 3d b9 09 a8 28 38 3d 54 1f b9
       -5.7116005e-05 -0.00018071292 4.0210816e-05 -0.00015194803
0000c0 d2 97 08 b9 01 01 9a b8 03 1b 00 b9 16 24 7b b8
       -0.00013026528 -7.343479e-05 -0.00012217094 -5.987667e-05
0000d0 b7 63 2d b9 07 bf d1 b7 08 32 02 b9 72 e8 76 b8
       -0.00016535712 -2.5003696e-05 -0.00012416404 -5.8867452e-05
0000e0 91 0b 3d b8 d1 d2 8c b8 72 1d 48 b8 7c 27 4a b8
       -4.5071884e-05 -6.714988e-05 -4.771114e-05 -4.8197326e-05
0000f0 d0 7f 1a b9 9e c7 23 38 aa 34 d1 b8 93 49 93 b8
       -0.00014734198 3.9048136e-05 -9.975706e-05 -7.0232105e-05
000100 ed a9 ed b3 3d 5f 30 b4 c1 ff 18 38 a8 93 94 b8
       -1.1067082e-07 -1.6425925e-07 3.6477813e-05 -7.084693e-05
000110 8d 12 58 87 e5 ce 01 37 25 2d b5 38 7d b3 0f b9
       -1.6255485e-34 7.737171e-06 8.6391614e-05 -0.00013704407
000120 31 71 8e 38 67 27 57 b9 36 4a df 38 cd 05 5a 38
       6.792171e-05 -0.00020518676 0.000106472915 5.1980653e-05
000130 9a bb d9 b8 7a f4 22 37 0a 9d cc b0 72 7b 19 37
       -0.0001038231 9.712874e-06 -1.4887587e-09 9.1482525e-06
000140 9d f9 2d b3 3b c0 0c b4 95 0f 87 b8 c3 41 80 b9
       -4.0506723e-08 -1.3108449e-07 -6.440204e-05 -0.0002446306
000150 86 1d 68 38 5c f5 dd 22 51 aa 8a b9 6e 2b 4d b9
       5.5340606e-05 6.0161954e-18 -0.00026448307 -0.00019566502
000160 2c a6 fa 38 9a 56 55 b9 16 f6 36 b9 85 5d 84 b9
       0.00011951881 -0.00020345525 -0.00017448547 -0.0002524668
000170 39 f2 79 38 c9 dc e6 b7 c8 bb 17 38 d6 f2 dd b8
       5.9591814e-05 -2.7520948e-05 3.617609e-05 -0.00010583333
000180 f8 5a 37 b9 4f 2f 00 b9 52 a8 a3 b8 c0 37 9e 37
       -0.00017486128 -0.00012224655 -7.803798e-05 1.8861028e-05
000190 81 bb 26 b9 0f b9 82 38 52 6a 11 39 44 28 0c 38
       -0.00015900844 6.233353e-05 0.00013867885 3.34161e-05
0001a0 2b 1f 12 39 f1 d2 35 b8 63 5d 20 39 3f cc 0b 39
       0.00013935256 -4.3350217e-05 0.00015293578 0.0001333216
0001b0 ab e2 91 b6 a2 56 0a b9 d7 16 4e b9 3c 28 88 b8
       -4.3477244e-06 -0.00013192979 -0.000196542 -6.4924796e-05
0001c0 c2 a9 26 38 2d d2 3b b9 40 65 ce 36 ac 6c 2a b9
       3.9735583e-05 -0.00017912006 6.1510655e-06 -0.00016252947
0001d0 f4 12 fc 38 81 45 80 b9 72 af 15 b8 b7 ae e6 b8
       0.00012019827 -0.00024465847 -3.5687764e-05 -0.00010999798
0001e0 f6 3b 0b 39 24 c0 6d b8 fb 26 06 b9 01 8f 53 b9
       0.0001327841 -5.6684148e-05 -0.00012793757 -0.00020175801
0001f0 2a ab f3 37 d0 59 27 b9 19 f7 9d 38 a1 c2 38 b6
       2.9047562e-05 -0.00015959819 7.532369e-05 -2.7531426e-06
000200 2e de 24 39 8a c0 32 39 87 97 76 b9 19 fe 07 b9
       0.00015723027 0.00017047129 -0.00023516837 -0.00012969262
000210 e6 f6 0a 39 e9 62 22 b9 8c 0d 8a b9 62 9a 1c b9
       0.00013252682 -0.00015486371 -0.00026331504 -0.00014934831
000220 c4 80 be b9 c2 4d 10 b7 ec ea a8 b9 c2 6e c7 b9
       -0.00036335562 -8.601173e-06 -0.00032218487 -0.0003803876
000230 f4 da 3e b8 54 63 67 b8 04 48 9c 39 45 c5 1c b9
       -4.5503446e-05 -5.51672e-05 0.00029808294 -0.00014950808
000240 19 6c 49 b9 20 03 e5 38 0d 25 4c b9 17 de 52 39
       -0.00019209123 0.00010920153 -0.00019468759 0.00020109896
000250 7f f7 af b9 6b 50 68 39 8d a2 da b7 8d c9 f2 38
       -0.00033563 0.00022155202 -2.6063319e-05 0.00011577001
000260 a1 59 99 b9 b2 92 6b 38 16 ac 1e 39 32 2b 8b 39
       -0.00029249213 5.6164987e-05 0.00015132161 0.0002654433
000270 82 49 61 b9 a9 dc 15 39 15 41 8e b9 9b ef 68 b8
       -0.00021485056 0.0001429195 -0.0002713284 -5.553626e-05
000280 2c ca 02 38 6b 8f 16 38 52 95 d5 b8 13 9a 8f b8
       3.1182703e-05 3.5896355e-05 -0.000101844445 -6.84747e-05
000290 38 29 df 37 84 2f 02 b9 7f e1 43 b9 71 b1 cc b7
       2.6602866e-05 -0.00012415467 -0.00018680653 -2.4401323e-05
0002a0 80 6a 22 b9 11 bb c0 37 5a 32 32 b9 09 54 4e b9
       -0.00015489198 2.2975293e-05 -0.0001699416 -0.00019676996
0002b0 6b 90 b6 37 47 ad 7c b8 08 95 4c 38 ab 77 5f b8
       2.176334e-05 -6.024286e-05 4.8776186e-05 -5.3278793e-05
0002c0 a6 c5 6d b8 4f c9 dd 36 df ea 9c b8 ef 47 16 39
       -5.6689278e-05 6.6097487e-06 -7.482408e-05 0.00014331912
0002d0 2c 76 54 b9 cc a7 3c 38 af c1 e7 37 81 5c cb 38
       -0.00020261918 4.4978966e-05 2.7627537e-05 9.6970245e-05
0002e0 b3 82 3d b9 65 cb 84 38 b9 2a db 38 71 3c 4e 39
       -0.00018073134 6.332136e-05 0.000104506915 0.00019668207
0002f0 e9 0e 64 b9 a7 b8 4c 38 5a ff fb b8 01 e8 2e b7
       -0.00021749329 4.880936e-05 -0.000120161756 -1.0425226e-05
000300 c2 4d 18 b8 e9 f1 4b b7 e0 66 e1 b8 4d bf 5e b8
       -3.631204e-05 -1.2156067e-05 -0.00010747998 -5.3107087e-05
000310 be 72 1b b8 b4 de f7 b8 93 10 2a b9 b6 d2 08 b7
       -3.706174e-05 -0.000118193595 -0.00016218638 -8.155292e-06
000320 c9 24 d0 b8 d4 62 d3 37 31 32 03 b9 c7 17 16 b9
       -9.925065e-05 2.519918e-05 -0.00012511831 -0.00014313972
000330 28 93 e1 37 8a d9 c4 b8 1e da 1e b8 13 66 4f b8
       2.6890615e-05 -9.386528e-05 -3.7873273e-05 -4.944771e-05
000340 fd 4b 27 b8 9c 4d 86 b8 00 d2 70 b8 bc 76 fe 38
       -3.9886672e-05 -6.404074e-05 -5.7416037e-05 0.0001213378
000350 ff a5 25 b9 d0 2b 53 b8 55 80 0f 38 2e 84 b1 38
       -0.00015797465 -5.0347124e-05 3.4213375e-05 8.464638e-05
000360 60 7b 23 b9 9e 50 7c 38 2e c2 b4 38 c1 16 2d 39
       -0.00015590852 6.0156563e-05 8.6192376e-05 0.00016507042
000370 e8 df 83 b9 1b 3b a2 b7 b3 6f aa b8 53 26 87 b6
       -0.0002515309 -1.9339428e-05 -8.127037e-05 -4.027775e-06
000380 fe 8c ad 38 25 93 c4 38 01 cc 1e b9 47 1a ac b8
       8.275545e-05 9.373416e-05 -0.00015144052 -8.206494e-05
000390 4e 9c 93 38 72 d7 de b8 43 72 30 b9 70 25 91 b8
       7.03862e-05 -0.00010625915 -0.00016827234 -6.921112e-05
0003a0 e0 01 69 b9 e6 c0 7e 37 69 cf 4a b9 a6 2d 76 b9
       -0.0002222131 1.5184492e-05 -0.00019341487 -0.00023477394
0003b0 ab 1c 38 b7 39 6a 47 b8 a5 39 2b 39 32 91 d3 b8
       -1.0973929e-05 -4.7544225e-05 0.00016329305 -0.00010088309
0003c0 7a 67 fa b8 22 10 5b 38 1a 1f ca b8 0d 83 11 39
       -0.00011940203 5.2228694e-05 -9.637904e-05 0.00013877098
0003d0 93 8f 59 b9 8d 15 fc 38 cd db db 35 3d bf b9 38
       -0.00020748218 0.000120203105 1.6380742e-06 8.857108e-05
0003e0 63 a4 31 b9 9d 84 1e 38 6f a0 dd 38 ad e7 39 39
       -0.00016941274 3.779364e-05 0.00010567984 0.00017729281
0003f0 19 a7 1c b9 b4 a5 b3 38 f3 7c 2d b9 c1 64 8f b7
       -0.00014939568 8.56625e-05 -0.00016545113 -1.7093846e-05

exp_avg_sq f4 [16, 32]
000000 51 87 ea 38 15 dc 83 37 30 af 78 38 2e d9 02 37
       0.00011183194 1.57189e-05 5.9290964e-05 7.79917e-06
000010 3e 6f 59 38 17 8b 32 37 bf 6e ae 37 3a c4 78 35
       5.1840434e-05 1.0642011e-05 2.0793987e-05 9.2672747e-07
000020 33 f9 0d 37 33 46 d1 34 30 85 4a 36 cc f4 bd 36
       8.462276e-06 3.898036e-07 3.017787e-06 5.661137e-06
000030 67 38 06 35 06 07 9c 38 12 db 94 38 a7 84 ec 37
       5.0000966e-07 7.439968e-05 7.097995e-05 2.8195163e-05
000040 a1 e2 62 37 33 5a 8d 38 91 80 f3 35 ae 64 97 34
       1.3523416e-05 6.740205e-05 1.8142329e-06 2.8199196e-07
000050 da 3f ea 36 d4 9b 18 39 51 05 af 35 68 c5 a5 34
       6.9811767e-06 0.000145539 1.3040063e-06 3.0877277e-07
000060 5e 53 7e 36 1e 62 19 35 31 fc af 34 16 b0 97 34
       3.7897476e-06 5.713972e-07 3.2779784e-07 2.825406e-07
000070 af 85 a8 38 32 29 7b 37 50 45 d9 36 74 3c 7e 32
       8.035765e-05 1.4970357e-05 6.475173e-06 1.4798491e-08
000080 ca 43 ca 37 7f 95 36 36 8e 23 e3 37 1c f5 14 37
       2.4111843e-05 2.7207132e-06 2.7077065e-05 8.878556e-06
000090 15 b1 11 37 b4 76 cc 36 76 db 2e 37 c9 72 91 37
       8.683904e-06 6.0934926e-06 1.0422305e-05 1.7338798e-05
0000a0 c0 18 0a 37 9b 0f ca 37 5b 05 c8 36 09 e3 a9 36
       8.2312035e-06 2.4087543e-05 5.961088e-06 5.063023e-06
0000b0 9f d2 0f 37 a0 4a c8 37 61 96 25 37 e2 79 81 37
       8.572503e-06 2.3876608e-05 9.869779e-06 1.5434754e-05
0000c0 bb 58 08 37 a6 f5 39 37 7c bf 86 37 ff 10 9c 36
       8.126891e-06 1.1084054e-05 1.6063212e-05 4.651141e-06
0000d0 18 89 34 37 d8 d3 3f 38 cc 1b 5e 38 79 91 ec 36
       1.0760756e-05 4.5735243e-05 5.2954812e-05 7.0502833e-06
0000e0 b6 3a 30 37 55 84 b2 35 ca e7 11 37 74 bc 80 37
       1.0504087e-05 1.3300547e-06 8.696641e-06 1.5346544e-05
0000f0 ee c3 b3 37 ff 8f d9 36 67 3b 93 36 83 52 0b 36
       2.14297e-05 6.4838673e-06 4.3878567e-06 2.0760642e-06
000100 13 6e 2e 34 61 72 3e 34 af 97 39 36 da 11 f0 36
       1.6245058e-07 1.773674e-07 2.765544e-06 7.1546356e-06
000110 e4 41 ae 32 c2 e6 1f 35 69 cb c4 36 53 31 20 38
       2.028623e-08 5.956791e-07 5.8649352e-06 3.819291e-05
000120 c8 d3 d4 36 b1 c9 3f 38 bf f5 b9 36 0d 9c 25 36
       6.342747e-06 4.572579e-05 5.5420383e-06 2.467775e-06
000130 92 e2 97 37 8a 9f d1 34 cd b8 07 35 b9 ab e3 34
       1.8106108e-05 3.9045364e-07 5.056034e-07 4.240699e-07
000140 b2 27 ca 34 ed 86 87 34 67 16 02 38 d6 79 4e 37
       3.7654314e-07 2.524388e-07 3.101528e-05 1.2306924e-05
000150 2a 23 62 37 1f 7e 5a 34 eb 07 a6 38 cb 4b 77 37
       1.3478837e-05 2.0348715e-07 7.916972e-05 1.4739994e-05
000160 0d cf b1 37 ba d3 81 36 3a 16 77 37 5d 80 ec 37
       2.119646e-05 3.869148e-06 1.4727522e-05 2.8193166e-05
000170 d4 7d 7a 36 8c 19 d3 36 d0 60 b5 36 6b cf 39 37
       3.7326145e-06 6.291264e-06 5.405491e-06 1.10751525e-05
000180 d4 0d d2 36 d9 ac 05 36 5f 9b 5b 37 6c 95 f1 36
       6.2600975e-06 1.9919155e-06 1.3089592e-05 7.1997547e-06
000190 8a 4f 8c 36 ed 0a 36 36 42 98 bb 36 92 80 0f 38
       4.1815847e-06 2.7126473e-06 5.5907594e-06 3.4213597e-05
0001a0 d2 93 02 37 b2 c6 2f 38 75 13 bc 36 90 9e 8a 36
       7.783021e-06 4.19083e-05 5.6051017e-06 4.1311796e-06
0001b0 aa 8e 8d 37 0d c4 43 37 dc af a2 36 ce 0c d4 36
       1.6874943e-05 1.1668552e-05 4.848449e-06 6.319583e-06
0001c0 5e 00 cd 35 a4 4b ae 36 d5 5b df 37 aa d5 25 37
       1.5273797e-06 5.19441e-06 2.6626434e-05 9.884514e-06
0001d0 5a e0 73 37 85 48 0e 37 5d 0e 9c 38 27 6a 53 37
       1.4536165e-05 8.480744e-06 7.441335e-05 1.2601296e-05
0001e0 a9 5f ab 37 7f 62 77 36 15 82 4e 37 81 ce db 37
       2.0429334e-05 3.68632e-06 1.2308844e-05 2.6202995e-05
0001f0 12 36 2b 37 8c 95 10 37 54 47 02 37 04 a2 1c 37
       1.02049835e-05 8.617888e-06 7.765211e-06 9.336047e-06
000200 4c 4a 2a 38 25 74 30 37 a9 9e d1 38 26 e1 c3 38
       4.0600353e-05 1.05174595e-05 9.995449e-05 9.340262e-05
000210 81 0f dd 37 5e bc 91 37 fb bc 82 38 24 3e 9d 38
       2.6352473e-05 1.7373062e-05 6.2340834e-05 7.497918e-05
000220 11 c8 b1 38 9a 5a d8 37 17 a8 0b 38 d7 2e 16 38
       8.477283e-05 2.5791396e-05 3.329673e-05 3.580641e-05
000230 27 31 93 37 e9 42 ce 38 37 c6 06 38 c0 e3 81 38
       1.7546654e-05 9.8353084e-05 3.213269e-05 6.193621e-05
000240 7c d2 82 37 39 c1 0c 38 fb 9e 21 38 50 01 d3 36
       1.5595222e-05 3.3558554e-05 3.8533453e-05 6.288443e-06
000250 94 2d 1b 39 5f 04 84 38 a5 d0 30 38 65 27 ae 36
       0.00014798931 6.295065e-05 4.2155985e-05 5.19019e-06
000260 b6 08 87 38 10 84 b8 36 ac dd 0a 37 5d 6d 36 37
       6.438924e-05 5.4990014e-06 8.277053e-06 1.08735085e-05
000270 60 87 7c 38 64 b8 04 37 1b 7d 4a 38 65 ef 6e 37
       6.020756e-05 7.910745e-06 4.8277067e-05 1.4241644e-05
000280 1b ec 15 36 7b d2 4d 35 4c b5 a6 37 42 2d 48 38
       2.2340162e-06 7.667474e-07 1.9873165e-05 4.7725865e-05
000290 8f 02 06 36 61 9f 55 36 8b 73 00 38 b9 0e 2f 38
       1.9969045e-06 3.1832244e-06 3.0625186e-05 4.1736963e-05
0002a0 ab fd 10 38 ed ce 9c 37 82 34 52 37 c3 76 5e 37
       3.4568522e-05 1.8693006e-05 1.2529201e-05 1.32598825e-05
0002b0 7b 65 39 37 c3 d6 9f 37 f4 94 d2 35 e6 c0 61 37
       1.1050487e-05 1.9054283e-05 1.568957e-06 1.3455958e-05
0002c0 3f 95 81 36 c2 f6 b9 36 25 11 b1 37 93 64 90 36
       3.861874e-06 5.542156e-06 2.1108028e-05 4.303243e-06
0002d0 98 1a 8c 38 de 1a 94 36 c7 72 f4 37 33 62 7a 36
       6.680674e-05 4.4138715e-06 2.9140514e-05 3.7310062e-06
0002e0 04 95 0b 38 7a a1 50 36 39 98 c9 36 6e bb f5 36
       3.3278964e-05 3.1088407e-06 6.007988e-06 7.3233887e-06
0002f0 cb 61 41 37 75 48 37 35 56 80 76 37 2b 3c 0d 37
       1.1526466e-05 6.827825e-07 1.4692623e-05 8.418264e-06
000300 d1 87 e8 36 72 fe 86 35 fc ef ac 37 8e 9a 1e 38
       6.92995e-06 1.0057831e-06 2.061575e-05 3.7814076e-05
000310 93 41 7e 36 f4 0c 53 36 9a 49 06 38 1d 64 0d 38
       3.7887119e-06 3.144899e-06 3.2016636e-05 3.3710257e-05
000320 36 5e dc 37 37 eb 85 37 87 b8 15 37 66 58 3a 37
       2.6269914e-05 1.5964366e-05 8.924056e-06 1.1107046e-05
000330 34 12 14 37 5a cc c4 37 e6 75 32 36 6b 5c 58 37
       8.825726e-06 2.346018e-05 2.6592693e-06 1.2896121e-05
000340 4c f2 91 36 a3 14 41 37 7b f6 99 37 d2 c4 82 36
       4.349544e-06 1.1508501e-05 1.8353798e-05 3.897215e-06
000350 8b 27 48 38 c7 93 52 37 0f 6c e3 37 d1 68 4e 36
       4.7720543e-05 1.25513825e-05 2.7110827e-05 3.0757403e-06
000360 cb c2 d7 37 cd c9 20 36 ec 36 ad 36 64 17 f2 36
       2.5720705e-05 2.3959321e-06 5.1621955e-06 7.214885e-06
000370 00 9e 8c 37 02 79 d4 35 67 c4 2d 37 90 fc dc 36
       1.6762875e-05 1.5830449e-06 1.0357332e-05 6.585913e-06
000380 e6 ed 21 37 13 6e 51 36 b9 78 23 38 57 81 63 38
       9.651738e-06 3.1207499e-06 3.897466e-05 5.4241475e-05
000390 54 5a 19 37 7b 3d fa 36 dd 12 09 38 3e fb 01 38
       9.140542e-06 7.457738e-06 3.2680913e-05 3.0989984e-05
0003a0 b4 5d 35 38 d0 00 74 37 03 14 78 37 b3 26 96 37
       4.324103e-05 1.45437225e-05 1.4786611e-05 1.7899414e-05
0003b0 b1 20 0c 37 94 b0 17 38 d2 c9 28 37 f8 1b e4 37
       8.352262e-06 3.6165657e-05 1.006057e-05 2.7192742e-05
0003c0 c3 49 e1 36 fc 77 4e 37 2e 59 8c 37 8f f6 7e 36
       6.7141095e-06 1.2306493e-05 1.6730828e-05 3.7992465e-06
0003d0 50 39 9c 38 8e 3d 74 37 64 f1 cb 37 70 83 72 36
       7.449335e-05 1.4557865e-05 2.4311892e-05 3.6137317e-06
0003e0 56 ef 00 38 1a bb 20 36 bc fd 98 36 ca 20 0a 37
       3.0740477e-05 2.3950765e-06 4.5594916e-06 8.233075e-06
0003f0 f7 12 a4 37 96 d5 90 36 85 fb 92 37 48 8e cf 36
       1.9559155e-05 4.316399e-06 1.752168e-05 6.1856445e-06

exp_avg f4 [16]
000000 1c 47 65 b9 54 4f 22 b9 1e 6d 6f b8 83 31 93 b8
       -0.00021865632 -0.00015479076 -5.7083664e-05 -7.0187285e-05
000010 c5 d3 1d b9 c9 77 d7 b8 54 21 08 b9 f5 4b bb b8
       -0.00015051577 -0.000102743106 -0.00012982386 -8.931003e-05
000020 7d 87 84 b9 60 9a 5c b8 79 ec 0d b8 a1 93 8d b8
       -0.0002527795 -5.259586e-05 -3.3837252e-05 -6.750902e-05
000030 52 b4 bc b8 08 0a 42 b9 a0 e4 69 b7 3a 2e 5d 34
       -8.998126e-05 -0.00018505019 -1.3941113e-05 2.0599046e-07

exp_avg_sq f4 [16]
000000 2b 99 5b 38 50 ac 1b 38 9b 9c cc 37 d6 b2 f3 37
       5.2356318e-05 3.711536e-05 2.439162e-05 2.9051134e-05
000010 4f b1 01 39 0e ea 8d 38 89 3d 98 38 da 98 6d 38
       0.00012368451 6.767e-05 7.2593866e-05 5.6647557e-05
000020 0e e6 5e 37 20 a6 01 37 4e 8a 85 38 26 64 4b 37
       1.3285795e-05 7.727678e-06 6.3676955e-05 1.21230605e-05
000030 2a 21 ea 37 aa c7 9f 38 d4 44 74 38 9b 69 ce 36
       2.7910417e-05 7.618901e-05 5.8238234e-05 6.1515725e-06
