homework1/lightning_logs/version_12/checkpoints/epoch=99-step=900.ckpt (torch, 22040 bytes, 18 tensors)

network.0.weight f4 [32, 13]
00000000: a8ec d9bd 797d a7be 1e4f 9b3e eb84 c4be
00000010: dc34 1fbe f27e 66bc f2c2 ea3c 272b f03d
00000020: b030 e03d d211 a83e c33a 1bbe cf63 583e
00000030: d283 9e3e c82f 2f3e c808 6b3d ce94 8bbd
00000040: 78d7 d6be 52a8 933e cb3e 513e b6f2 cc3e
00000050: 89b1 09be 446d 7fbd 2cd4 be3d a796 e53d
00000060: 6d6b d73e b1f4 643e 34b9 dd3c a166 c9be
00000070: 6b37 9abd 9e73 213c 3833 033e 141e 49be
00000080: c054 493e 8c02 85be 8a1e 89bc 99f1 d6be
00000090: e3cb 613d 4877 563e d5de 363e 4f2f 91be
000000a0: 0243 d0bd 4ed4 7abe ade0 dd3c 5366 763e
000000b0: c0a1 473e dfc9 3bbd 2ab6 143d eb0f 8dbd
000000c0: 312d 9abe 056d 903e 8753 793d ab43 92be
000000d0: 0657 adbd 39b9 893e 2075 593e ba0e 313d
000000e0: d4b4 c23d ee13 443e b0fe 243e 6036 8cbe
000000f0: 1f3f 443e 5f64 22be df6f 4b3e 5557 be3e
00000100: cb65 4f3e 26fc 293e 7da5 723e 7728 973e
00000110: 147d 933e 612c 6dbc 5af6 a2be 0f2b 1ebe
00000120: 8d0d 143e 0711 acbe 6647 9d3e 8f37 9fbd
00000130: c3c7 6bbe 84e4 c23d 9d50 d63e 1bc8 81bb
00000140: 4faa df3e 4ab9 f5be b7d7 f03d fe9f 483d
00000150: be0c f43e 7358 82be e2b8 fb3d c137 74bd
00000160: 051b 173e ce80 96bc fc5d 413e 9d1d 173d
00000170: 5629 25be 13a6 a2be c11a ff3b 643a ae3e
00000180: ee4a cfbd 8cdf 76be fc49 583e 7295 713e
00000190: 26bc fabe 1e1a 883e 7273 90be 9e3d f0be
000001a0: bc30 5a3d 55b4 6ebe 4094 81be c678 2f3e
000001b0: aeae 79be 1403 9b3e 5fca e03d 0d55 09be
000001c0: 56b8 82be cd0a 6cbe 64a8 3f3e 28da 143d
000001d0: 3770 a7be 4e25 21be 4d18 4fbe 5ded 88be
000001e0: 6a50 b23e 98ee 84be 54ba b4bd fa50 a03e
000001f0: 5c5a 353e 723e 66bd 4c23 7abe 532c 493e
00000200: 825d dc3d 4d7d 12bd 336d d6be 8ce8 93bd
00000210: 843f e33d afa3 99bd 41bd c7be e91f adbe
00000220: cee6 ac3e 5876 733c 4e70 8bbd db36 90be
00000230: 3de9 9c3e 6915 53bd 09fb efbe 80ce 4d3e
00000240: 75db 1e3d 1376 043e 5e99 973e 4424 cfbc
00000250: d417 cdbe e7d4 e0be 982a 15bd 02b3 5fbd
00000260: 92d7 3e3e f597 7e3b 96fb b6be 38c7 9abe
00000270: 6947 e1be 433b 4fbc bd65 82be e1c9 a93e
00000280: 15d4 a2bd dbad 2d3d 286b d7bd 6ae4 c1bc
00000290: a7fa a53e ffaf 7ebe 9e3a 3bbd 4ecb a83e
000002a0: 4817 e0be 524f 323e 81a5 203e 7165 593d
000002b0: 7493 bfbe 23ed 7f3d a837 9e3e d70b 9c3e
000002c0: c824 b3bd 8a8a bebd 77f3 fabd 3688 99bc
000002d0: 8f83 b43d 4cd9 b43e d1ac b43d 1d59 90be
000002e0: f9b7 dbbc 44a7 34be 5b2e 0abd 843c dc3e
000002f0: e5e0 ce3e e927 6d3d a7cc bbbd 4d61 cebe
00000300: 7c53 963d b680 1bbc 9557 dbbd 018d c6be
00000310: 9d57 0fbe 8dc8 66be 09bc b63c 1fd5 78be
00000320: 540d 28bc 21da 833e b0f9 743e c474 afbe
00000330: c83f e53c 0b68 a73e 1d78 9a3d 3ff1 58be
00000340: d1c3 f23e c5c8 e6bd 831a b93e a778 b4bd
00000350: fc3e 613d d2a7 30bb f5fc 163d d83a 05be
00000360: 22ec 6b3d 2f83 903e 1df2 a53e fee4 d93e
00000370: 839b e13d 28ae c13e cab5 383e d240 a93e
00000380: 7984 1abe 3c82 ff3d b55d d33d 718d e53d
00000390: 0656 87be 0b06 993e 39eb 62be 002f 8c3e
000003a0: 3750 f03e 8838 503e df8a bf3c d9d2 c2bd
000003b0: b110 b2be b8bf 8b3e 57c0 02be 51dd fd3d
000003c0: ebf5 61be 6bcf 863e 53eb 7b3e 3b31 9dbd
000003d0: 614a c83e cbac 56be fdd6 55be 2806 643d
000003e0: 84df 233e e1d9 d0be d32d df3e e118 6cbd
000003f0: 56e2 013e fce8 593d 2e2e a33d 6712 51be
-0.10640842 -0.32712916 0.303338 -0.38382658 -0.15547508 -0.014068352 0.02865741 0.11726981
0.109467864 0.32826096 -0.15159135 0.21131824 0.30959946 0.17108071 0.05738142 -0.068154916
-0.41961265 0.28839356 0.2043411 0.40028924 -0.1344663 -0.062360063 0.09317812 0.11210375
0.42074147 0.22358967 0.02706585 -0.39336112 -0.075301014 0.009854225 0.12812507 -0.1964038
0.19661236 -0.25978506 -0.016738195 -0.419812 0.055126082 0.2094394 0.17858441 -0.28356406
-0.10169031 -0.2449505 0.027084673 0.24062471 0.19495296 -0.045846816 0.036306538 -0.06887802
-0.30112603 0.28208175 0.060870674 -0.28567252 -0.08463864 0.26899126 0.21236086 0.043226935
0.095071465 0.19148228 0.1611278 -0.27385235 0.19164704 -0.15858601 0.19866894 0.37176004
0.20253675 0.16600093 0.23695941 0.2952306 0.28806365 -0.014475913 -0.31828576 -0.15446113
0.14458294 -0.3360674 0.30718535 -0.07774269 -0.23025422 0.09516242 0.41858378 -0.003960622
0.43684623 -0.47992927 0.11759894 0.048980705 0.47665972 -0.25458106 0.12291123 -0.059623484
0.14756401 -0.018371966 0.18883508 0.036893476 -0.1612905 -0.3176733 0.0077851717 0.34028924
-0.101217136 -0.24108714 0.21121973 0.23592165 -0.4897167 0.26582426 -0.28213078 -0.4692201
0.053269133 -0.23310979 -0.25308418 0.17135915 -0.24383041 0.30275786 0.10976099 -0.1341135
-0.25531262 -0.23050995 0.1871658 0.036340863 -0.327028 -0.15736887 -0.20224114 -0.26743594
0.34826976 -0.25963283 -0.08824602 0.3131178 0.1771025 -0.056211896 -0.24427527 0.19645815
0.10760023 -0.035764027 -0.41880187 -0.07222089 0.11096099 -0.07501923 -0.39011577 -0.33813408
0.3376984 0.014859758 -0.0680853 -0.2816685 0.30646697 -0.05153409 -0.46871212 0.20098305
0.03878351 0.12935667 0.29609197 -0.025285847 -0.40057242 -0.43912432 -0.036417574 -0.054614075
0.18636921 0.0038847898 -0.3573882 -0.30230117 -0.43999794 -0.012648406 -0.25468245 0.33161834
-0.07950608 0.04240213 -0.10518485 -0.023668487 0.32417795 -0.24871825 -0.0457102 0.3296761
-0.43767762 0.17413071 0.15688135 0.053075258 -0.37417185 0.06248201 0.30901837 0.30477783
-0.0874725 -0.09303768 -0.122534685 -0.018741708 0.08814155 0.35322034 0.088220246 -0.28192988
-0.026821123 -0.17641932 -0.033735614 0.4301492 0.40405956 0.05789939 -0.09169894 -0.4030861
0.07340142 -0.009491136 -0.10710064 -0.38779452 -0.13998266 -0.22537442 0.022306459 -0.24300049
-0.010257084 0.25752357 0.23923373 -0.34268773 0.027984515 0.32696566 0.07542441 -0.21185778
0.4741502 -0.112687625 0.3615304 -0.08812075 0.054991707 -0.0026955497 0.036862332 -0.13010728
0.05759824 0.28225085 0.3241128 0.4255752 0.1101599 0.37828183 0.18038097 0.33057266
-0.15089597 0.12476012 0.103206076 0.112086184 -0.26432818 0.29887423 -0.22160043 0.27379608
0.469362 0.20334065 0.023381649 -0.09512872 -0.3477836 0.27294707 -0.12768684 0.123957284
-0.22066467 0.26330122 0.24601488 -0.076754056 0.39119247 -0.20964353 -0.20882793 0.055669934
0.16003233 -0.40791228 0.4358965 -0.057640914 0.12683997 0.053200707 0.079677925 -0.20417176

network.0.bias f4 [32]
00000000: c3ca 8e3e be12 483e 7786 cf3e b058 093e
00000010: be91 ff3d 13b2 87bb 957c 513e 4232 59bb
00000020: 5088 ab3d 4777 c43e fd40 3d3e fd5c cf3e
00000030: 96f9 d13e 77e2 b13e e60b a33e 63b3 793e
00000040: bd8e 723e 50ed d33e 84ec 953e 94a3 903e
00000050: b592 763d 9a14 c23e 3da1 013e cbaa 1a3e
00000060: b93a 0fbd d85f 013e b880 c3bd a5f7 07be
00000070: 4f53 843e 5a78 d53d b8c3 c53e 2c20 9e3e
0.2788907 0.195384 0.40532276 0.13412738 0.1247897 -0.004141101 0.2045768 -0.0033141528
0.08375609 0.3837225 0.18481822 0.40500632 0.4101073 0.3474309 0.31845015 0.24384837
0.23687263 0.41391993 0.2928201 0.282498 0.060198504 0.37906343 0.12659164 0.15104215
-0.03496811 0.12634218 -0.095460355 -0.13278063 0.2584481 0.10423346 0.38625884 0.3088392

network.2.weight f4 [16, 32]
00000000: 819e ab3e 639f 833c 0bfa b7be e297 67be
00000010: 6284 56be 61f2 283e 8591 b0bc 9338 493d
00000020: e133 cbbe f866 dfbe f83c 9bbe 7002 883e
00000030: 4213 49be 35ad b1be 418f c0bd 2eeb 10bd
00000040: c66f 993c 1023 8ebe 948f 833d 154c 6bbe
00000050: dea2 ae3e d262 19bd a947 8cbc 813a c93e
00000060: 8623 bd3e 340f bd3e f4ce 8e3e 7e58 2ebe
00000070: 0a30 c33e c9fe 353d 92fb 913e e6b6 d03e
00000080: ea60 c43e f5ce 983e 123a 6d3d 24d7 6cbe
00000090: ab78 2c3d 4d05 953e 52cc 343e 317c 81be
000000a0: 67b7 15be b6cb 43be 1fab c6bd 065f 273d
000000b0: 85ab 9abe e804 b63e 7c49 6c3d 9381 00be
000000c0: 9940 973e 9e33 b03e 57f4 183d 750a 52be
000000d0: e190 313d e2bc 7f3d e3f6 3ebe de64 223d
000000e0: d4c5 203e f4a8 823e 8480 763e c7fe 76be
000000f0: db74 6f3e d5a1 543e ec89 443d 1d68 c23e
00000100: e4e9 293e a090 d4bd ee7f f5bd 20e3 a0bd
00000110: 6869 77bd 3ff7 323e 8a38 eebd 05f3 373d
00000120: 03d1 9bbe b65d a3be fb41 d2bd 0fa9 863e
00000130: 2dc3 7f3d 034b 28be 8933 9ebe eb6f 203d
00000140: e92f 24bd 4eb4 063d e321 f1ba b90c 16be
00000150: 61fe 763d 8829 2cbe 42bc ffbd 47b3 8f3d
00000160: ef6c 603e f5c0 8c3e 8e35 5d3d 2620 88bd
00000170: 329c 753e 9f0a 2fbe d20d 403d 9822 dc3e
00000180: e904 95be 3b5b 00bd a717 a13e 20b0 2c3e
00000190: c6d3 0a3d cb12 13be 320d 89be 6866 be3e
000001a0: 6af1 4f3e 2e09 973e 44b3 eb3d 156e 993d
000001b0: 1c0e 5d3e a1ac 293c d37f b33d f7ba 8a3e
000001c0: 86b0 0bbe f82b f4bd 9d8e 6f3e 5c7f 9b3e
000001d0: 9fd8 b6bd e145 8f3e a673 433e c8bb 643b
000001e0: ab22 19be 87cc 103e 0860 84be 2ca6 9d3d
000001f0: 7229 7c3d 33c6 253e 6771 60bd aa5b a0be
00000200: b18a cfbd 8f47 05bd 07f5 303e 4c31 163e
00000210: ff3d 073d f087 5c3e 7e5b cfbd d4c3 b63e
00000220: 38b8 333d 1960 153d 03de 9f3e 346c 753e
00000230: 32bf 9e3e 2fbb 68be ee9b 8dbc 78c2 673e
00000240: 28e1 fdbd b849 24be abfb ad3e 71dd 0d3e
00000250: 98ad 9e3e 1ac4 083e da02 053e 6043 c53e
00000260: 2fc1 403e 3e0d ba3e 51d1 af3e 1f04 bd3d
00000270: 001c ef3c 5bdc 2e3d 9388 0d3d 9c3f e23d
00000280: e72c 46bd 0d12 0dbe 07ac 4f3e 5be8 8e3e
00000290: 2951 9c3e 9cc8 dabd ec13 7bbe 4306 df3e
000002a0: 6622 833e cb04 8c3e 3b46 e03e 91a2 ff3d
000002b0: d369 bc3d bed6 6ebe 4d2c a63e cde4 6c3e
000002c0: fd0c 83be c395 04be f497 b23e 3f64 db3e
000002d0: 1227 bc3b 4ea1 8c3e e4a5 c43e 4764 1e3e
000002e0: 364d 34be 48f6 a0bd 75ba 33be c7c5 a33e
000002f0: 6c2a a9bc c4c1 263d 7dee d8bd c565 aebe
00000300: 263a 7a3e f362 7f3e d361 983e 6b91 15be
00000310: 6db0 bf3e 18dc 8fbd 312e c53e f02f 92be
00000320: 35a3 63bc a883 323e 4668 68be 839f d5bd
00000330: 22a6 80be 9027 413e 2b9c 3b3e 1614 d43c
00000340: bf70 313e df16 813e d082 ba3d 13ae a1be
00000350: 3e7e 85bb 3733 283b 305f 873d c125 65be
00000360: baf3 bd3e 1c29 963c cffe 52bd fbfe 6cbe
00000370: 4214 1fbe abb5 823e 2c86 3b3e c16f c63c
00000380: bbf8 14be 7735 3ebe b291 a63d b7e1 8cbd
00000390: c26d 10be fab6 95bd 0031 15be b0a8 273c
000003a0: a21f fabd 40a8 96bd a975 903d 260b 40be
000003b0: 0c9e 963d 2b05 bbbd d4ef 4dbe 863e 9e3d
000003c0: 80b6 8abb 725d d03c 2587 1fbe 8811 003e
000003d0: 2a12 823d 8d42 e6bd 58bf 34be b4a7 14be
000003e0: d675 de3d fcdc 10bd 8f3c b9bd a543 9a3c
000003f0: 9878 b5bc 745b f03d 3038 603c b1c0 273e
0.33519366 0.016067212 -0.35932955 -0.22616532 -0.20948938 0.1649871 -0.021553764 0.04912622
-0.39688018 -0.43633246 -0.30319953 0.2656436 -0.19636253 -0.3470246 -0.094023235 -0.035380535
0.018730056 -0.27761126 0.0642387 -0.22978242 0.34108633 -0.037447758 -0.017124014 0.39302447
0.36941165 0.36925662 0.27892268 -0.17025945 0.38122588 0.044432435 0.28512245 0.4076454
0.3835519 0.29845396 0.05791671 -0.23128945 0.042107265 0.29105607 0.17656067 -0.25290063
-0.14620744 -0.19120678 -0.097006075 0.040862106 -0.30208984 0.35550618 0.057687268 -0.12549429
0.29541472 0.3441438 0.037342396 -0.20511802 0.043351058 0.062435992 -0.18648867 0.039646976
0.15700465 0.25519526 0.24072462 -0.24120627 0.2338442 0.20764859 0.047983095 0.37970057
0.16593128 -0.103791475 -0.11987291 -0.07855821 -0.060403258 0.1747713 -0.11631878 0.044909496
-0.304329 -0.31907433 -0.10266491 0.26300856 0.062441994 -0.16434865 -0.30898693 0.039169233
-0.040084753 0.032886796 -0.001839694 -0.14653291 0.06030119 -0.16812718 -0.12487079 0.07016616
0.21916555 0.27490965 0.05400615 -0.06646757 0.23985365 -0.17093895 0.04688818 0.42995143
-0.2910531 -0.031337004 0.31463358 0.16864061 0.03389337 -0.14362638 -0.2676788 0.37187505
0.20306936 0.2949919 0.115088016 0.074916996 0.21587414 0.010356099 0.08764615 0.27095768
-0.13641557 -0.11922449 0.23394246 0.30370605 -0.08928036 0.27983 0.19087085 0.0034901965
-0.14954631 0.14140521 -0.25854516 0.076977104 0.061562963 0.16188888 -0.05479565 -0.31319934
-0.10133875 -0.032538947 0.1728097 0.14667243 0.03301811 0.21536231 -0.101248726 0.3569628
0.043876857 0.0364686 0.3122407 0.23967057 0.31005245 -0.22727655 -0.017286267 0.22632778
-0.12396461 -0.16043746 0.3398107 0.13854004 0.30991817 0.13356057 0.12989369 0.38527966
0.18823694 0.36338228 0.34339383 0.09229302 0.029188156 0.042690616 0.034554075 0.11047289
-0.048382666 -0.13776417 0.20280467 0.27911648 0.3053067 -0.106827945 -0.24519318 0.43559465
0.2561218 0.27347407 0.43803582 0.12482179 0.09199872 -0.23324105 0.32455674 0.23134156
-0.25595847 -0.12947755 0.34881556 0.4284992 0.005741962 0.27466816 0.38407815 0.1546794
-0.17607579 -0.078594744 -0.17551596 0.3198683 -0.020650111 0.040712133 -0.10592363 -0.3406202
0.24436244 0.2494009 0.29762134 -0.14606254 0.3743929 -0.070244014 0.38511804 -0.28552198
-0.013893892 0.17433035 -0.22696027 -0.10430815 -0.2512675 0.18862748 0.18321292 0.025888484
0.17328165 0.25212762 0.09106982 -0.3157812 -0.004073887 0.0025665292 0.066099524 -0.22377683
0.3710001 0.01833015 -0.051512536 -0.23144142 -0.15535071 0.25529227 0.18312901 0.02422321
-0.14548008 -0.18575083 0.08133258 -0.06878989 -0.1410437 -0.07310291 -0.14569473 0.010233089
-0.12213065 -0.0735631 0.07053692 -0.18754253 0.07354364 -0.09131845 -0.20111018 0.07726769
-0.0042331815 0.025435183 -0.15578897 0.12506688 0.06351121 -0.11243162 -0.17651117 -0.14517099
0.10862319 -0.035366997 -0.09044754 0.018831084 -0.02215223 0.11736193 0.013685271 0.163821

network.2.bias f4 [16]
00000000: 6ebb 873e 2a75 353e 6c10 033d 104f 57bd
00000010: 9f8f 983d e806 20bd 0b4d 7f3d 1470 06be
00000020: 3790 d53d b198 f83d 6078 60bc ba5c f83d
00000030: b2e6 563d 8f2c 7f3e f9ca 833e a417 d53d
0.26510185 0.17720476 0.031998083 -0.052565634 0.074492685 -0.039069086 0.062329333 -0.13128692
0.104278974 0.121384986 -0.013700575 0.12127061 0.052466102 0.24919342 0.25740793 0.104049

network.4.weight f4 [3, 16]
00000000: 07f7 c5be fd37 783e 6590 59bd fffb 1ebd
00000010: 1aaf 46be eca0 46be 8f5f 3c3e 983e e73d
00000020: 1b5e bb3e 0741 b1be 9191 c43e 9991 c7be
00000030: eb86 6e3e eadf 9bbe 9409 bf3e a0d9 ddbe
00000040: db02 c9be b74d bfbe 20e2 7ebe 3ebc e53e
00000050: a4be 9a3e 20bb a83e e62e f3be 6c3a 45be
00000060: e692 c4be dafb e43e 9cf0 4c3e b4ae abbe
00000070: 7540 823e f8e0 473e fcbd 9b3e aa82 113e
00000080: 0cfe debc 5f43 853e 1c48 9d3e 0fa5 79be
00000090: 5cfc 993e cd3f 39be 0a30 aebe f274 06be
000000a0: 6bb0 e13c 741e 4fbe 8c5a b6be 59b1 be3d
000000b0: 4f03 e0be 6b27 8cbe abfb 03be ccd1 bb3e
-0.3866503 0.24240108 -0.05311622 -0.03881454 -0.19402733 -0.19397324 0.18395828 0.11291236
0.36595234 -0.34619924 0.38392308 -0.3897827 0.23293655 -0.3044427 0.37311995 -0.43330097
-0.3925999 -0.3736398 -0.24890947 0.4487018 0.30223572 0.32955265 -0.47496718 -0.19260567
-0.38393325 0.44723397 0.2001366 -0.33531725 0.25439802 0.19519413 0.30418384 0.1421
-0.027220748 0.26027963 0.30719078 -0.24379371 0.30075347 -0.18090744 -0.34021026 -0.13130549
0.027549943 -0.2022646 -0.35615957 0.0931117 -0.43752524 -0.27373824 -0.12888972 0.366835

network.4.bias f4 [3]
00000000: 29b2 18be 2dbd 86bd a697 39be
-0.14911713 -0.06579051 -0.18124256

exp_avg f4 [32, 13]
00000000: ccd7 90b7 6562 de37 67f7 e9b6 0c78 e438
00000010: 23f6 de38 b65c e738 b1f4 3d38 0055 bab8
00000020: 88bf 08b9 1fc1 acb8 8dc6 3038 650f 6f38
00000030: dc74 4db9 2598 3ab9 b93e aeb8 3726 a1b8
00000040: 89da 9439 691a 10b8 dafa 0f36 b254 f5b8
00000050: 733e 98b7 6e7c cb38 f9f8 5838 8a89 1db8
00000060: 66c5 a1b8 3091 61b9 67e4 e737 af42 6838
00000070: e429 73b8 d060 9637 2f20 78b8 78fb d9b8
00000080: 685f 9037 c026 26b9 c012 e138 25fd 3539
00000090: 1ef6 9db8 fc4c 78b8 d31c 1eb8 e1df 5438
000000a0: 0c3e b338 fdda b938 d29c 43b8 1702 34b9
000000b0: 6f98 00b9 4ed1 73b9 f430 4439 18c0 b8b8
000000c0: 8a15 2f39 c126 76b9 7b1a 66b9 2af1 0538
000000d0: 2e3a 15b8 79af f3b8 8a57 58b8 d64f ad38
000000e0: 4948 79b8 5934 20b8 e466 9db8 aecb 8f38
000000f0: f2c7 1537 871c a538 0544 3837 db24 9bb8
00000100: cb75 65b8 00ce 8d38 c932 6039 c696 0bb9
00000110: c207 fd38 94a3 19b9 a2f0 1db9 0b1f 9139
00000120: 88bb ac39 0f35 2539 2869 3fb9 9f7b 2739
00000130: a5d7 b238 49c4 a4b8 cd14 61b9 428a 0bb9
00000140: a472 b8b7 f40f a239 93b3 85b7 548e 8a37
00000150: 54f1 ebb8 5bb3 fcb7 028a 1539 b7a5 5038
00000160: 1ac1 6db7 64fc 30b8 78b7 5cb9 bfd9 c0b7
00000170: 7b95 75b9 9131 89b8 eff6 dbb9 ae83 dcb8
00000180: 2eab 2439 bea7 fbb8 edc0 f6b9 4256 34b9
00000190: a198 5e39 5594 84b8 9a17 cf36 7e8d 7139
000001a0: 92d1 e335 3d82 4439 5a99 8a38 ff6b 8a38
000001b0: 46c0 0bb9 7e9e 10b9 d344 20b9 fff8 0f38
000001c0: 5a7f b038 406e 1d39 535d a5b8 d485 bab7
000001d0: a167 d838 a4b4 01b9 b5c1 f8b9 7496 7c39
000001e0: 5224 9cb9 b5ed 6439 dcbf c039 bc97 81b9
000001f0: 1b91 06ba 033d 5db8 ed0a 9f39 e3c0 29b8
00000200: 9547 1a39 956e a539 508b f537 3c01 e7b9
00000210: 6973 8139 8f22 b2b9 e411 ca39 cca8 6e39
00000220: 3576 a1b9 123f 0aba 3b80 79b9 b474 8039
00000230: 6ad5 27b7 1df2 37b8 78d2 ca39 c0ed 1138
00000240: 058a af38 7d1d dfb7 508b 9e38 fb7b 3eb8
00000250: 7135 49b8 a46a 5339 cd97 1d39 5175 1139
00000260: 5e11 d7b8 0aa8 0639 9ad1 de38 be94 5cb7
00000270: 225c 1439 53d1 94b9 1e01 ba39 4401 bab9
00000280: 171b 6e39 c16a b339 e34d acb9 4596 15b8
00000290: c8ff c8b9 7266 6f39 d2eb fdb8 f43f f336
000002a0: 2cf9 7539 7859 3db9 5d58 d3b8 cf2b acb8
000002b0: edd1 9339 2847 fdb7 1590 3c37 09d2 33b9
000002c0: d6ab 0538 e30e e537 37ce 2537 e87e 52b8
000002d0: f82a 00b9 c325 88b9 aea6 f2b8 0813 75b8
000002e0: 031f 09b8 7cea 1938 dab8 68b9 d7b4 07b9
000002f0: 2c56 29b9 a13f d238 755c 2439 878a 0b39
00000300: a3ff 10b9 d544 01b9 6968 87b7 0c27 5e36
00000310: 977e 38b9 a76d 8638 decc 68b9 bd43 1539
00000320: 5f2e 5f39 256e 27b9 12e6 b0b9 3f63 70b8
00000330: 4c03 3d39 877c 4b36 e7ec a538 92e8 6a39
00000340: 4cf6 28b9 e816 bdb8 8e74 ddb7 948e 9139
00000350: 5605 6fb7 a356 b4b7 511e 01b9 1e07 0bb6
00000360: d58c ad38 d48b 9938 fd73 9cb7 3ea8 9cb8
00000370: f489 3eb9 1310 25b9 4dd3 ffb8 e761 1bb8
00000380: 2afe 7639 cdcc 15b8 ef57 2eb8 5095 02b9
00000390: 5754 6e37 455c 9838 8d61 8238 8ec1 51b7
000003a0: 2cd9 bbb8 019a 2fb9 6992 e036 f365 31b9
000003b0: 1fa2 4638 b906 82b9 b05e b537 826b 9d38
000003c0: ad28 dfb8 c976 5db9 9e25 b3b8 b398 2739
000003d0: 3253 0836 28e2 e137 a935 4139 830e 7038
000003e0: bb9a aeb9 7cb4 de38 bb56 14ba 9fda 8539
000003f0: 74e4 4139 4e76 96b9 ccd1 0dba 4e9a 69b9
-1.7266626e-05 2.651028e-05 -6.9727425e-06 0.00010894248 0.000106316314 0.00011032207 4.5288998e-05 -8.8850036e-05
-0.00013041322 -8.237571e-05 4.2146585e-05 5.6996378e-05 -0.00019593857 -0.0001779502 -8.3086496e-05 -7.684196e-05
0.0002839158 -3.435687e-05 2.1454675e-06 -0.00011698286 -1.8148892e-05 9.702971e-05 5.1730287e-05 -3.755981e-05
-7.7138466e-05 -0.00021511759 2.7643704e-05 5.5375214e-05 -5.797473e-05 1.7926475e-05 -5.915778e-05 -0.00010394206
1.7210565e-05 -0.00015845429 0.000107323285 0.00017355809 -7.532186e-05 -5.9199505e-05 -3.769698e-05 5.0753242e-05
8.546942e-05 8.862277e-05 -4.6637673e-05 -0.00017166916 -0.00012263817 -0.00023252258 0.00018710253 -8.809584e-05
0.00016697324 -0.00023474825 -0.00021944374 3.1934273e-05 -3.5578552e-05 -0.00011619827 -5.157994e-05 8.2641534e-05
-5.9433547e-05 -3.8195725e-05 -7.505508e-05 6.85671e-05 8.9276455e-06 7.873127e-05 1.0983092e-05 -7.397841e-05
-5.4707558e-05 6.7617744e-05 0.00021381224 -0.0001331224 0.00012065425 -0.00014652155 -0.0001506233 0.00027679684
0.00032946118 0.00015755392 -0.00018254353 0.00015972414 8.527868e-05 -7.85669e-05 -0.00021465421 -0.00013307578
-2.1987893e-05 0.00030910934 -1.5938456e-05 1.6517159e-05 -0.00011250624 -3.012426e-05 0.00014261159 4.97454e-05
-1.4171261e-05 -4.2196727e-05 -0.00021049182 -2.298958e-05 -0.00023420707 -6.5419015e-05 -0.00041954915 -0.00010514945
0.00015704028 -0.00011999857 -0.00047064517 -0.00017198271 0.00021228429 -6.3218795e-05 6.1718283e-06 0.00023036261
1.6973811e-06 0.00018740534 6.608917e-05 6.6004686e-05 -0.000133277 -0.00013791953 -0.00015284428 3.4325752e-05
8.416055e-05 0.00015013758 -7.885196e-05 -2.2235246e-05 0.00010318985 -0.00012369693 -0.0004744657 0.00024088641
-0.000297817 0.00021832327 0.0003676404 -0.00024717848 -0.0005133317 -5.2747328e-05 0.00030334984 -4.047238e-05
0.00014713251 0.00031553642 2.9271148e-05 -0.00044060673 0.00024690785 -0.00033976554 0.00038541772 0.0002276033
-0.00030796384 -0.00052736804 -0.0002379426 0.00024501013 -1.0003665e-05 -4.3856086e-05 0.00038685254 3.4792116e-05
8.3703584e-05 -2.6597403e-05 7.559976e-05 -4.5414996e-05 -4.7971906e-05 0.00020162255 0.00015029237 0.00013871981
-0.00010255234 0.00012841835 0.00010624826 -1.3147654e-05 0.00014148702 -0.00028384718 0.00035477517 -0.00035477628
0.0002270754 0.00034221078 -0.00032864427 -3.5664318e-05 -0.00038337545 0.0002283098 -0.00012107905 7.2494095e-06
0.00023457845 -0.00018057774 -0.00010077723 -8.209759e-05 0.00028194432 -3.0193085e-05 1.123922e-05 -0.00017149014
3.1869706e-05 2.730586e-05 9.8827795e-06 -5.0186092e-05 -0.00012223038 -0.00025968076 -0.00011570506 -5.8430276e-05
-3.2692227e-05 3.6696423e-05 -0.00022194107 -0.00012941971 -0.00016149197 0.00010025432 0.00015674702 0.00013307678
-0.00013828142 -0.0001232804 -1.6141874e-05 3.3103306e-06 -0.00017594766 6.410042e-05 -0.00022201563 0.00014234982
0.00021284212 -0.00015967393 -0.00033740752 -5.731289e-05 0.00018025673 3.0321842e-06 7.9119396e-05 0.00022402618
-0.00016113481 -9.016489e-05 -2.6399528e-05 0.00027762784 -1.42467525e-05 -2.1498015e-05 -0.00012313692 -2.0716757e-06
8.275515e-05 7.3216535e-05 -1.865066e-05 -7.469997e-05 -0.00018171204 -0.00015741614 -0.000121987054 -3.704606e-05
0.00023555072 -3.5715104e-05 -4.1566727e-05 -0.0001245339 1.4205542e-05 7.265111e-05 6.217053e-05 -1.2502436e-05
-8.957306e-05 -0.00016746671 6.6927646e-06 -0.00016918014 4.7357866e-05 -0.0002480054 2.1620974e-05 7.506368e-05
-0.00010641045 -0.00021120453 -8.542392e-05 0.00015983246 2.0314005e-06 2.6927402e-05 0.00018425904 5.7233974e-05
-0.0003330315 0.00010619403 -0.0005658676 0.00025530622 0.0001849102 -0.00028698373 -0.00054099853 -0.00022278095

exp_avg_sq f4 [32, 13]
00000000: a936 a637 176a fc36 b539 bb37 fa2c 6837
00000010: 3ce0 2037 b864 2637 2310 8337 b5f2 7937
00000020: 0843 5937 e1aa 0137 f35b ec36 823f 5e37
00000030: 6073 ff37 0724 0438 d3a1 2d37 bbf2 1d38
00000040: 7383 f337 dd45 9a37 6e58 4937 b1f6 8f37
00000050: 1491 0f37 2fdd 2137 f787 f136 c7f2 2837
00000060: 662d 6837 1698 4438 c037 6537 47d1 7337
00000070: fae2 5437 70bc c336 24cd 5037 0b40 6037
00000080: 1247 f236 726d 4f37 6423 5a37 f15c 8337
00000090: b6a5 1637 407f 8037 3d14 0637 56d5 ce36
000000a0: d865 c436 600d 0f37 cf4f d136 9865 fe36
000000b0: e4e2 9336 1b2e a836 176b 0f37 de4b 1c37
000000c0: 7dea a736 612e 7136 8299 db36 9f6e 7a36
000000d0: 2a9e 8536 052c 1436 0264 0937 cea9 6036
000000e0: f656 9536 c877 9036 ebfe c736 28c6 8136
000000f0: 05a9 1636 1c4a e335 d490 2936 59f6 e636
00000100: 33e1 f336 0212 0537 9313 1d38 4479 d936
00000110: 8239 6137 1ed2 8b37 a470 eb37 cb38 3f38
00000120: 7f5b 4438 32d9 b737 2443 1538 97c2 3a38
00000130: 3d56 6338 043d 1237 4a43 4a37 248f c236
00000140: cf3b e337 3bc2 a237 c0cd 7d37 53b9 fc36
00000150: cd77 2737 b396 b636 d0ac bc36 1d81 7436
00000160: ff65 0237 dc0e 2737 322c b737 c514 3237
00000170: 471e 7437 ab92 3d37 b8c5 2e37 1d1d d437
00000180: f7ad 2037 346b 2237 56a8 d537 90c8 b337
00000190: 4bfe 1637 1733 0737 5b50 2d37 d7c0 3437
000001a0: 3234 8f36 79bf 0937 4892 7636 9af1 c036
000001b0: c0dd 9d36 8c3c 4636 4d21 be36 61c8 2737
000001c0: 49f4 3137 0758 b036 cc76 8136 48c7 f636
000001d0: 6c5b 9c36 dd11 2f37 9cc0 0938 f1f7 4537
000001e0: 57b1 b237 92f7 ac37 f638 a737 0d51 9c37
000001f0: 3f57 8238 21fa 8c37 495d 6537 d646 4f37
00000200: 0871 d537 202d 5637 c1b4 f437 d89a 2638
00000210: 6150 fe37 8199 0738 87e7 1338 1781 cd37
00000220: f628 b737 86c8 9038 900d b737 696b ce37
00000230: dba6 9037 5dd8 0f38 1175 0c38 6495 7036
00000240: f95a 8a37 1722 c136 8ba9 c936 e163 e236
00000250: e561 4f37 b1e9 c937 6744 8437 265f 2637
00000260: 5d9f bf37 39cd d437 3fa3 f737 b4fb 4b36
00000270: 0775 3a38 5b15 2338 e28a 7338 d85e 2838
00000280: 3084 4838 676f e037 50b7 e037 78a7 6938
00000290: c4ed fe37 71f0 3b38 8cc1 fc37 e786 0b38
000002a0: 8499 f137 5d8f 3038 11c7 5d37 178f 6b38
000002b0: 2e0c 2538 1713 db37 29e9 9c37 4bdb ec37
000002c0: 9bc0 4d37 ab45 6837 78bd 2037 2902 7337
000002d0: 4d4e c237 0208 8938 026b 4f36 dd19 d836
000002e0: a362 4636 a3c9 3c36 9df5 b436 9aa8 1436
000002f0: 073a 0a37 627e 5437 aea8 f136 1e95 b536
00000300: de7c c136 1a96 2b37 e902 0336 6775 7437
00000310: 8bbf 7d37 238d 0e37 c45f 3137 9565 5937
00000320: df5b 2137 0614 1037 cf97 e037 ab7e 0b37
00000330: 6ca0 2d37 f6c2 f236 0ba2 4037 0113 9437
00000340: da80 bd36 9758 2a36 f397 b737 99a3 6f37
00000350: bb15 5c37 06ce 9336 0edf b336 ebc5 7a36
00000360: ea13 8536 c2a0 4336 f226 9f36 4a10 b736
00000370: 64a9 2a37 df92 4c37 4913 9536 2736 9537
00000380: 236b 7837 fa65 0f37 6113 3237 09b7 7b37
00000390: 949d a936 b15c 9736 7673 0936 abe5 cd36
000003a0: 9282 5337 b7e7 b537 b3b8 9c36 91f0 bc36
000003b0: 4544 9936 a068 9536 2fdf ce36 5b1d 8436
000003c0: 61f4 4e36 925d 1437 a97f a736 8124 8b36
000003d0: 9a8d 5f36 755b 6b36 a8aa c936 07b6 9d37
000003e0: 8955 0438 100a 9837 62fd 0b38 227a d437
000003f0: 7d13 a737 806d 9437 637c 5038 56a0 9c37
1.9814195e-05 7.5225357e-06 2.2319009e-05 1.38387495e-05 9.588952e-06 9.917821e-06 1.5623931e-05 1.4898066e-05
1.2949815e-05 7.728785e-06 7.0440524e-06 1.3247018e-05 3.0452095e-05 3.1504806e-05 1.0349281e-05 3.7657777e-05
2.9029068e-05 1.8390763e-05 1.2001123e-05 1.7161803e-05 8.557243e-06 9.647846e-06 7.198188e-06 1.0070106e-05
1.3838848e-05 4.6871683e-05 1.3662444e-05 1.4532655e-05 1.2689032e-05 5.83339e-06 1.2445529e-05 1.3366352e-05
7.2204357e-06 1.2363644e-05 1.3002053e-05 1.5659696e-05 8.979279e-06 1.5318044e-05 7.9917345e-06 6.164114e-06
5.8531114e-06 8.526578e-06 6.2379763e-06 7.581617e-06 4.407355e-06 5.0121575e-06 8.548398e-06 9.315989e-06
5.004286e-06 3.5938795e-06 6.5445793e-06 3.7317293e-06 3.9821216e-06 2.2079341e-06 8.189121e-06 3.347744e-06
4.4506696e-06 4.305479e-06 5.9603385e-06 3.867568e-06 2.2450124e-06 1.6934387e-06 2.5267263e-06 6.883213e-06
7.268181e-06 7.9316105e-06 3.7449947e-05 6.481221e-06 1.3424435e-05 1.6667935e-05 2.8066635e-05 4.559084e-05
4.6815254e-05 2.191644e-05 3.5586898e-05 4.452708e-05 5.4201333e-05 8.716484e-06 1.2055805e-05 5.7983143e-06
2.708836e-05 1.940235e-05 1.512788e-05 7.53176e-06 9.981869e-06 5.4415664e-06 5.6229546e-06 3.6433987e-06
7.772352e-06 9.957435e-06 2.183588e-05 1.0614463e-05 1.4550583e-05 1.1299427e-05 1.0417243e-05 2.5285926e-05
9.5772475e-06 9.680913e-06 2.5469966e-05 2.1431857e-05 8.999904e-06 8.058522e-06 1.0330313e-05 1.0773735e-05
4.2678084e-06 8.210417e-06 3.6742003e-06 5.750172e-06 4.7047797e-06 2.9539542e-06 5.666318e-06 1.000063e-05
1.0606899e-05 5.2554565e-06 3.8583294e-06 7.3545707e-06 4.659805e-06 1.0434972e-05 3.2842727e-05 1.1799843e-05
2.1301834e-05 2.0619282e-05 1.9934476e-05 1.8634391e-05 6.215134e-05 1.6805776e-05 1.3671183e-05 1.2354654e-05
2.5444213e-05 1.27659005e-05 2.9171237e-05 3.9721694e-05 3.0316589e-05 3.232947e-05 3.5263158e-05 2.4498017e-05
2.1834374e-05 6.9038055e-05 2.1821616e-05 2.460713e-05 1.7243836e-05 3.429536e-05 3.3487628e-05 3.5849744e-06
1.6493244e-05 5.755817e-06 6.010004e-06 6.7469523e-06 1.2360954e-05 2.4069888e-05 1.5767479e-05 9.9165245e-06
2.2843184e-05 2.5367934e-05 2.9520712e-05 3.0395868e-06 4.4454846e-05 3.8882117e-05 5.806506e-05 4.014265e-05
4.7806825e-05 2.6754757e-05 2.6788242e-05 5.5707496e-05 3.0389878e-05 4.4808203e-05 3.0130868e-05 3.326582e-05
2.8800925e-05 4.2095187e-05 1.3218975e-05 5.616163e-05 3.935041e-05 2.6115724e-05 1.8705223e-05 2.8235509e-05
1.2263797e-05 1.3844498e-05 9.580857e-06 1.4484432e-05 2.3163064e-05 6.534161e-05 3.090769e-06 6.4403125e-06
2.9561713e-06 2.813155e-06 5.393011e-06 2.2151858e-06 8.2389515e-06 1.26656105e-05 7.2019966e-06 5.41158e-06
5.7663847e-06 1.02273425e-05 1.9522215e-06 1.4570868e-05 1.5124572e-05 8.4967205e-06 1.0572319e-05 1.2957859e-05
9.617738e-06 8.587731e-06 2.6773572e-05 8.314538e-06 1.0348955e-05 7.2348585e-06 1.148182e-05 1.7651824e-05
5.6476392e-06 2.538354e-06 2.1886057e-05 1.4283601e-05 1.3118081e-05 4.4049257e-06 5.3605827e-06 3.7368106e-06
3.966027e-06 2.9150838e-06 4.743103e-06 5.4557213e-06 1.0172229e-05 1.2193544e-05 4.442791e-06 1.77874e-05
1.4806897e-05 8.5472075e-06 1.0614139e-05 1.5003382e-05 5.054937e-06 4.5109414e-06 2.0481798e-06 6.136213e-06
1.2606981e-05 2.1684782e-05 4.670664e-06 5.630842e-06 4.567703e-06 4.452726e-06 6.1652604e-06 3.937324e-06
3.083864e-06 8.8432735e-06 4.9918494e-06 4.1467724e-06 3.3312012e-06 3.5070964e-06 6.010134e-06 1.8800622e-05
3.1550913e-05 1.8124498e-05 3.3376164e-05 2.5329242e-05 1.9917026e-05 1.7693965e-05 4.970691e-05 1.8671311e-05

exp_avg f4 [32]
00000000: 8895 47b9 7659 5fb9 a788 6eb9 d416 0b39
00000010: 100a 46b9 7729 9138 3f07 61b9 7a89 45b9
00000020: b311 1eb8 7a8e c3b9 da94 58b9 d642 d1b6
00000030: 3feb 7fb9 c674 2cb9 2910 ccb8 ef31 63b9
00000040: 6afa 63b9 0623 6db9 98dc 5eb9 639a 5bb9
00000050: 867a eb37 907c 4f37 f8e6 aeb9 736d 2fb9
00000060: b7d9 aab9 f729 49b7 7463 0139 b50e ebb8
00000070: f5af d8b7 3ca5 2ab9 9d1b 49b9 e7eb 0737
-0.00019033824 -0.00021300264 -0.00022748356 0.00013264577 -0.000188865 6.921862e-05 -0.00021460371 -0.00018838598
-3.768662e-05 -0.00037299452 -0.00020654817 -6.236466e-06 -0.00024406331 -0.000164467 -9.730488e-05 -0.00021667009
-0.00021741693 -0.00022615129 -0.00021253747 -0.00020942981 2.8071237e-05 1.2367163e-05 -0.0003335995 -0.00016730074
-0.00032587137 -1.1990304e-05 0.00012339448 -0.000112084126 -2.5831143e-05 -0.00016274018 -0.0001917914 8.101552e-06

exp_avg_sq f4 [32]
00000000: 123c 9537 51f1 af37 726d 0238 10a7 0437
00000010: 2cc0 4637 4c57 d837 e1c0 7a37 23ea 9937
00000020: 75a1 f536 6ef8 1538 1a39 3b38 3b64 5637
00000030: 5cbb 5538 60f4 0038 6374 6a37 348b ad37
00000040: 5d67 1437 4792 ac37 ff49 0f37 3c7f 1138
00000050: b9c4 ae36 ec91 5437 b98f 1437 6742 1f37
00000060: 180b 2837 c855 2237 6c82 db37 c89f 8736
00000070: 3708 0837 03cf be36 b6af 0d37 9eb0 6038
1.7790157e-05 2.0973997e-05 3.1096344e-05 7.90671e-06 1.1846463e-05 2.5789857e-05 1.4946069e-05 1.834805e-05
7.320365e-06 3.5755736e-05 4.4637454e-05 1.2778731e-05 5.095765e-05 3.074517e-05 1.3974585e-05 2.0688029e-05
8.845554e-06 2.0572113e-05 8.540693e-06 3.468919e-05 5.2085056e-06 1.267016e-05 8.8549505e-06 9.492599e-06
1.0016163e-05 9.675925e-06 2.6167567e-05 4.0419145e-06 8.108144e-06 5.6865406e-06 8.445166e-06 5.357025e-05

exp_avg f4 [16, 32]
00000000: 63f8 43b8 1200 cd34 0929 9c37 eafe 1438
00000010: 6237 d736 f8b2 38b8 8a3b a0b5 7763 4f38
00000020: 4f3f fa37 e630 e838 312a cc38 43f5 7ab8
00000030: e485 c038 cc58 9e37 2681 5f38 c4c8 7e38
00000040: bd37 2db6 8baf bb36 9b67 9538 f118 eb38
00000050: c40a e1b8 ed76 2438 a35f 1439 6780 93b8
00000060: 4002 25b8 8dd8 91b8 769b 17b9 d76a 3337
00000070: 7e30 cab8 1cfe 9534 6b0d 20b8 7ab8 23b9
00000080: 3b2f 1fb9 4d93 62b9 de61 33b8 dfc3 eb38
00000090: e084 c6b8 268c 62b7 8deb 75b9 e317 2c39
000000a0: ce98 bf38 c298 5a39 d5d5 5839 af8a b736
000000b0: 6e66 6239 7786 49b9 296b 5136 0320 0c39
000000c0: 4cde 0bb9 acee 60b9 3a86 4e39 2c8b 8339
000000d0: 941e 99b8 790c 4238 00c3 9039 67c1 b7b7
000000e0: 1037 ecb8 a78c eeb7 9eba 37b9 7668 9338
000000f0: aea8 fab7 e9b7 0fb9 05c7 4cb9 ecbb 83b9
00000100: 29a4 88b8 d51f bd30 652a 1738 2d1c 8338
00000110: f830 2637 4d1c 31b8 3365 15b6 36bd bf38
00000120: 2af4 5438 8ecc 3739 dc79 2139 edf7 6ab8
00000130: ca06 1639 d908 0838 c173 bf38 07b2 db38
00000140: 9ed8 53b6 7e54 0b37 e620 ff38 52f9 4039
00000150: d996 06b9 7a02 9e38 ca7b 6539 9d1e c9b8
00000160: 0793 66b8 f325 a2b8 1333 4eb9 1d37 9037
00000170: 5630 dab8 e101 0000 214f 2ab8 1769 61b9
00000180: 9397 b838 73af d738 ac8f 60b8 1573 0eb9
00000190: 8691 48b8 9fdd 72b8 53b4 bd38 1ca8 34b9
000001a0: ae69 e6b8 891d 91b9 073a 8fb9 faba a5b8
000001b0: 0c21 a8b9 67e5 8b38 46d7 d8b8 0cc8 2bb9
000001c0: 4610 9637 70aa 7537 ce01 62b9 c678 acb9
000001d0: d6e1 3d38 2586 1eb9 f335 b1b9 cfea f636
000001e0: 7357 a838 2d47 aab7 328f 0939 78bf 0cb9
000001f0: 806b 32b8 c8d7 8338 7a7e a038 76dd 5439
00000200: 8f8f ac36 7c52 e737 7d68 dab7 691c 90b8
00000210: f550 62b8 4fb9 5db8 1187 7e38 fbf1 97b8
00000220: bd16 70b8 4a73 7db8 4b51 97b8 01d8 c1b8
00000230: 84d5 25b9 e2cd e837 2c16 0fb8 7e58 2bb8
00000240: 0cb9 fe37 e76e cfb6 3f0f 94b8 1e41 03b9
00000250: 7a41 c3b8 e593 6db8 3b10 2ab8 3f73 cdb8
00000260: 7f85 8437 2463 9fb8 355b 81b8 9840 b2b8
00000270: 1b4c f6b8 213b 0bb5 3df7 a137 a05b 55b8
00000280: a943 b538 1811 8638 340b efb7 a6c7 f8b8
00000290: a724 44b8 b6c2 afb7 536f bf38 1aaa 19b9
000002a0: c23e cbb8 b8e4 5cb9 c7fc 64b9 ffb6 44b8
000002b0: 57d7 99b9 70af 0338 32aa b5b8 86d9 07b9
000002c0: cda8 6e38 d053 9737 1051 39b9 ac09 9cb9
000002d0: 7812 f337 692b dbb8 d909 7db9 2a83 6bb7
000002e0: 84b9 8738 afd9 0fb7 d8a3 e338 c5e0 e0b8
000002f0: b208 dfb7 2f77 b937 5777 9838 9c3c 1939
00000300: 420e ccb8 fda0 92b9 c5b9 eeb8 f9f1 2338
00000310: 33cf 0ab9 b4ef 7eb7 00e6 98b9 8396 2738
00000320: 0903 e937 bc4d a036 50f0 4038 def8 bc35
00000330: 9d6d a338 8714 a1b9 f107 14b9 1767 03b6
00000340: 0c27 2fb9 44f5 95b9 2595 1e38 baad 3837
00000350: 5f2e 1537 ec0c 89b8 591a 1138 cbbe b738
00000360: 6126 a3b8 4a55 be36 8d48 6636 b03a a638
00000370: 3cd4 ca36 0719 3db9 2618 73b9 00dd 8bb8
00000380: 0000 0000 bbad cc29 0000 0000 e5bc 592a
00000390: 7b3e 7b2b 0000 0000 0000 0000 0000 0000
000003a0: ac25 fb2a 38d0 082b 9556 102b f07e a928
000003b0: 0e73 e22b e1d0 0d2b 8d79 8b2a 0000 0000
000003c0: 0000 0000 065d 632b 6d40 832a 8092 f92b
000003d0: 0000 0000 0000 0000 0000 0000 0000 0000
000003e0: 0000 0000 0000 0000 0000 0000 5540 1d2b
000003f0: 0000 0000 7cff 212b 0000 0000 0000 0000
-4.672295e-05 3.8184277e-07 1.8615758e-05 3.5523357e-05 6.4139467e-06 -4.4035696e-05 -1.1938257e-06 4.944528e-05
2.9831803e-05 0.0001107173 9.735337e-05 -5.9833063e-05 9.1802125e-05 1.8876417e-05 5.3287622e-05 6.0745297e-05
-2.5811453e-06 5.59347e-06 7.124172e-05 0.00011210319 -0.00010730841 3.9211405e-05 0.00014150007 -7.033423e-05
-3.934116e-05 -6.9544745e-05 -0.00014458396 1.0694107e-05 -9.641143e-05 2.7938302e-07 -3.815947e-05 -0.00015613614
-0.00015181016 -0.00021607913 -4.276807e-05 0.00011242157 -9.4661256e-05 -1.3503281e-05 -0.0002345277 0.00016412097
9.136052e-05 0.00020847007 0.00020679024 5.46997e-06 0.00021591198 -0.00019218946 3.1205802e-06 0.00013363366
-0.00013338885 -0.00021451217 0.00019695694 0.00025089958 -7.301304e-05 4.626482e-05 0.00027611107 -2.190536e-05
-0.00011263613 -2.8437307e-05 -0.0001752176 7.0289636e-05 -2.988087e-05 -0.00013706055 -0.00019529097 -0.0002512628
-6.5155626e-05 1.3760607e-09 3.604069e-05 6.251815e-05 9.9057725e-06 -4.2226446e-05 -2.2261636e-06 9.142833e-05
5.0772134e-05 0.00017528443 0.00015399553 -5.6020846e-05 0.00014307644 3.2433167e-05 9.1291506e-05 0.00010475894
-3.1567538e-06 8.304718e-06 0.00012165475 0.00018403426 -0.00012835431 7.5344884e-05 0.00021885257 -9.590129e-05
-5.4973203e-05 -7.7318306e-05 -0.00019664718 1.7191802e-05 -0.00010404053 6.74e-43 -4.0604853e-05 -0.00021496821
8.8020366e-05 0.00010284679 -5.3539567e-05 -0.00013585047 -4.7819245e-05 -5.7903697e-05 9.04581e-05 -0.00017228763
-0.00010986939 -0.0002767856 -0.0002731832 -7.90264e-05 -0.0003206808 6.670766e-05 -0.000103397804 -0.00016382354
1.7888971e-05 1.4642821e-05 -0.00021553712 -0.0003289638 4.5271438e-05 -0.00015118027 -0.00033800266 7.3587066e-06
8.027153e-05 -2.0298723e-05 0.00013118683 -0.00013422768 -4.2538624e-05 6.286759e-05 7.6529526e-05 0.00020300396
5.142712e-06 2.7575756e-05 -2.6036281e-05 -6.871747e-05 -5.3957996e-05 -5.2863088e-05 6.068411e-05 -7.2453135e-05
-5.7241636e-05 -6.0427272e-05 -7.215383e-05 -9.243191e-05 -0.00015815167 2.7752427e-05 -3.4114506e-05 -4.085199e-05
3.0365329e-05 -6.1819915e-06 -7.06003e-05 -0.00012517392 -9.3105205e-05 -5.664294e-05 -4.0546274e-05 -9.796628e-05
1.579779e-05 -7.600177e-05 -6.168188e-05 -8.499733e-05 -0.0001174437 -5.186758e-07 1.9307825e-05 -5.086849e-05
8.643355e-05 6.392802e-05 -2.8496237e-05 -0.00011862749 -4.6764177e-05 -2.0952295e-05 9.1283255e-05 -0.00014654585
-9.691484e-05 -0.0002106604 -0.00021837941 -4.690047e-05 -0.00029342875 3.1396223e-05 -8.662454e-05 -0.00012955637
5.690083e-05 1.8039631e-05 -0.00017673173 -0.00029761845 2.8976458e-05 -0.000104508195 -0.00024131629 -1.40376305e-05
6.4718566e-05 -8.574148e-06 0.00010854722 -0.00010723019 -2.658772e-05 2.2109218e-05 7.2701536e-05 0.00014613796
-9.730134e-05 -0.00027967236 -0.00011383327 3.9087583e-05 -0.00013237893 -1.519539e-05 -0.00029163063 3.9956078e-05
2.7777178e-05 4.777421e-06 4.6000176e-05 1.4079521e-06 7.792863e-05 -0.00030723607 -0.00014117338 -1.9580527e-06
-0.00016703847 -0.00028602232 3.7809037e-05 1.10077035e-05 8.891889e-06 -6.535076e-05 3.4595232e-05 8.761658e-05
-7.779594e-05 5.67237e-06 3.43149e-06 7.926428e-05 6.0447765e-06 -0.00018033768 -0.00023183282 -6.669201e-05
0.0 9.089557e-14 0.0 1.9339008e-13 8.925982e-13 0.0 0.0 0.0
4.4612697e-13 4.860587e-13 5.1279234e-13 1.881782e-14 1.60902e-12 5.038314e-13 2.4775703e-13 0.0
0.0 8.0775696e-13 2.331498e-13 1.7733176e-12 0.0 0.0 0.0 0.0
0.0 0.0 0.0 5.5866883e-13 0.0 5.7553246e-13 0.0 0.0

exp_avg_sq f4 [16, 32]
00000000: b5dc 4235 cc1e 5634 8cc0 0e35 13fb 7034
00000010: 7bc5 6033 c8b2 1437 4a69 2634 339d a535
00000020: 6fb9 8633 2c52 4a35 0c40 aa35 b45a 5b37
00000030: 23fb a235 3ec1 0f34 30c5 e134 c1e5 7c35
00000040: bb18 2634 cd1b 6334 b227 0c36 148a e535
00000050: 5ca3 ce36 4ca1 9835 c1c3 5335 10a1 8f35
00000060: 4e5d cb34 1063 9636 b8e5 0337 b390 9933
00000070: 85b3 6d37 6454 ef32 041b 4735 587a 2036
00000080: a353 3b37 c3c6 a337 d704 5d37 06ab a936
00000090: 12dd d136 571b 4638 ea14 b637 5613 2b37
000000a0: 4194 3e36 f1ac 0137 b82a 5f37 cf5f 8338
000000b0: ba3e 6037 6d3c 9037 107c 0337 a0a1 1937
000000c0: 0fb8 4837 b02d c837 a4c9 2e37 e521 4737
000000d0: 28ea dc37 3f91 4937 a4c9 f736 c734 b636
000000e0: ecf7 c736 ae4b 8f37 8858 1438 0033 4836
000000f0: 4032 7438 338f 6d36 30aa 9e37 eaaa da37
00000100: 1012 3e36 1241 9d35 3609 5136 6f14 ad36
00000110: a22d c335 8e09 d837 fe49 4e34 44f7 c136
00000120: a68e f834 63b9 8936 baed 3737 5418 1838
00000130: 93e8 6e37 065c 0a35 83ab 0636 3baa b536
00000140: ead7 6a35 0f91 2c36 c18f d536 5307 de36
00000150: f41d 9037 ccd8 d236 e7a9 4a36 2bd1 6f36
00000160: 483f 0a36 a139 4637 e4c6 bd37 4771 9035
00000170: 8684 1b38 0978 5134 b926 5036 b397 e936
00000180: a69f 2c36 4f8e 1d36 d831 e836 ff57 a136
00000190: d0c8 2b36 2bfc 5a37 c86d ed35 4288 1a37
000001a0: 5d9a 4a36 49cb 1b37 7ff4 8b37 d436 cd37
000001b0: 09fe d437 41ce dc35 7d15 c836 be8e 3037
000001c0: e3ea a035 e124 9436 3f8e 2437 a94b 7c37
000001d0: 856e 8837 ce71 3037 7af6 a036 7ca7 6536
000001e0: a6c1 1835 acb7 1637 ed48 0037 c05a 0236
000001f0: 38bb 0838 1d74 7c35 5bb4 6c36 e31d 7036
00000200: 12ba d635 2a19 9036 6c50 ff36 947e 8436
00000210: 3a2a 9836 1b27 b136 05e8 af36 e17e 8036
00000220: cd31 0536 578d 9b36 b94c 0337 fda2 6037
00000230: 0a97 b537 c7fb 6936 b9d6 8536 3ad3 8936
00000240: 0ac9 5a36 dd79 1937 b3f0 5436 1586 0e37
00000250: 75d8 8236 20a5 f236 b646 3a36 9597 8336
00000260: 0df2 1a35 4aef 3e36 07f0 8a36 e7b7 4d36
00000270: bee6 8b37 3288 ab35 dc8a 9b36 63fd c235
00000280: 55fd de35 3b77 2236 7cad 8936 72d7 2f36
00000290: 9fb0 3536 2973 be36 442e 3f36 7204 9236
000002a0: 3729 d135 ae9e 9636 7749 0437 3e35 2f37
000002b0: 5d91 7837 6619 0f36 95b9 4936 3f78 9036
000002c0: 7a83 f535 b825 a736 dd7a 8e36 cc9d 0a37
000002d0: 92ac e436 87ba c736 5979 4036 f222 fe35
000002e0: 0a64 5034 c2b1 8236 6c8d 3b36 d746 0236
000002f0: 8a01 6637 7598 5c35 bc91 3336 e7c7 0b36
00000300: 0072 d536 4a47 3738 2193 d937 64de ad35
00000310: e505 0d37 78b7 2b35 af6a 3a38 8d58 e735
00000320: 9870 9135 e706 e336 6364 a535 eec8 2c35
00000330: bf2c a836 6a49 0f38 7bfc 2f37 20aa fa35
00000340: 1b3f 6637 2b54 4138 0221 3c35 66c9 c835
00000350: a180 7e34 c7a2 1337 95a4 1436 aae8 b135
00000360: cc31 9a35 177d 8534 152f 8633 f652 4236
00000370: 73f8 1034 c62c bc36 2d77 8637 3ad8 4d37
00000380: 0000 0000 4a2d dc31 0000 0000 c06a 4932
00000390: 1d59 5633 0000 0000 0000 0000 0000 0000
000003a0: 7979 1232 27d8 3e2e 4ace 822e 53ad 1b2c
000003b0: 2d8b f233 4f6d 5e33 15fd 8930 0000 0000
000003c0: 0000 0000 eb7a b933 abef db2b 179a 1534
000003d0: 0000 0000 0000 0000 0000 0000 0000 0000
000003e0: 0000 0000 0000 0000 0000 0000 5474 4231
000003f0: 0000 0000 d145 6532 0000 0000 0000 0000
7.25918e-07 1.9941507e-07 5.3179315e-07 2.2443082e-07 5.233367e-08 8.863113e-06 1.5498259e-07 1.2339209e-06
6.2735914e-08 7.537044e-07 1.2684627e-06 1.3074536e-05 1.2143031e-06 1.3388214e-07 4.205299e-07 9.421165e-07
1.5468952e-07 2.1151136e-07 2.0884731e-06 1.7102016e-06 6.158296e-06 1.1371826e-06 7.8888485e-07 1.0701206e-06
3.7879585e-07 4.4818808e-06 7.861694e-06 7.150938e-08 1.41680985e-05 2.7861638e-08 7.417259e-07 2.3913071e-06
1.1165542e-05 1.952367e-05 1.3173753e-05 5.0565022e-06 6.2544214e-06 4.723234e-05 2.170583e-05 1.0196896e-05
2.8398501e-06 7.729265e-06 1.3301782e-05 6.2644125e-05 1.3366045e-05 1.7194276e-05 7.837094e-06 9.157142e-06
1.1963783e-05 2.3863133e-05 1.0418156e-05 1.1869216e-05 2.6335081e-05 1.2014351e-05 7.3846477e-06 5.4301668e-06
5.959524e-06 1.708217e-05 3.53684e-05 2.9832008e-06 5.8220932e-05 3.5399105e-06 1.8914317e-05 2.6067213e-05
2.832272e-06 1.171635e-06 3.1148788e-06 5.1581806e-06 1.4541913e-06 2.5753656e-05 1.9212163e-07 5.7806337e-06
4.629739e-07 4.1045e-06 1.0963e-05 3.626228e-05 1.4240056e-05 5.154292e-07 2.006739e-06 5.414038e-06
8.748599e-07 2.5714432e-06 6.36463e-06 6.616968e-06 1.7180086e-05 6.283726e-06 3.0199242e-06 3.5735527e-06
2.0600437e-06 1.1815137e-05 2.2623171e-05 1.0761804e-06 3.7078302e-05 1.950831e-07 3.1016955e-06 6.9616012e-06
2.5722925e-06 2.3477658e-06 6.9199414e-06 4.808418e-06 2.5597874e-06 1.3052525e-05 1.7689827e-06 9.21084e-06
3.0190197e-06 9.286051e-06 1.6683944e-05 2.4463436e-05 2.5390664e-05 1.6451305e-06 5.962966e-06 1.0523652e-05
1.198929e-06 4.415037e-06 9.808281e-06 1.50379865e-05 1.6263928e-05 1.0516915e-05 4.7970652e-06 3.4221148e-06
5.690621e-07 8.983461e-06 7.646374e-06 1.9424333e-06 3.2599288e-05 9.404628e-07 3.527172e-06 3.5780183e-06
1.5998396e-06 4.294464e-06 7.6089545e-06 3.948642e-06 4.534869e-06 5.2795635e-06 5.242417e-06 3.829468e-06
1.9847532e-06 4.635814e-06 7.826072e-06 1.3389389e-05 2.1647214e-05 3.486626e-06 3.988706e-06 4.107508e-06
3.2601552e-06 9.147884e-06 3.1730567e-06 8.495078e-06 3.899501e-06 7.231385e-06 2.775732e-06 3.9217507e-06
5.77217e-07 2.845149e-06 4.1406633e-06 3.0654426e-06 1.6677539e-05 1.2780131e-06 4.6355253e-06 1.4527872e-06
1.6614018e-06 2.4209282e-06 4.1031144e-06 2.6202438e-06 2.7073909e-06 5.6758477e-06 2.8488148e-06 4.3516566e-06
1.5583709e-06 4.488821e-06 7.884918e-06 1.0443209e-05 1.4815797e-05 2.1323444e-06 3.0059357e-06 4.305533e-06
1.8292187e-06 4.981379e-06 4.246233e-06 8.262181e-06 6.8150193e-06 5.952377e-06 2.8680863e-06 1.8934645e-06
1.9407904e-07 3.8949956e-06 2.794749e-06 1.9412744e-06 1.3709427e-05 8.217824e-07 2.6757907e-06 2.0828973e-06
6.361166e-06 4.3696993e-05 2.5936928e-05 1.2954229e-06 8.405627e-06 6.3969446e-07 4.4445213e-05 1.7236613e-06
1.0836111e-06 6.7659307e-06 1.2322674e-06 6.4367384e-07 5.0119993e-06 3.416223e-05 1.0489598e-05 1.8675964e-06
1.3723761e-05 4.6093173e-05 7.008349e-07 1.4959776e-06 2.3702388e-07 8.799782e-06 2.2149518e-06 1.3255242e-06
1.1488387e-06 2.4864195e-07 6.2484254e-08 2.8956542e-06 1.350143e-07 5.608049e-06 1.602954e-05 1.2269296e-05
0.0 6.4079915e-09 0.0 1.1724012e-08 4.9906806e-08 0.0 0.0 0.0
8.525938e-09 4.339298e-11 5.94836e-11 2.212304e-12 1.1294319e-07 5.178782e-08 1.0039992e-09 0.0
0.0 8.6370925e-08 1.5627407e-12 1.3932764e-07 0.0 0.0 0.0 0.0
0.0 0.0 0.0 2.829684e-09 0.0 1.3345429e-08 0.0 0.0

exp_avg f4 [16]
00000000: ab95 0e37 a52b 94b8 2e50 1a38 220a cbb8
00000010: 9432 a6b8 3593 c1b8 ce3d 4bb9 aae1 5e2b
00000020: bcb3 0eb9 b489 02b9 5320 2ab9 e7f6 ef35
00000030: 14f9 28b9 bb1a eab8 9473 ebb8 2959 c5b8
8.498707e-06 -7.0653194e-05 3.6791134e-05 -9.681682e-05 -7.924918e-05 -9.2303766e-05 -0.00019382613 7.9183415e-13
-0.00013609132 -0.00012449065 -0.00016224505 1.7878746e-06 -0.00016114517 -0.000111629684 -0.00011227201 -9.4102994e-05

exp_avg_sq f4 [16]
00000000: 2025 9a36 e445 8238 34b0 b537 5c96 b737
00000010: 3f54 b437 5b83 2937 0dd1 0238 2a5a 8833
00000020: db4f 5938 ac7f a838 bfac e238 f5eb 3137
00000030: 04da 5338 6a10 4537 9091 cd37 a356 e938
4.5938796e-06 6.211901e-05 2.1658932e-05 2.1885317e-05 2.1496902e-05 1.0103769e-05 3.118911e-05 6.349394e-08
5.1811203e-05 8.034645e-05 0.00010808696 1.060496e-05 5.0509363e-05 1.1745937e-05 2.4505687e-05 0.00011126443

exp_avg f4 [3, 16]
00000000: b1d0 c539 09a5 55ba a2cf 4839 3145 e939
00000010: 0c6c 413a 9c76 2e3a 32d6 8eba 0284 bb26
00000020: 7940 8bba d83c 063a 2e6c 0bba 7f42 8439
00000030: 271a c2b9 0166 2c3a 5468 ffb9 5f6f 223a
00000040: 92ea 653a 4e7c bf3a bf69 173a da3d a7ba
00000050: 2b74 37ba f1bb ddba a0ae 623a 99cd c8a6
00000060: f081 b33a 7110 abba a1fd 0fb9 5cd3 283a
00000070: 6e8e f0b9 180a b2ba 0305 3bb9 9176 13ba
00000080: 0569 a4ba 7c53 29ba 229d 49ba 6cd9 593a
00000090: f06d 1fb8 ea80 863a 3bf5 6b39 1c88 d424
000000a0: 4206 a1b9 77e4 4f3a 826b 2f3a 02f4 6aba
000000b0: 5b54 593a a8ae 373a 5a75 2e3a f07e 6fb8
0.00037730255 -0.00081498973 0.00019150836 0.00044492775 0.0007378466 0.00066552474 -0.0010897575 1.3011512e-15
-0.0010624073 0.0005120761 -0.0005318549 0.00025226545 -0.00037022048 0.0006576479 -0.0004871512 0.0006196405
0.00087706104 0.0014609189 0.000577595 -0.0012759522 -0.00069982064 -0.0016916973 0.0008647237 -1.3933515e-15
0.0013695341 -0.0013051165 -0.00013732027 0.00064401864 -0.00045882486 -0.001358333 -0.00017835577 -0.0005625273
-0.0012543505 -0.00064592785 -0.0007690956 0.00083102915 -3.801094e-05 0.0010261808 0.00022502702 9.217092e-17
-0.00030712975 0.0007930467 0.000669174 -0.00089627516 0.0008290463 0.0007006922 0.000665506 -5.710026e-05

exp_avg_sq f4 [3, 16]
00000000: 237d 1239 9af4 b939 58da 2f38 cd27 0438
00000010: 8e7a 7d39 2c95 cd38 fe33 cc39 4a4d 6b2c
00000020: 1c05 503a 3b42 4b39 f8cb ae39 0921 6238
00000030: 84a0 0339 5694 e438 8972 5539 16b1 9739
00000040: a787 013a 89c7 253a 97e2 d738 8d67 1a39
00000050: 4039 a939 24c3 cc39 2d48 2639 a8ad 252d
00000060: bf6c a739 8095 173a ee51 1639 ec96 1239
00000070: 69c5 0b39 2414 cd39 ee56 e038 deb4 b639
00000080: 02a7 7f3a 5d32 5939 7da6 4d39 e6b2 b838
00000090: 5c84 e839 81a5 0e39 1d39 8438 bedd db2b
000000a0: 7d2c 0f39 5f3a 2a39 d2ae 8539 a7e1 a039
000000b0: 026c e938 39c5 f438 3f89 2939 605f 2a3a
0.00013970262 0.00035468192 4.19266e-05 3.150832e-05 0.00024173615 9.802947e-05 0.0003894865 3.3438413e-12
0.00079353317 0.00019384261 0.00033339835 5.3913365e-05 0.0001255293 0.00010899517 0.0002035593 0.00028932904
0.0004941173 0.00063239835 0.000102942045 0.0001472516 0.00032276846 0.00039055303 0.00015857881 9.4177235e-12
0.00031933744 0.000578247 0.00014335636 0.00013979868 0.00013329614 0.00039115653 0.00010697344 0.00034848502
0.0009752364 0.00020713494 0.00019612345 8.807126e-05 0.00044349104 0.0001360383 6.304889e-05 1.5622432e-12
0.00013654116 0.00016234208 0.00025497988 0.00030685702 0.00011130424 0.00011671562 0.00016168224 0.00064991973

exp_avg f4 [3]
00000000: fc59 21b9 b8c4 1a38 ce52 f538
-0.00015387678 3.689967e-05 0.00011697934

exp_avg_sq f4 [3]
00000000: 74ba ab39 267f db39 427a f039
0.0003275458 0.00041865668 0.00045867456
